data/pretrained_models/acceptor-2.pt (torch, 247597 bytes, 14 tensors)

weight f4 [100, 4, 23]
0	0x3e9313c9	0.28726032
1	0xbe642513	-0.22279768
2	0x3d247e81	0.040159706
3	0x3dd35cd2	0.103204384
4	0x3e99cb59	0.30037954
5	0x3d64fb8f	0.055903967
6	0x3b6ded51	0.0036304782
7	0xbe081244	-0.13288218
8	0xbc3afa74	-0.011412252
9	0xbe92360a	-0.28556854
10	0x3e3925dd	0.1808085
11	0xbe8f04a2	-0.27933222
12	0x3ec149a6	0.37751502
13	0x3f1e9ca5	0.6195777
14	0xbee0fd9d	-0.43943492
15	0x3ea9e7c8	0.33184648
16	0xbc398d24	-0.011325154
17	0x3eb1303e	0.34607118
18	0xbdf7c8e8	-0.12098867
19	0x3ec27c19	0.37985304
20	0xbeb06095	-0.34448686
21	0xbdb4b30c	-0.08823213
22	0x3dd074f0	0.10178554
23	0x3d15d7b6	0.03658267
24	0xbdc3bb90	-0.09557259
25	0xbdb9e2ef	-0.09076487
26	0x3d468a6f	0.048471864
27	0xbae0cf42	-0.0017151611
28	0xbdc44897	-0.09584158
29	0xbcc10bb3	-0.023565149
30	0x3d9ced7d	0.07662485
31	0xbc8d20e6	-0.017227601
32	0x3e72232d	0.23646231
33	0x3dfc5aa6	0.12321977
34	0xbe47a3f7	-0.19496141
35	0xbe07a6b9	-0.13247193
36	0xbde6b0fe	-0.11264227
37	0xbd4be287	-0.04977658
38	0xbdf5f866	-0.12010269
39	0x3e2d07f4	0.16897565
40	0xbe7f479a	-0.24929658
41	0xbe749c68	-0.23887789
42	0x3f130d8e	0.5744256
43	0x3ebb32a9	0.36562088
44	0x3e112685	0.1417485
45	0x3e29bdb9	0.1657628
46	0x3ea62902	0.3245316
47	0x3ec9deea	0.39427882
48	0x3e2ba4f2	0.1676214
49	0x3d891b77	0.06694692
50	0x3d7e1d08	0.062039405
51	0x3c35e190	0.011101142
52	0x3e91eef2	0.28502613
53	0x3deec990	0.11659539
54	0xbe1ba70a	-0.15200439
55	0x3e9ec5dd	0.31010333
56	0xbd82db03	-0.063894294
57	0xbd8300d5	-0.06396643
58	0x3e15e882	0.14639476
59	0x3ddd8b59	0.10817594
60	0x3eee33b6	0.46523827
61	0x3e7afa36	0.2450951
62	0xbd076457	-0.033054676
63	0x3f2fe8e2	0.68714726
64	0x3e9e92cb	0.3097137
65	0xbdd875c7	-0.10569339
66	0xbd99eff2	-0.07516469
67	0xbe032d7f	-0.12810324
68	0xbdd645ac	-0.104625076
69	0xbea8e914	-0.32990324
70	0xbe013d59	-0.12621059
71	0x3e0e725a	0.13910809
72	0xbe34fd81	-0.17674829
73	0xbe246733	-0.16054992
74	0x3db2c70b	0.08729371
75	0xbdd5ade4	-0.10433558
76	0xbda78ee9	-0.08181555
77	0xbce52aa5	-0.027974436
78	0xbea5c8e5	-0.32379833
79	0xbdfd83ed	-0.123786785
80	0x3eb4bb76	0.3529927
81	0xbe94c9c1	-0.29060176
82	0xbf0f82c9	-0.5605894
83	0x3c808ab0	0.015691131
84	0xbdc7ea68	-0.09761506
85	0xbe42a412	-0.190079
86	0xbb25414d	-0.0025215924
87	0x3e86109a	0.2618454
88	0xbe1b36d4	-0.15157634
89	0xbe450362	-0.19239572
90	0xbd1b6d9a	-0.03794632
91	0xbe9312b0	-0.28725195
92	0xbe3367f1	-0.17520119
93	0xbee3d94a	-0.44501716
94	0xbeb8edb9	-0.36118868
95	0xbe92fd74	-0.28708994
96	0xbd0cb619	-0.03435335
97	0xbe9ae93c	-0.3025607
98	0xbeaad63f	-0.33366582
99	0xbe1205a1	-0.1425996
100	0x3d8458ca	0.06462248
101	0x3e3ac81e	0.18240401
102	0x3d5e3290	0.05424744
103	0x3dd29dd5	0.1028401
104	0x3e320c79	0.1738757
105	0x3e2f1392	0.17097309
106	0x3ea33fea	0.318847
107	0x3e81eede	0.25377554
108	0xbe0d367d	-0.13790317
109	0x3c8341a7	0.016022516
110	0x3e2270d4	0.15863353
111	0xbf200e8c	-0.62522197
112	0xbdeecb2e	-0.11659847
113	0x3dd2fbcf	0.10301935
114	0xbd51781e	-0.051139943
115	0x3db7dd65	0.089777745
116	0x3e1ee3aa	0.15516534
117	0x3dad64ba	0.08466478
118	0x3e03540a	0.12825027
119	0x3db146b2	0.08656062
120	0x3e09f6bb	0.13473026
121	0x3e416e03	0.18889622
122	0x3e13c3ca	0.14430156
123	0x3e5bf9aa	0.21481958
124	0x3ea4ba9d	0.32173625
125	0x3ec22a8a	0.3792308
126	0x3eb4ce8d	0.35313836
127	0x3ecb2326	0.39675254
128	0x3d3ed3b7	0.046588626
129	0xbd6eb380	-0.058276653
130	0xbc9822be	-0.018571254
131	0x3e8ad398	0.27114558
132	0xbe1a6e91	-0.1508124
133	0xbf6a8c3f	-0.9162025
134	0x3df5ef6d	0.120085575
135	0xbe32f57f	-0.17476462
136	0xbdf005ea	-0.11719878
137	0x3b981566	0.004641223
138	0xbafd1e04	-0.0019311314
139	0xbe2e2be5	-0.17008932
140	0xbe5c70b2	-0.21527365
141	0xbe217908	-0.15768826
142	0xbed99c49	-0.4250205
143	0xbef712b1	-0.48256448
144	0xbeba5fdc	-0.3640126
145	0xbe9920a6	-0.2990772
146	0xbeb6ed2f	-0.35727832
147	0xbeafe4ef	-0.3435435
148	0xbeedb201	-0.4642487
149	0xbe2a939e	-0.16657874
150	0xbe60ab45	-0.21940334
151	0x3d64420b	0.055727046
152	0x3e1f9884	0.15585524
153	0xbf1066f7	-0.5640711
154	0xbea754c1	-0.3268185
155	0xbe6d6949	-0.23184694
156	0xbf427f39	-0.75975376
157	0x3cef3724	0.029201098
158	0x3e64076f	0.2226846
159	0x3c698fbf	0.014255463
160	0xbe201165	-0.15631635
161	0x3de48086	0.111573264
162	0x3d9759bb	0.073901616
163	0x3dd863b4	0.10565892
164	0x3d77f105	0.06053259
165	0x3e3137b6	0.17306408
166	0x3e04b7d8	0.12960756
167	0x3d4c37d5	0.049857933
168	0xbdf366d2	-0.11884846
169	0xbe904ec1	-0.28185084
170	0xbebd0eb6	-0.36925286
171	0xbef33a5c	-0.47505462
172	0xbee22e22	-0.44175822
173	0xbef7dfd7	-0.48412964
174	0xbedf3065	-0.4359161
175	0xbebb5748	-0.36590028
176	0xbd8ffa3f	-0.070301525
177	0xbd8f2e58	-0.06991261
178	0x3e3f9635	0.18709643
179	0xbf1eb4d2	-0.6199466
180	0xbefe5a1f	-0.49678132
181	0x3ae533f3	0.0017486796
182	0x3de7a196	0.11310117
183	0x3cb76858	0.022388622
184	0x3ecfc402	0.4057923
185	0xbe044b46	-0.1291934
186	0x3bb9fd9f	0.005675986
187	0xbde3ee83	-0.11129477
188	0xbcd7d8ce	-0.026348498
189	0x3e2e2c2d	0.17009039
190	0x3da925fb	0.08259197
191	0xbad3df8c	-0.0016164645
192	0x3d2c9e97	0.04214343
193	0x3e3c7250	0.18402982
194	0x3e47efc4	0.19525057
195	0x3e3e45ef	0.18581365
196	0x3d3d0af1	0.046153013
197	0x3e20a12e	0.15686485
198	0x3c9e7f73	0.019347882
199	0x3ef292ef	0.47377726
200	0xbf11c3af	-0.56939214
201	0x3e44ee36	0.19231495
202	0xbe193aad	-0.1496379
203	0xbf1697fe	-0.5882567
204	0x3d0af5b0	0.033925712
205	0x3da91332	0.08255614
206	0xbd29a235	-0.04141446
207	0xbe9f9cf0	-0.3117442
208	0xbe9c55cd	-0.3053421
209	0xbd8808e5	-0.066423215
210	0xbbdd5543	-0.0067545488
211	0x3d1bb436	0.03801366
212	0x3db7f35f	0.08981966
213	0xbe0ca802	-0.13735965
214	0xbd5a40ca	-0.053284444
215	0x3ccc95c1	0.024973752
216	0xbdf606e0	-0.1201303
217	0xbe309be4	-0.17246968
218	0xbddf37c3	-0.108993076
219	0x3dcd278b	0.10017308
220	0xbe4b39d2	-0.19846275
221	0xbed7c09c	-0.42139137
222	0x3d8663f9	0.06562037
223	0x3e14815f	0.14502476
224	0xbc4de76f	-0.012567385
225	0xbe51feba	-0.20507327
226	0xbecb6c93	-0.39731273
227	0xbbda611f	-0.00666441
228	0x3dfdf22c	0.12399706
229	0xbe569fd3	-0.20959406
230	0x3d35dbec	0.044399187
231	0x3f193de9	0.5986009
232	0x3e4f4779	0.20242108
233	0xbe65cc0f	-0.22441123
234	0xbe3c2c90	-0.18376374
235	0x3bc63238	0.006048467
236	0x3de65e48	0.112484515
237	0x3c60a443	0.013711038
238	0x3dbe909d	0.093049265
239	0xbe11ed1d	-0.14250608
240	0x3b8e9a01	0.004351855
241	0x3e37f367	0.17963944
242	0xbdb86c98	-0.090050876
243	0xbec51325	-0.3849117
244	0x3f2d149d	0.6760958
245	0x3e9bb27d	0.30409613
246	0x3e9fd9ee	0.31220955
247	0xbeda9885	-0.42694488
248	0x3f20c5ed	0.6280201
249	0xbd4888a2	-0.04895843
250	0xbc2f4a37	-0.010698847
251	0xbd8cf8da	-0.06883402
252	0x3ddb036c	0.10694012
253	0xbf0a7ba2	-0.540949
254	0xbee2cd6f	-0.44297358
255	0xbd1b74cb	-0.03795318

bias f4 [100]
0	0x3e25e4da	0.16200581
1	0xbe11efe0	-0.14251661
2	0x3e00c8db	0.1257662
3	0xbc66e023	-0.014091524
4	0xbd4b2f6d	-0.049605776
5	0x3e8b7c8f	0.27243468
6	0x3c0956bd	0.008382496
7	0x3e6cbb62	0.23118356
8	0xbe1e75fa	-0.15474692
9	0xbda0acdb	-0.078454696
10	0xbd40dfe2	-0.04708851
11	0x3e8988d8	0.26862216
12	0xbd5be4ce	-0.053685002
13	0x3e41568f	0.18880676
14	0x3d2ff6c1	0.042959932
15	0x3e19c2eb	0.15015762
16	0x3cd92341	0.026506068
17	0x3e1be0e4	0.15222508
18	0x3ed4d50b	0.4156879
19	0x3cce9887	0.025219215
20	0xbcb98acd	-0.022649193
21	0x3e5628a5	0.20913942
22	0xbd701b8e	-0.05862003
23	0xbdd1eb7a	-0.10249992
24	0x3d98a995	0.0745422
25	0x3d36d254	0.04463418
26	0x3e028d3b	0.12749188
27	0xbcdb8985	-0.026798973
28	0x3f2c68cd	0.67347413
29	0xbd429e22	-0.04751409
30	0x3e12593c	0.14291853
31	0x3d415cc6	0.047207616
32	0x3e009030	0.12555003
33	0x3d2f15df	0.042745467
34	0x3d886bf7	0.06661218
35	0xbdcb325e	-0.09921716
36	0x38a9efd4	8.1032194e-05
37	0x3d0fbadf	0.035090324
38	0x3df9f0c5	0.12204126
39	0xbd8dee6f	-0.06930243
40	0xbe317808	-0.17330945
41	0xbda3466b	-0.079724155
42	0xbbba3f35	-0.0056838044
43	0xbba32df8	-0.004979845
44	0x3de347eb	0.11097702
45	0xbd7b554f	-0.061360653
46	0xbcac7826	-0.021053385
47	0x3d6090f4	0.054825738
48	0x3dfcb3fb	0.12339016
49	0x3e9a5328	0.30141568
50	0xbcdeacc1	-0.027181985
51	0xbde7b013	-0.1131288
52	0x3d02fdb2	0.031980224
53	0x3e6ccca4	0.23124939
54	0x3d959563	0.07303884
55	0x3e0c2c54	0.13688785
56	0xbe8488b0	-0.25885534
57	0xbd3e320b	-0.046434443
58	0x3caa041a	0.020753909
59	0x3dc295e2	0.09501244
60	0xbd164bbc	-0.03669332
61	0xbd90a90b	-0.070634924
62	0x3e17a3c7	0.1480857
63	0xbc90b7db	-0.017665794
64	0x3d027668	0.031851202
65	0x3db54793	0.08851542
66	0x3dc9b9d2	0.098498955
67	0x3e205356	0.1565679
68	0xbe06dfd4	-0.13171321
69	0xbc641de7	-0.013923145
70	0x3d9a92ea	0.07547553
71	0xbcab6dde	-0.020926412
72	0x3d9306d8	0.0717904
73	0x3d12cfa7	0.035842564
74	0xbd99414e	-0.07483159
75	0xbdd06754	-0.10175958
76	0x3dd9a63f	0.10627412
77	0xbcb2c00f	-0.021820096
78	0xbd9fa99e	-0.07796024
79	0xbcdabb74	-0.026700713
80	0xbde7333a	-0.112890676
81	0xbe025992	-0.12729481
82	0xbd345773	-0.04402871
83	0xbd5a2ff1	-0.053268377
84	0x3e44897e	0.19193074
85	0x3ddc3830	0.107529044
86	0x3e236a9c	0.15958637
87	0x3e416af6	0.18888459
88	0xbdc722e2	-0.0972345
89	0x3cff14d8	0.031137869
90	0xbe05e24e	-0.1307461
91	0xbd2330aa	-0.03984133
92	0x3ddef172	0.10885896
93	0x3db548a5	0.088517465
94	0x3bd3d48b	0.006464546
95	0x3da1f7d9	0.07908601
96	0xbe0f7756	-0.14010367
97	0x3e071f1f	0.13195466
98	0xbdab2a82	-0.08357717
99	0x3cf409d6	0.029789846

weight f4 [100, 100, 1]
0	0xbe4f2574	-0.20229131
1	0x3dd102ac	0.10205588
2	0x3d2b66ec	0.0418462
3	0x3ec43d44	0.38327992
4	0xbe5322dd	-0.20618768
5	0x3ea025cc	0.31278837
6	0x3dc2d141	0.09512568
7	0x3daac69b	0.08338662
8	0x3ea26c51	0.31723264
9	0xbd582a57	-0.052774753
10	0x3e8822dd	0.265891
11	0x3de112b1	0.10989893
12	0xbe2254fa	-0.15852728
13	0x3d9b2779	0.07575888
14	0x3d6c2a87	0.057657745
15	0xbd59bdae	-0.05315941
16	0xbe20d8e4	-0.15707737
17	0xbdc9f73f	-0.098616116
18	0x3e114d3b	0.14189617
19	0xbe410437	-0.18849264
20	0xbeb79272	-0.35853916
21	0xbd57fe50	-0.052732766
22	0xbefd2005	-0.4943849
23	0x3d32f5c4	0.04369141
24	0x3d7d93fb	0.061908703
25	0xbd6a3db3	-0.057187747
26	0xbe101202	-0.1406937
27	0xbbdd0059	-0.006744426
28	0x3f18435e	0.59477794
29	0xbd2d0687	-0.042242553
30	0xbe1afecf	-0.15136264
31	0x3e0a59f7	0.13510881
32	0x3ebcc35b	0.36867794
33	0xbda1243b	-0.078682385
34	0xbb340654	-0.0027469592
35	0xbe61e938	-0.22061622
36	0xbe67c96b	-0.22635429
37	0xbe34c5ea	-0.17653623
38	0x3b91c0b2	0.00444802
39	0x3d232720	0.039832234
40	0x3ebb6d77	0.36606953
41	0xbd861bc2	-0.06548263
42	0x3e517749	0.2045566
43	0xbe62d811	-0.22152735
44	0xbe79fef4	-0.24413663
45	0xbe99fec0	-0.3007717
46	0xbe5887f2	-0.21145609
47	0x3e0b4e2d	0.1360404
48	0xbe0d307d	-0.13788028
49	0xbeae358e	-0.34025234
50	0xbe08cd1b	-0.13359492
51	0xbe6b85c6	-0.2300025
52	0xbcfcc0c4	-0.030853637
53	0x3f0094cc	0.50227046
54	0xbe4ba55e	-0.19887301
55	0xbecd3592	-0.40079933
56	0x3cfefc79	0.031126248
57	0x3e096944	0.13419062
58	0x3ecea020	0.4035654
59	0xbe1fc81a	-0.15603676
60	0x3c81d1d1	0.015847119
61	0xbded6b46	-0.115927264
62	0xbe8363c1	-0.25662044
63	0x3ea602ce	0.32424015
64	0xbdf044ff	-0.1173191
65	0x3e7f1acd	0.24912567
66	0xbe065fdc	-0.13122505
67	0x3e73c284	0.2380467
68	0xbd8cbed6	-0.068723366
69	0xbe1fa500	-0.15590286
70	0x3d298248	0.04138401
71	0xbc2e205b	-0.010627831
72	0xbe488de4	-0.19585377
73	0x3e6a17d4	0.22860652
74	0xbed6d6d6	-0.41960782
75	0xbe992a50	-0.29915094
76	0x3e9e4ed5	0.3091952
77	0xbdd7c77f	-0.10536098
78	0x3e24a879	0.16079892
79	0x3cfee39f	0.031114398
80	0xbca3184f	-0.019909052
81	0xbe4a7444	-0.19770914
82	0x3d5ba00d	0.053619433
83	0x3cfc2005	0.030776987
84	0xbe182c65	-0.14860685
85	0x3dd90240	0.10596132
86	0x3e874047	0.26416227
87	0xbe9988c6	-0.29987162
88	0xbcbecd94	-0.023291387
89	0xbb8663c6	-0.0041012494
90	0xbe877e6c	-0.2646364
91	0xbd4b97fc	-0.04970549
92	0x3e5cf497	0.21577679
93	0x3e8dd9f7	0.27705356
94	0xbe54468d	-0.20730038
95	0xbd42e21b	-0.047578912
96	0xbc86a270	-0.016434878
97	0xbe113549	-0.14180483
98	0x3e0c482c	0.13699406
99	0xbe301ac9	-0.17197718
100	0xbe160b45	-0.14652736
101	0x3d48b633	0.049001884
102	0x3e81fa2e	0.25386184
103	0xbece07bc	-0.40240276
104	0x3e6e4975	0.23270209
105	0x3cb308ef	0.021854846
106	0x3eb7c3a4	0.3589145
107	0x3dba610a	0.0910054
108	0xbd7baade	-0.06144225
109	0xbde3580d	-0.11100779
110	0x3e7497c9	0.23886026
111	0xbd1ad06c	-0.037796423
112	0x3e9e506c	0.30920732
113	0xbe113736	-0.14181218
114	0xbe0bc6cf	-0.13650058
115	0xbe6bddc3	-0.23033814
116	0xbd326dbe	-0.04356169
117	0xbec71be4	-0.38888466
118	0x3e93dd2a	0.28879672
119	0xbbbd38d7	-0.005774598
120	0x3c3592f2	0.011082398
121	0xbcdc0152	-0.026856098
122	0x3e391a01	0.18076326
123	0xbdd8c678	-0.1058473
124	0x3d7512d0	0.059832394
125	0xbe9546b7	-0.29155514
126	0xbd2e2054	-0.0425113
127	0xbe84016e	-0.2578234
128	0x3e881d21	0.26584724
129	0xbea25098	-0.31702113
130	0xbe8a63bb	-0.27029213
131	0xbecfa969	-0.40558937
132	0xbe27eb86	-0.16398439
133	0xbda0077e	-0.07813929
134	0x3e24ddb0	0.16100192
135	0xbcaee901	-0.02135134
136	0x3d3fe788	0.046851665
137	0xbd221b6e	-0.03957694
138	0xbeed7c76	-0.4638402
139	0x3c0c8453	0.00857647
140	0xbdfe6f7e	-0.12423609
141	0xbe83cc17	-0.25741646
142	0xbe43ebbe	-0.19132897
143	0x3ed4fa04	0.41596997
144	0xbe495c48	-0.19664109
145	0xbdb3a171	-0.08771027
146	0x3d8c856d	0.068613864
147	0xbe118f4c	-0.1421482
148	0xbc8823de	-0.016618665
149	0xbe395c0f	-0.18101524
150	0xbe02b59a	-0.12764588
151	0xbe494668	-0.19655764
152	0xbee2f275	-0.44325605
153	0xbeb5ab12	-0.3548208
154	0xbe214c4e	-0.15751764
155	0xbe499e11	-0.19689204
156	0x3ede6784	0.4343835
157	0xbebae7c2	-0.36504942
158	0x3e440577	0.1914271
159	0xbe871ebe	-0.26390642
160	0xbe58ac6e	-0.21159527
161	0x3e078860	0.13235617
162	0xbeca613d	-0.39527312
163	0x3ed21a76	0.41035813
164	0x3e462c9b	0.19352953
165	0xbe85926c	-0.26088274
166	0xbd3d3be5	-0.046199698
167	0x3d1f8bb1	0.03895158
168	0x3cd9ebf2	0.026601765
169	0xbe34f462	-0.1767135
170	0xbec54207	-0.38526937
171	0x3efe6743	0.49688157
172	0xbcf49901	-0.029858114
173	0x3e0d3239	0.1378869
174	0x3e07da79	0.13266934
175	0xbe9dc320	-0.3081293
176	0xbea75237	-0.32679912
177	0xbe2e881e	-0.17044112
178	0xbc8f7eb3	-0.01751647
179	0x3d816061	0.06317211
180	0xbd39ad37	-0.045331206
181	0xbea8d3ef	-0.32974193
182	0x3ee4f0f0	0.4471507
183	0x3d9e2fb8	0.077239454
184	0xbde10a8c	-0.1098834
185	0xbe6a27c6	-0.22866735
186	0xbe137c62	-0.14402917
187	0x3d8aca65	0.06776885
188	0xbef36dfd	-0.47544852
189	0xbe1f9403	-0.15583806
190	0xbe05497a	-0.1301631
191	0xbecf596d	-0.40497914
192	0x3e2d7d27	0.16942273
193	0xbd872294	-0.06598392
194	0xbe5ccd5e	-0.21562716
195	0xbe0a3413	-0.13496427
196	0x3e16cb5b	0.14726011
197	0x3edf1520	0.43570805
198	0xbe9516dd	-0.29119006
199	0xbe9ec5cf	-0.3101029
200	0xbe40229c	-0.18763202
201	0x3e4fe6e1	0.20302917
202	0x3e64317f	0.22284506
203	0xbd3a90d4	-0.045548275
204	0xbe18f5fd	-0.14937587
205	0x3f80a87d	1.0051419
206	0xbe1627f5	-0.1466368
207	0xbf1d83f2	-0.6152946
208	0xbe480f60	-0.19537115
209	0xbe9bc050	-0.3042016
210	0x3df3b7eb	0.11900314
211	0x3e10d2e5	0.1414295
212	0x3f17ef25	0.5934928
213	0xbe5a21a4	-0.21301895
214	0x3c5775cd	0.0131506445
215	0xbe5619d8	-0.20908296
216	0xbdadc7fe	-0.08485411
217	0x3e70d870	0.23520064
218	0xbeaa9d9c	-0.3332337
219	0xbd8eeb3e	-0.06978463
220	0xbf048b29	-0.5177484
221	0xbe748016	-0.23876986
222	0x3d0318cc	0.03200607
223	0xbeaf5453	-0.34244022
224	0xbe364390	-0.1779921
225	0xbe39c74a	-0.18142429
226	0xbe4eb74a	-0.20187107
227	0x3e982678	0.2971685
228	0xbe59e358	-0.21278131
229	0x3cab9fab	0.020950159
230	0xbe98cec6	-0.29845256
231	0x3d9bcdeb	0.07607635
232	0xbdd553f2	-0.10416402
233	0x3e178cfc	0.14799875
234	0xbf046107	-0.5171055
235	0x3ecaee9a	0.39635164
236	0x3e34ec3c	0.17668241
237	0x3e08229c	0.13294452
238	0xbe72341c	-0.2365269
239	0x3e006cd8	0.1254152
240	0xbe531bff	-0.20616148
241	0x3c0b3200	0.008495808
242	0xbe73f377	-0.23823343
243	0xbe3691d9	-0.17829074
244	0xbdef8f1b	-0.11697217
245	0xbe5e9a0c	-0.21738452
246	0x3ea5a2b2	0.3235069
247	0xbdb3e91b	-0.08784696
248	0x3dadb443	0.08481648
249	0x3e0a8d38	0.13530433
250	0xbe689fd9	-0.22717227
251	0xbced299c	-0.028950505
252	0xbec623ca	-0.3869918
253	0x3e43cb6e	0.19120571
254	0xbef25aa3	-0.47334775
255	0xbd729879	-0.05922744

bias f4 [100]
0	0xbdd6c19b	-0.10486146
1	0xbe76b940	-0.24094105
2	0xbeb3c0fb	-0.3510817
3	0xbdf3a188	-0.11896044
4	0xbb6c0050	-0.0036010928
5	0x3e1793a2	0.14802411
6	0xbec25e93	-0.3796278
7	0xbdf675ba	-0.12034173
8	0xbdbab434	-0.09116402
9	0xbceeec7d	-0.0291655
10	0xbd21cd19	-0.039502237
11	0xbe310eae	-0.17290756
12	0xbd8de465	-0.069283284
13	0xbde43df9	-0.11144633
14	0x3ce64663	0.028109735
15	0x3dbcbf6c	0.09216198
16	0xbd40bc63	-0.04705466
17	0xbd933236	-0.07187311
18	0xbe4dd4c3	-0.20100693
19	0x3e5a7506	0.21333703
20	0xbe1964fb	-0.14979927
21	0xbc2e5b8c	-0.010641944
22	0xbaebdc79	-0.0017994783
23	0xbe3502f6	-0.17676911
24	0x3c0deade	0.008661954
25	0x3dd36afa	0.103231385
26	0xbe96611b	-0.2937096
27	0xbec5995e	-0.38593572
28	0xbdcf4c8c	-0.10122022
29	0x3dcab14c	0.09897098
30	0xbe633068	-0.22186434
31	0xbd26b413	-0.040699076
32	0xbdd71241	-0.105015285
33	0xbdb85b64	-0.090018064
34	0xbe256127	-0.16150342
35	0xbe348cbe	-0.17631814
36	0xbe1ded19	-0.15422477
37	0xbe49634c	-0.19666785
38	0xbe1cb93b	-0.15305035
39	0x3d063468	0.032764822
40	0xbe06fc5c	-0.13182205
41	0xbe306533	-0.17226104
42	0x3d8fd0b6	0.0702223
43	0xbd69a9fd	-0.05704688
44	0xbdfe15d5	-0.12406508
45	0xbe356211	-0.1771319
46	0x3e3ce7b5	0.18447764
47	0x3e06e558	0.13173425
48	0x3d3a5cf4	0.045498803
49	0xbf9711bc	-1.1802287
50	0x3ea96ed6	0.33092374
51	0x3dff7356	0.124731705
52	0xbd38ae1e	-0.045087926
53	0xbe6166d3	-0.2201188
54	0xbdfe7cf2	-0.12426175
55	0x3d07f739	0.033194754
56	0xbe20f96a	-0.15720144
57	0x3d3d8813	0.04627235
58	0xbcc084cc	-0.023500822
59	0x3d0cea78	0.034403294
60	0xbd8110ed	-0.063020565
61	0xbdaf5663	-0.08561399
62	0x3b9fdc9f	0.004878595
63	0xbd234232	-0.03985805
64	0xbce25dea	-0.027632672
65	0xbe4b7cf5	-0.19871886
66	0x3e1200e3	0.14258151
67	0xbda13231	-0.078709014
68	0xbead7726	-0.33879966
69	0x3e5bbffe	0.21459958
70	0x3d8cbdea	0.06872161
71	0xbcef0651	-0.029177817
72	0x3c7a4ff8	0.015277855
73	0xbcc287b4	-0.023746349
74	0x3d8cece2	0.06881119
75	0xbe8d589a	-0.2760666
76	0xbe101f73	-0.14074497
77	0x3ead3d67	0.3383591
78	0xbcf83c64	-0.030302234
79	0x3d588689	0.052862678
80	0xbe8a9ef0	-0.27074385
81	0x3daa4c83	0.08315375
82	0xbe5acc6b	-0.21367042
83	0x3d8fe074	0.07025233
84	0x3dcd8ef0	0.10037029
85	0xbc4e3af4	-0.012587298
86	0xbd8add7a	-0.067805246
87	0xbd1cb2a5	-0.038256306
88	0x3e2dc9d3	0.16971521
89	0xbe164456	-0.14674506
90	0x3e88e8b0	0.26740026
91	0x3dcd8be4	0.10036448
92	0xbe33e9f1	-0.1756971
93	0xbd1636a2	-0.036673196
94	0x3e242cd4	0.16032726
95	0x3c9e73ba	0.019342292
96	0xbc17766f	-0.009244545
97	0x3e8c84ae	0.27444977
98	0x3d305aee	0.043055467
99	0xbc2ef5b2	-0.0106786955

weight f4 [100, 100, 1]
0	0x3d82e60f	0.063915364
1	0xbdc54481	-0.09632207
2	0x3b721715	0.0036940027
3	0xbce72ad2	-0.02821866
4	0xbd340812	-0.04395301
5	0xbc9ece0c	-0.01938536
6	0xbdc312de	-0.09525083
7	0x3cb7ed55	0.022452036
8	0xbd4b2506	-0.049595855
9	0xbdc8d4fa	-0.09806247
10	0xbcc0c0e4	-0.023529477
11	0xbd8e48a4	-0.06947449
12	0xbd598386	-0.053103946
13	0xbdc4e424	-0.09613827
14	0xbd943e79	-0.07238478
15	0xbcc04bdf	-0.023473678
16	0xbde08179	-0.10962195
17	0xbd32dd4c	-0.043668076
18	0xbcb11aee	-0.021619286
19	0xbdc5b6f6	-0.09654038
20	0xbd75599c	-0.05989991
21	0x3d08f82a	0.033439793
22	0x3a8966ac	0.0010482869
23	0xbdb69696	-0.08915441
24	0x3d039ac8	0.032130033
25	0xbd5b356b	-0.05351774
26	0xbc75984f	-0.0149899265
27	0x3da8c96b	0.082415424
28	0xbc9387a9	-0.018009024
29	0x3db74bea	0.08950026
30	0xbdc8081b	-0.09767171
31	0xbdecaa2a	-0.11555894
32	0xbd85245e	-0.06501077
33	0x3cda682a	0.026660997
34	0x3dc305df	0.09522604
35	0xbd79b49f	-0.06096327
36	0x3d6d2934	0.057900622
37	0x3d5c76a8	0.053824097
38	0xbcb73e8f	-0.022368697
39	0x3d95f30f	0.073217504
40	0xb8a4a096	-7.850041e-05
41	0x3cebcc10	0.028783828
42	0xbdcf1bc2	-0.10112716
43	0xbd496f68	-0.04917851
44	0x3c950247	0.018189562
45	0x3da87840	0.08226061
46	0xbdd94143	-0.10608151
47	0xbb1357ed	-0.0022482828
48	0xbdda9d59	-0.10674543
49	0x3d11e4da	0.03561864
50	0xbdb78b73	-0.08962145
51	0x3b9c3411	0.004766949
52	0x3d0fa5d0	0.03507024
53	0x3d5f5acd	0.054529954
54	0x3d356496	0.04428538
55	0xbc4cd7f3	-0.012502658
56	0xbd8781b3	-0.06616535
57	0x3c9dbe56	0.019255798
58	0x3d437639	0.047720168
59	0xbdb37506	-0.08762555
60	0x3d4e26b5	0.050329883
61	0xbc22693e	-0.009912787
62	0xbd7c75df	-0.061635848
63	0x3d2a756f	0.0416159
64	0x3b9060e2	0.0044060806
65	0xbb464287	-0.0030252056
66	0xba734cff	-0.00092811877
67	0xbd85f98a	-0.065417364
68	0xbd094984	-0.033517376
69	0xbd2a2958	-0.041543335
70	0xbd9e53e9	-0.07730848
71	0xbc83ebbd	-0.01610362
72	0xbcc48e31	-0.023993583
73	0xbb262c4a	-0.0025355988
74	0xbcf792e6	-0.030221414
75	0xbd275980	-0.04085684
76	0x3d8f4709	0.06995971
77	0xbdcf9a3d	-0.101368405
78	0x3d39c57d	0.045354355
79	0xbd4dd098	-0.05024776
80	0x3d82bb5b	0.063833915
81	0x3d7ff600	0.062490463
82	0x3c78dc07	0.015189177
83	0x3d7d5020	0.06184399
84	0xbc0f1fce	-0.00873561
85	0x3abd2092	0.0014429262
86	0x3c385638	0.011251025
87	0xbaaf8750	-0.0013391767
88	0xbd282f5a	-0.041060783
89	0xbde473c9	-0.11154897
90	0xbd9c3f6f	-0.076292865
91	0x3c604321	0.01368788
92	0xbdba4471	-0.090950854
93	0x3cd49f70	0.025954932
94	0x3cbc12a3	0.022958105
95	0x3d72362a	0.059133686
96	0xbd24e708	-0.04025939
97	0xbd5fda23	-0.05465139
98	0xbda8ffe6	-0.08251934
99	0x3cef6547	0.029223097
100	0x3ed655b9	0.41862276
101	0x3eadf2d2	0.3397432
102	0x3e704cf8	0.23466861
103	0x3e878900	0.2647171
104	0x3d82a66e	0.063794
105	0xbdca3e2e	-0.09875141
106	0x3ee19715	0.4406058
107	0xbe030f81	-0.12798883
108	0x3ecce9ea	0.40022212
109	0x3e3aafd2	0.18231133
110	0x3d13fcd4	0.036129788
111	0x3db7d7b9	0.08976693
112	0x3e55c10c	0.20874423
113	0xbd954eca	-0.072904184
114	0xbda69996	-0.08134763
115	0x3ce5f191	0.02806929
116	0xbe4e2191	-0.20129992
117	0x3ea98458	0.33108783
118	0xbcd4ea4d	-0.02599063
119	0xbe15dae8	-0.14634287
120	0x3cf8cd2f	0.030371277
121	0xbd62501d	-0.055252183
122	0x3e525ed6	0.2054399
123	0xbe17a462	-0.14808801
124	0x3dcbd772	0.09953202
125	0x3d7e59cc	0.062097356
126	0x3f3a3588	0.7273793
127	0xbd6b5aaf	-0.05745953
128	0x3d64851e	0.055791013
129	0x3c675bba	0.01412099
130	0x3da4bbea	0.08043654
131	0x3d477236	0.048692904
132	0x3b9f6276	0.0048640324
133	0xbca424f8	-0.02003716
134	0x3d321f7c	0.043487057
135	0xbace86fa	-0.0015756779
136	0xbe788fc1	-0.24273588
137	0xbd0a0461	-0.033695582
138	0x3f32695e	0.6969203
139	0xbdb87109	-0.09005935
140	0x3d29c84f	0.041450795
141	0x3d9e8c6e	0.077416286
142	0x3d19cf58	0.037551254
143	0xbd7899a2	-0.06069339
144	0x3ca4ccf7	0.020117266
145	0x3c94bbd5	0.018155972
146	0xbd8f2cfe	-0.069910035
147	0x3dd1a9ca	0.10237463
148	0x3bfec77d	0.0077752457
149	0xbe6d04d3	-0.23146372
150	0x3b236a85	0.0024935317
151	0xbdc61bb6	-0.09673254
152	0x3f03c382	0.51470196
153	0x3c0a4e54	0.008441526
154	0xbd588425	-0.052860398
155	0x3dc46269	0.09589083
156	0xbd3e82e2	-0.04651154
157	0xbd8aab48	-0.067709506
158	0xbd9ababb	-0.07555147
159	0xbc5edf9f	-0.01360312
160	0xbd2ff5ff	-0.04295921
161	0x3b093726	0.0020937412
162	0x3e703059	0.23455943
163	0x3dd21c8b	0.102593504
164	0x3e79d1e2	0.2439647
165	0xbc0cd6a3	-0.008596095
166	0xbe614e4d	-0.22002526
167	0xbcd6f034	-0.026237585
168	0x3d79a73c	0.060950503
169	0xbe1444bb	-0.14479344
170	0xbd7054d6	-0.058674656
171	0xbc611fee	-0.013740523
172	0x3d70952f	0.058736023
173	0xbd90796e	-0.07054411
174	0xbdf13a92	-0.117787495
175	0xbd309268	-0.043108374
176	0xbcc9f9bb	-0.024655214
177	0xbd61ea07	-0.055154826
178	0xbe10bc6e	-0.1413438
179	0x3d6eea1a	0.058328725
180	0xbd6f2b24	-0.05839075
181	0xbd7c1f2d	-0.06155317
182	0x3e3fa542	0.18715385
183	0xbd2dec97	-0.042461958
184	0xbd87051f	-0.06592774
185	0x3e511a52	0.20420197
186	0xbc922fc3	-0.01784504
187	0x3e5657ff	0.20932005
188	0x3c28e7e6	0.010309195
189	0x3f283ffe	0.65722644
190	0xbd7e2c77	-0.062054124
191	0x3e9dfda3	0.30857572
192	0x3daa412e	0.08313213
193	0x3e76d230	0.24103618
194	0xbe39b704	-0.18136221
195	0xbd9bd28c	-0.07608518
196	0xbe4ec6bb	-0.20192997
197	0xbed4591c	-0.41474235
198	0x3c832ec0	0.016013503
199	0xbd0c7cd5	-0.034298737
200	0x3e8cf672	0.27531773
201	0x3cc3d528	0.023905352
202	0x3ea3a5cd	0.31962433
203	0x3e2b5270	0.16730666
204	0xbc924d01	-0.017858984
205	0xbe52b456	-0.20576605
206	0x3e0e516d	0.13898249
207	0x3e638a41	0.22220708
208	0x3ec14390	0.3774686
209	0xbd8f2c54	-0.06990877
210	0xbc697d38	-0.014251046
211	0x3ea5b088	0.32361245
212	0xbd679bff	-0.056545254
213	0xbc4380eb	-0.011932592
214	0xbda71ab6	-0.081593916
215	0xbce14da8	-0.02750285
216	0xbcea22c8	-0.028581038
217	0x3e799478	0.24373043
218	0x3d903b04	0.07042506
219	0xbe11e7d9	-0.14248599
220	0xbd9549fd	-0.07289503
221	0xbeda047e	-0.42581552
222	0x3e3b06de	0.18264338
223	0xbe84f637	-0.25969097
224	0xbe1997b8	-0.14999282
225	0x3e00a345	0.12562282
226	0xbd6c5c63	-0.057705294
227	0x3dac7762	0.08421208
228	0xbce3a27d	-0.027787441
229	0x3e2f86af	0.17141221
230	0x3ee2539e	0.4420442
231	0x3b1d649d	0.002401627
232	0x3ea2cd4b	0.3179725
233	0xbd756d8e	-0.059918933
234	0x3d283758	0.041068405
235	0x3d78f4f8	0.060780495
236	0xbe93b91d	-0.28852168
237	0x3e0a1e83	0.13488202
238	0x3f34ddf3	0.7065117
239	0xbdccbf69	-0.09997446
240	0xbdeda884	-0.116044074
241	0xbd7d0dbb	-0.061780673
242	0x3e2167fd	0.15762325
243	0xbe7e45d8	-0.24831331
244	0xbd0b8629	-0.034063492
245	0x3de29d48	0.11065155
246	0xba81870c	-0.0009882166
247	0x3e0505aa	0.12990442
248	0xbdd6e7c0	-0.104934216
249	0xbe87a288	-0.2649119
250	0x3ddf6b72	0.109091654
251	0x3e5b20bb	0.21399204
252	0x3e8246e3	0.25444707
253	0xbd28cbba	-0.041209914
254	0xbdbf64c8	-0.093453944
255	0x3e3b96e1	0.18319274

bias f4 [100]
0	0xbd8fce64	-0.07021788
1	0xbe67ea29	-0.22647919
2	0xbe45b687	-0.1930791
3	0xbe5ef44e	-0.21772882
4	0xbe4ba8d1	-0.19888617
5	0xbdb3489b	-0.08754083
6	0xbe06d799	-0.13168181
7	0xbdd51723	-0.104048036
8	0x3d9baf4e	0.07601796
9	0xbe402324	-0.18763405
10	0xbda614a8	-0.081094086
11	0xbd7ce6c9	-0.06174353
12	0xbe181740	-0.14852619
13	0xbd96b943	-0.073595546
14	0xbe0548c1	-0.13016035
15	0xbeae0508	-0.33988214
16	0xbe11535e	-0.14191958
17	0xbdf003c1	-0.11719466
18	0xbe618ec9	-0.22027124
19	0xbcf94de2	-0.030432645
20	0x3e1f1a1c	0.15537304
21	0xbdb6f034	-0.08932534
22	0xbdefa55c	-0.11701462
23	0x3d9391d8	0.07205552
24	0xbe51997b	-0.20468704
25	0xbd398789	-0.045295272
26	0xbe2b38e6	-0.16720924
27	0x3c4bcc50	0.012438849
28	0xbd669290	-0.056292117
29	0x3ce7685c	0.028248005
30	0x3d7d70a1	0.06187499
31	0xbe082bfc	-0.13298029
32	0xbe15ba1a	-0.14621773
33	0x3da4b619	0.08042545
34	0x3c97d102	0.01853228
35	0xbe1ef511	-0.15523173
36	0x3d85fcf5	0.06542388
37	0xbe481d9e	-0.19542548
38	0xbe0ae3cb	-0.13563459
39	0xbe747eaa	-0.23876444
40	0xbe1c3d8f	-0.15257858
41	0x3e4dc2ab	0.20093791
42	0xbdcd36eb	-0.100202404
43	0xbdd43a11	-0.10362638
44	0xbcb47107	-0.022026552
45	0xbe78856e	-0.2426965
46	0xbe107019	-0.14105262
47	0xbdfc4aad	-0.12318931
48	0xbd314e2b	-0.043287437
49	0xbd6c42be	-0.057680838
50	0xbdb98c80	-0.090600014
51	0xbc62f346	-0.013851946
52	0xbe3f5929	-0.18686356
53	0xbe1cc089	-0.15307821
54	0x3d70f1d2	0.058824368
55	0xbe3e327f	-0.1857395
56	0x3dbc6362	0.09198643
57	0xbe0b8ba1	-0.13627483
58	0x3e0a2af1	0.13492943
59	0x3ce8c4d4	0.028414167
60	0xbdf63d32	-0.12023391
61	0xbcef4c0b	-0.029211065
62	0xbe07e0ef	-0.13269399
63	0xbd03d090	-0.032181323
64	0xbd9ea3f2	-0.07746114
65	0xbd9ffb18	-0.07811564
66	0x3ca11a52	0.01966587
67	0xbceb8617	-0.028750462
68	0xbdabc486	-0.08387093
69	0x3dd81581	0.105509765
70	0xbe41658b	-0.18886392
71	0xbe486296	-0.19568858
72	0xbd267d4e	-0.040646844
73	0xbda65d59	-0.081232734
74	0xbe379a11	-0.17929865
75	0xbe0ae6af	-0.13564561
76	0xbdcd8884	-0.10035804
77	0xbde93fe2	-0.11389138
78	0xbe479b74	-0.19492894
79	0xbe7a8b26	-0.24467143
80	0xbdcc65c9	-0.099803515
81	0xbe3594ba	-0.17732516
82	0xbe01840e	-0.12648031
83	0xbe3148e9	-0.1731297
84	0xbdb3116b	-0.087435566
85	0xbe095732	-0.13412169
86	0xbdd2e79a	-0.10298081
87	0x3de1e1d1	0.11029399
88	0xbe178938	-0.14798439
89	0xbe258a57	-0.16166054
90	0xbdb75811	-0.08952344
91	0x3eb72624	0.35771286
92	0x3dc606e1	0.09669281
93	0xbddc9ad1	-0.107717164
94	0xbce0f98a	-0.02746274
95	0xbe2c6a8e	-0.16837522
96	0xbdd35a74	-0.10319987
97	0xbe2d0bc9	-0.16899027
98	0xbd0416f4	-0.032248452
99	0xbd442576	-0.047887288

weight f4 [100, 100, 1]
0	0xbce18d5a	-0.027533222
1	0x3dd2002d	0.1025394
2	0x3d01a7b9	0.031654093
3	0x3d12d997	0.03585204
4	0x3c349b1f	0.011023312
5	0xbcfc7684	-0.030818231
6	0x3dab49ac	0.08363661
7	0xbc338bf6	-0.010958662
8	0x3c84c410	0.016206771
9	0xbce54779	-0.027988182
10	0x3d84a103	0.06476023
11	0xbc70f22f	-0.014706179
12	0xbd92ee3f	-0.07174348
13	0xbd02639a	-0.03183327
14	0x3cd576e9	0.026057677
15	0xbd98ee71	-0.07467354
16	0x3d9d0c43	0.07668354
17	0xbd7a24cf	-0.06107026
18	0x3d910a66	0.070820615
19	0x3c507319	0.012722754
20	0x3d8ee4ae	0.06977211
21	0xbb72e1d9	-0.0037060885
22	0xbd7bb637	-0.06145307
23	0xbcc4c8af	-0.024021475
24	0x3c944e11	0.018103631
25	0x3c59cad0	0.013292983
26	0xbdb31453	-0.08744111
27	0x3a0f47c6	0.0005465712
28	0x3d8a522a	0.06753953
29	0x3d394fe5	0.04524221
30	0xbd73f1c0	-0.059556723
31	0x3b0776ff	0.0020670292
32	0x3d9d5156	0.07681529
33	0xbda4b736	-0.08042757
34	0xbd9e51c3	-0.077304386
35	0xbd6df43a	-0.05809424
36	0xbc2c5c12	-0.010519998
37	0x3d4ef94d	0.05053072
38	0xbc0099e7	-0.007849193
39	0x3d7e4808	0.062080413
40	0x3d196529	0.03744999
41	0xbdc5f579	-0.09665961
42	0xbdc5bd73	-0.09655275
43	0x3dafadfa	0.08578105
44	0x3cc8c88f	0.024509696
45	0xbd195289	-0.037432227
46	0x3cccd979	0.025006043
47	0xbdb87848	-0.09007317
48	0xbd78a9bb	-0.060708743
49	0x3c86aff5	0.016441325
50	0xbdaa648c	-0.08319959
51	0xbda9f354	-0.08298364
52	0x3d07347a	0.03300903
53	0x3d35e061	0.044403438
54	0x3d2eb0ce	0.042649083
55	0xbdcae1c7	-0.09906345
56	0x3d107869	0.035271082
57	0x3cd28b33	0.025701141
58	0xbdd6661d	-0.10468695
59	0x3c805fcc	0.01567068
60	0x3d1f9ee7	0.0389699
61	0x3d70791b	0.058709245
62	0xbdc03f3d	-0.09387062
63	0xbdc79b90	-0.09746468
64	0xbdb61ceb	-0.088922344
65	0x3da1bdf3	0.07897558
66	0xbddb1388	-0.10697085
67	0x3d9d86fd	0.076917626
68	0x3db2e2c9	0.08734662
69	0xbd09cd3f	-0.033643004
70	0xbda71dd8	-0.08159989
71	0xbd178d10	-0.036999762
72	0x3d884988	0.0665465
73	0xb6040000	-1.9669533e-06
74	0xbd981471	-0.07425774
75	0x3c3246de	0.010881154
76	0x3c8cdcad	0.01719507
77	0xbd98fcf8	-0.07470125
78	0xbcac333b	-0.021020522
79	0x3d81d123	0.06338718
80	0xbcc03f17	-0.023467584
81	0x3d982ef7	0.07430833
82	0x3d654ca0	0.05598128
83	0xbda9a260	-0.08282924
84	0x3a36f97a	0.0006979924
85	0xbd34523a	-0.04402373
86	0x3daadfa2	0.08343436
87	0xbd01e2a8	-0.031710297
88	0x3d5402db	0.051760536
89	0xbd5a1488	-0.053242236
90	0x3ceeb4ef	0.02913901
91	0xbd2a3403	-0.04155351
92	0x3cd57b0d	0.026059652
93	0xbd0ce354	-0.034396484
94	0xbd4fada1	-0.050702695
95	0x3c0b4c33	0.008502054
96	0xbcb381e5	-0.021912524
97	0x3cb76ec7	0.02239169
98	0xbd8fe569	-0.070261784
99	0xbdee437e	-0.11633967
100	0xbdc531a9	-0.096286125
101	0x3caa7997	0.020809932
102	0xbd90c3fc	-0.07068631
103	0xbd8861a2	-0.06659247
104	0x3d984c72	0.07436456
105	0x3c1951a6	0.009357845
106	0x3d88ebea	0.06685622
107	0xbdcdd9b7	-0.100512914
108	0xbda4c838	-0.08046001
109	0xbcb711ba	-0.02234732
110	0x3bf5c396	0.0075001223
111	0xbd999bb0	-0.07500398
112	0x3d82496a	0.06361659
113	0xbdcbb864	-0.09947279
114	0x3cfbc68d	0.030734325
115	0x3d90a4e1	0.07062698
116	0x3bc282c7	0.005936
117	0x3d3200eb	0.043457907
118	0x3d05d34c	0.03267221
119	0xbd1773a7	-0.03697553
120	0x3d1f9493	0.03896005
121	0x3d62e190	0.055390894
122	0xbd96bd7d	-0.07360361
123	0xbd99aeda	-0.075040534
124	0xbd077938	-0.033074588
125	0x3d50ca0a	0.05097393
126	0x3c531be4	0.012885068
127	0xbc38db53	-0.01128276
128	0xbcede026	-0.029037546
129	0xbcb228e7	-0.02174802
130	0x3d07cccb	0.03315429
131	0xbc8bad68	-0.01705046
132	0xbd96731c	-0.07346174
133	0xbc2ca1e5	-0.010536646
134	0xbcf852ef	-0.030312983
135	0x3d9e7da1	0.077388056
136	0xbdc13441	-0.09433795
137	0x3caf9289	0.021432178
138	0xbca52c3f	-0.0201627
139	0xbc899461	-0.016794385
140	0xbd7717ca	-0.06032542
141	0xbca567a1	-0.020191016
142	0xbdc84cb5	-0.09780256
143	0x3db6df45	0.08929304
144	0xbd96b3c4	-0.07358506
145	0xbc8e0478	-0.017336115
146	0x3cb07684	0.021540888
147	0xbd892dae	-0.06698166
148	0xbbd6bb1d	-0.0065530674
149	0x3d153790	0.03642994
150	0x3ba5424a	0.0050433027
151	0x3d3f990a	0.04677681
152	0xbcec609a	-0.028854657
153	0xbd9bdf17	-0.076109104
154	0x3c7b2a6d	0.015329939
155	0x3d435d6f	0.047696527
156	0xbd051653	-0.032491993
157	0x3d4d0bb4	0.05005999
158	0x3db0f891	0.0864116
159	0xbcbafa5d	-0.02282446
160	0x3d90af92	0.070647374
161	0xbd15df8d	-0.036590148
162	0xbdc98135	-0.098390974
163	0x3c065d4f	0.008200957
164	0x3c9985a2	0.018740479
165	0x3dedd995	0.11613766
166	0xbbe7f4d9	-0.0070787487
167	0xbc4948eb	-0.012285451
168	0xbdab4821	-0.08363367
169	0xbdf24174	-0.118288904
170	0x3ba3c13a	0.0049973996
171	0xbd8e3684	-0.06943992
172	0x3dde5527	0.10856085
173	0xbcee6f12	-0.029105697
174	0xbcc2c913	-0.02377752
175	0xbdab37ec	-0.083602756
176	0x3d8a3544	0.06748441
177	0xbddaf85b	-0.10691901
178	0xbd1f996d	-0.038964678
179	0x3d92f87a	0.071762994
180	0x3db1ee29	0.086880036
181	0x3dcd8a6f	0.1003617
182	0x3d9ed6ec	0.07755837
183	0xbd8eed32	-0.06978835
184	0xbdaf9ce3	-0.08574846
185	0xbd6ae97d	-0.057351578
186	0xbc82c28f	-0.015961913
187	0x3d47f069	0.048813257
188	0xbdb98385	-0.090582885
189	0x3dae988f	0.08525192
190	0x3d44622c	0.047945186
191	0x3d0718b1	0.032982532
192	0xbd9c46b3	-0.07630672
193	0x3d9d5a34	0.076832205
194	0x3d893f52	0.067015305
195	0xbd9b237a	-0.07575126
196	0xbdba7bb2	-0.09105624
197	0x3d024a5e	0.031809203
198	0xbdcbbc7b	-0.09948059
199	0xbd251154	-0.04029973
200	0xbd9a32f5	-0.075292505
201	0x3cf877a3	0.030330485
202	0xbd250ce9	-0.040295515
203	0x3becb7b3	0.007224047
204	0xbcaaf0b0	-0.020866722
205	0x3d6d4f4e	0.05793696
206	0x3d4d8a8b	0.050180953
207	0xbde12243	-0.10992863
208	0xbd6116ee	-0.054953508
209	0x3bf99b31	0.007617377
210	0xbda936b3	-0.08262386
211	0xbd55aaff	-0.052165028
212	0x3cc45b72	0.023969386
213	0xbdfe2f8b	-0.12411412
214	0x3d84a7af	0.064772956
215	0xbc7a81b8	-0.015289716
216	0xbd692006	-0.056915306
217	0x3d66d51f	0.056355592
218	0x3bc04edb	0.0058687753
219	0xbdd5b870	-0.10435569
220	0xbdfd3938	-0.12364429
221	0x3db314c6	0.087441966
222	0xbcfe8f31	-0.031074138
223	0x3da5d75a	0.08097716
224	0x3d682d24	0.056683674
225	0xbd086013	-0.03329475
226	0xbdac7332	-0.08420409
227	0x3b00a12f	0.0019627323
228	0xbc0845ad	-0.008317393
229	0xbd4aa178	-0.049470395
230	0xbc3cafec	-0.011516552
231	0xbb8811c4	-0.0041525085
232	0xba95a721	-0.0011417606
233	0xbd8156c6	-0.06315379
234	0x3d93a7f2	0.072097674
235	0x3d477f42	0.048705347
236	0xbdb14e8f	-0.08657562
237	0xbda1056d	-0.07862363
238	0xbd8c7b8f	-0.068595044
239	0x3d617a06	0.05504801
240	0x3d22521d	0.03962909
241	0x3caf8172	0.021424029
242	0x3ca7e1e1	0.02049345
243	0xbda9120d	-0.08255396
244	0xbbdce684	-0.006741347
245	0xbde06cbb	-0.10958239
246	0xbcebc013	-0.028778112
247	0xbdf59c84	-0.119927436
248	0xbdc53424	-0.09629086
249	0x3c179a65	0.009253119
250	0xbd634996	-0.0554901
251	0xbccd7e10	-0.025084525
252	0xbcd7aabf	-0.026326535
253	0x3d8f19d1	0.06987346
254	0xbe064634	-0.13112718
255	0x3da1b4d9	0.07895822

bias f4 [100]
0	0xbdc8c6ca	-0.09803541
1	0xbdd33b37	-0.10314029
2	0xbc2a3079	-0.010387533
3	0xbbdeb9c0	-0.0067970455
4	0xbe718879	-0.23587216
5	0xbc8e2175	-0.017349938
6	0xbd8a6d9d	-0.06759188
7	0xbddb838e	-0.107184514
8	0xbda56abb	-0.08076998
9	0xbd725f38	-0.05917284
10	0x3c19b7d0	0.009382203
11	0xbddb9e20	-0.10723519
12	0x3cb7934a	0.0224091
13	0xbd7d74cc	-0.061878964
14	0xbd4db87f	-0.050224777
15	0xbde9cfe3	-0.11416604
16	0xbdbc7eab	-0.092038475
17	0xbe3a1c5e	-0.18174884
18	0xbc5c248d	-0.013436449
19	0xbe77e753	-0.24209337
20	0xbdd17670	-0.10227668
21	0xbe08775e	-0.13326785
22	0xbdf05437	-0.11734813
23	0xbdbc1728	-0.09184104
24	0xbd836065	-0.0641487
25	0xbca1e7b8	-0.019763812
26	0xbc353848	-0.011060782
27	0xbdd8203c	-0.10553023
28	0xbe321b7d	-0.17393298
29	0xbe38aed2	-0.18035439
30	0xbcdeb50c	-0.02718594
31	0xbc9e4897	-0.019321723
32	0xbd8cea1e	-0.06880592
33	0xbe16ac79	-0.1471423
34	0xbdcc36ee	-0.099714145
35	0xbd81f9c8	-0.0634647
36	0xbd492b42	-0.04911352
37	0xbe65911b	-0.22418635
38	0xbd8985f8	-0.06715006
39	0xbdb3b5f0	-0.08774936
40	0xbd681695	-0.05666216
41	0x3bdca0c0	0.00673303
42	0x3d682ef4	0.056685403
43	0xbe165687	-0.14681445
44	0xbd2eff88	-0.042724162
45	0xbdb290ea	-0.087190464
46	0xbc48e1f9	-0.012260907
47	0xbd474f8e	-0.048659854
48	0xbe1be496	-0.15223917
49	0xbc0580c2	-0.008148374
50	0xbde20906	-0.11036877
51	0xbcb26a4e	-0.021779206
52	0xbda61b56	-0.08110683
53	0xbe2fb873	-0.17160206
54	0xbd230f4b	-0.039809506
55	0xbc9b0b85	-0.018926391
56	0xbdfd2ebb	-0.12362429
57	0xbe0cce3d	-0.13750549
58	0xbe36c176	-0.17847237
59	0xbc69ea66	-0.014277076
60	0xbda4ef7c	-0.080534905
61	0x3dbb70cf	0.09152376
62	0xbe4f1c26	-0.20225582
63	0xbcdca247	-0.026932849
64	0xbe1f905a	-0.1558241
65	0xbe53e3b1	-0.20692326
66	0x3b7225c5	0.0036948782
67	0xbe38de1c	-0.18053478
68	0xbe2f6201	-0.1712723
69	0xbdd98fa7	-0.10623103
70	0xbda2bee3	-0.07946565
71	0x3da80549	0.08204133
72	0xbdb80eda	-0.08987208
73	0xbcf93807	-0.030422224
74	0x3cd95bdb	0.026533058
75	0xbd15d357	-0.036578503
76	0xbb1ccc5d	-0.002392552
77	0x3cb43a40	0.022000432
78	0xbd8193fa	-0.063270524
79	0xbe604b53	-0.21903734
80	0xbdd3b75a	-0.10337706
81	0x3afb33b2	0.0019165187
82	0xbc2514ea	-0.010075787
83	0xbd8d0753	-0.068861626
84	0xbdf322b5	-0.11871854
85	0xbd6996dd	-0.05702864
86	0xbdc77a7f	-0.09740161
87	0xbda59ce2	-0.08086564
88	0xbd3cda68	-0.046106726
89	0xbd02f2af	-0.031969722
90	0xbdd97dbc	-0.10619685
91	0xbe010bef	-0.12602209
92	0xbd2b0422	-0.04175199
93	0xbdb7d959	-0.08977003
94	0xbcd414e2	-0.025888864
95	0xbcbc67c6	-0.022998702
96	0x3d430294	0.04760988
97	0x3cb53831	0.02212152
98	0xbc8143dc	-0.015779428
99	0xbdecbaa9	-0.1155904

weight f4 [100, 100, 1]
0	0x3d1794ad	0.037007023
1	0xbdc9803a	-0.098389104
2	0xbb3b7909	-0.0028606078
3	0xbd43ef27	-0.047835495
4	0x3c340c54	0.010989267
5	0x3d398fea	0.045303263
6	0x3d482c07	0.048870113
7	0x3d36ee6a	0.044660963
8	0xbd3d51a0	-0.04622042
9	0x3d8dde35	0.06927148
10	0xbdab27b1	-0.0835718
11	0xbd7a82e7	-0.061159994
12	0xbdc37731	-0.09544218
13	0x3cb737e8	0.022365525
14	0x3d7efdaa	0.06225363
15	0xbcb60b00	-0.022222042
16	0xbd6efa97	-0.05834445
17	0xbd8d6635	-0.0690426
18	0xbd5f0827	-0.054451134
19	0xbdca2fc6	-0.09872393
20	0xbbd7084d	-0.006562269
21	0xbda131a1	-0.07870794
22	0x3d4e729a	0.05040226
23	0xbba8d9e7	-0.005152929
24	0x3d932a9e	0.07185863
25	0xbc6f1010	-0.014591232
26	0x3d6e774a	0.05821923
27	0xbd887951	-0.06663764
28	0x3b78270d	0.0037865073
29	0x3d5f4f54	0.054519013
30	0x3d96d1fb	0.07364269
31	0xbdb3f18a	-0.08786304
32	0xbde4c5df	-0.111705534
33	0x3d7dd727	0.061972763
34	0x3c42210e	0.011848701
35	0xbd97face	-0.07420884
36	0x3da6c262	0.08142544
37	0xbcf565aa	-0.029955704
38	0x3a373a44	0.0006989578
39	0xbcc977c4	-0.024593242
40	0xbdd6a2a9	-0.10480244
41	0x3b90eaca	0.0044225203
42	0x3c4fc2a3	0.012680682
43	0xbd8d30ce	-0.068940744
44	0xbdaadd98	-0.08343047
45	0x3c9c35b3	0.019068575
46	0xbd035be4	-0.032070056
47	0xbda8b631	-0.08237875
48	0xbd3500e9	-0.04419032
49	0x3cc30bd5	0.023809353
50	0xbd32c483	-0.04364444
51	0xbc78feab	-0.015197436
52	0x3d98e5b6	0.07465689
53	0xbd22d648	-0.039755136
54	0xbd6c208e	-0.057648234
55	0xbd3fc5ae	-0.04681938
56	0xbbef8739	-0.007309821
57	0xbd5fac15	-0.05460747
58	0x3d7443f4	0.059635118
59	0xbd8140f5	-0.06311218
60	0x3a85eecd	0.0010218263
61	0xbdc4d111	-0.09610189
62	0x3db668f3	0.08906736
63	0x3ce05e10	0.027388602
64	0x3d816e4f	0.06319868
65	0xbd128e88	-0.03578046
66	0x3d433060	0.047653556
67	0x3dbf5417	0.09342211
68	0xbd9bf6ef	-0.07615458
69	0xbca4dd35	-0.020125011
70	0xbda2c981	-0.0794859
71	0xbd24e01e	-0.040252797
72	0x3d787493	0.06065805
73	0xbdc3661a	-0.09540959
74	0xbcfedd94	-0.031111516
75	0xbbf8f811	-0.007597931
76	0xbdd1577d	-0.10221765
77	0xbd05379a	-0.03252373
78	0xbd970f0f	-0.07375919
79	0xbdab682b	-0.08369478
80	0xbdb7865f	-0.08961176
81	0xbdcbd8e2	-0.099534765
82	0xbdb5b871	-0.0887307
83	0x3c24b6e7	0.010053373
84	0x3d958fa7	0.0730279
85	0xbdb79ebf	-0.08965825
86	0xbdad1bab	-0.08452543
87	0xbd9d43ab	-0.07678922
88	0xbdd8c7f5	-0.10585014
89	0xbd189d80	-0.03725958
90	0x3d0c0317	0.034182634
91	0x3cb3abb1	0.021932455
92	0x3d8a439a	0.06751175
93	0x3bee04d2	0.007263758
94	0x3d47b1f9	0.048753712
95	0xbd58ae3a	-0.05290053
96	0xbdc815a3	-0.09769752
97	0x3c2abcad	0.01042096
98	0x3d9341c6	0.0719028
99	0xbcdc81b8	-0.026917323
100	0x3d8fc963	0.07020833
101	0xbd45ae03	-0.048261654
102	0x3d1c54da	0.03816686
103	0xbda7e2c2	-0.081975475
104	0xbd17cb0d	-0.03705888
105	0x3b835afe	0.00400865
106	0xbdc0734d	-0.09396992
107	0x3d71a6e3	0.058997046
108	0xbdddcfdf	-0.10830664
109	0xbd048ada	-0.03235898
110	0xbda598a3	-0.08085754
111	0x3dc29d1a	0.09502621
112	0xbe12f1cb	-0.14350049
113	0xbda8b100	-0.08236885
114	0xbd58bfea	-0.0529174
115	0xbcf0277a	-0.029315699
116	0xbc41770d	-0.011808169
117	0xbdfd0dea	-0.123561695
118	0xbd269583	-0.04066993
119	0xbd4eb727	-0.050467636
120	0x3da32739	0.079664655
121	0xbde8365b	-0.113384925
122	0xbdb021c8	-0.08600193
123	0xbc602227	-0.013680018
124	0x3d930e2f	0.0718044
125	0x3d5b8eb7	0.0536029
126	0x3d1f24f0	0.038853586
127	0xbcaf3461	-0.02138728
128	0xbc83c623	-0.01608569
129	0x3be19eb4	0.006885374
130	0xbda9283f	-0.082596295
131	0x3d6eab03	0.05826856
132	0xbc9d6dfb	-0.019217482
133	0x3c0b9de7	0.008521534
134	0x3be7f39a	0.0070786
135	0x3d8ef693	0.06980624
136	0x3c390b73	0.011294234
137	0xbd4e9bfd	-0.05044173
138	0x3d4b7d18	0.049679846
139	0xbc90c97f	-0.017674206
140	0x3c852124	0.016251154
141	0xbd7a996b	-0.061181467
142	0xbe1180ff	-0.14209364
143	0x3d238b2a	0.03992764
144	0xbd7672c7	-0.060168054
145	0xbadc4067	-0.0016803861
146	0x3db259c5	0.087085284
147	0xbd4b9a1a	-0.04970751
148	0x3cfea7e8	0.031085923
149	0xbd11f800	-0.0356369
150	0xbdf7be44	-0.12096837
151	0xbd92f8d9	-0.0717637
152	0xbde35a1e	-0.11101173
153	0xbe15cf71	-0.14629914
154	0x3d9d9402	0.07694246
155	0x3d133d65	0.035947222
156	0xbc2916b9	-0.010320359
157	0xbc385445	-0.01125056
158	0xbcd7576a	-0.0262868
159	0x3db5fb38	0.08885807
160	0x3d01069a	0.031500436
161	0xbc6bf400	-0.014401436
162	0x3c147408	0.009060867
163	0xbcc6bae6	-0.024259042
164	0xbd9e513b	-0.07730337
165	0x3d4c756e	0.049916677
166	0xbcba35c8	-0.022730723
167	0xbc72eb5a	-0.01482662
168	0xbe1cdc20	-0.15318346
169	0x3d4429fa	0.047891594
170	0xbcad84cb	-0.021181485
171	0x3db7c002	0.089721695
172	0xbda6d8cb	-0.08146819
173	0x3cad87e0	0.021182954
174	0xba6456ff	-0.0008710473
175	0x3c3d5e61	0.011558146
176	0xbe1fb120	-0.15594912
177	0x3ba2e19e	0.0049707433
178	0xbe1bfb5f	-0.15232609
179	0xbd048c77	-0.03236052
180	0xbdb4f971	-0.0883664
181	0x3d5dd9b7	0.054162707
182	0x3d146c9f	0.0362364
183	0x3db65a32	0.08903922
184	0xbd8bb98e	-0.06822501
185	0x3dbcd7e5	0.09220866
186	0x3d1344ba	0.035954215
187	0x3c660f00	0.014041662
188	0xbd949291	-0.07254518
189	0xbd2e9af5	-0.042628247
190	0x3bdbd733	0.0067090034
191	0x3d509b81	0.05092955
192	0xbccb1fc7	-0.024795426
193	0xbc81aeb0	-0.015830368
194	0xbd6a36f3	-0.05718131
195	0x3da66e82	0.081265464
196	0xbd221854	-0.039573982
197	0xbdbaeb2d	-0.091268875
198	0x3d4df032	0.050277896
199	0xbdf2c22a	-0.1185344
200	0x3ccba7bd	0.024860257
201	0xbd765c1b	-0.060146432
202	0x3e08f3c6	0.13374242
203	0x3da63c03	0.08116915
204	0x3c526ab0	0.012842819
205	0xbc4360a9	-0.011924901
206	0xbd90e2f4	-0.07074538
207	0x3db50919	0.08839626
208	0xbe1946a0	-0.14968348
209	0xbb1cc400	-0.0023920536
210	0xbd00cbfe	-0.031444542
211	0x3d858e58	0.065212905
212	0x3d3d243c	0.046177134
213	0x3cac36f9	0.021022307
214	0xbb7fb301	-0.0039016607
215	0xbb3438fa	-0.002749978
216	0x3d0c3823	0.034233224
217	0xbe1005a5	-0.14064653
218	0xbd8133be	-0.06308697
219	0xbdd0e326	-0.10199575
220	0x3d7166c0	0.05893588
221	0xbe22a880	-0.1588459
222	0x3c4e8284	0.01260436
223	0x3cd3ec09	0.025869386
224	0x3db4ee54	0.0883452
225	0xbcc62ce8	-0.024191335
226	0x3ddbe192	0.107363835
227	0xbe978a3e	-0.29597658
228	0xbe1933e3	-0.149612
229	0xbb5fbb22	-0.003413864
230	0xbc8428d5	-0.016132751
231	0xbcb60102	-0.022217277
232	0xbe806d49	-0.25083378
233	0xbb2e8846	-0.0026631518
234	0xbc9279d2	-0.017880354
235	0xbd6b4d46	-0.05744674
236	0xbd8c493d	-0.068499066
237	0xbd681a40	-0.05666566
238	0xbdaa7337	-0.08322757
239	0x3d60e4c2	0.05490566
240	0xbd1a14b5	-0.037617404
241	0xbab231f6	-0.0013595212
242	0x3deaa0dd	0.114564635
243	0xbd8ae0fe	-0.06781195
244	0x3d8427e3	0.0645292
245	0xbd44a1e9	-0.048005972
246	0x3e19c38c	0.15016001
247	0xbdd7c488	-0.10535532
248	0xbc9e11f1	-0.019295665
249	0xbdadcebb	-0.08486696
250	0xbb836edf	-0.0040110196
251	0xbcc8f29e	-0.024529751
252	0xb9d46f99	-0.00040518938
253	0xbc86048b	-0.016359588
254	0xbd0c93f7	-0.034320798
255	0x3dcc3d44	0.09972623

bias f4 [100]
0	0xbc987f3c	-0.018615358
1	0xbde4b1d4	-0.111667305
2	0xbcb472a7	-0.022027327
3	0xbd521153	-0.051286053
4	0xbd217cea	-0.039425768
5	0xbdeed45f	-0.116616
6	0x3e17abbe	0.14811608
7	0xbc58e22b	-0.013237516
8	0xbcd24d63	-0.025671666
9	0xbe0896b2	-0.13338736
10	0xbe063bdb	-0.1310877
11	0xbe320f9f	-0.17388771
12	0xbcd1d320	-0.025613368
13	0xbddd6569	-0.10810358
14	0xbe212649	-0.15737261
15	0xbdead51a	-0.11466427
16	0xbd1d4588	-0.03839639
17	0x3e05d245	0.13068493
18	0xbdab1eb4	-0.083554655
19	0x3d48ba9b	0.049006086
20	0xbd7ee834	-0.062233165
21	0xbd7108a3	-0.058846127
22	0x3dc6a3a3	0.0969918
23	0xbdfa0c40	-0.12209368
24	0xbd354c63	-0.0442623
25	0xbd334363	-0.043765437
26	0xbd06178d	-0.032737304
27	0xba009ebd	-0.00049064663
28	0xbd59c84f	-0.053169545
29	0xbd24d840	-0.040245295
30	0x3d5ad5e6	0.053426646
31	0xbd85f6fc	-0.06541249
32	0xbd80f7df	-0.06297278
33	0xbe27bd7b	-0.16380875
34	0xbd2099ae	-0.03920906
35	0xbd9de266	-0.07709198
36	0xbe606833	-0.21914749
37	0xbc6c27ba	-0.014413768
38	0x3e8977c8	0.26849198
39	0xbd564196	-0.05230864
40	0x3e77f360	0.24213934
41	0xbdee204b	-0.11627253
42	0xbe06e9c4	-0.13175112
43	0xbe6d7b21	-0.23191501
44	0xbd225f51	-0.039641682
45	0xbd5c529e	-0.053789727
46	0xbc328344	-0.010895554
47	0xbd1afec9	-0.03784064
48	0xbdd7bdab	-0.10534223
49	0x3e00759e	0.12544867
50	0xbb1924a9	-0.0023367798
51	0x3e3f3bea	0.18675199
52	0xbd9f5149	-0.07779176
53	0xbe1c2f35	-0.15252383
54	0xbda66e5d	-0.08126519
55	0x3e2a7f7e	0.16650197
56	0xbc23f1e4	-0.010006402
57	0x3c9240e8	0.017853215
58	0xbd993f5e	-0.074827895
59	0xbcb132d7	-0.021630688
60	0xbde5bd18	-0.112177074
61	0xbe925298	-0.2857864
62	0x3caf2680	0.021380663
63	0xbd0ed05c	-0.034866676
64	0xbdf160dd	-0.11786053
65	0xbdab8bbd	-0.08376262
66	0xbd391665	-0.045187373
67	0xbe203036	-0.15643391
68	0xbe230261	-0.15918876
69	0xbe14f988	-0.14548314
70	0x3e1ca81b	0.15298502
71	0xbcc63d59	-0.024199175
72	0xbe1ed664	-0.15511471
73	0x3d277b33	0.040888976
74	0x3e1b974a	0.15194431
75	0xbcc013e9	-0.023446994
76	0xbe1867d0	-0.14883351
77	0x3d6cdaa1	0.05782569
78	0xbe02959d	-0.12752385
79	0xbd822ce9	-0.06356222
80	0xbdef862e	-0.116955146
81	0xbbf4fbe5	-0.007476317
82	0x3db87daa	0.090083435
83	0xbe40b1b2	-0.18817785
84	0xbd2a5add	-0.04159056
85	0xbc972c67	-0.01845379
86	0xbd928e27	-0.0715602
87	0xbd634f1a	-0.05549536
88	0xbbe12b76	-0.006871636
89	0xbae1f2fe	-0.0017238555
90	0xbca26082	-0.01982141
91	0xbe50e25c	-0.20398849
92	0x3e942671	0.28935578
93	0xbd1a3835	-0.03765126
94	0xbced65b1	-0.028979154
95	0xbdcfb15c	-0.101412505
96	0x3e5afdc0	0.2138586
97	0xbbcbd6f5	-0.0062206932
98	0xbdcd97fe	-0.10038756
99	0xbda3f9ca	-0.08006628
