data/pretrained_models/acceptor-4.pt (torch, 247597 bytes, 14 tensors)

weight f4 [100, 4, 23]
000000 11 e6 53 3e 9d 10 9b 3e 6a 31 e0 3c c4 e9 05 3e
       0.20693232 0.30286112 0.027367312 0.13077456
000010 b5 94 6b 3d e7 76 b1 3d 3c a5 74 3e 95 a7 18 3e
       0.057514865 0.08665257 0.23891157 0.14907677
000020 70 71 db 3d 5e 35 7c 3e 5a df 7c 3e 29 dc 1a 3e
       0.10714996 0.24629733 0.24694577 0.15123047
000030 9b 0b 0b 3e 59 d1 18 3e 21 25 81 3e 2a 29 41 3e
       0.13578646 0.1492361 0.2522364 0.18863359
000040 ff c5 39 3d 26 be f3 3d 4f d1 21 bf 9f b4 b0 3e
       0.04535484 0.11901502 -0.63210005 0.34512803
000050 75 24 3f bd 14 c7 38 3c ba 82 2d 3d 64 44 21 bd
       -0.046665628 0.011277933 0.042361 -0.039371863
000060 49 8c 92 3d 6b a0 79 3d 02 43 a5 3d c1 8d 3d be
       0.071556635 0.060944002 0.08069421 -0.18511106
000070 49 72 44 be e4 46 70 be be 76 b8 3c a3 4c 3c 3e
       -0.19184221 -0.23464543 0.022517558 0.1838861
000080 3e 2b 6b 3c a9 bf 53 bd ee 53 2c be fd 09 22 3d
       0.014353571 -0.051696453 -0.16828892 0.039560307
000090 85 c9 df bc 98 b5 11 bc 9c 31 be 3c c3 c8 69 3e
       -0.027317772 -0.008893393 0.023217015 0.22830491
0000a0 c2 8c 37 be c3 cf 31 3e f0 0d 21 3e 56 49 35 3d
       -0.17924789 0.17364411 0.15727973 0.04425939
0000b0 07 be ea 3c 19 0b 06 3e a9 d1 ec 3d 71 d8 1b 3d
       0.028655065 0.13090171 0.11563427 0.03804821
0000c0 ae 9f d0 3d ba be 0d 3e ae 88 01 3e 5b ae 5d 3e
       0.101867065 0.13842288 0.12649795 0.21648543
0000d0 f3 04 53 3e a2 3f 94 3e 31 69 f8 3d a1 67 dc 3d
       0.20607357 0.28954798 0.12129439 0.10761953
0000e0 60 06 46 3e f0 0e 9b 3e db fd 04 3e d5 b2 8a 3d
       0.1933837 0.30284834 0.12987463 0.06772391
0000f0 4b 87 49 3d 96 fc 66 3e df 48 48 be f7 55 20 3f
       0.04920129 0.22557291 -0.19559048 0.6263117
000100 83 4e da 3e 8a 57 ca be 1a ee a0 bc ca 32 bb 3c
       0.42638025 -0.39519912 -0.019644786 0.022851367
000110 db 60 05 3d ba 2e 3b be 46 47 ca be e2 d7 d1 be
       0.03256307 -0.18279544 -0.39507502 -0.40985018
000120 95 64 bb be ee 17 3d be 81 f8 af bd e7 f2 d4 bc
       -0.36600175 -0.1846616 -0.0859232 -0.025994731
000130 f8 09 0d bf 34 c4 d5 be 7c 7e b8 be 25 35 b2 be
       -0.55093336 -0.41751254 -0.36034 -0.3480617
000140 87 b7 81 bd 4c 43 27 be ed ce 9e bd 63 ba 8f be
       -0.06333833 -0.16334265 -0.07754312 -0.2807189
000150 16 52 21 be 36 81 b4 bd 22 99 8d be 32 b4 f9 3e
       -0.1575397 -0.088137075 -0.27655894 0.4877029
000160 2d c2 b5 3e 48 e6 61 3c 82 e3 07 be dc 97 aa 3c
       0.35499707 0.0137878135 -0.13270381 0.020824365
000170 f9 9f 8d bd a7 5e c5 3d 2f 2e 28 3f 3b 34 34 bf
       -0.06915278 0.09637194 0.6569547 -0.703922
000180 1a dc 55 be 14 a1 df 3d 69 cb 2f bd 8a 7f 6b bd
       -0.20884743 0.10919395 -0.042918596 -0.057494678
000190 54 3f 5c bc d1 2a a4 3e 19 86 95 3e 2d 73 36 be
       -0.013442833 0.32063916 0.2920387 -0.17817374
0001a0 87 ff 10 bd c1 bd 60 3e be 1d 5c 3d 07 8b 68 3e
       -0.03539994 0.21947385 0.0537393 0.22709285
0001b0 40 29 30 be 8d ce 56 3e ba 1a a6 bd d4 7b b7 bd
       -0.17203236 0.2097723 -0.081105664 -0.08959165
0001c0 e2 e8 4b 3e 0a 7f 96 3d 06 77 01 be 71 01 00 3d
       0.19913056 0.073484495 -0.1264306 0.031251375
0001d0 9b 99 fd 3d 07 50 51 bf a2 0e a7 be 2f 57 36 3e
       0.123828135 -0.8176274 -0.3262835 0.17806695
0001e0 e0 b5 0b 3e 1b 0a 05 bd f2 e1 b8 3c ff fe 55 bd
       0.13643599 -0.03248034 0.022568677 -0.052245136
0001f0 78 3e cc bd 84 c5 94 bb 6b 82 e7 3d 75 66 4b be
       -0.099728525 -0.0045401473 0.11304172 -0.19863303
000200 8f 7b 9d 3d 72 14 72 bc 98 db 91 be 5c 7a 34 3e
       0.076895826 -0.014775382 -0.2848785 0.17624801
000210 2d 95 c6 bd e9 de 15 bd e9 7c c2 3d dc 3c 41 be
       -0.09696422 -0.036589537 0.09496481 -0.18870872
000220 e4 32 a7 3d 3a 44 c2 3d b5 65 0b 3e 73 86 bf be
       0.081640035 0.094856694 0.13613017 -0.37407264
000230 e1 e4 15 3d 6b e5 38 3f cd 1c da bd 3b 3f 0a be
       0.03659523 0.72225064 -0.106500246 -0.13500683
000240 4e 42 79 3e 5c 6e 14 3d 1c eb 7f bd 3a e3 75 be
       0.243417 0.03623806 -0.062480077 -0.24012461
000250 91 5e e4 bb 9a 00 49 3c 0f f2 18 3e b5 be 91 bc
       -0.006969281 0.01226821 0.14936088 -0.017791132
000260 36 8f 50 3d f5 6d aa 3e d3 74 83 3d 2c cb 86 3e
       0.050917827 0.33287016 0.06418767 0.26326883
000270 8d 39 9f 3e a5 21 4a bd 81 df be bd e3 e8 d1 bc
       0.31098595 -0.049348492 -0.09319974 -0.025623744
000280 37 57 e2 bd 8a 7b 37 3d b0 b3 d8 bc dd 3c 05 bf
       -0.11051791 0.04479555 -0.02645287 -0.52045995
000290 42 cd b3 be 17 5e 04 be 74 c7 1c bd 80 8c db 3c
       -0.35117537 -0.12926517 -0.03827615 0.026800394
0002a0 de 45 38 bd 5e b1 12 bd 99 c1 1c 3e 6f 01 ac bd
       -0.044988506 -0.03581368 0.15308227 -0.08398711
0002b0 a4 6f 21 3d e0 f5 42 3d df 11 70 be c8 43 13 bd
       0.03941311 0.047597766 -0.23444317 -0.035953313
0002c0 d2 4e 95 bd e3 f5 44 bd ce a6 01 be 7a c0 86 3e
       -0.072904244 -0.04808606 -0.12661287 0.26318723
0002d0 0d f8 9a 3e 2e 0d 6b bd 41 ef 20 be 7a b7 0a 3d
       0.30267373 -0.057385616 -0.15716268 0.033866383
0002e0 87 40 a1 be be ee 9a 3e 09 1d e4 3d 33 51 0c 3c
       -0.31494543 0.3026027 0.111383505 0.008564281
0002f0 3f 42 95 3d 05 3c 08 bd 0b 24 c7 bd f8 2e 72 ba
       0.07288026 -0.033260364 -0.097236715 -0.0009238566
000300 98 ad 9c 3e f0 68 a9 be 7e df 15 3e 08 86 c2 3d
       0.30601192 -0.33087873 0.14636037 0.09498221
000310 43 ed 45 3e 79 f8 a3 3d 57 3c 57 3f b9 6f 15 bf
       0.1932879 0.08006377 0.84076446 -0.583736
000320 79 b0 21 be d3 01 6b 3e ec 4a ad 3b eb 6f 20 3f
       -0.15789975 0.22949915 0.0052884724 0.62670773
000330 51 06 34 bd de 36 1a 3e 2c f6 a8 bd bb cd 16 3e
       -0.043951336 0.15059993 -0.082500786 0.14726917
000340 eb b9 a2 3d 0e 7b 06 be 50 0c 06 bd 82 d2 1e bd
       0.07945617 -0.13132879 -0.032726586 -0.038774975
000350 94 c7 8e bd fd 53 2a 3e eb f7 44 3d 64 de 4b bd
       -0.0697166 0.16633601 0.048087995 -0.049772635
000360 fa ee 4e 3d 00 5d b1 bc 59 e5 6e bc b3 da 4e bd
       0.050520875 -0.021650791 -0.014581048 -0.050501537
000370 90 b7 79 3d a5 52 1e bf 03 7b 3f be 37 a1 ef 3c
       0.060966074 -0.61844856 -0.18699269 0.029251678
000380 c8 b7 1e 3a d9 6a b4 be 8d 65 5c 3f d1 01 f9 3d
       0.0006054607 -0.35237768 0.86092454 0.121585496
000390 0a d6 ff 3b 6e 3c 8c 3d df 84 0e 3e bd 73 f3 bd
       0.007807498 0.068474635 0.13917874 -0.1188731
0003a0 b6 74 bc 3e c2 06 13 3e 29 12 b9 3c 92 2b 86 3e
       0.36807793 0.14358047 0.022591667 0.26205117
0003b0 bd e4 ce 3d 9d 9a 34 be 7a 88 b1 bd ed af 30 3e
       0.10102222 -0.17637105 -0.08668609 0.1725461
0003c0 58 ca 64 be 78 e4 d5 bd ba c5 95 bd 88 df 43 be
       -0.22342813 -0.104439676 -0.07313104 -0.19128239
0003d0 a5 35 ef be e0 77 3d 3f 5f 0d 8c bd d5 b4 29 be
       -0.46720615 0.7401104 -0.06838488 -0.16572888
0003e0 25 d5 53 bf e1 bc 47 be 2c e5 14 be 4b 3b d7 bd
       -0.8274711 -0.19505645 -0.14540547 -0.10509356
0003f0 16 a9 6d bb 99 96 e6 bd d5 c5 c5 be 10 9d 86 be
       -0.0036264113 -0.11259193 -0.38627496 -0.26291704

bias f4 [100]
000000 7d 8c 19 3e a6 5f bb 3d 68 1b b6 3d f4 55 f1 bd
       0.14994998 0.09149103 0.08891946 -0.117839724
000010 e8 1b b6 3d 17 a9 20 bd f6 b9 ce 3d aa 74 22 3e
       0.088920414 -0.039223757 0.10094063 0.15864816
000020 b3 e8 24 bd fa 0e f3 bd 23 b3 f0 bc 7f d7 6d bd
       -0.04026098 -0.11868091 -0.029382294 -0.05806684
000030 65 dc 28 bd 43 4d 09 be 6c 82 ef 3d 32 dc ab 3c
       -0.04122581 -0.1340838 0.11694798 0.02097902
000040 0b 8f ca bd 0e 99 dc 3c 81 5f 7d bc 63 5e 3d 3e
       -0.098905645 0.02692845 -0.015464664 0.18493037
000050 5f 94 35 bd ed d7 51 3d bd 28 8c 3d cb bc b9 3b
       -0.04433095 0.051231313 0.06843708 0.005668258
000060 66 94 85 bd 8c 0f c7 bd 6f 27 dd bd 8d a9 5a 3e
       -0.065224454 -0.09719762 -0.10798537 0.21353741
000070 02 c2 41 bd 59 4e 00 be 88 45 6e 3d 31 6b 6e bc
       -0.04730416 -0.12529887 0.05817178 -0.014551924
000080 ef 03 ff 3c 0a 51 01 3e c5 16 56 3e 44 97 55 3e
       0.031129805 0.1262857 0.20907123 0.20858485
000090 63 c7 63 bd 5a 63 a9 3d 6e 69 02 bd 64 c5 1c be
       -0.055610072 0.08270903 -0.031838827 -0.15309674
0000a0 ff 38 55 bd 6f e3 c2 3d 40 5f 7e 3e 87 de a3 bc
       -0.05205631 0.09516036 0.24841022 -0.02000357
0000b0 ba 92 f6 bc 0e 4b 8b 3d b1 2d 9a bd 55 d9 2e bd
       -0.030099262 0.06801425 -0.07528246 -0.042687733
0000c0 90 6f a9 bd cc 0b 84 3d fc 25 ca bd 10 82 a8 bd
       -0.08273232 0.064475626 -0.09870526 -0.082279325
0000d0 71 c5 55 3b d2 c4 12 bd 0d d8 d5 3d 38 b4 e1 3d
       0.0032618905 -0.035832234 0.10441599 0.11020702
0000e0 47 2d 8e 3d 16 54 d1 bd 97 45 4f 3e 17 4c 59 3e
       0.0694223 -0.10221116 0.2024139 0.21220432
0000f0 91 71 14 3e 41 73 a5 bd 88 8c 7c 3c a7 9d 13 be
       0.14496447 -0.080786236 0.015414365 -0.14415608
000100 8c 77 f6 bd 7e 40 95 3e fa 1d cd bd 31 a1 c9 3d
       -0.120345205 0.29150766 -0.10015483 0.09845198
000110 d6 c3 43 3e fa f8 c5 bd c0 6f a7 3e 60 18 1b 3f
       0.19117674 -0.09666629 0.32702446 0.6058407
000120 48 37 f1 bd dd fa 12 3e 56 4d 70 bd 7b 23 b8 3e
       -0.11778122 0.14353509 -0.058667503 0.3596457
000130 c6 cb b1 3e 81 04 31 bd 5c fb e1 bc 81 e5 47 3e
       0.3472578 -0.043217186 -0.027585678 0.19521143
000140 0c c3 0a be e9 8e ef 3d 7c ed 89 bd 14 70 76 3d
       -0.13550967 0.1169718 -0.0673475 0.06016548
000150 a2 c1 54 bd f3 59 17 be 5d b0 68 3e 85 1a b3 ba
       -0.051942475 -0.14780407 0.22723527 -0.001366452
000160 47 ee dc bd 41 99 80 bd f0 80 8f 3e 41 d2 18 bc
       -0.10787635 -0.06279231 0.2802806 -0.009327472
000170 25 fd 0b bd 91 6d 74 3d 17 e8 c9 3c 0a 5b e9 3c
       -0.034176964 0.059674803 0.024646802 0.028485794
000180 84 b9 c0 3d c1 4c c9 bd 21 1e 7c 3e 8d 94 0b 3e
       0.09410384 -0.09829093 0.24620868 0.13630886

weight f4 [100, 100, 1]
000000 c2 80 2d 3e 25 b5 69 3d fa b2 df be 7a 8f ea bd
       0.16943648 0.05705752 -0.43691236 -0.11453147
000010 b6 ce 51 be 59 ae 8a 3d f8 05 87 3e 45 63 15 bd
       -0.2048901 0.067715354 0.2637174 -0.036471624
000020 2b a5 68 3d 85 e6 40 3e f9 e5 ec 3d ff 57 9c 3d
       0.05679814 0.18837936 0.11567301 0.076339714
000030 db 63 a0 bd 55 43 01 bc 3c df c2 3d ba 8d c6 bd
       -0.07831546 -0.007889588 0.09515235 -0.09695001
000040 d7 aa 59 be ec 47 d9 bc 8a d0 17 be d8 28 db bd
       -0.21256576 -0.026523553 -0.14825645 -0.1070115
000050 3a 49 79 be b6 ed 61 be 28 c3 92 3e 62 e7 91 3d
       -0.2434434 -0.22063336 0.28664517 0.07124211
000060 3f bd 2d be 29 ad b2 bd e9 95 84 be 97 c9 be 3e
       -0.16966723 -0.08724434 -0.25895622 0.37263176
000070 9f 9d 36 be a1 c8 9e 3d 4d 3c 7d 3e 9d ce 0e 3e
       -0.17833565 0.07753111 0.24730034 0.13946004
000080 39 9c 97 3e a3 5b 0f be ac c0 4c be 38 f0 f0 bd
       0.29611376 -0.139998 -0.19995373 -0.11764568
000090 73 b9 2f 39 3d d5 20 3e 4f af 19 3e b5 77 ed bc
       0.00016758386 0.15706344 0.15008281 -0.028987745
0000a0 28 23 57 bd d5 30 2a 3d e8 2a bb be 28 fd eb bd
       -0.052523762 0.041550476 -0.36556172 -0.11522895
0000b0 ff 16 10 be 7d 4e 71 3e 46 30 c6 3a 11 dc 9c 3d
       -0.14071272 0.23565097 0.0015120588 0.07659162
0000c0 a4 26 ba 3e 4a 13 02 3e 07 fe 87 3f ec c6 74 3d
       0.36357605 0.1270267 1.0624398 0.05976002
0000d0 4d f7 4d be 3d e7 f0 be 83 3b 1d be 1d 9c 86 3c
       -0.20113869 -0.4705142 -0.15354733 0.016431862
0000e0 da 24 e7 3d bf 05 00 be fc a3 87 bd 94 6d 9f be
       0.11286326 -0.12502192 -0.066230744 -0.3113829
0000f0 d8 e1 13 3e e7 a2 5d 3c f3 c0 0e 3f be 03 67 3f
       0.14441621 0.0135276085 0.5576317 0.90240085
000100 2e a4 16 bd 82 67 0c 3e ae 31 7a 3c 5b f4 e5 3c
       -0.036777668 0.1371136 0.015270634 0.02807062
000110 8d d2 15 be 0f 23 31 3c 96 ba a8 be 27 2c 5c 3e
       -0.146311 0.010811581 -0.32954854 0.21501218
000120 92 b1 e7 bc 2f 76 aa 3d 65 56 e6 bc 3c 72 a8 bd
       -0.028282914 0.08323323 -0.028117368 -0.082249135
000130 02 8d 7f be 3d d4 f2 3d 05 b4 91 3e 0a ba 0b 3e
       -0.24956134 0.118568875 0.28457657 0.13645187
000140 82 f7 cd 3d 08 bb 4e 3d 57 5f c6 3e 35 26 29 3d
       0.10056974 0.050471336 0.38744614 0.041296203
000150 2d 2a 15 3e e3 cc 85 be 97 19 8c 3e 94 aa 39 3c
       0.1456687 -0.2613288 0.27363274 0.011332173
000160 31 37 ef 3d 6f 9d aa be 51 78 29 3e 25 0e c5 3c
       0.11680449 -0.33323237 0.16549803 0.024054596
000170 13 a6 81 3e 7e 6d 81 be a1 fc 01 3f cd a8 80 3e
       0.25322017 -0.25278848 0.50776106 0.25128785
000180 36 a9 90 3e 90 a8 dc 3c b5 fe 5d bd 2e 57 52 3d
       0.28254098 0.026935846 -0.054197986 0.051352672
000190 c3 b0 08 3d f1 24 1d be 4a 5f 8a bd 47 a4 92 bc
       0.033371698 -0.15346123 -0.06756456 -0.0179006
0001a0 14 7d 14 3d 23 5b 21 be 38 6b 0d 3c 73 ff c9 bc
       0.036252096 -0.15757422 0.00863152 -0.02465794
0001b0 cf 70 e2 3b 27 eb 84 3e ed 03 fc bd 03 d6 1e be
       0.0069104205 0.25960657 -0.12305436 -0.15511326
0001c0 6d ea d4 3d 53 27 15 bd cd 51 bd 3d 9d b7 84 be
       0.10396276 -0.036414456 0.09244118 -0.25921336
0001d0 ae 80 96 bd ec cb 80 3d 27 3d 88 be 75 63 90 3e
       -0.073487625 0.06288895 -0.26609156 0.2820088
0001e0 59 37 2c 3e cf 5f ac 3d e3 1a 3c bd b4 e6 1a 3e
       0.16817988 0.084167115 -0.04592408 0.15127069
0001f0 2e 76 9c 3c 02 35 8f bd db 24 44 3d 62 8d c5 3e
       0.019099321 -0.06992532 0.04788671 0.3858443
000200 22 f0 1e 3d 2b 2f ea 3d b7 1d 8a 3c 5c b9 14 3d
       0.038803227 0.11434778 0.016859872 0.036309585
000210 7e 6f 9a 3e 9f c9 ed bd 8d 3e 10 3e cc 45 23 be
       0.30163187 -0.11610722 0.14086361 -0.15944594
000220 fa 1b e4 3d fe ec bc bd fa cd 90 3e 38 2c 53 3e
       0.111381486 -0.0922489 0.28282148 0.20622337
000230 f3 34 c2 bd 47 ea 7a 3e 1e 88 1c 3d 5e 75 11 3d
       -0.094827555 0.24503432 0.03821575 0.03551232
000240 c6 be 00 3e f3 a4 a6 be 4a 11 ac 3d d0 ea 82 bd
       0.12572774 -0.3254772 0.08401735 -0.06392443
000250 f6 21 30 3e 4b b4 18 be 86 20 e0 3e d4 53 09 be
       0.17200455 -0.14912526 0.43774813 -0.13410884
000260 5e ad 5d 3e 05 f3 17 3e 38 07 d3 3d ac ee 8f 3e
       0.21648166 0.14838798 0.10304111 0.2811178
000270 51 18 c2 bd 72 5a 93 3e 5a 29 b1 be 5c 3a 8a bf
       -0.09477294 0.28779942 -0.3460186 -1.079906
000280 ed 71 3a 3c e2 da 72 3e 8f e7 50 b9 4c ef 15 3e
       0.011379701 0.2371631 -0.00019922688 0.14642066
000290 8a 7d f5 3c 81 78 51 bd 87 ed aa bd 9d 0e 86 3e
       0.029967088 -0.051140312 -0.08346086 0.26183024
0002a0 94 45 0e 3e 1d e3 81 b8 05 5f 8f 3e 1c e1 93 3e
       0.1389373 -6.1935025e-05 0.28002182 0.28882682
0002b0 e4 8a ff 3e 93 ac d8 3d ce 68 44 3e aa 20 5c be
       0.49910653 0.10579791 0.19180605 -0.21496835
0002c0 f7 e8 b8 3d 84 4b fe bd 10 b9 11 3e 26 87 80 3e
       0.090288095 -0.12416747 0.14230752 0.2510311
0002d0 c2 3f 4a bd b0 ea b4 3c dc 8b a2 be 99 73 60 3e
       -0.04937721 0.022084564 -0.3174733 0.21919097
0002e0 dd 0d f0 3d a9 9a 10 be 9b fc 6b 3e c8 90 5b be
       0.11721394 -0.14121498 0.2304558 -0.21441948
0002f0 c7 b2 a4 3d 89 19 7e bd da 82 75 3e 85 e2 10 3f
       0.080419116 -0.06203607 0.23975697 0.5659564
000300 9f a8 4f bd 6c 75 2d 3d 03 c9 90 3e 8f 07 09 3f
       -0.05069792 0.04234831 0.2827836 0.5352716
000310 3c bd 36 3e 9b 55 85 3d 63 0d 22 be 23 69 01 3b
       0.17845625 0.065104686 -0.15825419 0.0019746504
000320 72 3b 64 be 3a 08 6f bd ed 38 87 3d 65 c5 77 3d
       -0.22288302 -0.058357455 0.066026546 0.060490984
000330 fd 59 5e bc 9d fa 30 bd a5 ff c1 3d 40 df bc 3d
       -0.01357126 -0.043207753 0.094725884 0.09222269
000340 09 b0 eb bd 28 c5 7b bd 15 47 86 3c fa 70 f2 3c
       -0.115081854 -0.06146732 0.016391316 0.029594887
000350 8b f3 13 be da 35 96 be 98 5c 28 3e 3f 07 c1 3c
       -0.14448373 -0.2933796 0.16441572 0.023563026
000360 ed 92 5f 3e ba 34 96 3d 46 f9 38 be b8 a4 c5 be
       0.21833391 0.073342755 -0.1806384 -0.38602233
000370 4a 53 24 3e d7 d7 3a 3e 89 e5 6f be 36 21 cb 3d
       0.16047397 0.18246399 -0.23427404 0.09918444
000380 d1 a6 31 be 87 36 c1 3c 4b f2 00 3e df 97 de 3e
       -0.17348792 0.023585571 0.12592427 0.43475243
000390 7b ca ec 3d 71 f7 52 3d 74 33 17 3f 5c 9a 30 be
       0.115620576 0.05150551 0.59062886 -0.17246383
0003a0 e4 4f 60 3e 27 33 c4 be c8 06 57 3d af e7 44 be
       0.21905476 -0.38320276 0.0524967 -0.19229005
0003b0 31 de 27 3d 9b f2 c6 3e 8d 34 25 be 26 1b 1c be
       0.040983383 0.38856968 -0.16133328 -0.15244731
0003c0 12 1d f6 3d 21 e8 99 be b1 be c2 bd a1 cc 6f be
       0.120172635 -0.30059913 -0.09509028 -0.23417903
0003d0 c1 28 e1 3d 3e 0a ff bd 99 e6 9c be 15 29 72 be
       0.10994101 -0.124531254 -0.30644682 -0.23648484
0003e0 38 e2 58 be ce b5 eb 3d 0d d5 6d 3f ea 95 3c be
       -0.21180046 0.11509286 0.92903215 -0.18416563
0003f0 0c 16 22 be cb 2b 50 3e 64 b5 24 3f 5b 53 b2 3d
       -0.15828723 0.20329206 0.6433928 0.08707305

bias f4 [100]
000000 8a 24 fd be 52 c7 39 3b b0 69 68 be fc 34 3c be
       -0.4944194 0.0028347564 -0.22696567 -0.18379587
000010 3d 3d 6e 3e bb 57 83 be 02 de 12 3d e4 50 63 bd
       0.23265548 -0.2565287 0.035856254 -0.055497065
000020 d0 db 0f be 57 0b 2f 3e 9c d7 1d be 7b 5b 9c be
       -0.14048696 0.1709417 -0.1541428 -0.30538544
000030 9b 31 94 be 11 ff af bc 2b 77 b9 bd 17 1c 09 be
       -0.28944096 -0.02148393 -0.090559326 -0.13389622
000040 8e e1 67 bf fa a6 10 be 2e b7 87 3c b4 7a ca bd
       -0.90578544 -0.14126197 0.01656684 -0.09886685
000050 4c d5 40 3e 67 e8 94 bd 64 ec 25 be 8a c1 de bb
       0.18831366 -0.0727089 -0.16203457 -0.006797974
000060 22 9f 63 3b b4 47 72 3d fe 4b 91 bd 6c 4b d1 bd
       0.0034732302 0.059150413 -0.070945725 -0.10219464
000070 bc 1a 06 be 88 89 56 bf da ef 39 be 34 df 36 3d
       -0.13096136 -0.83803606 -0.18157902 0.044646457
000080 91 84 23 bc e7 28 e8 bd 8f 61 ae bd 90 ec 97 bd
       -0.009980337 -0.113359265 -0.085147016 -0.074181676
000090 3e f2 d5 3d 36 8f 19 be a2 c5 f9 bd ae 59 56 be
       0.10446595 -0.14996037 -0.121958986 -0.20932648
0000a0 d3 ac ff bd 70 0b ea bd 64 0f 13 bd 11 f7 39 be
       -0.124841355 -0.11427963 -0.03590335 -0.18160655
0000b0 fe df 31 be 6c 0d 8b bd 26 23 62 be 32 b8 ad be
       -0.17370602 -0.067896694 -0.2208372 -0.33929592
0000c0 df f8 87 3e 11 2b b4 be 94 3f b7 bd fe 15 9f bd
       0.2655706 -0.35189107 -0.089476734 -0.077678666
0000d0 98 be 43 be 52 32 42 be 81 83 7c bd 8f 20 a9 bc
       -0.19115674 -0.18964508 -0.06164885 -0.020645408
0000e0 5c 7e ba 3d 73 40 b1 be 1a b1 e2 bd 5f 9c e3 bd
       0.091061324 -0.34619483 -0.11068936 -0.1111381
0000f0 73 5a ab bd ad 9e 48 be 11 99 dd bd ca 67 b5 3d
       -0.08366861 -0.1959178 -0.10820211 0.08857687
000100 36 05 99 be fa e2 15 bc 2c e1 56 be 4f 9f de bc
       -0.29886788 -0.009148354 -0.20984334 -0.027175574
000110 2e f6 88 3d 13 8f 43 be 36 22 1d 3d 75 8a 57 3c
       0.0668758 -0.19097547 0.038362704 0.013155569
000120 0d 27 da bb c2 27 f8 bd d8 9d 72 be 29 01 e8 bd
       -0.0066574872 -0.12116958 -0.23693025 -0.11328346
000130 22 0b 30 3c 55 09 82 be 64 7e 42 bd 65 84 ee 3c
       0.010744842 -0.25397745 -0.047483817 0.029115865
000140 d5 3b 42 3d 42 7a 83 bd 3a 77 3d be 7b 26 88 be
       0.04742034 -0.06419803 -0.18502513 -0.26591858
000150 2c db cb be cd e1 fe bd 95 88 06 be 96 49 fc bc
       -0.39815652 -0.12445412 -0.1313804 -0.030796807
000160 d9 70 6c be 0d d7 e0 bc 6a 1f 10 3d 72 5a e0 bd
       -0.23089923 -0.027446294 0.03518621 -0.10954751
000170 5d f2 f6 3c e8 d2 81 bd 4b 41 3c bd ba eb ab 3d
       0.030144865 -0.06339055 -0.045960706 0.08394571
000180 39 59 ad bd 2d b5 ad bd fd d0 a4 be 52 08 27 3e
       -0.084642835 -0.08481822 -0.32190695 0.16311768

weight f4 [100, 100, 1]
000000 c9 08 e5 3e 93 d4 40 3e 57 67 8c 3d 77 65 32 3c
       0.44733265 0.1883109 0.06855648 0.010888449
000010 63 df 36 3e 59 f8 bd 3d 88 d7 47 be 68 6f 35 be
       0.17858653 0.09275884 -0.19515812 -0.1771828
000020 13 ad db 3e 6f 88 2e be e7 34 a7 3e ba 14 a7 3c
       0.42905483 -0.17044233 0.3265755 0.020395625
000030 50 cb d0 3d 15 b7 e5 bb 10 82 c4 3d a5 f1 24 3d
       0.10195029 -0.0070103505 0.0959512 0.040269513
000040 6d 23 21 bf d9 35 78 bd 05 01 86 3e 55 72 81 3d
       -0.6294468 -0.060598228 0.26172653 0.06320635
000050 00 77 54 bd 0a 97 02 bd 44 95 92 bc e0 09 0c 3e
       -0.0518713 -0.031882323 -0.017893441 0.13675642
000060 b1 63 0c be 22 98 45 be c3 d1 98 3d 2d 89 4d be
       -0.13709904 -0.19296315 0.07461884 -0.2007186
000070 81 52 19 bc 83 ce 01 bf 15 94 9d bd 68 f7 5f be
       -0.009358049 -0.50705737 -0.0769426 -0.21871722
000080 ed 61 bb 3e 96 37 9d 3d bc 31 f9 3d 41 ef db 3c
       0.3659815 0.07676618 0.12167689 0.026847484
000090 a3 a9 ae bd 4f 58 3d 3d ea 23 f4 3c e0 20 52 3e
       -0.085284494 0.046226796 0.029802281 0.20520353
0000a0 ca 3f 43 3e 90 5b d7 bc 60 cb 2d 3d 62 7b 2c 3e
       0.19067302 -0.026288778 0.04243028 0.16843942
0000b0 dc 8a f1 3e be 44 76 3d 41 1c 7a be 50 fd b7 3e
       0.47176254 0.06012415 -0.2442484 0.3593545
0000c0 f4 ce 99 3d 84 db 3a 3e c7 fc 9e 3d b8 d7 97 3d
       0.07510176 0.18247801 0.07763057 0.07414192
0000d0 67 5a 3f bd bd a9 bd bd 80 8c 6a 3e dd 03 0f be
       -0.046717074 -0.09260891 0.22905159 -0.13966317
0000e0 3b b7 c8 3d 4a 98 d2 3e 98 fc 24 3e d2 7f a2 bd
       0.098005734 0.41131812 0.16111982 -0.07934536
0000f0 1e e5 b9 bc 71 06 34 3e 09 79 46 3e e3 c2 a5 be
       -0.02269226 0.17580582 0.19382109 -0.3237525
000100 76 26 da bd 28 15 41 be b1 01 98 3e 3c 46 ba 3d
       -0.10651867 -0.18855727 0.2968879 0.090954274
000110 15 ad f6 bd 1e f4 43 3e 75 4a a0 3e 77 c8 a8 3d
       -0.120447315 0.19136092 0.31306806 0.08241361
000120 d8 e4 6f 3e fa 11 a5 bd 46 21 79 3e 23 a7 4d 3d
       0.2342714 -0.080600694 0.24329099 0.050208222
000130 fc 7c b2 be fa 42 77 3e 9a 32 a3 3e 0f f9 16 be
       -0.3486098 0.24146643 0.31874543 -0.14743446
000140 f0 1d 57 3d 57 8d 99 3c bc 1d 81 3e 29 83 23 3e
       0.052518785 0.018744154 0.25217998 0.15968002
000150 d5 98 9e 3e f8 0e 98 3e be 39 b2 3d dc c5 1f 3c
       0.30975977 0.2969892 0.0870242 0.009751763
000160 bc b9 bf 3e d6 3a ef be 88 bd 4a be 75 25 14 bd
       0.37446392 -0.46724576 -0.19798863 -0.036168534
000170 42 6e 4e bc c9 16 71 be cd 3f 2a bd 71 88 5f 3d
       -0.01259953 -0.23543848 -0.04156475 0.05457348
000180 7c 30 23 3e 52 ca 89 3e 07 15 90 3e 98 29 c5 bd
       0.15936464 0.2691217 0.28141043 -0.09627074
000190 5e 71 34 3d d2 c4 e2 3d fa 81 90 bd 0d c6 ac bd
       0.044053428 0.11072697 -0.07056041 -0.08436213
0001a0 94 0c 02 3b 05 ff 1b bd aa 79 02 3d 4d c6 d8 bd
       0.0019843923 -0.038085002 0.03185431 -0.10584698
0001b0 fe 4c cd 3d e8 77 26 3b 80 e9 69 bd b5 eb 3d 3c
       0.10024451 0.002540106 -0.05710745 0.0115918415
0001c0 ea 08 7c bd 50 e7 fe 3c 7f 4f 36 3d d0 0d ce bd
       -0.06153194 0.031116158 0.044509407 -0.10061228
0001d0 32 d8 8f bd 84 fe 8a bc 56 c8 d5 bc 28 0d 10 3d
       -0.07023658 -0.016967066 -0.026096504 0.035168797
0001e0 2f 15 c7 3c ea 1d bb bd ff 4a a8 bd fd 0c 2c bd
       0.024302093 -0.09136565 -0.08217429 -0.042004574
0001f0 3e 02 9d 3c 39 6a a0 bd b0 d6 3e bc c2 77 77 bd
       0.019166108 -0.0783276 -0.011647865 -0.060416944
000200 2d d3 cf bd 08 61 9f 3d e3 c0 2f bd fd ca 1c bd
       -0.101477005 0.07782179 -0.04290856 -0.038279522
000210 d8 8a d7 bd 58 cb 10 bd dc f6 3b bc 1e 4b 7d 3d
       -0.10524529 -0.035350174 -0.01147243 0.061839215
000220 3e 8e 63 3d cf 3c ff 3c db 12 26 3c 18 ab 02 bd
       0.055555575 0.031156925 0.010136331 -0.03190145
000230 83 39 12 bd 3d 02 9d 3b 69 8e e7 bd 7b d9 ff 3c
       -0.03569938 0.0047915266 -0.113064595 0.031231632
000240 eb ef ca bd 14 f3 1b bd c8 4f 1e bc b3 76 1a bb
       -0.09909042 -0.038073614 -0.009662576 -0.0023569285
000250 ed 72 0d bd 6f a9 58 bc 2c a1 2c 3b 4e dd 6c 3d
       -0.03453343 -0.01322399 0.0026341183 0.05782824
000260 45 88 f9 b9 cd 90 03 bd ff cd 2d bd bf 9d 85 bc
       -0.0004759451 -0.032120515 -0.04243278 -0.01631057
000270 d7 fc 1b 3b a9 ef a8 3d e8 c3 c1 bc 7b a3 a3 bd
       0.0023801827 0.082488365 -0.023652986 -0.07990166
000280 7a d5 6b 3d 1a 45 37 3d 31 54 01 3d 05 05 cb bd
       0.057576634 0.044743635 0.03157443 -0.09913067
000290 5c da f7 3c d1 c3 06 bc b9 fb ac bc 98 93 0f 3d
       0.030255489 -0.008225397 -0.021116124 0.035052866
0002a0 78 60 68 bb a9 81 fe 3c 2c c0 0e bd 53 a6 ca bd
       -0.003545789 0.031067686 -0.034851238 -0.09895005
0002b0 8e d3 86 bd c7 87 85 bd ac f9 bb bd 32 5c 01 bd
       -0.065833196 -0.06520038 -0.091784805 -0.031582065
0002c0 28 2e c5 bd ec 70 72 bd 7c 84 93 3d 06 86 59 bd
       -0.09627944 -0.059189722 0.07203004 -0.05310633
0002d0 29 07 52 3d 32 18 56 3b e0 79 f7 bc dd 34 0d bd
       0.05127636 0.003266823 -0.030209482 -0.034474242
0002e0 90 1a 60 bd 1e 90 7e 3d 81 5d 81 bd b3 e3 4f bc
       -0.054712832 0.06214916 -0.063166626 -0.012688565
0002f0 c8 8d 43 3d 94 71 69 bd 23 85 34 bc 89 37 0a 3b
       0.047742635 -0.056993082 -0.01101807 0.002109023
000300 b9 5b bc bd ad 6c 98 bd 4a 1b 35 bc ea ef a2 bc
       -0.09197182 -0.07442603 -0.0110538695 -0.01988979
000310 6c aa d2 bd fe 1b c2 bd 1e 33 ae bd 50 0a d1 bc
       -0.10286412 -0.09477995 -0.085058436 -0.025517613
000320 a0 61 bb 3e bf c3 98 3c b7 37 89 bd 6e a5 d0 3d
       0.3659792 0.018648027 -0.0670008 0.10187803
000330 da 15 09 3d fe ae 14 bd 76 05 b7 bd 7c 22 ed bd
       0.033468105 -0.036299698 -0.089365885 -0.11578843
000340 91 4d 7b 3e 45 2f 4d bc 86 13 81 3e aa c8 09 3e
       0.24541308 -0.012523477 0.25210208 0.13455454
000350 31 68 0d 3e c3 04 21 3d 2e b0 35 3d de bd 97 3d
       0.13809277 0.03931118 0.04435747 0.07409261
000360 d5 e5 fb be 03 39 8d be b1 22 e7 3d 24 74 97 3e
       -0.49198785 -0.2758256 0.11285914 0.29580796
000370 d0 ef 1f 3e 3a 58 79 bd 3b f5 04 3e d2 04 b4 3d
       0.15618825 -0.060875155 0.12984173 0.08789982
000380 5b 0c 34 3b 7a 83 92 be e8 1c ed bd 94 85 e1 3d
       0.0027473185 -0.28615934 -0.11577779 0.11011806
000390 43 f3 39 3d 47 8b 0f be e5 9d 71 3e 8e b4 36 be
       0.045398008 -0.14017974 0.23595388 -0.17842314
0003a0 08 31 8a 3e e1 56 2f 3c 0b 4d 71 be cd f4 a8 bc
       0.26990533 0.010701866 -0.23564546 -0.020624543
0003b0 ee 61 16 3c 5a c9 99 3e 39 b6 dc 3d d0 ac 81 3e
       0.009178622 0.30036432 0.10776944 0.25327158
0003c0 54 df a5 3c 6c e0 0f 3e 46 85 63 be ad d6 51 bd
       0.020248093 0.14050454 -0.22218809 -0.05123012
0003d0 98 7b a5 3e 7d af 8e bd 23 fe ad bd 45 0e 73 3e
       0.32320857 -0.069670655 -0.08495738 0.23735912
0003e0 ea 7f 15 bd 75 2a a9 3e 98 94 f0 3d f8 dc a7 bd
       -0.03649894 0.33040205 0.11747092 -0.08196443
0003f0 76 85 12 be 05 f5 62 bd b3 9e 7a bb 0b b2 ed bc
       -0.14308724 -0.05540945 -0.0038241565 -0.029015562

bias f4 [100]
000000 72 1c 1b be 33 b2 d1 bd 62 74 d7 bd e6 4b 25 be
       -0.1514757 -0.10239067 -0.10520245 -0.16142234
000010 f0 34 8e bc 18 40 9e bd e0 59 34 bd 66 ca a8 bd
       -0.017359227 -0.07727069 -0.044031024 -0.082417294
000020 6c 5e 86 bc 38 b2 ff bd 69 bd 89 3d 3b 60 cc bd
       -0.016402446 -0.124851644 0.0672558 -0.09979292
000030 a6 0f 00 be f6 77 1d be 92 7f d7 bd 2a 67 95 bd
       -0.1250597 -0.15377793 -0.10522379 -0.072950676
000040 19 a4 73 bc 41 49 26 bd e3 d9 f1 bd f8 f8 6b be
       -0.014870667 -0.040597204 -0.11809137 -0.23044193
000050 c7 c4 42 be ff b9 8d 3e e3 d8 80 be 77 79 5a bd
       -0.19020377 0.27680966 -0.2516547 -0.053338494
000060 98 52 53 3e 06 7e 17 bd 17 3a 39 be 30 88 83 be
       0.20636976 -0.03698542 -0.18088566 -0.2568984
000070 b8 91 e3 bd 43 c7 f9 bd 11 a0 fe bd 36 ee 96 be
       -0.11111778 -0.12196209 -0.12432874 -0.29478616
000080 67 c4 f0 bd d9 20 e3 bd 1b 2a 75 bd bc 1d b4 bd
       -0.11756211 -0.110902496 -0.059854608 -0.08794734
000090 78 4a 75 be 57 de 47 bd 89 88 74 bd 6b d8 c5 3d
       -0.23954189 -0.048796024 -0.059700523 0.09660419
0000a0 9b af 91 bc d2 48 cd bd 70 79 16 be 83 e7 52 bd
       -0.01778393 -0.10023655 -0.14694762 -0.051490318
0000b0 f7 a9 33 be f5 1d 0b be b4 5b 07 be 19 be 26 be
       -0.17545305 -0.13585646 -0.13218576 -0.16283454
0000c0 04 8d 1a be 7c 98 e8 bd 5d 6a 96 bd 84 7f d0 bd
       -0.15092856 -0.11357209 -0.07344506 -0.10180572
0000d0 e4 b7 23 be 4f ca 0a be a1 ee e8 bb f7 a0 5c be
       -0.15988117 -0.13553737 -0.007108525 -0.21545778
0000e0 83 ee f8 3a ca b6 cb bd ea e4 67 bc be 4a 07 be
       0.001899198 -0.099469736 -0.014153698 -0.13212106
0000f0 79 dc 8a bd 17 35 0f bd b5 39 cd 3d 6d b8 2e be
       -0.06780333 -0.03496274 0.10020772 -0.1706254
000100 d2 f7 40 bd 0a 77 2f be ab 1b 7f bd ce 9c 0a be
       -0.04711134 -0.17135254 -0.062282246 -0.13536379
000110 98 81 b6 bd ca 76 39 be 99 dc 06 be 1a 17 2e be
       -0.08911437 -0.1811172 -0.13170089 -0.17001
000120 23 bb f2 3c 7c 5b 7e bc 95 e6 56 3d 90 d3 15 be
       0.02963025 -0.015524741 0.052465994 -0.14631486
000130 83 dd a4 bd 6d 25 a4 bd 69 8d ee bd 0d 70 1d 3d
       -0.080500625 -0.08014951 -0.116480656 0.038436938
000140 e6 cc 1f be 19 83 99 bd 68 4f 17 bd da cb 16 be
       -0.15605506 -0.07495708 -0.036940962 -0.147262
000150 f3 b4 66 be 7a fc 1e be 34 dd 09 be 13 bc fa bd
       -0.22529964 -0.15526 -0.13463289 -0.122429036
000160 11 bf 9c bd 53 af 10 bd 79 3b 16 be e7 0b fb bc
       -0.076536305 -0.035323452 -0.14671125 -0.030645324
000170 f2 ac 27 be c0 00 48 be 00 83 49 3c ce 49 d5 bd
       -0.16374567 -0.19531536 0.012299299 -0.10414468
000180 f1 a0 37 be 33 67 8b be ad ed 5f be c0 bf 29 3c
       -0.17932488 -0.27227172 -0.2186801 0.010360658

weight f4 [100, 100, 1]
000000 4b 15 db bd e0 1a 88 3d 3b 2a ce 3d 08 d8 e3 bd
       -0.10697421 0.06645751 0.100666486 -0.11125189
000010 3f e4 c9 3c 86 2f 8d bd 7e 57 b7 bd 0d ee 15 3c
       0.024644969 -0.0689383 -0.08952235 0.009150994
000020 5d 29 5b 3d 4e 8d 7d 3d a7 0f e9 3b dc 64 4d bd
       0.053506244 0.061902337 0.0071124616 -0.050145015
000030 02 83 48 bd be e8 fe 3c 2b 3d b9 bd 41 9b 99 bd
       -0.048953064 0.03111684 -0.0904487 -0.075003155
000040 e6 53 96 3d ce c5 1e 3c a0 86 6c 39 3e 0a 5b bc
       0.07340221 0.009690715 0.00022556866 -0.013369141
000050 18 d6 7d 3d 2d 5a cb bd 3d a3 d8 3d c7 c8 fc 3c
       0.061971754 -0.09929309 0.1057801 0.030857457
000060 be 10 66 bd 72 cb 89 bc 81 1d b0 3c 6b c6 ac 3c
       -0.05616831 -0.016820643 0.021498444 0.021090707
000070 23 43 99 bd d3 11 11 be b8 32 8b bd c8 c0 e0 3d
       -0.074835084 -0.14166956 -0.06796783 0.1097427
000080 2c a3 6f bd 1f 73 61 3c 3d 12 d2 3c 94 46 ba 3b
       -0.058505222 0.013760357 0.025643462 0.005684683
000090 f2 eb cd bd 3e 1b 92 3d 58 2e 3e 3c 61 6a 26 be
       -0.100547686 0.07134102 0.011607729 -0.16251518
0000a0 a1 54 c7 bc 97 8b 3f bd 4e 5b b0 3d a2 d4 22 bb
       -0.024332346 -0.046763983 0.08611165 -0.0024845977
0000b0 8a 2e b3 ba 33 48 de bd 1f b6 5f 3b 53 b2 ab bd
       -0.0013670486 -0.10853615 0.0034135652 -0.08383622
0000c0 3e de 04 3c 6c 8b d0 bd 18 5a 14 3d 9e 41 a6 3d
       0.008109627 -0.101828426 0.036218733 0.08117984
0000d0 b0 1a 02 3d d1 73 d0 bd b7 66 54 bc de 9f a7 bd
       0.031763732 -0.1017834 -0.012963942 -0.08184789
0000e0 ae f1 fe 3c 1a 67 83 bd e3 d5 27 bd 5c 8c 91 bd
       0.031121101 -0.064161494 -0.040975463 -0.071068496
0000f0 fb fb 80 3c 4c 9d 14 bd 17 c0 ad bd 47 c7 61 bd
       0.015745154 -0.036282822 -0.08483904 -0.055121686
000100 6a cc 39 bd ed 55 a6 bd 9c 2a 17 3d dd ad 8a 3d
       -0.04536096 -0.08121858 0.03690587 0.06771443
000110 42 f0 11 bd c8 f2 13 3b 96 72 88 3d 64 94 60 3c
       -0.03562952 0.0022575129 0.066624805 0.013707254
000120 7f 91 93 3c 26 4f 9b 3d 22 44 a7 bd 4f d5 6c 3d
       0.018013714 0.07583456 -0.08167292 0.057820614
000130 c5 ef 80 bc bc 8d 89 3d c6 99 b6 bc e8 42 d6 3c
       -0.015739331 0.06716487 -0.022290122 0.02615495
000140 85 04 d8 bc 41 bb 94 bd ae 84 88 bd b1 3f e6 3b
       -0.026369343 -0.07262278 -0.06665932 0.0070266356
000150 33 21 fe bd 1e d9 35 3d ba b4 a1 bd 6b ed 57 bd
       -0.12408676 0.044396512 -0.07895799 -0.052716654
000160 91 27 36 3d 5c 83 54 3c f1 87 f7 bd 88 99 50 3c
       0.044471327 0.012970772 -0.12086476 0.012731917
000170 54 57 d6 bc 21 72 22 3c b9 c2 02 3d f8 a1 61 3b
       -0.026164688 0.009914906 0.031923983 0.0034428816
000180 d9 5f a5 bd 2d 93 e7 bc 9f 05 be 3d c1 1f 89 3d
       -0.08074922 -0.028268421 0.09278416 0.0669551
000190 de 6c a2 bc e4 ea cb bc d1 0a f7 bd 56 e3 10 bd
       -0.019827303 -0.024892278 -0.1206261 -0.035373054
0001a0 fd d5 32 bd b9 42 81 bd 11 aa 9c 3d 75 f9 c9 b7
       -0.043661106 -0.063115545 0.07649625 -2.407723e-05
0001b0 eb de bd 3d c0 45 5c 3c 82 cd 19 3d ee 83 b0 3c
       0.09271034 0.013444364 0.037549503 0.021547284
0001c0 8e 3f 9c bd 23 a5 b3 3d 22 4f 2d 3d f3 69 14 3c
       -0.076293096 0.08771732 0.042311795 0.009058463
0001d0 52 fe c7 3d 8d a1 e2 bd 00 4f 72 3b 28 a2 e2 bd
       0.097653046 -0.110659696 0.0036973357 -0.11066085
0001e0 a0 c7 ea bd ae 9d 00 bd d3 d6 88 3d 0d 4d 05 be
       -0.11463857 -0.031400375 0.066815995 -0.13017674
0001f0 51 a8 c4 bd 2b d2 bf bd 5d 35 b6 bd fe f3 c1 bc
       -0.09602416 -0.09366258 -0.08896897 -0.023675915
000200 dc b6 ae 3c ac 88 ea bd cc b5 96 3d 6c 7f 1b bd
       0.021327429 -0.11451849 0.07358894 -0.037963316
000210 90 ea 83 3c d1 17 a8 3d db 5c 8f bc 84 a6 c1 bd
       0.016103059 0.082076676 -0.017500332 -0.094555885
000220 c9 a2 91 3d bb ee 3d bd 79 eb 08 bc af 64 80 3d
       0.07111127 -0.04637025 -0.008356922 0.06269204
000230 a6 59 17 3d bc ac 05 3d 9e 68 7b 3d fb 85 ca bd
       0.03695073 0.032635435 0.061379068 -0.09888836
000240 80 01 6f 3c 73 a5 0e bd 6f 12 e5 bd 3a db 17 bd
       0.01458776 -0.034825753 -0.111851566 -0.037074305
000250 97 7e ff bd 52 31 db 3c 4a e0 19 3c 33 c3 20 3d
       -0.12475317 0.026756916 0.009391854 0.039248656
000260 e8 8e e7 bc e4 bf 73 3d 51 86 a8 bd c3 00 a1 bd
       -0.028266385 0.059509173 -0.08228744 -0.078614734
000270 4d 92 d0 bd f3 c8 8f 3c e7 ed 8c 3d 43 4a 35 bd
       -0.10184155 0.017551875 0.06881314 -0.044260275
000280 42 81 cf 3b ee ca a4 bc 8a 3f c4 bc 27 66 74 3d
       0.0063325474 -0.020116296 -0.023956079 0.059667733
000290 fb a8 c1 bd 98 a2 9a bd 30 73 bb bd a4 95 63 3d
       -0.094560586 -0.075505435 -0.0915283 0.05556263
0002a0 8e 14 8a bd 51 c9 45 bd d4 57 d6 bd af bf 85 bd
       -0.06742202 -0.048287693 -0.10465971 -0.06530701
0002b0 ac 02 8c 3d 9e 6b cb bd 83 f1 db bc 55 70 9c 3d
       0.06836447 -0.09932636 -0.02684856 0.07638613
0002c0 7d ff 6a bd aa 72 dc bd 73 e8 6a 3c 94 4c 03 bd
       -0.05737256 -0.10764058 0.014337647 -0.032055452
0002d0 4a 37 01 3d dd be 54 bd d3 16 93 bd 00 ac 2d 3c
       0.03154687 -0.051939834 -0.07182088 0.01060009
0002e0 4f df 09 bd 33 2f 07 be 6f cd e2 ba a3 79 8d bd
       -0.03366023 -0.13201599 -0.0017303656 -0.06907966
0002f0 d8 73 20 bc 4e 52 10 bd 7f 20 3d 3d dd f9 09 3d
       -0.009793244 -0.035234742 0.04617357 0.033685554
000300 9e 1c 56 bd 5d 67 98 bc fe 08 44 bd 9e 6b 44 bd
       -0.052273385 -0.018603975 -0.047860138 -0.047954194
000310 33 22 49 bd 14 fa ff bd a7 42 0f 3d 72 b0 cd bd
       -0.04910488 -0.124988705 0.034975674 -0.1004342
000320 f3 f9 fa 3b 88 84 8d bc 35 3d c9 bd cc 13 48 bc
       0.007659191 -0.01727511 -0.098261274 -0.012211751
000330 8e 50 31 be a0 ac 78 3d c7 93 06 bd a5 85 b8 bd
       -0.17315885 0.060711503 -0.032855775 -0.09009866
000340 86 e7 5a 3d 4c 85 86 bd 6a 97 ec ba 63 a4 da bc
       0.053443454 -0.06568393 -0.0018050496 -0.026689714
000350 fd 09 93 3d de 7f 35 bd 39 f8 11 bd 35 1e f2 3d
       0.071796395 -0.044311397 -0.035637114 0.11822168
000360 79 ad 1c bd 8a 2e aa bd 7c 91 ad bd bb 48 da ba
       -0.038251374 -0.08309658 -0.084750146 -0.0016653755
000370 f7 17 44 bc ef 98 01 be d2 a7 81 bd 71 54 8f 3c
       -0.011968604 -0.12655996 -0.06330837 0.01749632
000380 55 79 ad 3d 28 93 af 3d ff f5 87 bb eb 0e 0f 3e
       0.08470408 0.0857299 -0.004149198 0.13970535
000390 4c 14 1b be a6 f3 ae bd 64 f7 0a bd 90 e3 a1 3d
       -0.15144461 -0.08542566 -0.033927336 0.07904732
0003a0 f8 60 19 3d c9 3d 95 bc b5 b7 f2 bc 7c ed 06 bd
       0.037445992 -0.018217938 -0.029628614 -0.032941326
0003b0 36 ce 0b bc ed aa 8e bd 63 76 e2 bd 64 67 8a be
       -0.008533051 -0.06966195 -0.11057737 -0.27032006
0003c0 fa 78 aa 3d cb 8e 21 3c 17 fa fd bd 4a 1f 8b 3d
       0.08323856 0.009860705 -0.124012165 0.06793077
0003d0 66 d6 e1 bd a3 06 84 bc ba 80 7b bd 22 27 05 be
       -0.110272214 -0.016116446 -0.06140206 -0.13003209
0003e0 97 89 91 bd f8 a8 0c bc 0c 20 27 3d 60 56 53 bd
       -0.07106321 -0.008585207 0.040802047 -0.051596045
0003f0 fa 69 f3 bd b5 d8 4e bd c6 85 66 bd 1b ec 70 bd
       -0.11885448 -0.050499637 -0.05627992 -0.058818918

bias f4 [100]
000000 21 00 37 bb c0 d9 73 bd 77 ca ae 3d fc 3b 82 bd
       -0.002792366 -0.059533834 0.08534711 -0.06359097
000010 75 f2 d8 3d 7e bf a2 be 13 27 49 3d d7 0d 8b 3c
       0.1059312 -0.31786722 0.04910953 0.016974373
000020 ea f1 1e be 03 1c 82 bd b1 92 2b 3c c8 5a 98 bd
       -0.1552197 -0.06352999 0.010471986 -0.0743919
000030 6e 20 05 bd ad 22 38 3d 4f 24 80 bd a2 5c 36 3a
       -0.03250163 0.044954944 -0.06256925 0.00069565524
000040 66 c3 8b bd 66 53 ad bd c8 40 7b 3d e9 b5 98 bd
       -0.06824379 -0.084631726 0.061341077 -0.074565716
000050 b4 24 0d 3d 95 41 9a bd 48 6b d1 bd fd 00 07 be
       0.03445883 -0.0753204 -0.102255404 -0.13183971
000060 b2 82 94 bd 0c 0d 92 3d 85 b3 2c bd 47 ee 14 bd
       -0.07251491 0.07131395 -0.04216339 -0.03636005
000070 a2 b3 16 bc b1 5a ff bc b9 bb 80 bd 09 15 96 bd
       -0.009198101 -0.031171175 -0.06285805 -0.07328231
000080 f8 56 da bd 13 ef a3 bc 98 0b 3f be 0a 31 db bd
       -0.10661119 -0.02001146 -0.18656766 -0.10702713
000090 d5 0a 70 bd 3b 1c 89 bd 73 3c e1 3d 0e cd 45 bb
       -0.05860408 -0.06694838 0.10997858 -0.0030182037
0000a0 dc 34 f0 bd 6c b1 9e bc 2d 27 b9 3d f2 52 84 3d
       -0.11728832 -0.01937171 0.09040675 0.06461133
0000b0 ef cf a1 3d e9 ba 9d bd 8f 64 9f bd 62 1c 66 bd
       0.07900988 -0.07701666 -0.07782852 -0.05617941
0000c0 0f 07 b1 3c e8 6f d2 bd bf 37 7d bd e5 f5 dd ba
       0.021609811 -0.10275251 -0.06182074 -0.0016934244
0000d0 cc a8 df bc 74 e4 48 3d 59 ea f1 bd 5b 06 8a bc
       -0.027302168 0.049045995 -0.118122764 -0.016848734
0000e0 e5 e5 b6 38 62 5a d7 bc ab 9c 2d 3d fb f0 84 be
       8.7212575e-05 -0.026288215 0.04238574 -0.25965104
0000f0 ee 32 bb bd 84 56 a9 bd 7f 08 7f bd f2 66 41 bc
       -0.091405734 -0.08268455 -0.062263962 -0.011804329
000100 bb d6 a4 bd 6c a6 02 be bf 75 0b 3c 2c 4b 6a be
       -0.08048769 -0.12758797 0.00851196 -0.22880238
000110 96 05 16 3d 22 40 47 3d ab b0 18 bd 7c f7 92 3d
       0.03662642 0.048645146 -0.03727786 0.0717611
000120 0e 27 99 be b1 2a 0f bd 4e 7e df bd 2c ba 16 bd
       -0.2991261 -0.034952823 -0.109127626 -0.03679864
000130 a4 82 de bc 6e 0c 18 3e dd 81 0a be 8c 3d 88 bd
       -0.027161904 0.14848492 -0.13526101 -0.06652364
000140 ff 12 9c 3d 6c 31 d6 3c d6 6d e8 bc b0 c0 93 bb
       0.07620811 0.026146613 -0.028372686 -0.004509054
000150 a1 3e 18 3e c6 a8 94 bd 3a f2 be 3c fb 91 66 3c
       0.14867641 -0.072587535 0.023308862 0.01407289
000160 c8 cd 8b 3d f6 94 ce bd c5 97 bd be 30 75 1c be
       0.06826359 -0.10087006 -0.37029853 -0.15279078
000170 b8 11 60 3d d7 5c cd bc a7 af 02 bc 9b 2e 76 bc
       0.054704398 -0.025068684 -0.007976449 -0.01502576
000180 ef 5a 2c 3c a9 56 85 bd 54 ed 3f bd 7e e9 c9 3c
       0.010519727 -0.0651067 -0.046857193 0.02464747

weight f4 [100, 100, 1]
000000 6b 79 33 3d 46 7c 58 3d 97 60 7c bd e8 75 e3 3c
       0.043816965 0.05285289 -0.061615553 0.027766183
000010 a6 ac ad bc 8a d1 b4 bd 1a 1e dd bd d0 cf 07 3b
       -0.02120049 -0.08829029 -0.10796757 0.002072323
000020 b3 9a a3 bd 23 45 18 bd e7 b0 ba 3c f5 6c 61 bd
       -0.07988491 -0.03717531 0.022789432 -0.05503555
000030 42 87 94 bb 0e 35 d1 3a 58 a7 2d bc c3 ea dd 3c
       -0.0045327256 0.0015961246 -0.01059898 0.027089482
000040 e2 35 8e 3c c6 42 43 3d 45 f8 72 bd ec da a2 3b
       0.017359678 0.047671102 -0.0593188 0.004969945
000050 f0 9e af 3a cb 8e ff bc 3a 82 a6 bd ff 8b 14 bd
       0.0013398807 -0.031196019 -0.081303075 -0.036266323
000060 db 98 79 3c 31 f7 e3 3b 18 dd 6b bd 0b dc ce 3d
       0.0152341975 0.0069569577 -0.0575839 0.101005636
000070 d3 c4 7b 3d dc f6 22 bd 89 8d 1e 3d 77 25 bb bd
       0.061467003 -0.039786205 0.038709197 -0.09138005
000080 67 fa 97 3d ff a8 c6 bd 17 db 8c 3d 8d ae 1c 3d
       0.07420807 -0.09700202 0.068777256 0.038252402
000090 34 db ac bc dd 42 f2 3c 98 1a a6 3d f6 af 8f 3d
       -0.021100618 0.029572899 0.08110541 0.07015984
0000a0 50 86 be bd df 0c 86 bb 26 47 1e 3d 6c 79 8b 3d
       -0.09302962 -0.00409089 0.03864207 0.06810269
0000b0 73 06 de bc d0 8d b8 bd 49 ee 31 bd bc b6 90 3c
       -0.027102685 -0.090114236 -0.043440137 0.01766526
0000c0 d9 a2 a1 3d 6e 35 e3 bd 36 28 79 3b 65 ca 79 bd
       0.07892389 -0.11094175 0.0038018352 -0.060984034
0000d0 91 49 a1 bd 2b 83 28 bd 66 29 f7 bc d5 d5 50 3d
       -0.0787536 -0.041140717 -0.030171108 0.050985176
0000e0 5e 1e 17 bd 66 55 a6 3d 81 b9 12 3d 1d c4 4e 3b
       -0.036894195 0.08121757 0.03582144 0.0031549998
0000f0 18 0c 86 3d a8 c3 21 3d 89 ba d1 bd 22 ab e0 bc
       0.065452754 0.039493233 -0.10240657 -0.027425352
000100 30 17 17 bd 29 9a 8b bd b8 72 38 bd 9c 7e c8 3c
       -0.036887348 -0.06816513 -0.04503128 0.024474435
000110 16 95 39 3a 2c 98 ab 3c 29 77 7e bd d2 ca 3c 3c
       0.00070794055 0.020946585 -0.06212536 0.0115229655
000120 06 20 bc 3c 3b 88 97 3d 6e 5b 46 bc e8 b0 b5 3d
       0.022964489 0.07399031 -0.0121067595 0.08871633
000130 99 b9 a8 3d 95 8c 44 bc 01 0f f9 39 08 9f b0 3d
       0.08238525 -0.011996408 0.0004750416 0.08624083
000140 9d 02 ad 3d bc eb 92 3d cc 58 bb 3d 02 6a c3 3d
       0.08447764 0.07173869 0.09147796 0.09541704
000150 61 66 60 bc d3 9b 65 bd 2e b1 5f 3d ee 6b 97 bd
       -0.013696284 -0.05605681 0.05461233 -0.07393633
000160 e9 89 c1 bc d3 cb b6 3d de fe 96 3d 6e 79 6c bc
       -0.023625331 0.08925595 0.07372831 -0.014433248
000170 25 59 05 bd d3 a7 93 bd c5 9c 72 3d 69 78 70 bd
       -0.032555718 -0.07209744 0.05923154 -0.058708582
000180 01 73 d7 3c 47 77 c0 3c 0f d9 b9 3d 1c 3e ac 3a
       0.026299955 0.023494376 0.09074604 0.0013141069
000190 d0 e4 19 ba fb 5f 8c 3d cc 48 c8 bd 53 82 08 3d
       -0.00058705825 0.06854244 -0.0977951 0.03332741
0001a0 72 11 b5 bd f1 1f b2 3c 99 01 bf 3d 51 3e cf bc
       -0.08841218 0.021743746 0.093264766 -0.02529827
0001b0 13 77 8b bd 75 92 bc bd 3e 57 6d bd 57 5f ca bd
       -0.06809821 -0.09207622 -0.05794453 -0.09881466
0001c0 00 1c 5c ba 68 6c bd 3d 1a 62 6e bd 1a 27 92 bb
       -0.00083965063 0.092491925 -0.058199026 -0.0044602277
0001d0 2a 58 a7 3c 5a 0f 31 3d 70 9e 80 3d 2d 16 c9 bd
       0.020427782 0.04322753 0.062802196 -0.09818683
0001e0 f8 98 b2 bd 23 d3 41 bd fa 4c c4 bd 2f f2 bd bd
       -0.08720583 -0.047320496 -0.095849946 -0.092747085
0001f0 9a b5 4f ba b9 21 6a bd af 41 1d bd 95 b5 8d 3b
       -0.0007923484 -0.057161067 -0.03839272 0.004324625
000200 b8 8f b6 bd 8f 97 8e 3d 2d e9 55 bd 30 a9 b1 3d
       -0.08914131 0.06962501 -0.052224327 0.08674848
000210 fa 71 83 bd 49 e2 80 bd 80 37 5e 3d c5 df 94 3d
       -0.06418224 -0.062931605 0.054252148 0.07269243
000220 52 b2 8c 3c 02 e8 b7 bd 0a df 93 3c 70 d5 9b bd
       0.017174874 -0.08979799 0.01805069 -0.07609069
000230 48 bd 8b bd a5 89 aa bd 82 f4 a7 3b ad dd 33 3d
       -0.06823212 -0.08327035 0.005125583 0.04391258
000240 cb c4 ab bd 83 7b 03 3d ea c7 e5 bb 1b 08 98 bd
       -0.08387145 0.03210021 -0.007012357 -0.07423421
000250 a0 c3 89 bd e7 f6 34 bd c3 a8 45 3d 1b 24 b0 bd
       -0.06726766 -0.044180777 0.048256647 -0.086006366
000260 73 f4 f5 3b 6f 07 5a 3d 47 d9 58 bd 0d 7a 22 bd
       0.0075059473 0.053229745 -0.052941587 -0.039667178
000270 55 e7 51 3d 10 cc af 3d ce 68 2c bd 04 60 2e 3b
       0.051246006 0.08583844 -0.042092137 0.0026607523
000280 00 3a 2d 3d f1 9e aa 3c a9 21 b7 bd 77 9e 90 3c
       0.04229164 0.020827742 -0.08941967 0.017653687
000290 20 97 17 3d cc e3 2b 3d 7d f2 5b bd c8 01 81 bd
       0.03700936 0.04196529 -0.05369805 -0.06299168
0002a0 00 80 fe bc 9f 95 9b bb 33 b3 b8 bd 81 dd 8a 3d
       -0.031066895 -0.004748061 -0.090185545 0.0678053
0002b0 c8 98 41 3b e7 38 fc 3c 02 b2 4c bd 60 90 81 bd
       0.0029540528 0.030788852 -0.04997445 -0.063263655
0002c0 82 0a b3 3d 33 91 7f 3c 5b 7d af 3d 0a 4f 46 3d
       0.087422386 0.015598583 0.085688315 0.04841522
0002d0 63 09 5b bd bc 8f 5e bd d7 1b 28 3d ca 73 aa 3d
       -0.05347575 -0.054336295 0.041042175 0.08322866
0002e0 52 15 bb bd 8d d3 87 3c 20 83 c1 bd 24 f0 ee bc
       -0.09134926 0.016580367 -0.09448838 -0.029167242
0002f0 b4 13 c1 3b c2 cc 81 3d 6e 4f 84 bd 67 8a eb bc
       0.0058922414 0.063378826 -0.064604625 -0.028752519
000300 f4 70 80 3d 7d 9a 57 3d 20 c1 94 bd 1a e3 19 3d
       0.06271544 0.052637566 -0.07263398 0.037570097
000310 b0 e2 79 bd b3 75 74 bc 87 7b 98 bd 40 ba 06 3c
       -0.0610072 -0.01492064 -0.07445436 0.008223116
000320 cd 47 2b 3b 00 e0 e4 3b c0 7b a4 bc 03 44 6d bd
       0.0026135326 0.0069847107 -0.02007854 -0.05792619
000330 33 47 18 bd 20 ce 0e bd d3 8d 02 3d ef 83 b6 bd
       -0.037177276 -0.034864545 0.031873535 -0.08911883
000340 30 2c 05 bd d2 45 c5 3d c8 17 a5 3d cd 03 db bc
       -0.032512844 0.09632458 0.080611765 -0.02673521
000350 f3 42 b9 bd 17 b5 07 3d ab 51 be 3d 73 20 84 3d
       -0.09045973 0.033131685 0.09292921 0.06451502
000360 12 84 b5 3d 27 76 a1 bd fd 83 bf 3d 40 16 a5 3d
       0.08863081 -0.07883864 0.09351347 0.080608845
000370 b8 48 ac bd ad d4 4f 3d ba b8 93 bd e0 76 87 3d
       -0.084123075 0.050739933 -0.07212968 0.066144705
000380 17 ce 64 3d 4a 83 2f bd 9a 65 c1 3a e3 e3 97 bd
       0.055860605 -0.042849816 0.0014755011 -0.07416513
000390 7d a3 16 3d e0 34 aa bc 0d 49 c4 bd 3a f9 c6 bc
       0.03677701 -0.020777166 -0.09584246 -0.024288762
0003a0 ea 15 27 3d cf eb a8 3d 03 b0 c0 3d 8b 7e b0 3d
       0.040792383 0.08248102 0.094085716 0.08617886
0003b0 a0 5a 0f 3d f3 f7 4c 3c 0a 5e 5b 3d 90 cc 77 bd
       0.034998536 0.012510288 0.05355648 -0.06049782
0003c0 e7 13 11 bd 80 cf 65 bd 93 20 c7 3d 1a a2 98 3b
       -0.03541937 -0.05610609 0.0972301 0.004657996
0003d0 23 ff 77 bd ba 7f 3e 3d 13 15 ac 3d 00 40 6b b8
       -0.06054605 0.04650853 0.08402457 -5.608797e-05
0003e0 28 e8 be bd d0 22 14 bd 6d 56 50 3d 63 f4 8f bd
       -0.09321624 -0.036166012 0.050863672 -0.07029035
0003f0 93 9b a9 bd 60 2c 25 3d c7 c0 1a 3d 1a 58 1b 3c
       -0.082816266 0.040325522 0.037781503 0.009481454

bias f4 [100]
000000 01 f8 b5 bd 18 c2 3a bd 4b cc b0 bd 03 1e 89 bb
       -0.088851936 -0.04559526 -0.08632716 -0.004184486
000010 ce e5 b2 3d 31 2b f2 bd 32 10 73 be 5b ce 19 3e
       0.08735238 -0.11824644 -0.23736647 0.15020125
000020 2d 86 1a bd 8a ea 8b be 5e 13 d1 bc 42 2c f3 bc
       -0.037725616 -0.27327377 -0.02552193 -0.02968419
000030 e3 5f 8f bd 56 38 09 bd a7 25 44 bd 8a 3f 0c be
       -0.07000711 -0.03350099 -0.04788747 -0.13696113
000040 83 ee c8 3a 91 52 09 be 47 04 91 bc 45 6b 97 bc
       0.0015329871 -0.13410403 -0.017702235 -0.018483767
000050 00 ec d3 bd 5a 9f a0 3d ee 73 2b bc a0 52 e5 bd
       -0.10347748 0.07842894 -0.0104646515 -0.111974
000060 98 9c bc 3a 2c 1d 2b bc 21 62 cf be 9c c8 12 bc
       0.001438993 -0.010443967 -0.40504554 -0.008958962
000070 d7 21 4f bc 96 52 22 3e 1d 6d cb bc 2c 00 f1 bd
       -0.012642345 0.15851817 -0.024832303 -0.11767611
000080 a4 a3 be bb ab 75 00 bc 84 7d 08 bb 68 b3 cd bd
       -0.0058178473 -0.007840554 -0.0020826766 -0.10043985
000090 93 0b bc bc a3 f6 14 bc e2 d7 86 bc d0 08 12 bd
       -0.022954738 -0.009092006 -0.016460363 -0.035652936
0000a0 d8 b3 5e bd 1c 99 db bc b5 fa 65 bc 59 28 56 3e
       -0.05437073 -0.026806407 -0.014036824 0.20913829
0000b0 c9 ec bb bd f9 9e 4d be 00 19 af bd 22 41 9f bd
       -0.091760226 -0.20080175 -0.0854969 -0.07776095
0000c0 fd f4 92 bc 33 23 98 bd 2e bc d9 bc e3 14 fc bc
       -0.017939085 -0.07428589 -0.026578989 -0.030771678
0000d0 64 52 ca bd 8a ef 54 bd 8a e0 6c bc 23 59 b4 bc
       -0.09878996 -0.051986255 -0.014457831 -0.02201516
0000e0 50 b5 6d bc 1e 6b 44 bd c3 a6 47 bd ec 1d 38 bb
       -0.01450856 -0.047953717 -0.04874302 -0.0028094007
0000f0 f2 d3 7e bd 7b 1d d2 3a 3d b4 11 bc e5 c6 fb 3d
       -0.062213846 0.0016030514 -0.00889307 0.122937955
000100 61 76 90 bc cd 54 2f bd 41 2a 00 bb 3f b3 31 bd
       -0.017634572 -0.04280548 -0.0019556435 -0.043383833
000110 73 4e 3d 3e 89 8a c6 bc 3b a8 86 bd 37 16 49 bb
       0.18486957 -0.02423598 -0.06575056 -0.0030683407
000120 9a d6 0c 3b c8 3c 52 bc e9 7c 7d bc 72 d7 10 be
       0.0021490217 -0.012831874 -0.015471675 -0.14144686
000130 21 bc 99 be dd 93 24 bd 69 26 6c be 8a bc cc bc
       -0.30026343 -0.040180076 -0.23061527 -0.024992246
000140 8f 1b 49 be 0c 97 26 be d8 09 62 3e d4 20 0b bd
       -0.19639419 -0.16268557 0.22074068 -0.033966854
000150 de c7 18 be f7 bf 1f be 76 8f a8 bd b7 27 ea 3d
       -0.14919993 -0.15600573 -0.08230488 0.11433356
000160 e8 f9 4c 3e 90 e9 86 bd 94 5b 81 bc 62 d9 93 be
       0.20017207 -0.06587517 -0.015790738 -0.28876787
000170 d1 d7 5d bc 3c e0 b5 ba 42 72 27 bc c6 56 71 be
       -0.013540224 -0.0013876031 -0.010220112 -0.23568258
000180 97 cf 0b be 0d dd 35 3b 60 49 de bc 89 5a bd 3b
       -0.13653408 0.0027750165 -0.027134597 0.005778615
