data/pretrained_models/acceptor-3.pt (torch, 247597 bytes, 14 tensors)

weight f4 [100, 4, 23]
0	0xbe07ba63	-0.13254695
1	0xbe24a239	-0.16077508
2	0x3ef8ca6e	0.48591942
3	0x3d156044	0.03646876
4	0xbd97e9ae	-0.07417618
5	0x3dadf682	0.08494283
6	0x3edcaee0	0.4310217
7	0xbd73034f	-0.059329327
8	0x3e7a802b	0.24462955
9	0x3c5dfccf	0.013549044
10	0x3d4020b2	0.04690618
11	0x3de47dce	0.11156808
12	0x3d81d926	0.06340246
13	0xbc9fb563	-0.019495672
14	0xbedab18e	-0.42713588
15	0xbe3e7c65	-0.1860214
16	0xbc69c2c0	-0.014267623
17	0x3f2e4868	0.68079233
18	0x3d46422c	0.04840295
19	0x3e355753	0.17709093
20	0x3e4cc7a9	0.1999804
21	0x3be581ad	0.007003984
22	0x3e2793ed	0.16365023
23	0x3ded8635	0.115978636
24	0x3d1624e8	0.03665629
25	0xbdf4200e	-0.119201764
26	0xbe012ebe	-0.12615487
27	0xbddd6966	-0.10811119
28	0xbdd80c70	-0.10549247
29	0x3d9f487e	0.07777499
30	0xbdbfff2e	-0.093748435
31	0x3c0f0107	0.008728272
32	0x3d5db1a0	0.054124475
33	0xbe12ec32	-0.14347914
34	0xbdc54dfe	-0.096340165
35	0x3ded6f23	0.11593463
36	0xbc98895c	-0.018620186
37	0x3c45234f	0.012032344
38	0xbe32c0e6	-0.17456397
39	0x3de1fe03	0.11034777
40	0xbe32a0f8	-0.17444217
41	0xbea6ebb4	-0.32601702
42	0xbcbd9d0c	-0.023146175
43	0xbe1768b4	-0.14786035
44	0xbe1bb59e	-0.15206
45	0x3d5aa2d8	0.053377956
46	0x3dc8f1c8	0.09811741
47	0xbe7684a6	-0.24074039
48	0xbe51bc86	-0.20482072
49	0x3ecfa2f3	0.40554008
50	0x3e8b62e2	0.2722388
51	0xbe190159	-0.1494192
52	0xbe3e8bd7	-0.18608032
53	0x3eefc5ae	0.46830505
54	0x3dd026b5	0.10163633
55	0xbca9d993	-0.02073363
56	0x3df7d588	0.12101275
57	0x3e86a02a	0.2629407
58	0x3dc67068	0.096894085
59	0xbd181866	-0.037132643
60	0x3e9317b1	0.28729013
61	0xbee51b37	-0.44747326
62	0xbcb07015	-0.02153782
63	0x3dc1907a	0.09451385
64	0xbed19968	-0.40937352
65	0xbe5f4ea9	-0.2180735
66	0xbd7e863c	-0.062139735
67	0x3e60d13a	0.21954814
68	0xbdc70114	-0.097170025
69	0xbe2c26a0	-0.1681161
70	0x3e09bf57	0.13451897
71	0xbe172d93	-0.14763479
72	0xbea84eb7	-0.32872555
73	0x3d072cd0	0.03300172
74	0x3de81022	0.11331202
75	0xbe96eabf	-0.29475972
76	0xbe3ddbe1	-0.18540908
77	0x3d4f3380	0.050586224
78	0x3d1fb198	0.038987726
79	0x3cb4ee47	0.022086276
80	0xbe509691	-0.20369937
81	0xbec0eaf6	-0.3767926
82	0xbdac6209	-0.08417136
83	0xbd73bdd9	-0.059507225
84	0x3e8f19b6	0.27949303
85	0xbeb58679	-0.35454157
86	0xbd9c66e8	-0.07636815
87	0xbeb90ecb	-0.361441
88	0x3e5f8b8e	0.2183058
89	0xbe882a41	-0.26594737
90	0xbe89bf35	-0.26903692
91	0xbc2164b8	-0.009850673
92	0xbe614d4c	-0.22002143
93	0x3d8b5974	0.06804171
94	0xbe5d7687	-0.21627246
95	0x3e442a82	0.1915684
96	0xbe832961	-0.25617507
97	0x3d4688b7	0.048470225
98	0xbe0ffed8	-0.14062059
99	0x3e7963dc	0.243545
100	0x3c90c566	0.017672252
101	0x3eb7970d	0.3585743
102	0x3d821063	0.06350782
103	0xbd749ebf	-0.059721705
104	0x3d8278c7	0.06370693
105	0x3c62b5ed	0.01383732
106	0xbde48281	-0.11157704
107	0x3dbbfd0c	0.09179124
108	0x3db144a0	0.08655667
109	0x3d5f8d91	0.054578368
110	0xbd495abc	-0.049158797
111	0x3ec712e0	0.38881588
112	0xbecdad20	-0.40171146
113	0xbeb7de7a	-0.35911924
114	0xbe099501	-0.13435747
115	0x3d2a6901	0.041604046
116	0x3e0e7074	0.13910085
117	0xbd8ea165	-0.06964377
118	0x3e1850ea	0.14874616
119	0x3cbb2692	0.02284554
120	0xbd658868	-0.05603829
121	0xbec3fd57	-0.3827922
122	0x3db132f2	0.08652295
123	0xbd40e833	-0.047096442
124	0xbee00cf7	-0.4375989
125	0xbdb6b9ed	-0.08922181
126	0x3e0e3f8a	0.13891426
127	0xbe17be54	-0.14818698
128	0xbcca0737	-0.024661643
129	0x3d9a4423	0.07532527
130	0x3da7ff89	0.08203036
131	0xbe3dabde	-0.18522593
132	0xbd157dcf	-0.036496934
133	0x3d46ce1a	0.048536398
134	0xbe9e80af	-0.30957553
135	0x3dd1bed8	0.10241479
136	0x3e116b8c	0.14201182
137	0x3ddb6d26	0.10714178
138	0xbe9aaabb	-0.30208382
139	0xbe58eae9	-0.21183361
140	0xbd7150cd	-0.05891495
141	0xbea873a5	-0.3290073
142	0x3eb71544	0.35758412
143	0xbdb40c9f	-0.0879147
144	0x3e031dda	0.12804356
145	0xbd0bca07	-0.034128215
146	0xbe7e33ea	-0.24824491
147	0xbe9ff5f5	-0.31242338
148	0x3dd1e1ae	0.10248123
149	0x3d33dd92	0.043912478
150	0xbe044e8e	-0.12920591
151	0x3d26266c	0.040563986
152	0xbe910e5f	-0.28331277
153	0xbd9a1c38	-0.075249135
154	0xbe3b06b8	-0.18264282
155	0xbdfafe20	-0.12255502
156	0x3e762ff2	0.24041727
157	0xbdcb3806	-0.09922795
158	0xbecec08c	-0.40381277
159	0xbee3d223	-0.4449626
160	0xbf487d59	-0.78316265
161	0x3ca0ec08	0.019643798
162	0x3d665e13	0.05624206
163	0x3e6742fa	0.22584143
164	0xbe6a1489	-0.22859396
165	0xbe72445b	-0.23658888
166	0x3dee935e	0.11649202
167	0x3d5d4162	0.054017432
168	0xbeabc363	-0.33547506
169	0x3ccdbb80	0.025113821
170	0x3d699c0d	0.057033587
171	0xbd740e51	-0.059583966
172	0xbe2ea02f	-0.17053293
173	0x3e04377f	0.12911795
174	0xbc96421f	-0.018342076
175	0x3d6c62cc	0.057711408
176	0xbd8a977b	-0.06767174
177	0x3e9519a6	0.2912113
178	0x3d76c664	0.060247794
179	0x3c969053	0.018379366
180	0x3e467225	0.1937948
181	0x3f1607b5	0.5860551
182	0x3e8ec854	0.27887213
183	0x3e90a707	0.28252432
184	0xbe9c8218	-0.30568004
185	0xbdb5b788	-0.088728964
186	0x3ee7ae5f	0.45250222
187	0xbdb3f5c9	-0.08787114
188	0xbe975362	-0.29555804
189	0xbd90a4ba	-0.07062669
190	0x3dfc0430	0.12305486
191	0x3c720b82	0.0147732515
192	0xbc874eff	-0.01651716
193	0x3dc21719	0.09477062
194	0xbe4992e5	-0.19684942
195	0x3dcf64ff	0.10126685
196	0x3e616e3e	0.2201471
197	0xbd9d8b6a	-0.07692607
198	0xbcc7e264	-0.024399944
199	0x3e9d047a	0.30667478
200	0xbc2eec07	-0.0106763905
201	0x3e87f756	0.2655589
202	0x3dd9227e	0.10602282
203	0x3eacb9f1	0.33735612
204	0xbd16f02c	-0.03685014
205	0xbdce2855	-0.100662865
206	0xbde13814	-0.10997024
207	0x3e3713b3	0.17878608
208	0x3df1658c	0.11786947
209	0xbe40f4e0	-0.18843412
210	0xbdf85b8d	-0.12126837
211	0xbed364fa	-0.41287977
212	0x3e1580f7	0.14599977
213	0x3e882465	0.26590267
214	0xbd0e36f2	-0.03472037
215	0xbe187286	-0.14887437
216	0xbe21eb2a	-0.15812364
217	0x3e063562	0.13106301
218	0x3dd7c2ef	0.105352275
219	0xbb819a7f	-0.003955185
220	0xbe2bf176	-0.16791329
221	0xbe9e3912	-0.30902916
222	0x3db8d5d3	0.09025159
223	0x3d2fff46	0.042968057
224	0x3d2613c3	0.04054619
225	0xbe659b48	-0.22422516
226	0x3e6c552a	0.23079363
227	0x3d084986	0.033273242
228	0xbd0a98e0	-0.0338372
229	0x3e180069	0.14843906
230	0x3ccb7f85	0.02484108
231	0x3e6c4c68	0.23076022
232	0xbd127e76	-0.035765134
233	0x3e8fb542	0.28067976
234	0x3d70fb66	0.058833502
235	0x3e6ac42a	0.22926393
236	0xbdb71fcd	-0.089416124
237	0xbe1a0fe1	-0.1504512
238	0xbd3df220	-0.046373487
239	0x3e8b7803	0.2724
240	0x3d7b2547	0.061314847
241	0x3dc380f5	0.09546081
242	0xbf24460c	-0.64169383
243	0xbec853d4	-0.39126456
244	0x3e271b3f	0.16318987
245	0x3e29f0a2	0.165957
246	0xbe5f4c79	-0.21806516
247	0xbdfc7963	-0.1232784
248	0xbe10bb60	-0.14133978
249	0xbdeb8fcc	-0.115020365
250	0x3e6d05fe	0.23146817
251	0x3e97217a	0.29517728
252	0xbe02c551	-0.12770583
253	0xbe56003c	-0.20898527
254	0xbe48f9ce	-0.19626543
255	0xbef97fca	-0.48730308

bias f4 [100]
0	0x3dd13712	0.10215582
1	0x3d1158ec	0.035485193
2	0xbde34728	-0.11097556
3	0x3dd6c506	0.10486798
4	0xbd6cd83b	-0.0578234
5	0xbdc34f8c	-0.09536657
6	0xbde7c708	-0.11317259
7	0xbdaa818b	-0.083254896
8	0x3d8c7f12	0.06860174
9	0xbccb2b8f	-0.024801044
10	0x3e904d21	0.28183845
11	0xbd6931b1	-0.056932155
12	0xbdd229d0	-0.10261881
13	0x3d99b169	0.075045414
14	0xbd73aea8	-0.059492737
15	0x3d836fc4	0.06417802
16	0xbb32b2f8	-0.0027267318
17	0xbdda286e	-0.106522426
18	0x3c30a8b9	0.010782414
19	0x3d7397c6	0.059470914
20	0xbc439548	-0.011937447
21	0xbe0c3fae	-0.13696167
22	0xbbdea43b	-0.00679448
23	0xbde9dccc	-0.11419067
24	0xbdb25c28	-0.08708984
25	0x3d945b65	0.072439946
26	0xbde1887a	-0.11012359
27	0x3d613d2a	0.05498997
28	0x3d4325a0	0.047643304
29	0x3dad428b	0.08459958
30	0x3e5d6461	0.21620323
31	0xbb56ed4a	-0.0032795244
32	0x3dd15b47	0.10222488
33	0x3e3ed7a0	0.18636942
34	0x3d153930	0.03643149
35	0xbd42877f	-0.0474925
36	0xbddcec68	-0.107872784
37	0x3d90134f	0.07034933
38	0x3e0e0f3e	0.13873002
39	0xbd2bb33d	-0.04191898
40	0xbdd9ecc3	-0.10640862
41	0xbdcfec27	-0.10152464
42	0x3d8c5945	0.06852964
43	0xbded2e76	-0.11581127
44	0x3da2119c	0.07913515
45	0x3e363527	0.17793714
46	0xbdd2c4d5	-0.10291449
47	0x3ec70dd0	0.38877726
48	0xbe4534f3	-0.1925848
49	0x3e0b1cd0	0.1358521
50	0x3e851d80	0.2599907
51	0xbd952412	-0.072822705
52	0x3dbf8540	0.09351587
53	0xbe0ecf75	-0.13946326
54	0xbe232878	-0.15933406
55	0x3e9a0e13	0.30088863
56	0xbd4230e2	-0.0474099
57	0x3d9a1994	0.0752441
58	0xbd347673	-0.044058274
59	0xbdd89dcf	-0.105769746
60	0xbde55015	-0.11196915
61	0xbd9ddc14	-0.07707992
62	0x3e18bd0f	0.1491587
63	0x3d992974	0.0747861
64	0xbda95dc0	-0.082698345
65	0x3dab895d	0.08375809
66	0xbd9d253c	-0.076731175
67	0x3e1a1576	0.15047249
68	0x3e988585	0.29789367
69	0xbe20534f	-0.1565678
70	0xbd805a44	-0.06267217
71	0x3dfe8078	0.12426847
72	0xbd5f96dd	-0.054587234
73	0xbe1231e2	-0.14276841
74	0xbd95c054	-0.07312074
75	0xbe2ad515	-0.16682847
76	0xbde25cfe	-0.11052893
77	0xbe1eb489	-0.15498556
78	0x3dcd7327	0.10031729
79	0x3dc895d7	0.09794205
80	0xbc5c7743	-0.013456169
81	0x3e5f844b	0.2182781
82	0xbc7d3072	-0.015453445
83	0xbd4056b2	-0.04695768
84	0xbd60e4b6	-0.054905616
85	0x3cc11cb6	0.02357326
86	0x3d097fd2	0.033569165
87	0x3e25faf5	0.16209014
88	0x3d8d56ce	0.06901322
89	0xbdd0a6e6	-0.10188083
90	0x3e51f437	0.20503317
91	0x3dc7ca70	0.09755409
92	0xbe314cb1	-0.17314412
93	0x3e856e35	0.26060644
94	0xbca2c9df	-0.01987165
95	0x3e407f09	0.1879846
96	0x3e0c339a	0.1369156
97	0xbba567bd	-0.005047767
98	0xbc97505b	-0.018470934
99	0xbdf82864	-0.12117079

weight f4 [100, 100, 1]
0	0xbd6808d8	-0.05664906
1	0xbd49fce3	-0.049313437
2	0xbcdf0999	-0.027226256
3	0xbdb80e07	-0.089870505
4	0xbe5a203d	-0.2130136
5	0x3d856255	0.06512896
6	0x3d3a5070	0.045486867
7	0xbdbff83d	-0.093735196
8	0x3d2b1d0b	0.041775744
9	0x3d22f899	0.039787862
10	0xbde368da	-0.11103983
11	0x3d8020e0	0.062562704
12	0x3c6443cd	0.013932181
13	0x3d7a3cbb	0.061093073
14	0xbdfd4045	-0.12365774
15	0xbd499a54	-0.049219444
16	0xbd04eb62	-0.03245104
17	0x3c77cd0b	0.01512457
18	0xbc7249dc	-0.014788117
19	0x3db49e23	0.08819225
20	0xbd9aed8c	-0.0756484
21	0xbc31dcbf	-0.010855853
22	0xbca81759	-0.020518946
23	0xbe06e045	-0.1317149
24	0x3cffad2e	0.031210508
25	0xbd89b098	-0.06723136
26	0xbd831258	-0.06399983
27	0xbd93ef32	-0.07223357
28	0x3b81be56	0.0039594574
29	0x3d748d2e	0.059704952
30	0xbdca1350	-0.09866965
31	0x3d2af1b5	0.041734416
32	0xbabd4efd	-0.0014443096
33	0xbda1b734	-0.07896271
34	0xbd769b8e	-0.060206942
35	0xbdb4a560	-0.08820605
36	0x3c82a0e7	0.015945865
37	0x3d17ac3f	0.0370295
38	0xbd06f8bc	-0.032952055
39	0x3d54b7a9	0.051932964
40	0x3bf7fa8d	0.00756771
41	0xbd62b93a	-0.055352427
42	0xbe7ca2ab	-0.24671428
43	0xbd93b1ef	-0.072116725
44	0xbdd15f3c	-0.10223243
45	0xbd97dc65	-0.07415084
46	0xbd9be230	-0.07611501
47	0xbd14259d	-0.036168683
48	0x3ce67c50	0.028135449
49	0x3d556c0d	0.052105
50	0xbe84c59b	-0.2593201
51	0xbdadbf31	-0.084837325
52	0xbcaf3fb6	-0.021392684
53	0xbd6ab024	-0.057296887
54	0xbc16e69d	-0.009210256
55	0xbe7ac57b	-0.24489395
56	0xbcf2de9f	-0.02964717
57	0x3d395619	0.045248125
58	0xbd05c17d	-0.032655228
59	0xbdc7e5b2	-0.09760608
60	0xbcd5907c	-0.026069872
61	0xbdabbc42	-0.08385517
62	0xbd9980d8	-0.07495278
63	0x3c1a3056	0.009410938
64	0xbc89d335	-0.016824344
65	0xbca17b39	-0.019712077
66	0x3da31dea	0.0796469
67	0xbe2e5f00	-0.17028427
68	0xbdf1c846	-0.11805777
69	0x3d81de86	0.06341271
70	0xbcdac125	-0.026703427
71	0xbd887ddf	-0.06664633
72	0x3bbefa45	0.0058281743
73	0x3c4a5224	0.012348685
74	0xbc1d9791	-0.009618656
75	0xbdb10b34	-0.08644715
76	0xbd6ec883	-0.05829669
77	0x3dcbfa5e	0.09959863
78	0x3b913250	0.0044310465
79	0x3cb2cad3	0.02182523
80	0xbcf95f9a	-0.030441094
81	0xbcae65db	-0.021288803
82	0xbd82536c	-0.06363568
83	0x3d2982dd	0.041384567
84	0x3d3aef9a	0.045638658
85	0xbb8fd187	-0.0043889913
86	0xbd4fbea0	-0.050718904
87	0xbd702165	-0.058625598
88	0x3d60949e	0.054829232
89	0x3d2c7032	0.042099185
90	0xbce06043	-0.027389651
91	0xbd8256c9	-0.06364209
92	0xbd9b80c2	-0.07592918
93	0xbdae30d1	-0.08505405
94	0xbdba3e43	-0.09093907
95	0xbdbfe61f	-0.09370064
96	0x3d1866d7	0.03720745
97	0xbc97a2fa	-0.01851033
98	0x3d469db0	0.048490226
99	0xbd86cccb	-0.0658203
100	0x3d8a3a7f	0.067494385
101	0xbe07f766	-0.13277969
102	0xbd2ec627	-0.04266944
103	0x3e955264	0.29164422
104	0xbd3faf12	-0.04679782
105	0xbf0115a2	-0.50423634
106	0x3db2c047	0.0872808
107	0xbe1537c0	-0.14572048
108	0xbe5c3fa1	-0.21508648
109	0xbe119194	-0.1421569
110	0x3e646198	0.22302854
111	0xbd344c99	-0.04401836
112	0x3d918635	0.07105676
113	0xbe532ad1	-0.20621802
114	0xbe1ad301	-0.15119554
115	0xbe31a100	-0.17346573
116	0xbe666079	-0.22497739
117	0x3d6755d0	0.05647832
118	0x3e536640	0.20644474
119	0xbc0094ca	-0.007847974
120	0xba98911f	-0.0011639929
121	0x3d27feb4	0.04101439
122	0xbe883bf0	-0.2660823
123	0xbe22f182	-0.1591244
124	0x3df93ed0	0.12170184
125	0xbf1179a3	-0.5682623
126	0x3e53b012	0.20672634
127	0x3df93312	0.12167944
128	0xbe3a9e4a	-0.18224445
129	0xbddccc79	-0.107811876
130	0xbe2a830c	-0.16651553
131	0xbe1c8dd5	-0.1528848
132	0x3dda462a	0.10657914
133	0xbdebdcb0	-0.11516702
134	0xbd1dbc49	-0.03850964
135	0xbe973825	-0.29535022
136	0xbe5a249d	-0.2130303
137	0xbe8c148b	-0.27359423
138	0x3d347225	0.04405417
139	0x3cb85aa6	0.022504162
140	0x3ee84693	0.45366344
141	0xbe802d3b	-0.25034508
142	0xbdcead9e	-0.100917086
143	0x3badd8f8	0.0053054057
144	0x3dda53bc	0.10660502
145	0xbe3cc684	-0.18435103
146	0xbe943631	-0.28947595
147	0xbe29c130	-0.16577601
148	0xbe90b190	-0.2826047
149	0x3e1c25ee	0.15248844
150	0x3e8bcd8d	0.2730526
151	0xbde2a423	-0.11066463
152	0xbdfa040d	-0.12207804
153	0xbed8e33d	-0.4236087
154	0xbec14711	-0.37749532
155	0xbdd4058b	-0.1035262
156	0xbf0f578e	-0.5599297
157	0xbe6718c7	-0.22568046
158	0xbdc0b711	-0.09409917
159	0x3cf365ac	0.029711567
160	0xbe180049	-0.14843859
161	0x3f01b4ba	0.5066639
162	0x3ddbdb97	0.10735243
163	0xbe04373b	-0.12911694
164	0xbd231ea9	-0.03982416
165	0xbde54c93	-0.11196246
166	0x3e39fec0	0.18163586
167	0xbdf5d672	-0.12003793
168	0xbe7bc048	-0.24585068
169	0x3bc3b306	0.005972269
170	0xbe967fa0	-0.29394245
171	0xbe59404f	-0.21215938
172	0xbd223960	-0.0396055
173	0xbe52a970	-0.20572448
174	0xbe1b0748	-0.15139496
175	0x3b4dda7b	0.0031410742
176	0x3d2d5410	0.042316496
177	0xbe9b6725	-0.3035213
178	0xbdd67c10	-0.10472882
179	0x3e596c43	0.21232705
180	0x3db3a042	0.08770801
181	0xbea7c5d5	-0.3276812
182	0xbdcf80fe	-0.10132025
183	0x3dd81077	0.105500154
184	0x3f1b2f9a	0.6061951
185	0xbe8c765d	-0.27434054
186	0xbead2cd0	-0.33823252
187	0xbe36a3b5	-0.17835887
188	0x3d5ebaff	0.054377552
189	0xbef0ada2	-0.4700747
190	0xbe999408	-0.2999575
191	0xbdce929d	-0.10086558
192	0xbeadc1a0	-0.33936787
193	0xbe24c020	-0.16088915
194	0xbf010b31	-0.504077
195	0x3cf18942	0.029484395
196	0xbe3ccbef	-0.1843717
197	0x3e6672e8	0.22504771
198	0xbe0b104c	-0.13580436
199	0x3c501665	0.012700652
200	0x3d1f7be6	0.038936518
201	0xbd999695	-0.07499424
202	0xbd81b144	-0.06332639
203	0x3d9a6cb3	0.07540264
204	0xbe3a69d3	-0.18204431
205	0xbcd0ba8c	-0.025479577
206	0xbdb1eae1	-0.08687378
207	0xbe2d993b	-0.16952984
208	0xbda68212	-0.08130278
209	0xbdcfe310	-0.101507306
210	0x3d689998	0.056787103
211	0xbcb79792	-0.022411142
212	0xbcebfc47	-0.028806819
213	0xbdacfeab	-0.084470116
214	0xbd8714e3	-0.06595781
215	0xbe123b18	-0.14280355
216	0xbd02ff9e	-0.031982057
217	0xbd304def	-0.043043073
218	0xbdc620e5	-0.09674243
219	0x3d835156	0.06411998
220	0xbe34f87e	-0.17672917
221	0xbda1811c	-0.07885954
222	0xbe3bb125	-0.18329294
223	0x3d1e5b70	0.03866142
224	0xbdb7de8b	-0.089779936
225	0xbd429872	-0.047508664
226	0x3dcdb4d8	0.10044259
227	0x3c443720	0.011976033
228	0xbdb268bf	-0.08711385
229	0xbce6d93c	-0.028179757
230	0xbd40a931	-0.047036353
231	0xbdb21e38	-0.0869717
232	0xbe0d361b	-0.13790171
233	0xbd919775	-0.07108966
234	0x3c08723e	0.008328019
235	0xba0d13c6	-0.00053816696
236	0xbdbcf11f	-0.09225678
237	0xbe0d282c	-0.13784856
238	0xbdfb99c4	-0.12285188
239	0xbe231df5	-0.15929396
240	0x3bb47b26	0.0055078445
241	0xbdbe4038	-0.092895925
242	0xbd83884c	-0.06422481
243	0x3dba8d43	0.09108975
244	0x3d5f13df	0.05446231
245	0xbdf15493	-0.117837094
246	0xbdfe3157	-0.124117546
247	0x3d508ddd	0.05091654
248	0x3d0c9725	0.03432383
249	0xbcfd9fe8	-0.030960038
250	0xbd9e4ec5	-0.07729868
251	0x3dc34722	0.09535052
252	0x3d23db9f	0.04000437
253	0xbd28d32c	-0.041217014
254	0xbda9a029	-0.08282501
255	0x3cc00757	0.023441

bias f4 [100]
0	0xbe3bfd6d	-0.18358393
1	0xbe18e29e	-0.14930198
2	0xbcfc25d1	-0.030779751
3	0xbe06f21f	-0.131783
4	0xbe1793fa	-0.14802542
5	0x3cfcd83e	0.030864831
6	0xbe1fad3a	-0.15593424
7	0x3d4d3daf	0.050107654
8	0xbe2b7faa	-0.16747919
9	0xbe2f4fea	-0.17120329
10	0xbdcc54fc	-0.09977147
11	0xbd930916	-0.071794674
12	0xbe299b0e	-0.16563055
13	0x3e0f9c93	0.14024572
14	0xbc9be2cb	-0.019029042
15	0xbe6cd52e	-0.23128197
16	0xbd9291e7	-0.07156735
17	0xbe173a7a	-0.14768401
18	0xbddfa492	-0.10920061
19	0xbd22e42d	-0.039768387
20	0xbdf55143	-0.1197839
21	0xbe552556	-0.20815024
22	0xbe15a12d	-0.14612265
23	0xbd9e8fe0	-0.07742286
24	0xbe8b2586	-0.27177066
25	0xbe07aa45	-0.13248546
26	0xbdb744cd	-0.089486696
27	0xbe0c93b8	-0.13728225
28	0xbc2d5e14	-0.010581512
29	0xbdda0397	-0.10645216
30	0xbe67e8cc	-0.22647399
31	0x3da9cfff	0.08291625
32	0xbe781b72	-0.2422922
33	0xbd3248c3	-0.043526422
34	0xbdf74d91	-0.120753415
35	0x3e204159	0.15649928
36	0xbda935aa	-0.08262189
37	0xbdb75bcc	-0.08953056
38	0xbdb3ee17	-0.087856464
39	0xbf811de2	-1.0087245
40	0xbe0fa31a	-0.14027062
41	0xbe23c349	-0.15992464
42	0x3e129bac	0.14317197
43	0xbe358894	-0.17727882
44	0xbdaf5727	-0.08561545
45	0x3cfa8a03	0.030583387
46	0xbda7f285	-0.08200554
47	0xbde14eb0	-0.110013366
48	0x3dacf010	0.08444226
49	0xbe77d5e6	-0.2420269
50	0xbe939dd7	-0.2883136
51	0xbe66d32a	-0.2254149
52	0xbe20c0ae	-0.15698501
53	0x3e1e057e	0.15431783
54	0xbd422a27	-0.04740348
55	0xbd8ff972	-0.0703
56	0xbd242e65	-0.040083308
57	0xbe43c45f	-0.19117878
58	0xbe3f0624	-0.18654686
59	0x3d2121ba	0.039338805
60	0x3d0c1381	0.034198288
61	0xbd827dc9	-0.06371648
62	0xbe060c47	-0.13090621
63	0x3da22af9	0.07918353
64	0xbe6f1ef2	-0.23351648
65	0xbe111e0c	-0.14171618
66	0xbe076dc2	-0.13225463
67	0xbe7c399c	-0.24631351
68	0x3d0f194b	0.03493623
69	0xbdf1b1d2	-0.11801495
70	0xbe9206e8	-0.28520894
71	0xbe3b7cbb	-0.183093
72	0xbcd75be0	-0.026288927
73	0xbce67e6b	-0.028136453
74	0xbe53e6fa	-0.2069358
75	0xbec28abe	-0.37996477
76	0x3e0c71dd	0.1371531
77	0xbd203eef	-0.03912252
78	0xbe112459	-0.14174022
79	0xbe4d9b1a	-0.20078698
80	0xbda565ef	-0.08076083
81	0xbdb09e92	-0.08623995
82	0xbe177bcf	-0.14793323
83	0x3d957b36	0.07298891
84	0xbd2b82d8	-0.04187283
85	0x3df17ac4	0.11790994
86	0xbf896f6e	-1.0737131
87	0xbd4e4994	-0.05036314
88	0xbdf78411	-0.120857365
89	0xbea90776	-0.33013505
90	0x3e6c0aec	0.23051041
91	0x3c8074eb	0.01568075
92	0xbd8cf349	-0.068823405
93	0xbd5e20ac	-0.054230377
94	0xbe77afac	-0.24188107
95	0xbca6bd5e	-0.02035397
96	0xbe23f667	-0.16011964
97	0xbd70610d	-0.058686305
98	0xbe29cb49	-0.16581453
99	0xbd949c83	-0.07256415

weight f4 [100, 100, 1]
0	0xbd89ab52	-0.0672213
1	0x3db88b51	0.090109475
2	0xbce54951	-0.027989062
3	0x3d921a49	0.0713392
4	0xbd17bf80	-0.037047863
5	0x3ddb2767	0.10700875
6	0x3cb150ea	0.021645028
7	0xbc97ae17	-0.01851563
8	0xbd62bf54	-0.055358246
9	0x3dddec86	0.10836129
10	0xbd65cff0	-0.056106508
11	0xbdde6f13	-0.108610295
12	0x3ec4ae13	0.38414058
13	0x3dc53107	0.09628492
14	0xbe0d37ed	-0.13790865
15	0x3b8eb6f5	0.0043553063
16	0x3d28ea37	0.04123899
17	0x3ce742a0	0.028230011
18	0x3ac99687	0.0015379944
19	0xbd2892c8	-0.041155607
20	0x3dc5deec	0.096616596
21	0x3d718c31	0.058971588
22	0xbd8d7c98	-0.0690853
23	0x3e8bcd33	0.27304992
24	0x3c386fda	0.011257136
25	0x3e2543e1	0.16139175
26	0xbc11205d	-0.008857814
27	0x3d61e797	0.055152502
28	0x3d64fb54	0.055903748
29	0x3e04d2f5	0.12971099
30	0xbdd47da3	-0.10375526
31	0xbd9751dd	-0.07388661
32	0x3e64dff8	0.22351062
33	0xbdcd1aad	-0.100148536
34	0x3cd397a0	0.025829136
35	0xbdd9a079	-0.10626311
36	0xbd20963b	-0.03920577
37	0x3e560c80	0.20903206
38	0x3d6da7ef	0.058021482
39	0xbf515d24	-0.81782746
40	0xbd7845cd	-0.060613442
41	0x3d49c798	0.049262613
42	0xbd071fe7	-0.03298941
43	0x3e1db0b1	0.15399434
44	0x3cabc83d	0.020969504
45	0x3e869d21	0.26291755
46	0xbcc665f8	-0.024218544
47	0xbd699a92	-0.057032175
48	0x3e08d873	0.13363819
49	0x3e35ba28	0.17746794
50	0x3cf50fa2	0.02991468
51	0xbd0ab303	-0.033862125
52	0xbd4ec15f	-0.05047738
53	0xbda63b0d	-0.08116732
54	0xbd1cf3e4	-0.03831853
55	0x3da6d574	0.08146182
56	0xbce1e707	-0.027575983
57	0x3e350c90	0.17680573
58	0x3b903036	0.0044002784
59	0x3df4673e	0.119337544
60	0xbdbe92a1	-0.09305311
61	0x3dbbc357	0.091681175
62	0x3e208913	0.1567729
63	0x3f0b9814	0.5452893
64	0xbe38d9c7	-0.18051825
65	0xbe08d679	-0.13363065
66	0x3ea0b6f2	0.31389576
67	0xbbdae5bc	-0.0066802185
68	0xbe8756f7	-0.26433536
69	0xbd3dee37	-0.046369758
70	0xbdc10101	-0.094240196
71	0x3e54af22	0.20769933
72	0x3cf4fb72	0.029905055
73	0x3c8577b9	0.01629244
74	0x3e0a2054	0.13488895
75	0x3cb6f585	0.02233387
76	0xbdd021fb	-0.10162731
77	0xbd76f6dd	-0.06029402
78	0x3ead570f	0.33855483
79	0x3b5abd74	0.0033377083
80	0xb93ce515	-0.00018014417
81	0x3e0d4a22	0.1379781
82	0x3d356efc	0.044295296
83	0xbddb331e	-0.10703109
84	0xbe226fa6	-0.15862903
85	0xbe44d84c	-0.19223136
86	0xbf324edc	-0.6965158
87	0xbd942ff6	-0.0723571
88	0x3edfb16f	0.4369006
89	0x3e39eb0a	0.18156067
90	0xbd6fc6ed	-0.05853932
91	0xbdefefe9	-0.11715681
92	0xbd6a68ac	-0.05722873
93	0x3df746cb	0.120740496
94	0x3e61483e	0.22000214
95	0xbd3247af	-0.043525394
96	0xbc88d133	-0.016701316
97	0x3dc71905	0.09721569
98	0x3e9c3300	0.3050766
99	0xbd8cf68e	-0.06882964
100	0x3ad37ba7	0.0016134874
101	0x3ef11cb5	0.47092214
102	0xbdd1a91b	-0.102373324
103	0xbc106a5d	-0.0088144215
104	0x3eac73cc	0.33682096
105	0xbc73cbad	-0.014880103
106	0xbe3968b5	-0.18106349
107	0x3d8e3fe5	0.06945781
108	0xbdc08569	-0.09400446
109	0x3d7c460e	0.061590247
110	0xbc94504c	-0.018104695
111	0x3cc6a621	0.024249138
112	0xbd809827	-0.06279021
113	0xba2cd697	-0.00065932557
114	0xbdb484d5	-0.08814398
115	0xbdf30c7f	-0.11867618
116	0x3d4e02ad	0.05029552
117	0x3e55e7f0	0.20889258
118	0xbe96e1fb	-0.29469284
119	0xbbce65b8	-0.006298747
120	0x3d1a2dbc	0.037641272
121	0xbd787d42	-0.06066633
122	0xbcf24a17	-0.029576344
123	0x3d1b097b	0.03785084
124	0xbdfa78d5	-0.12230078
125	0xbef24281	-0.47316363
126	0xbe73397a	-0.23752394
127	0x3b0a24a7	0.0021078975
128	0x3eb203e5	0.34768596
129	0x3d1e94aa	0.038715996
130	0x3dcb63be	0.09931134
131	0xbcc55c51	-0.024091871
132	0xbdcc6d00	-0.099817276
133	0x3edcc855	0.4312159
134	0xbde0b3ae	-0.10971771
135	0xbeb8cf2f	-0.3609557
136	0xbc21dc69	-0.00987921
137	0xbe1735f7	-0.1476668
138	0xbc98e46a	-0.018663604
139	0x3e6981c9	0.22803415
140	0x3e487f60	0.1957984
141	0x3eb01be8	0.3439629
142	0xbe844720	-0.25835514
143	0xbe870ed0	-0.2637849
144	0xbde22cd3	-0.11043706
145	0xbcbf967e	-0.02338719
146	0xbe7b251c	-0.24525875
147	0xbe11357c	-0.14180559
148	0xbcbb2a4f	-0.022847323
149	0xbe9839e4	-0.29731667
150	0x3e29e67a	0.16591826
151	0xbe237dbf	-0.15965937
152	0xbdf5e0e8	-0.12005788
153	0x3e369a23	0.17832236
154	0x3c46706c	0.012111764
155	0xbd3d3d38	-0.04620096
156	0x3dfeb302	0.12436487
157	0xbe91b361	-0.28457168
158	0xbd5b0be2	-0.05347813
159	0xbdcfdcec	-0.101495594
160	0xbdc367c6	-0.095412776
161	0xbe84fd9b	-0.25974736
162	0xbe4c33a6	-0.19941577
163	0xbe910247	-0.2832205
164	0xbe023a53	-0.12717561
165	0x3d8bcc8a	0.06826122
166	0xbdbb41b3	-0.091433905
167	0xbe4c3a76	-0.19944176
168	0xbdf6ddd8	-0.12054032
169	0xbd8a3790	-0.06748879
170	0xbf1ab3a9	-0.6043039
171	0xbd936f65	-0.07198981
172	0x3db474de	0.08811353
173	0xbc0482b3	-0.008087802
174	0xbced44e6	-0.028963517
175	0xbeb54412	-0.35403496
176	0xbd7bd1fc	-0.061479554
177	0x3d1988d6	0.037484013
178	0xbe302650	-0.17202115
179	0x3df2b88f	0.11851608
180	0xbd47ef21	-0.048812035
181	0x3dd2806c	0.10278401
182	0xbdbb481b	-0.091446124
183	0x3d51f603	0.051260006
184	0xbe1ddb50	-0.15415692
185	0xbe13402e	-0.14379951
186	0xbdc79f89	-0.09747226
187	0x3db17ad7	0.08666008
188	0xbe057e50	-0.13036466
189	0xbee2941b	-0.4425362
190	0x3d1c3989	0.038140807
191	0x3d7417f7	0.059593167
192	0xbe9f42f1	-0.3110576
193	0xbe3e26c1	-0.18569471
194	0xbdc9e492	-0.098580495
195	0xbe12744e	-0.14302179
196	0x3c5c5bb8	0.013449602
197	0x3dba638b	0.091010176
198	0xbe9c876f	-0.30572078
199	0xbd453707	-0.04814818
200	0x3d1ab6e2	0.037772067
201	0xbe72648f	-0.23671173
202	0xbd6884ff	-0.05676746
203	0x3dd580eb	0.1042498
204	0xbea39945	-0.31952873
205	0x3c0e14c5	0.008671944
206	0x3d2683fb	0.04065321
207	0x3d77701d	0.060409654
208	0x3c8bb973	0.017056203
209	0x3db0ec1d	0.08638785
210	0xbc2edef5	-0.010673274
211	0xbd925c45	-0.07146505
212	0x3c76473d	0.015031633
213	0xbc37e30a	-0.011223564
214	0xbc9c327f	-0.019067047
215	0x3e9c189c	0.30487525
216	0xbe7627bb	-0.24038593
217	0xbc9b1201	-0.018929483
218	0xbc90e83e	-0.017688867
219	0xbe010e84	-0.12603194
220	0x3da41992	0.0801269
221	0xbd1f7336	-0.038928233
222	0x3e1d4ed5	0.15362103
223	0x3dd0dd04	0.101984054
224	0xbdf93aa0	-0.12169385
225	0x3c860237	0.016358478
226	0x3bdacd07	0.006677273
227	0xbd827056	-0.06369083
228	0xbeb0fd64	-0.34568322
229	0x3da4026a	0.08008273
230	0x3d38a56f	0.045079645
231	0xbd6bcd59	-0.05756888
232	0x3d8b5b8a	0.06804569
233	0xbea0d016	-0.31408757
234	0x3d703c9f	0.058651563
235	0xbe1981b4	-0.14990884
236	0x3da51b58	0.08061856
237	0x3d05e2d6	0.03268703
238	0xbd8694fe	-0.06571387
239	0xbec7fa88	-0.39058328
240	0xbb9fad6a	-0.0048729675
241	0x3d282f60	0.041060805
242	0xbe3aa54d	-0.1822712
243	0x3e23d7a4	0.16000229
244	0xbd8b8164	-0.06811789
245	0x3d549da8	0.051908165
246	0x3db82a60	0.089924574
247	0x3dd533fa	0.10410304
248	0xbd2e673f	-0.042578932
249	0x3de03d86	0.10949235
250	0x3da7a1e9	0.08185179
251	0x3e25cf9e	0.16192481
252	0xbd858202	-0.06518938
253	0x3ceae495	0.02867345
254	0xbe8e590a	-0.27802306
255	0x3e87c860	0.26520061

bias f4 [100]
0	0xbe01ce31	-0.12676312
1	0xbe882385	-0.265896
2	0xbbefaff6	-0.0073146774
3	0xbdcf0a04	-0.10109332
4	0xbe2b5da5	-0.16734941
5	0xbe0af33c	-0.13569349
6	0xbe1dc8ee	-0.1540868
7	0xbe84e4a6	-0.25955695
8	0xbe269e1e	-0.16271254
9	0xbcaf8320	-0.02142483
10	0xbdffc8b9	-0.12489457
11	0xbebf3f7a	-0.37353116
12	0xbcd99fbf	-0.02656543
13	0xbe93117a	-0.2872427
14	0xbdada244	-0.08478215
15	0xbcfd0871	-0.030887814
16	0xbe10301d	-0.14080854
17	0xbccbb9cb	-0.024868866
18	0xbe0e3050	-0.13885617
19	0xbe41c262	-0.18921807
20	0xbe3a51c7	-0.18195258
21	0xbd955f7a	-0.07293601
22	0xbe1637dc	-0.14669746
23	0xbe300fb4	-0.1719349
24	0xbdef33e1	-0.11679817
25	0xbd89c255	-0.06726519
26	0xbd9c9367	-0.07645302
27	0xbd69cd35	-0.057080466
28	0xbda577ca	-0.080794886
29	0xbd897026	-0.06710844
30	0xbe01bd80	-0.12669945
31	0xbe148dc7	-0.14507209
32	0xbe6e593b	-0.23276226
33	0xbc88f9b1	-0.016720625
34	0xbd97c36b	-0.0741032
35	0xbc56ea65	-0.013117407
36	0xbcd0f90b	-0.025509378
37	0xbd330f48	-0.043715745
38	0xbd9f2f22	-0.07772662
39	0xbe15c294	-0.14625007
40	0xbda11ac7	-0.078664355
41	0xbdf35a3a	-0.11882444
42	0xbdeae397	-0.114691906
43	0xbd7a6e7a	-0.061140515
44	0xbe1f7215	-0.15570863
45	0xbdfe8fb9	-0.12429757
46	0xbe267bc3	-0.16258149
47	0xbd112b9f	-0.03544199
48	0xbe07dcc5	-0.1326781
49	0x3d978ff9	0.074005075
50	0xbdbf22d0	-0.09332812
51	0xbdf25e97	-0.11834448
52	0xbe15f815	-0.14645417
53	0xbdb3ced1	-0.087796815
54	0xbd631c9a	-0.0554472
55	0xbdd4051c	-0.10352537
56	0xbe13e8e5	-0.14444311
57	0xbdf11050	-0.117706895
58	0xbe39d043	-0.18145852
59	0xbe8179ab	-0.25288138
60	0xbd85f57f	-0.06540965
61	0xbdc59010	-0.09646618
62	0xbd828aaa	-0.06374104
63	0xbd1f1165	-0.038834948
64	0xbeb63175	-0.35584608
65	0xbd85e845	-0.065384425
66	0xbe46cf86	-0.19415101
67	0xbe1a8e0e	-0.15093252
68	0xbda09e87	-0.07842737
69	0xbe35df52	-0.17760971
70	0xbe85f64e	-0.26164478
71	0xbe0d5b8a	-0.1380445
72	0xbd8aed10	-0.06783497
73	0xbda2f28e	-0.0795642
74	0xbca0367e	-0.019557234
75	0xbdaba647	-0.08381324
76	0xbd4abc12	-0.049495764
77	0x3e128a5d	0.14310594
78	0xbcfd37f5	-0.030910471
79	0xbec59afb	-0.38594803
80	0xbe3684fb	-0.17824166
81	0xbe63ae8b	-0.22234552
82	0xbac69e1f	-0.0015153325
83	0xbdeb6479	-0.11493773
84	0xbda8fba6	-0.08251123
85	0xbe784d3a	-0.2424821
86	0xbe8ea3bf	-0.27859303
87	0xbe3b823b	-0.18311398
88	0xbe8c58fa	-0.27411634
89	0xbdcbb0ff	-0.09945869
90	0xbe407f29	-0.18798508
91	0xbd5c84bd	-0.053837527
92	0xbfa73c7c	-1.3065333
93	0xbdce86dd	-0.10084317
94	0xbe1c1f4c	-0.15246314
95	0xbdaf30e6	-0.085542485
96	0xbd3e2fd9	-0.04643235
97	0xbf8f3d73	-1.1190628
98	0x3c8849a2	0.016636673
99	0xbd8733c6	-0.06601672

weight f4 [100, 100, 1]
0	0xbda23e19	-0.079220004
1	0x3e1e2ce6	0.15446815
2	0xbe157637	-0.14595877
3	0x3d2c8c7d	0.042126168
4	0x3c825393	0.015908992
5	0x3d719fad	0.05899017
6	0x3d89a750	0.067213655
7	0xbee118fc	-0.43964374
8	0x3da6b15d	0.08139298
9	0xbd899f8d	-0.06719885
10	0x3b999f5c	0.0046881866
11	0x3d94520c	0.07242212
12	0xbdb22181	-0.086977966
13	0x3be23ccb	0.0069042197
14	0xbd7b4e2b	-0.061353844
15	0xbe1bd086	-0.15216264
16	0x3db26926	0.08711462
17	0xbe3d69db	-0.18497412
18	0x3e3f0b5b	0.18656676
19	0x3dd07f3d	0.10180519
20	0xbd6ec299	-0.05829105
21	0xbd1053f9	-0.035236333
22	0x3d80167e	0.0625429
23	0x3cbcd659	0.023051428
24	0x3b128aa7	0.0022360475
25	0xbdd439fc	-0.10362622
26	0xbc3ec967	-0.011644698
27	0x3d4ce74c	0.05002527
28	0xbea06725	-0.31328693
29	0xbba4d317	-0.0050300467
30	0x3dd0deb5	0.10198728
31	0xbd86a707	-0.06574827
32	0x3d509005	0.050918598
33	0x3d4d6924	0.050149098
34	0x3daf77f8	0.08567804
35	0x3e389a86	0.18027696
36	0x3b8804c9	0.004150961
37	0xbede8979	-0.43464258
38	0xbdbbc719	-0.09168834
39	0xbcd61e9c	-0.026137643
40	0xbd473a36	-0.0486395
41	0xbe6cd05e	-0.23126361
42	0xbde61dbb	-0.112361394
43	0xbd8cba61	-0.068714865
44	0xbe60ba56	-0.21946082
45	0xbc6af0c2	-0.014339628
46	0xbdb9c4cd	-0.0907074
47	0xbc9520b9	-0.01820408
48	0xbcbdac03	-0.02315331
49	0xbf1860f8	-0.5952296
50	0x3b750f48	0.0037393142
51	0xbbebadaa	-0.007192333
52	0xbd740263	-0.05957259
53	0xbd099f9e	-0.03359949
54	0xbdc32f5c	-0.095305175
55	0xbde3220e	-0.1109048
56	0x3d2b8700	0.041876793
57	0x3ddfe6b3	0.10932674
58	0xbd4d9264	-0.050188437
59	0x3e222181	0.15833093
60	0xbd79f967	-0.061028864
61	0xbd55dfb6	-0.0522153
62	0x3d93dd00	0.07219887
63	0x3e1587a1	0.1460252
64	0x3e1d2094	0.15344459
65	0x3d973f5f	0.07385134
66	0x3c96fd40	0.018431306
67	0xbc74aeb3	-0.01493423
68	0xbe032499	-0.1280693
69	0xbe129f1f	-0.14318512
70	0xbf2c2214	-0.672395
71	0x3d898f27	0.06716757
72	0xbcbb8d03	-0.022894388
73	0xbeb563f5	-0.35427824
74	0xbd69534f	-0.056964215
75	0x3cefa325	0.029252598
76	0xbd20c39f	-0.03924906
77	0x3d981ca2	0.07427336
78	0xbc07a559	-0.008279168
79	0xbdb0efec	-0.086395115
80	0xbd11d5a7	-0.035604145
81	0x3c9df650	0.01928249
82	0xbe3d513a	-0.18488017
83	0xbd49f054	-0.04930146
84	0xbd46f228	-0.048570782
85	0xbd33963a	-0.04384444
86	0x3c9685d1	0.018374356
87	0xbcd5331c	-0.026025347
88	0x3df7646a	0.12079699
89	0x3d010fdc	0.031509265
90	0x3dabe2cf	0.0839287
91	0xbe12983b	-0.14315884
92	0xbd6c694c	-0.057717606
93	0xbe79e76d	-0.24404688
94	0xbc02244b	-0.007943223
95	0xbdad4fa8	-0.08462459
96	0x3c1a2db3	0.00941031
97	0xbd3b2c26	-0.0456964
98	0x3f363132	0.71168816
99	0x3cb9e1cc	0.022690676
100	0xbd95f704	-0.07322505
101	0x3d92face	0.071767434
102	0xbde1479f	-0.10999989
103	0xbc059236	-0.008152535
104	0x3c8ab052	0.01692978
105	0xbd7a5bef	-0.06112283
106	0xbd9b204f	-0.07574522
107	0xbc954caf	-0.018225042
108	0x39b65bd4	0.00034782162
109	0x3d351073	0.04420514
110	0xbdaa2dc0	-0.08309507
111	0x3d1fd894	0.039024904
112	0xbd2cbc04	-0.042171493
113	0xbd5d65fa	-0.05405233
114	0xbd4a21e2	-0.04934872
115	0x3c5cf549	0.013486215
116	0xbe3fe72f	-0.18740533
117	0xbe00bddf	-0.1257243
118	0xbe05d14a	-0.13068119
119	0x3dbae7eb	0.09126266
120	0xbdbb5628	-0.091472924
121	0xbdb128d3	-0.08650365
122	0x3d1791e1	0.037004355
123	0x3ce964f8	0.028490528
124	0xbbc55c43	-0.0060229613
125	0xbd4bebc5	-0.049785394
126	0xbd0c7c8b	-0.03429846
127	0x3c7972b5	0.015225102
128	0xbd536021	-0.051605348
129	0xbe0ecb9c	-0.13944858
130	0xbd5c13b9	-0.053729746
131	0xbcacee47	-0.021109713
132	0xbd0f0d84	-0.034925
133	0xbda755f9	-0.08170695
134	0xbc1bb452	-0.009503441
135	0xbd33ccfc	-0.04389666
136	0xbd1edd63	-0.03878535
137	0x3d0ec88f	0.034859236
138	0x3d4f7db7	0.050657
139	0x3cad9446	0.021188866
140	0xba45e313	-0.00075487903
141	0xbd6afc40	-0.05736947
142	0xbe186df4	-0.14885694
143	0xbd8d9738	-0.06913608
144	0xbe06546d	-0.13118143
145	0xbd21d08c	-0.039505526
146	0x3c783664	0.0151496865
147	0xbcd99e42	-0.026564721
148	0x3e09c855	0.13455327
149	0xbb824a79	-0.003976163
150	0xbdaffa3f	-0.085926525
151	0xbd5acd09	-0.053418193
152	0xbda5c713	-0.08094611
153	0xbde8ffc3	-0.11376908
154	0xbd79d3fd	-0.060993183
155	0xbcc2280d	-0.023700738
156	0x3abad776	0.0014254886
157	0x3d0a59a3	0.03377689
158	0xbd941815	-0.07231156
159	0xbdc8a7cc	-0.0979763
160	0xbd7d0aef	-0.061778005
161	0xbd9f02d5	-0.07764212
162	0xbc2cafca	-0.010539958
163	0xbd8f066d	-0.069836475
164	0xbb01e380	-0.0019819438
165	0xbdaa526b	-0.08316501
166	0xbdec0d95	-0.11526028
167	0xbd08b318	-0.033373922
168	0xbcccfb59	-0.025022196
169	0xbdecd265	-0.11563567
170	0x3e135cfb	0.14390938
171	0xbd1c96cc	-0.03822975
172	0xbd085c03	-0.033290874
173	0xbdc6c686	-0.09705834
174	0xbd0f45db	-0.03497873
175	0xbced3369	-0.028955178
176	0x3ba5ddfa	0.005061862
177	0xbe8ca479	-0.27469233
178	0xbde06762	-0.10957219
179	0xbc582354	-0.013192017
180	0xbdde6b06	-0.10860257
181	0xbd860785	-0.06544403
182	0xbda4e2f4	-0.080511004
183	0xbdb87ff6	-0.090087816
184	0x3db4adee	0.08822237
185	0xbdc418fe	-0.095750794
186	0xbd20f33e	-0.039294474
187	0xbc20747d	-0.009793398
188	0xbdcdf07d	-0.10055635
189	0xbcc16444	-0.02360738
190	0x3d9341a4	0.07190254
191	0xbe066388	-0.13123906
192	0xbe3414de	-0.17586085
193	0xbd8e6821	-0.06953455
194	0xbddb8d29	-0.107202835
195	0xbda092b0	-0.078404784
196	0xbbb27c09	-0.005446915
197	0xbe1c9edf	-0.1529498
198	0xbe92a017	-0.28637764
199	0xbcd4a0f4	-0.025955655
200	0x3d9089ed	0.07057557
201	0xbd0e61f0	-0.03476137
202	0xbdaf9a66	-0.08574371
203	0x3d17782a	0.03697983
204	0x3d679ed3	0.05654795
205	0x3db70be3	0.08937814
206	0xbc06ae56	-0.008220276
207	0xbc6874d9	-0.014188015
208	0x3d8c291b	0.06843778
209	0x3d75afcb	0.059982102
210	0xbe109511	-0.14119364
211	0xbc5942d5	-0.013260563
212	0x3d2e8780	0.04260969
213	0x3dba39f0	0.09093082
214	0xbdc5c052	-0.09655823
215	0xbde13077	-0.10995572
216	0xbde8d479	-0.11368651
217	0x3d7d05cf	0.061773118
218	0xbe34f9f8	-0.1767348
219	0x3d143856	0.03618654
220	0xbd951a78	-0.07280439
221	0x3d0d3f2e	0.03448408
222	0x3daebc3e	0.08531998
223	0x3d3195db	0.043355804
224	0x3de878ac	0.11351141
225	0x3d10b6d6	0.035330616
226	0xbcc1e83a	-0.023670305
227	0xbd549743	-0.051902067
228	0xbdd70f59	-0.10500974
229	0xbd503ef8	-0.0508413
230	0x3da096ee	0.078412876
231	0x3cadf3d6	0.021234434
232	0x3d573b43	0.05254675
233	0xbcec4cf5	-0.02884529
234	0xbda6535b	-0.081213675
235	0xbd1cc841	-0.038276915
236	0x3c4ec08a	0.012619147
237	0x3b472dbf	0.0030392257
238	0x3c0a5457	0.00844296
239	0x3e055eaa	0.13024393
240	0xbd08502c	-0.033279583
241	0x3d37b1b6	0.044847213
242	0x3dc63d2f	0.096796386
243	0xbd61b6ac	-0.05510585
244	0xbd005d01	-0.031338695
245	0x3c9840e1	0.018585624
246	0x3db34b8f	0.08754646
247	0xbd838076	-0.06420986
248	0x3e27b1ae	0.16376373
249	0xbd82225b	-0.06354209
250	0xbd9fafe6	-0.07797222
251	0x3dcc1b2c	0.0996612
252	0x3d941964	0.072314054
253	0x3c5a5fce	0.013328506
254	0xbd1fd5d0	-0.039022267
255	0x3cc3a2b2	0.02388129

bias f4 [100]
0	0xbe5d2ecd	-0.21599884
1	0xbd502b97	-0.05082282
2	0xbc42a2f0	-0.011879668
3	0xbe428566	-0.189962
4	0xbdb0e2f5	-0.086370386
5	0xbbc2e6e5	-0.005947935
6	0x3e2745f0	0.16335273
7	0xbd6e7f33	-0.058226775
8	0xbc6454ef	-0.013936265
9	0xbd1b5aa6	-0.037928246
10	0xbe0a810a	-0.13525787
11	0xbd0d740c	-0.0345345
12	0xbcbe06ed	-0.023196662
13	0xbdb1cae0	-0.086812735
14	0xbd3a1935	-0.045434196
15	0xbde26941	-0.11055232
16	0xbdc2b504	-0.09507182
17	0xbe960bb6	-0.2930581
18	0xbc249e0b	-0.010047446
19	0xbd97bd1f	-0.07409119
20	0xbde7bee2	-0.11315705
21	0xbdb31820	-0.08744836
22	0xbe2354db	-0.15950339
23	0xbd8408a3	-0.0644696
24	0xbeb38c31	-0.35067895
25	0xbde879b4	-0.11351338
26	0xbdf8efba	-0.12155099
27	0xbd90c604	-0.070690185
28	0xbd3046ca	-0.04303626
29	0xbd03ef92	-0.032210894
30	0xbdcdd1b9	-0.10049767
31	0xbd4327b7	-0.047645297
32	0xbda37d86	-0.07982926
33	0xbc046ae6	-0.008082127
34	0xbdc9ff91	-0.098631985
35	0x3de3b92e	0.111193046
36	0xbd4e642c	-0.0503885
37	0xbcb8172b	-0.022471985
38	0xbc854abf	-0.016270993
39	0xbda301d7	-0.07959335
40	0x3cff11ef	0.031136481
41	0xbd9af47b	-0.07566162
42	0xbd913e55	-0.07091967
43	0xbdb68cba	-0.0891356
44	0x3df421f3	0.11920538
45	0xbdea811e	-0.114504084
46	0x3e1ab191	0.15106799
47	0xbd6d7585	-0.057973403
48	0xbdf66051	-0.1203009
49	0xbd3e48ca	-0.046456136
50	0xbd9f90b0	-0.07791269
51	0x3c85bdb5	0.01632581
52	0x3df8099d	0.121112086
53	0xbe349c1c	-0.17637676
54	0xbd550c9d	-0.052013982
55	0xbde4d964	-0.111742765
56	0xbdc5b2ef	-0.096532695
57	0xbd356b63	-0.044291865
58	0xbe8fe30e	-0.28102916
59	0xbde08647	-0.10963111
60	0xbd026c66	-0.031841658
61	0xbdcc17ca	-0.09965475
62	0xbc5c8e6e	-0.013461692
63	0xbdc29b27	-0.09502249
64	0xbb86eede	-0.0041178307
65	0xbd2dfb86	-0.0424762
66	0xbda57796	-0.0807945
67	0x3e633f81	0.22192194
68	0xbd053a6d	-0.032526422
69	0x3e0a2d73	0.134939
70	0xbd83d4a8	-0.06437045
71	0xbdea7f50	-0.11450064
72	0xbdc686ca	-0.09693678
73	0xbbca30cb	-0.0061703674
74	0xbcc9a469	-0.02461453
75	0xbe020a73	-0.12699299
76	0xbd589cad	-0.052883793
77	0xbd9e71c7	-0.07736545
78	0x3df6b75c	0.12046692
79	0xbe1d5ab4	-0.15366632
80	0xbe12bd5a	-0.14330044
81	0xbdb15278	-0.08658308
82	0xbd11e0dc	-0.035614833
83	0xbe0b2b00	-0.13590622
84	0xbd8a394b	-0.06749209
85	0xbc338c3d	-0.010958728
86	0xbe3bae55	-0.18328221
87	0x3cb94f62	0.02262086
88	0xbd83e7cc	-0.06440696
89	0xbd4e9ba6	-0.050441407
90	0xbdd40065	-0.10351638
91	0xbe092d99	-0.133963
92	0xbdb72014	-0.08941665
93	0xbcca96c3	-0.024730092
94	0x3b9a2d6a	0.004705121
95	0xbdb4ceca	-0.088285044
96	0x3d5c3a7b	0.05376671
97	0xbe9aff4b	-0.30272898
98	0xbd34c0f2	-0.04412932
99	0xbe1ff44d	-0.15620537

weight f4 [100, 100, 1]
0	0xbdf09602	-0.11747362
1	0xbd10c579	-0.035344575
2	0x3da586b8	0.08082336
3	0x3d1da4f5	0.038487393
4	0xbe046e6a	-0.12932745
5	0xbda72170	-0.081606746
6	0xbde1e5c0	-0.110301495
7	0x3d2ad5a7	0.04170766
8	0xbb122ae1	-0.002230339
9	0xbda52653	-0.080639504
10	0xbdc87e91	-0.097897656
11	0xbde89cb5	-0.113580145
12	0xbdbf1b9c	-0.09331438
13	0xbc0b824d	-0.008514953
14	0x3d3342d8	0.04376492
15	0x3c003ca4	0.007826958
16	0xbdc0fca7	-0.094231896
17	0xbd242466	-0.040073775
18	0xbd61c795	-0.055121977
19	0xbd9897b9	-0.07450814
20	0xbd9dd314	-0.077062756
21	0x3a820533	0.0009919762
22	0x3c60e2d4	0.013725955
23	0xbdba7aa5	-0.09105424
24	0x3d4fe557	0.050755825
25	0x3cae9f0d	0.021316076
26	0xbc9c0c31	-0.019048782
27	0xbd60f2b5	-0.054918963
28	0x3dcb45d0	0.09925425
29	0xbd850d4d	-0.064966775
30	0xbd5c6073	-0.05380292
31	0xbd92ac9c	-0.07161829
32	0x3cdf3d57	0.027250929
33	0xbb506a98	-0.0031801816
34	0xbd03b922	-0.03215898
35	0xbcd86c90	-0.026418954
36	0xbd608f27	-0.05482402
37	0x3d96a294	0.07355228
38	0x3d889ffc	0.066711396
39	0xbdadd411	-0.08487714
40	0xbd8f487b	-0.069962464
41	0xbda4a447	-0.08039146
42	0x3d96ce37	0.07363551
43	0xbda31903	-0.07963755
44	0x3d290f75	0.041274507
45	0x3d498818	0.049202055
46	0xbd370499	-0.04468212
47	0xbdb5a64d	-0.0886961
48	0x3c22c9ff	0.009935855
49	0x3d3b1e21	0.04568303
50	0xbcbff043	-0.023429995
51	0xbd4763d8	-0.048679203
52	0xbda7e864	-0.08198622
53	0xbd2672f8	-0.040636986
54	0xbcd8b1eb	-0.026452025
55	0xbc8da53a	-0.0172907
56	0xbcb4b98c	-0.022061132
57	0x3b7c56a8	0.00385038
58	0x3c9c6382	0.019090418
59	0x3d0985a8	0.03357473
60	0xbca712c9	-0.0203947
61	0xbbfb09d9	-0.007661086
62	0xbdb32b4d	-0.08748493
63	0xbd9c52a8	-0.07632953
64	0x3d18038e	0.037112765
65	0xbb17d5d2	-0.0023168218
66	0x3db8fb17	0.090322666
67	0xbd3778cc	-0.044792935
68	0xbdb153d1	-0.08658565
69	0xbd1af382	-0.037829883
70	0x3dc11946	0.09428649
71	0x3b974667	0.004616547
72	0xbd26f5b7	-0.040761676
73	0x3d843448	0.06455284
74	0xbd87cc04	-0.0663071
75	0xbdbcab79	-0.09212393
76	0x3982b1af	0.00024927917
77	0xbcbd5366	-0.023111057
78	0xbd6428c2	-0.055702932
79	0xbdcaa441	-0.0989461
80	0xbd6d7e7a	-0.057981946
81	0x3d6c5512	0.057698317
82	0x3d18aa8c	0.03727202
83	0xbc056a13	-0.008142966
84	0xbcda25c7	-0.026629342
85	0x3da6cd3a	0.081446126
86	0xbdb882e9	-0.09009344
87	0xbd37cd28	-0.044873387
88	0x39a5e000	0.00031638145
89	0xbbc83ba7	-0.0061106267
90	0x3ca91c44	0.02064336
91	0x3d2335fa	0.039846398
92	0xbdc039a5	-0.09385995
93	0x3d57f7f5	0.052726705
94	0xbd9ac90f	-0.0755788
95	0x3ceda400	0.029008865
96	0xbda185dd	-0.078868605
97	0x3d64c2e1	0.055849914
98	0xbd54d6cb	-0.051962655
99	0x3cf9097b	0.030400028
100	0xbdaf13d8	-0.08548707
101	0x3c91953c	0.017771356
102	0x3d9b612c	0.075868934
103	0x3d9ac7b0	0.075576186
104	0x3d81a186	0.06329636
105	0xbdd2d63c	-0.10294768
106	0xbd96193a	-0.0732903
107	0xbdaa99e8	-0.083301365
108	0x3db28339	0.08716435
109	0xbd9c2f83	-0.0762625
110	0xbe24fd8f	-0.1611235
111	0xbda49557	-0.08036297
112	0x3bb962c6	0.0056575267
113	0x3cdadd93	0.026716983
114	0x3d37ed63	0.044904124
115	0xbd3f46f4	-0.046698526
116	0xbc681694	-0.014165539
117	0xbd05c2a0	-0.032656312
118	0x3d7b6c0b	0.061382335
119	0xbca12d9e	-0.019675072
120	0x3d858af0	0.06520641
121	0xbb9ae100	-0.004726529
122	0xbc5b67e8	-0.013391472
123	0xbdac32ca	-0.08408125
124	0xbdcba8da	-0.09944315
125	0xbd2825d1	-0.04105169
126	0xbdc69c0c	-0.09697732
127	0x3d6a653f	0.057225462
128	0xbdc281c6	-0.094974086
129	0x3aaac1c3	0.0013027716
130	0xbd8040fa	-0.06262393
131	0xbdd60fee	-0.10452257
132	0x3cf931da	0.030419279
133	0x3d590356	0.052981697
134	0x3cb23b3b	0.021756759
135	0xbcbbfa3b	-0.022946468
136	0x3d69350e	0.056935363
137	0x3c7c5c80	0.015402913
138	0xbdb951e6	-0.09048824
139	0xbb8d916c	-0.004320314
140	0x3d8f5a87	0.069996886
141	0xbcbb8ea8	-0.022895172
142	0xbcb73b29	-0.022367077
143	0x3d1aefb0	0.03782624
144	0xbd179c12	-0.037014075
145	0x3a9b6443	0.0011855442
146	0xbdcfacb6	-0.10140364
147	0xbdab442a	-0.08362611
148	0x3c1041e3	0.008804771
149	0x3daa3219	0.083103366
150	0x3dabb643	0.08384373
151	0x3cda8041	0.026672484
152	0xbd7d671f	-0.061865922
153	0x3db3ebdd	0.08785222
154	0xbd4873c6	-0.048938535
155	0x3c0ff69a	0.008786822
156	0x3d3918cd	0.045189667
157	0xbd10ac00	-0.035320282
158	0xbddb7b26	-0.10716848
159	0x3d1a6960	0.03769815
160	0xbd82df0e	-0.063902006
161	0xbd4ebbe1	-0.050472144
162	0xbcece4a6	-0.028917622
163	0xbdb921e0	-0.09039664
164	0xbd1a9830	-0.037742794
165	0x3da326c9	0.07966382
166	0xbdb52641	-0.08845187
167	0xbde8d005	-0.113678016
168	0xbd9d3d92	-0.07677759
169	0x3d35ae9e	0.04435598
170	0xbd32f14d	-0.043687154
171	0x3d8028ba	0.06257768
172	0xbd267613	-0.040639948
173	0xbcc51ddd	-0.024062091
174	0xbd9f1a41	-0.077686794
175	0xbd83d4a7	-0.064370446
176	0xbc3409b9	-0.010988646
177	0x3d87b9dd	0.066272475
178	0xbd5368cc	-0.051613614
179	0x3d1ddbe4	0.038539782
180	0x3da5e8e8	0.08101064
181	0x3d8b97ea	0.06816085
182	0x3dae4bfb	0.08510586
183	0xbdb811bd	-0.08987758
184	0x3d0b8cad	0.034069706
185	0x3d95d8be	0.07316731
186	0xbdd8bb71	-0.105826266
187	0x3b8415d2	0.0040309215
188	0x3cc72837	0.024311168
189	0xbdb0d27f	-0.08633899
190	0x3dade65d	0.08491204
191	0xbc3d5500	-0.01155591
192	0x3db2cbab	0.08730253
193	0xbdac1502	-0.084024444
194	0xbce8434b	-0.0283524
195	0xbc46ee8d	-0.012141836
196	0xbdd6eb3d	-0.10494087
197	0x3c359c5a	0.01108464
198	0xbdbb8e50	-0.09158003
199	0xbca45de2	-0.020064298
200	0x3b0f2f79	0.0021848364
201	0x3d4992a0	0.049212098
202	0xbddb8aaf	-0.10719811
203	0x3d84d8d0	0.06486666
204	0xbdc5d207	-0.096592
205	0xbcfbd7e4	-0.030742593
206	0xbdc7cca7	-0.09755831
207	0xbd572a4e	-0.05253058
208	0x3d67da17	0.05660447
209	0xbd0bb8c2	-0.034111746
210	0xbeabcd2a	-0.33554965
211	0xbd26b92f	-0.04070395
212	0x3ca2c362	0.019868556
213	0x3d3b203b	0.045685034
214	0x3db2fbba	0.08739419
215	0xbe2571d9	-0.1615671
216	0xbdab6ad5	-0.08369986
217	0xbe06f27e	-0.13178441
218	0x3d0a7e63	0.033811938
219	0xbd5d311b	-0.05400191
220	0x3b9f7053	0.004865685
221	0xbd8069e5	-0.06270198
222	0x3d454337	0.048159804
223	0x3c926187	0.01786877
224	0xbc9906f9	-0.018680083
225	0x3dbb051d	0.09131835
226	0x3d674c2d	0.05646913
227	0xbd4b4deb	-0.049634855
228	0x3d6056fc	0.054770455
229	0x3cdc5601	0.026896479
230	0xbdb8a842	-0.09016468
231	0x3cdfee1d	0.027335221
232	0x3cebee53	0.028800165
233	0xbb3a2b29	-0.0028407073
234	0xbdb48fc8	-0.088164866
235	0xbc6ff5a0	-0.014645964
236	0x3ca719ee	0.020398106
237	0xbd51dc98	-0.051235765
238	0x3c020fe2	0.007938357
239	0x3dbd172a	0.09232934
240	0xbdb73c8b	-0.089470945
241	0x3d2e56fb	0.04256342
242	0xbd820039	-0.06347699
243	0xba5c8737	-0.00084124826
244	0xbd79b022	-0.06095899
245	0xbdb8c6a0	-0.0902226
246	0xbe16d3d5	-0.14729245
247	0xbd6e3ad4	-0.05816157
248	0xbc78589c	-0.015157845
249	0x3d5d45c3	0.054021608
250	0xbc803b9c	-0.015653424
251	0x3d6328ab	0.055458706
252	0x3ce51aa6	0.027966809
253	0xbdc3dcc2	-0.095635906
254	0xbdd37de3	-0.10326745
255	0x3d68daa7	0.056849148

bias f4 [100]
0	0xbc88fb40	-0.016721368
1	0xbb79e571	-0.0038131143
2	0xbd8dd183	-0.06924727
3	0xbd394d7f	-0.04523992
4	0xbd87b18f	-0.066256635
5	0xbd9f47df	-0.0777738
6	0xbd0c613c	-0.034272417
7	0xbc490bb0	-0.012270853
8	0xbca639e1	-0.02029127
9	0xbcfd040a	-0.030885715
10	0x3e2b441c	0.167252
11	0xbcb78b3c	-0.02240526
12	0xbbbfb25e	-0.0058501204
13	0xbd1593da	-0.036517955
14	0xbd9fbbb9	-0.07799477
15	0xbd7b7bbf	-0.06139731
16	0xbc0856ca	-0.008321473
17	0xbc99c1a5	-0.018769095
18	0xbdffa0e7	-0.124818616
19	0xbdb45675	-0.08805553
20	0xbc4709bc	-0.012148317
21	0xbd07bea2	-0.033140786
22	0xbe0e8530	-0.13917994
23	0xb9efb948	-0.00045723678
24	0xbdad62f1	-0.08466137
25	0x3c8f22f7	0.017472727
26	0xbccf7d69	-0.025328355
27	0xbc8ae099	-0.0169528
28	0xbd255a96	-0.040369593
29	0xbb7b6ce7	-0.0038364471
30	0xbc9854b3	-0.018595075
31	0xbcaf21c4	-0.021378405
32	0xbb4b363c	-0.0031007668
33	0xbdefbcf9	-0.117059655
34	0xbd8422b4	-0.064519316
35	0xbe68128d	-0.22663327
36	0xbcfad3fc	-0.03061866
37	0xbdc189b8	-0.09450096
38	0xbdc52fb1	-0.09628237
39	0xbd3e956e	-0.046529226
40	0x3da7150c	0.08158311
41	0x3e12416f	0.14282773
42	0xbd479111	-0.04872233
43	0xbcbd400e	-0.023101833
44	0xbdbae316	-0.091253445
45	0xbd0f90d8	-0.035050243
46	0xbcbe6a23	-0.02324397
47	0xbbf07d99	-0.007339191
48	0xbc2e46fe	-0.010637043
49	0xbd3681d3	-0.044557404
50	0xbd4603a8	-0.04834333
51	0xbc463bad	-0.012099189
52	0xbeb6b101	-0.35681918
53	0xbd45e4fb	-0.048314076
54	0xbac6dc6f	-0.0015171896
55	0xbd9e5809	-0.07731635
56	0xbe1dc93f	-0.154088
57	0xbda45ea6	-0.08025865
58	0xbd37ef61	-0.044906024
59	0xbdfd3964	-0.12364462
60	0xbd02b8d3	-0.031914543
61	0xbcea08d1	-0.028568657
62	0xbd76a276	-0.06021353
63	0xbd28993a	-0.041161753
64	0xbdbcc618	-0.09217471
65	0xbd8d2f54	-0.06893793
66	0x3e614f60	0.22002935
67	0x3bc08fad	0.0058765025
68	0x3c6ed14e	0.014576269
69	0xbd3cba21	-0.046075944
70	0xbd974892	-0.073868886
71	0xbd025896	-0.031822763
72	0xbd5b5cd3	-0.05355532
73	0xbd9abb9e	-0.075553164
74	0x3e50246f	0.20326398
75	0xbaa4be42	-0.0012568908
76	0xbd88c9d1	-0.066791184
77	0xbd058111	-0.03259379
78	0xbd72afd1	-0.059249703
79	0x3b9b8cd9	0.004747015
80	0xbd7765f8	-0.06039998
81	0xbd182287	-0.037142303
82	0xbd3b2bb3	-0.04569597
83	0x3d50b624	0.050954953
84	0x3e38975a	0.18026486
85	0xbd0997b1	-0.03359193
86	0xbda56b12	-0.08077063
87	0xbcddde97	-0.027083678
88	0xbda13b04	-0.078725845
89	0x3a44f5de	0.00075134437
90	0xbc07e5f8	-0.008294575
91	0xbd7e53ff	-0.062091824
92	0xbd96ea72	-0.07368936
93	0xbe02251b	-0.12709467
94	0x3d28d62d	0.04121988
95	0xbc093a93	-0.008375782
96	0xbc4d1359	-0.01251682
97	0xbcef2e6a	-0.029196937
98	0xbce8ce21	-0.028418602
99	0xbd053a8c	-0.032526538
