data/pretrained_models/acceptor-5.pt (torch, 247597 bytes, 14 tensors)

weight f4 [100, 4, 23]
0.13605598 0.075832956 0.1435523 -0.06375571 0.051473975 -0.054792926 -0.08904835 -0.16349803
0.005115233 -0.383761 -0.43271667 -0.1921721 -0.24469545 0.11707761 -0.356692 -0.68992776
-0.44601816 -0.7280327 -0.021919437 -2.1251178 -0.019335387 -0.16186371 -0.106716335 -0.12368107
-0.07276607 0.0035930055 -0.19043586 -0.17163405 -0.23100019 -0.18720496 -0.33667946 -0.19297355
-0.25357512 -0.38642344 -0.22672905 -0.11048371 -0.3104481 -0.77296543 -0.78910166 -0.2209351
0.013003368 -2.167606 -2.0585706 -0.08061501 0.015865002 -0.04933957 0.19603828 -0.109590285
-0.028437251 0.14253624 0.004352087 0.102439374 0.06348285 0.19624072 -0.057540916 -0.1449582
-0.39311463 0.050091702 -0.27409422 0.42444518 -0.32383764 -1.4983591 -0.17879778 -0.3134115
-1.9626496 0.15952952 0.2290686 -0.05667151 0.16982232 -0.1658451 0.09250296 -0.17721671
0.03752139 0.17417331 0.062337544 0.08535439 0.112410985 0.119748645 0.21552067 0.35321903
0.09204169 0.15269414 -0.06198775 0.3459336 0.46318847 0.48976347 0.17555548 -2.2947686
-2.2300286 -0.34273517 0.09008254 -0.018988669 -0.12135026 -0.21565878 0.016406706 0.1303859
-0.03195733 0.23056377 0.7339264 -0.5904591 -0.20798326 -0.016244387 -0.06641891 0.16088863
0.2018614 -0.10083614 0.085726626 0.08245476 -0.0554518 0.11501711 -0.13647762 0.4629556
-0.036682013 0.09060364 -0.048968732 0.09563685 0.09901652 0.019569378 0.028617442 -0.023846734
0.025354058 -0.48315805 -0.40191305 -0.009846849 0.06207204 0.11097783 -0.037296914 -0.11353973
-0.00483991 -0.0013530197 -0.16483426 -0.06437247 -0.11190392 -0.39198667 -0.046152968 -0.05951908
-0.023441136 0.0818223 0.123023145 0.09298787 -0.045079924 0.15680137 0.058758635 -0.1407683
-0.25425023 0.9271506 0.03513431 -0.40800017 0.036357675 0.022426417 0.10241728 -0.022694454
-0.014575908 0.038496934 -0.041794576 0.04325544 -0.15985072 -0.25973243 -0.009471725 0.120805256
-0.027171751 0.13115124 -0.016824052 0.049697645 0.1270616 0.05527171 0.0023230948 -0.8135475
-0.41809326 0.15715265 0.035978787 0.1135208 0.0007992495 -0.1144446 -0.13596675 -0.21837887
-0.07248132 -0.018692857 -0.025222996 -0.3216217 -0.3733896 0.05138696 -0.11956784 -0.13474472
-0.28348887 -0.053794052 0.7178558 -0.5963775 0.033353742 -0.012012167 0.079155244 0.15397611
0.1990971 0.19507073 0.09813075 -0.007685202 0.22890037 0.12804477 0.12411135 -0.07075566
0.0117135495 0.33402416 -0.089986235 -0.000335806 0.06361875 0.07837904 0.079801574 0.17104796
0.10882443 -0.58835804 -0.40825278 0.0045907185 0.03718645 0.01907699 -0.015344272 0.07597046
-0.04155033 -0.0849498 -0.010264974 0.05554371 -0.028670385 0.010587544 -0.050879657 -0.017406488
-0.008188482 -0.1538369 -0.11160607 0.012448474 -0.03587887 -0.043545812 0.07570701 -0.23826955
-0.2116714 0.90324676 0.055111602 -0.097496115 -0.0619213 0.013000821 -0.07899133 0.10667397
0.10195472 -0.16529647 -0.18944737 -0.033048753 0.10881855 0.011493759 0.049867094 0.06352367
-0.31411162 -0.16395746 0.023215314 0.095021024 0.02604666 0.002107663 0.17801778 -0.95303714
00000000: 4252 0b3e 4f4e 9b3d 60ff 123e 5b92 82bd
00000010: 60d6 523d 8c6e 60bd fb5e b6bd 076c 27be
00000020: af9d a73b 527c c4be 0a8d ddbe c3c8 44be
00000030: 7291 7abe 63c6 ef3d 55a0 b6be 1b9f 30bf
00000040: 7e5c e4be 5a60 3abf 6490 b3bc ee01 08c0
00000050: 3f65 9ebc 9abf 25be 188e dabd 804c fdbd
00000060: 6106 95bd a178 6b3b 9e01 43be d6c0 2fbe
00000070: 508b 6cbe a8b2 3fbe 4061 acbe dc9a 45be
00000080: 99d4 81be 4bd9 c5be a92b 68be 4945 e2bd
00000090: 0ef3 9ebe 10e1 45bf 9102 4abf d03c 62be
000000a0: 140c 553c 0fba 0ac0 9fbf 03c0 7b19 a5bd
000000b0: 52f7 813c 4a18 4abd 42be 483e df70 e0bd
000000c0: 3df5 e8bc 05f5 113e f49b 8e3b bccb d13d
000000d0: 4c03 823d 54f3 483e 06b0 6bbd ec6f 14be
000000e0: 5246 c9be f52c 4d3d 1456 8cbe e150 d93e
000000f0: 0cce a5be 3bca bfbf c416 37be 7977 a0be
00000100: 1a38 fbbf b55b 233e f690 6a3e 6320 68bd
00000110: e7e5 2d3e 4cd3 29be 3172 bd3d 4c78 35be
00000120: 07b0 193d 7d5a 323e a755 7f3d 48ce ae3d
00000130: bb37 e63d c73e f53d 73b1 5c3e 20d9 b43e
00000140: 5b80 bc3d da5b 1c3e dee6 7dbd 351e b13e
00000150: 0a27 ed3e 47c2 fa3e d1c4 333e 7ddd 12c0
00000160: cab8 0ec0 fc7a afbe 327d b83d 208e 9bbc
00000170: 7c86 f8bd a8d5 5cbe 5b67 863c e283 053e
00000180: b0e5 02bd e918 6c3e 9ae2 3b3f 5428 17bf
00000190: 90f9 54be f312 85bc a306 88bd fdbf 243e
000001a0: c1b4 4e3e 2e83 cebd 7191 af3d 0bde a83d
000001b0: 6d21 63bd 178e eb3d cac0 0bbe 8408 ed3e
000001c0: e13f 16bd 678e b93d 7093 48bd 41dd c33d
000001d0: 2cc9 ca3d f64f a03c 206f ea3c 3a5a c3bc
000001e0: 50b3 cf3c 7e60 f7be 8cc7 cdbe ae54 21bc
000001f0: 403f 7e3d 5848 e33d a6c4 18bd 8587 e8bd
00000200: 1c98 9ebb cf57 b1ba 50ca 28be b7d5 83bd
00000210: e22d e5bd 7ab2 c8be e50a 3dbd 47ca 73bd
00000220: a007 c0bc 7392 a73d 8ff3 fb3d 6d70 be3d
00000230: baa5 38bd 8a90 203e e5ac 703d 9125 10be
00000240: 162d 82be be59 6d3f ffe8 0f3d 66e5 d0be
00000250: c9eb 143d 9bb7 b73c 27c0 d13d b8e9 b9bc
00000260: cacf 6ebc f6ae 1d3d ca30 2bbd 9e2c 313d
00000270: e8af 23be a6fb 84be 4b2f 1bbc bf68 f73d
00000280: 4b97 debc 834c 063e 98d2 89bc c28f 4b3d
00000290: 701c 023e 9764 623d 103f 183b a644 50bf
000002a0: 5210 d6be a0ec 203e 7e5e 133d 987d e83d
000002b0: ba84 513a ee61 eabd de3a 0bbe b69e 5fbe
000002c0: 1671 94bd c321 99bc 75a0 cebc 99ab a4be
000002d0: ec2c bfbe 227b 523d fcdf f4bd 85fa 09be
000002e0: 7425 91be 2757 5cbd 66c5 373f 32ac 18bf
000002f0: ef9d 083d aece 44bc 251c a23d eaab 1d3e
00000300: 1ce0 4b3e 9fc0 473e c6f8 c83d 26d4 fbbb
00000310: dc64 6a3e 2b1e 033e 172e fe3d 58e8 90bd
00000320: 30ea 3f3c 3705 ab3e b44a b8bd 1e0f b0b9
00000330: 8c4a 823d 3185 a03d 026f a33d 3227 2f3e
00000340: 58df de3d a29e 16bf 8206 d1be bd6d 963b
00000350: d250 183d 5947 9c3c 8b66 7bbc 6796 9b3d
00000360: ae30 2abd 29fa adbd 6c2e 28bc cd81 633d
00000370: 28de eabc 6177 2d3c 3067 50bd 0d98 8ebc
00000380: fc28 06bc 6c87 1dbe b991 e4bd aff4 4b3c
00000390: b9f5 12bd 185d 32bd 470c 9b3d effc 73be
000003a0: 63c0 58be 2e3b 673f b4bc 613d 0bac c7bd
000003b0: 30a1 7dbd 6501 553c 35c6 a1bd e277 da3d
000003c0: a3cd d03d 7a43 29be 7efe 41be 215e 07bd
000003d0: 43dc de3d 5250 3c3c 7041 4c3d b318 823d
000003e0: 3dd3 a0be 77e4 27be 0b2e be3c 629a c23d
000003f0: ce5f d53c b820 0a3b 4b4a 363e 3efa 73bf

bias f4 [100]
-0.1115351 0.13267685 -0.027216813 0.16536407 -0.12458678 -0.2184614 -0.0944421 -0.07756086
0.36394256 -0.08400193 0.32990402 0.33111206 -0.07054495 0.06549633 0.25301084 0.012686485
0.11232018 0.12756042 0.01650071 -0.16942884 -0.005638018 0.15785499 -0.10202694 -0.20302355
-0.07934667 0.13986954 -0.09810729 -0.08758861 0.23791333 0.10828899 0.09491897 -0.18935786
-0.0068931975 -0.07195157 0.25502685 0.20837623 -0.01898996 0.10633895 -0.033246763 0.087926045
-0.05677248 0.11381757 0.1111658 0.3481071 0.00704358 -0.11793676 0.11620552 0.13612711
-0.03169025 -0.03729572 0.009213821 -0.08737471 -0.010240671 0.15349978 -0.05989764 -0.0047560083
0.07967853 -0.082893066 -0.099150434 0.20254484 -0.081329174 0.048460707 -0.07632143 -0.13737287
-0.042329244 -0.06269153 -0.06112058 0.20160607 0.21363951 -0.11102713 -0.09319972 -0.09291419
-0.0008540311 -0.12940711 -0.04673645 -0.008324158 -0.0914352 -0.0069245575 -0.013944487 -0.014471916
-0.090649635 -0.026089998 -0.07209562 0.21406773 0.09536498 -0.0482682 -0.075753435 0.052615397
0.108826116 0.12589167 0.28613326 0.038944077 0.03784832 0.16652864 -0.06454538 -0.069161996
0.5646763 -0.15895817 -0.09250518 0.2577864
00000000: 846c e4bd 71dc 073e cbf5 debc 3355 293e
00000010: 5b27 ffbd 58b4 5fbe dc6a c1bd 3ad8 9ebd
00000020: ae56 ba3e 3409 acbd 2ee9 a83e 8587 a93e
00000030: df79 90bd f122 863d a38a 813e fada 4f3c
00000040: 1f08 e63d 339f 023e 7f2c 873c c17e 2dbe
00000050: 1fbf b8bb bda4 213e 80f3 d0bd 68e5 4fbe
00000060: 8280 a2bd f639 0f3e 7aec c8bd a861 b3bd
00000070: 8d9f 733e 9ec6 dd3d e064 c23d 07e7 41be
00000080: 55e0 e1bb 585b 93bd e192 823e 9460 553e
00000090: d590 9bbc 3cc8 d93d c22d 08bd 9212 b43d
000000a0: 438a 68bd 3019 e93d e5aa e33d 183b b23e
000000b0: d5cd e63b d488 f1bd 29fd ed3d e864 0b3e
000000c0: a3cd 01bd 66c3 18bd 91f5 163c 83f1 b2bd
000000d0: 7dc8 27bc 0c2f 1d3e 3a57 75bd 4ad8 9bbb
000000e0: 7f2e a33d d7c3 a9bd 620f cbbd ea67 4f3e
000000f0: e98f a6bd bc7e 463d 694e 9cbd 79ab 0cbe
00000100: 6e61 2dbd 6b64 80bd 9359 7abd d271 4e3e
00000110: 51c4 5a3e 3162 e3bd 7fdf bebd cb49 bebd
00000120: 0fe1 5fba 4c83 04be b86e 3fbd 0d62 08bc
00000130: 6142 bbbd 66e7 e2bb 6b77 64bc 9d1b 6dbc
00000140: 84a6 b9bd b1ba d5bc dea6 93bd 9234 5b3e
00000150: b74e c33d e0b4 45bd 9e24 9bbd 3e83 573d
00000160: 3ae0 de3d bfe9 003e 0f80 923e d383 1f3d
00000170: d706 1b3d 7c86 2a3e 5e30 84bd cea4 8dbd
00000180: a08e 103f eec5 22be 5b73 bdbd 94fc 833e

weight f4 [100, 100, 1]
0.07012157 -0.15272489 0.36276963 0.18797526 0.07105562 0.20776579 -0.050459772 -0.07712951
-0.40575254 -0.42816395 -0.1835796 -0.14249484 -0.2713406 -0.10890716 0.22389595 -0.124861345
0.10120504 -0.096656986 0.1457836 -0.051295284 0.07082061 -0.013675124 0.44368073 0.10551068
-0.098567456 0.07253562 0.21296781 -0.07230177 0.0030463561 -0.11869666 0.116251506 -0.20866165
0.030973257 -0.18491593 0.3495681 -0.2656659 -0.2570992 0.07980884 -0.2853715 -0.023714326
0.31878814 0.18880832 -0.12447213 -0.203846 0.3489271 0.00037413006 -0.2339324 0.16914874
0.13788603 -0.4010572 0.09401092 -0.22164068 -0.006926597 -0.08717716 -0.18523218 -0.38695765
-0.04659781 0.15742517 0.13575085 0.08339518 -0.08582407 -0.07215067 0.16687168 0.03432404
-0.23554583 -0.35472628 -0.012524163 -0.36508211 -0.1794087 0.35237426 -0.056036387 -0.068220474
0.2126708 -0.30270442 0.07341944 0.085494496 -0.042143874 -0.09553748 -0.04979843 -0.14605786
0.485432 -0.13233297 -0.058621053 -0.25616813 0.38645026 -0.28263998 0.15554348 0.03075347
0.05190783 0.22984646 0.49808225 0.30037004 -0.22861324 0.12653887 -0.17403431 -0.074247725
0.39418596 -0.17904553 0.40518063 -0.46455655 -0.041928 -0.076783024 -0.002655607 0.17516634
-0.013446678 0.065091684 -0.08125257 0.13464144 0.04039776 -0.03860311 -0.06759059 0.047796413
-0.047933847 -0.071000695 0.10793585 -0.10265165 0.019341968 0.027185628 -0.07089765 0.04449119
0.02247607 -0.045952406 -0.15419112 -0.1485429 0.0072622956 -0.09120633 -0.033093117 -0.09560534
0.043013766 -0.079471454 0.043624453 -0.08254278 -0.018452957 -0.08805335 -0.06995668 0.044429336
0.0039464757 -0.0064095897 -0.0033320654 -0.07090767 0.091075264 -0.047212925 -0.058364145 -0.13750762
-0.052426416 -0.060751032 -0.06898833 -0.064810626 -0.026942462 -0.053228572 -0.18010624 -0.06657312
-0.09544651 0.22615598 0.05020418 -0.11234772 -0.04935252 0.09843546 0.047007367 -0.13226902
-0.00024466703 0.04423393 -0.14995596 -0.13368641 0.118011594 -0.04610763 -0.040002473 0.10592238
0.022587597 0.17726845 0.19371632 -0.20034677 -0.09071661 -0.19767061 -0.19300896 -0.11478668
-0.10625678 -0.08512286 -0.12788144 -0.14187303 -0.082521506 0.176228 0.05707704 -0.09251449
-0.034163173 -0.08204389 0.07204929 -0.16538192 0.09265022 -0.13346304 -0.15787485 -0.059564088
0.033833068 0.049126998 -0.20830287 0.089432515 -0.13071309 -0.26278213 -0.1077678 0.13541724
-0.28853866 -0.18830079 -0.3198358 -0.41043282 0.55713284 -0.36933917 0.5086004 -0.293488
-0.38299888 0.15019555 -0.57130593 -0.2700077 0.021861492 -0.63005626 -0.33637384 0.13358186
-0.07054073 -0.32396534 -0.07164061 -0.07765546 -0.11496115 -0.15479548 -0.30388647 -0.052986898
0.2723282 -0.12030981 -0.33658838 -0.53780365 -0.2023399 -0.1629922 -0.2392955 -0.060190473
0.3653263 0.18264441 0.018177118 0.005782078 -0.3244933 0.009346227 0.18228343 -0.15045197
-0.21466468 -0.10677733 -0.23558186 0.1021494 -0.03824551 0.1183448 -0.18368985 -0.16936263
0.32413563 -0.5597748 -0.23371802 -0.17608382 -0.117233716 -0.0034319079 0.010081406 -0.3954276
00000000: e69b 8f3d ea63 1cbe f1bc b93e 967c 403e
00000010: 9c85 913d 8ec0 543e e8ae 4ebd 14f6 9dbd
00000020: ccbe cfbe 4e38 dbbe 4afc 3bbe 2bea 11be
00000030: 28ed 8abe b80a dfbd fb44 653e 4eb7 ffbd
00000040: 9744 cf3d 19f4 c5bd 4c48 153e 011b 52bd
00000050: 650a 913d a10d 60bc 1f2a e33e fc15 d83d
00000060: bcdd c9bd 8e8d 943d 3c14 5a3e f312 94bd
00000070: 60a5 473b 3c17 f3bd 4515 ee3d 66ab 55be
00000080: a1bb fd3c 9a5a 3dbe 97fa b23e 5c05 88be
00000090: 82a2 83be d172 a33d 371c 92be 8c44 c2bc
000000a0: 3338 a33e f856 413e 3eeb febd 01bd 50be
000000b0: 93a6 b23e e326 c439 fa8b 6fbe 5435 2d3e
000000c0: ff31 0d3e 5f57 cdbe cc88 c03d c6f5 62be
000000d0: 82f8 e2bb f089 b2bd 81ad 3dbe 501f c6be
000000e0: 58dd 3ebd 1034 213e 4502 0b3e 18cb aa3d
000000f0: 88c4 afbd bbc3 93bd 69e0 2a3e 5d97 0c3d
00000100: ed32 71be af9e b5be 2632 4dbc 0bec babe
00000110: eab6 37be 666a b43e 6986 65bd 2db7 8bbd
00000120: 60c6 593e 13fc 9abe ee5c 963d bd17 af3d
00000130: 0e9f 2cbd 28a9 c3bd 70f9 4bbd 3190 15be
00000140: 8b8a f83e 4b82 07be a11c 70bd 7828 83be
00000150: cfdc c53e 30b6 90be ca46 1f3e b3ee fb3c
00000160: 4e9d 543d df5c 6b3e a304 ff3e 1aca 993e
00000170: 9719 6abe 6893 013e 0d36 32be 310f 98bd
00000180: bed2 c93e b657 37be d673 cf3e 5bda edbe
00000190: b2bc 2bbd 6b40 9dbd b109 2ebb ce5e 333e
000001a0: 754f 5cbc ca4e 853d bf67 a6bd 72df 093e
000001b0: 1f78 253d 4b1e 1ebd ef6c 8abd 2cc6 433d
000001c0: 4856 44bd d068 91bd 790d dd3d 073b d2bd
000001d0: 0c73 9e3c 65b4 de3c ca32 91bd 653c 363d
000001e0: bc1f b83c 9738 3cbd 47e4 1dbe a11b 18be
000001f0: 8df8 ed3b 62ca babd a68c 07bd bccc c3bd
00000200: 342f 303d eec1 a2bd 8eaf 323d 300c a9bd
00000210: a82a 97bc 5155 b4bd 7345 8fbd 89fb 353d
00000220: 7051 813b 8907 d2bb c85e 5abb 0a38 91bd
00000230: ab85 ba3d 5762 41bd 3e0f 6fbd ccce 0cbe
00000240: 15bd 56bd 13d6 78bd c149 8dbd 6fbb 84bd
00000250: 70b6 dcbc 3406 5abd c56d 38be 7d57 88bd
00000260: 7679 c3bd 6f95 673e e6a2 4d3d 9016 e6bd
00000270: de25 4abd 8898 c93d cc8a 403d 8871 07be
00000280: a746 80b9 a32e 353d 0e8e 19be 17e5 08be
00000290: 10b0 f13d 5bdb 3cbd a2d9 23bd d5ed d83d
000002a0: a009 b93c dc85 353e 925d 463e b427 4dbe
000002b0: a1c9 b9bd 2a6a 4abe 24a4 45be 4715 ebbd
000002c0: 289d d9bd e554 aebd 5af3 02be 2a47 11be
000002d0: 0901 a9bd 1d75 343e 9dc9 693d 3d78 bdbd
000002e0: afee 0bbd a106 a8bd 948e 933d e159 29be
000002f0: 66bf bd3d 89aa 08be f2a9 21be 79f9 73bd
00000300: 8b94 0a3d 6439 493d 594d 55be 6528 b73d
00000310: a7d9 05be 618b 86be 5db5 dcbd d1aa 0a3e
00000320: 57bb 93be ecd1 40be 85c1 a3be 4024 d2be
00000330: 42a0 0e3f 061a bdbe a333 023f 0f44 96be
00000340: 6e18 c4be ddcc 193e 1b41 12bf 733e 8abe
00000350: df16 b33c 5e4b 21bf 3139 acbe afc9 083e
00000360: a977 90bd c9de a5be 50b8 92bd d309 9fbd
00000370: c070 ebbd b582 1ebe 0297 9bbe ca08 59bd
00000380: 9a6e 8b3e fd64 f6bd 5055 acbe 80ad 09bf
00000390: 3132 4fbe 6de7 26be e109 75be 498a 76bd
000003a0: 0c0c bb3e 2307 3b3e 2ee8 943c 9677 bd3b
000003b0: fc23 a6be eb20 193c 82a8 3a3e 1510 1abe
000003c0: 0fd1 5bbe 13ae dabd 5f3c 71be b433 d13d
000003d0: 53a7 1cbd c25e f23d 3119 3cbe 666d 2dbe
000003e0: 1bf5 a53e 674d 0fbf c753 6fbe 514f 34be
000003f0: 3b18 f0bd dce9 60bb 7b2c 253c 7d75 cabe

bias f4 [100]
-0.17664483 -0.12887114 0.14217848 -0.17017941 0.069971375 -0.18145436 -0.021989431 0.24330856
0.0634979 -0.105324656 -0.064777814 -0.15927859 -0.04094822 -0.02632865 -0.13057302 -0.2997072
0.08950953 0.08213439 0.12983774 0.16388883 0.048045177 -0.87347823 -0.1591245 -0.1376259
0.09044854 -0.1413566 -0.24788499 0.09904539 -0.20210357 0.0014421449 -0.17801751 0.04642145
-0.46989295 0.0151906945 -0.03087239 -0.03780492 0.023129389 -0.08532628 0.09744728 -0.14631596
-0.18117641 -0.16282207 -0.17735234 0.030283056 -0.21765448 -0.04148578 0.049324024 -0.08982959
-0.12173995 -0.11382207 -0.0854972 -0.29420558 0.016083097 -0.3395131 -0.25769937 0.089673325
-0.8648786 -0.04080239 -0.17419349 -0.18675095 -0.060371447 -0.17350207 -0.06876858 -0.10550206
-0.18413673 0.053311203 -0.038153537 0.10693857 -0.19572416 -0.19161275 -0.069698796 -0.3049668
-0.0071492665 -0.2794038 0.06338893 -0.050652765 -0.15887138 -0.10542315 0.037099145 0.043828826
0.03844112 -0.18101083 -0.15854166 0.08920557 -0.054109104 -0.122186 -0.0010603014 -0.38850233
-0.16335028 -0.3259269 -0.38396236 -0.20203651 0.090848066 -0.029427247 -0.22492579 -0.07228219
-0.39608204 0.071260616 -0.06593723 -0.15660228
00000000: 62e2 34be ccf6 03be 3c97 113e 8343 2ebe
00000010: 274d 8f3d 2ccf 39be 2e23 b4bc e125 793e
00000020: 300b 823d 74b4 d7bd 3baa 84bd ed19 23be
00000030: 52b9 27bd 2eaf d7bc efb4 05be 3973 99be
00000040: c650 b73d 1336 a83d 2ff4 043e 79d2 273e
00000050: 05cb 443d 459c 5fbf 88f1 22be ceed 0cbe
00000060: 163d b93d c9bf 10be 90d5 7dbe 4fd8 ca3d
00000070: 3df4 4ebe 5a06 bd3a 394a 36be 6b24 3e3d
00000080: cf95 f0be 64e2 783c 18e8 fcbc 55d9 1abd
00000090: d879 bd3c 8bbf aebd 7192 c73d dad3 15be
000000a0: 4f86 39be d4ba 26be da9b 35be 2c14 f83c
000000b0: d1e0 5ebe feec 29bd fd07 4a3d 93f8 b7bd
000000c0: cb52 f9bd 8c1b e9bd 2819 afbd 1da2 96be
000000d0: b3c0 833c a9d4 adbe 2cf1 83be a6a6 b73d
000000e0: af68 5dbf 6820 27bd c75f 32be a43b 3fbe
000000f0: 0d48 77bd 87aa 31be 8bd6 8cbd 7711 d8bd
00000100: 578e 3cbe d95c 5a3d e246 1cbd 9c02 db3d
00000110: ea6b 48be 2236 44be 3ebe 8ebd 9c24 9cbe
00000120: 6544 eabb 040e 8fbe 0ed2 813d 4679 4fbd
00000130: 2eaf 22be 18e8 d7bd 46f5 173d db85 333d
00000140: 7074 1d3d e75a 39be bf58 22be 69b1 b63d
00000150: 82a1 5dbd a73c fabd d0f9 8aba c7e9 c6be
00000160: 4c45 27be e4df a6be b796 c4be a9e2 4ebe
00000170: 8d0e ba3d 6911 f1bc f252 66be af08 94bd
00000180: 44cb cabe 16f1 913d 190a 87bd 595c 20be

weight f4 [100, 100, 1]
-0.199057 0.008549238 -0.00732009 -0.09226912 -0.027162232 -0.4355723 -0.09570348 -1.0660847
-0.16348882 0.089561164 -0.05060025 -0.43275908 0.29827166 0.07335069 -0.12557726 -0.38734007
-0.21236506 -0.014370387 0.050846364 0.1771853 0.19735883 -0.026385052 0.016091723 -0.20834167
-0.10308778 0.0027690087 -0.11825473 -0.17096613 -0.23014696 0.16322838 -0.11793751 0.0110678645
-0.4262561 -0.18016474 0.22238234 -0.037185512 -0.09425395 -0.032699678 -0.4836994 -0.018969499
-0.1500173 -0.067594685 -0.19416861 0.0318949 -0.034716886 -0.15297173 0.2258747 -0.24160618
-0.10547394 0.045612726 -0.15696494 -0.07078917 0.092843294 -0.08515457 -0.23272258 -0.097663395
-0.082552254 0.027051535 -0.21468884 -0.01342359 0.046490964 -0.33414322 -0.1282083 0.13321364
-0.03634428 -0.102796964 -0.1848299 0.003377392 -0.08001885 0.11376528 -0.13847809 -0.19232306
-0.14836681 -0.3850335 0.12146272 0.31565157 -0.12974644 -0.14408945 -0.13452154 -0.2362951
-0.24984547 0.12119362 -0.08528467 0.15207414 0.13919552 -0.35006383 -0.12680943 -0.33290687
-0.11827796 -0.059261505 -0.116045386 -0.11028484 -0.111713596 -0.25823453 -0.25910652 -0.0994655
-0.01308945 -0.17730598 0.054059703 -0.17672187 -0.109522365 -0.031530257 -0.060116153 -0.072348796
-0.10375206 0.017709414 -0.043006524 -0.22666742 -0.11214047 0.0150605105 0.05723584 0.07847426
-0.08787184 0.007841578 -0.12595595 -0.04468656 -0.11886562 -0.13209023 -0.0056149852 -0.058523785
0.011467117 -0.105526425 -0.113059185 -0.12356411 0.059865724 -0.042927053 0.04456632 0.03288733
0.007015229 -0.11164852 0.049816422 0.0011066085 -0.044499192 -0.14425004 -0.064448096 -0.03582722
-0.05428506 0.005478616 -0.1136549 -0.014975505 -0.040802497 -0.047849335 -0.0808813 -0.07328291
0.0029243252 0.054475594 0.044842456 -0.03581768 0.08028142 0.03535374 -0.044779494 0.031496458
-0.10053367 0.04084625 -0.12415859 0.021064527 -0.028079346 -0.016865086 -0.06354547 0.025173867
0.007738464 -0.08557526 -0.05675597 0.033302784 -0.073350675 -0.11163923 -0.09751684 0.010335317
0.053163525 -0.1059341 -0.16636518 0.011449486 -0.025266875 -0.021467814 -0.04973797 -0.16353436
-0.094041996 0.008434678 -0.06887729 0.030383358 0.0087047 -0.030019248 0.0046417606 -0.05241175
-0.10368461 -0.13176176 0.00503139 0.06546243 -0.11886526 -0.0048632547 -0.03882737 -0.09431012
-0.10851736 -0.15755081 -0.01586773 -0.041108303 0.046029072 -0.011826369 -0.06952734 0.020305507
0.033129346 -0.09835263 -0.073267095 0.03432387 -0.11272855 0.06725921 0.043112706 -0.06846725
-0.091068424 -0.058575816 0.016993642 -0.070278764 0.022644203 0.022396889 -0.047635004 0.037883434
-0.10816941 0.030003367 -0.037666578 -0.016057046 -0.043344043 -0.0699905 -0.037175167 -0.07530123
-0.053670492 -0.04928071 -0.070886195 0.010084709 -0.07381745 -0.059810523 0.06205226 0.0017590598
-0.07546395 0.059023943 -0.048896763 -0.06773886 -0.056223925 -0.06533358 -0.060470037 0.02702936
-0.039969034 -0.020800866 0.021440145 -0.044906616 -0.038695537 0.07823106 0.07652754 -0.015929293
-0.07518416 0.018764853 0.024643593 -0.07413626 -0.012339628 -0.040187534 0.026214723 -0.025977792
00000000: 99d5 4bbe 1a12 0c3c 5edd efbb 98f7 bcbd
00000010: 5483 debc 5503 dfbe 3000 c4bd 7775 88bf
00000020: 9d69 27be d86b b73d 3542 4fbd 9992 ddbe
00000030: 10b7 983e e338 963d 5397 00be 7051 c6be
00000040: 3a76 59be c671 6bbc 4744 503d 1070 353e
00000050: 6f18 4a3e 7725 d8bc cad2 833c 8557 55be
00000060: b01f d3bd 4278 353b 892f f2bd bf11 2fbe
00000070: a5ab 6bbe 5725 273e 3989 f1bd fd55 353c
00000080: 3d3e dabe 1b7d 38be 32b8 633e d64f 18bd
00000090: 3708 c1bd 19f0 05bd 73a7 f7be ec65 9bbc
000000a0: 239e 19be 156f 8abd 23d4 46be 3aa4 023d
000000b0: 4b33 0ebd 9fa4 1cbe b34b 673e 9c67 77be
000000c0: b902 d8bd 69d4 3a3d 6bbb 20be eaf9 90bd
000000d0: a024 be3d 8565 aebd d44e 6ebe bf03 c8bd
000000e0: 2811 a9bd 2e9b dd3c 64d7 5bbe 9eee 5bbc
000000f0: 4f6d 3e3d d214 abbe 0949 03be 2869 083e
00000100: bddd 14bd 3787 d2bd 0d44 3dbe 3c57 5d3b
00000110: ece0 a3bd c5fd e83d 33cd 0dbe 56f0 44be
00000120: 78ed 17be 1c23 c5be 72c1 f83d 159d a13e
00000130: 40dc 04be 2f8c 13be 04c0 09be 58f7 71be
00000140: 7ed7 7fbe 5c34 f83d bba9 aebd 53b9 1b3e
00000150: 4589 0e3e 913b b3be 55da 01be c572 aabe
00000160: b73b f2bd 31bc 72bd 34a9 edbd 05dd e1bd
00000170: 19ca e4bd 5137 84be 9ca9 84be 91b4 cbbd
00000180: 2275 56bc b38f 35be b56d 5d3d 94f6 34be
00000190: 434d e0bd df25 01bd 5b3c 76bd 9b2b 94bd
000001a0: f67b d4bd 5513 913c 9c27 30bd 811b 68be
000001b0: e7a9 e5bd 5cc0 763c 2170 6a3d 1db7 a03d
000001c0: 27f6 b3bd f679 003c 99fa 00be 4109 37bd
000001d0: d16f f3bd a942 07be e9fd b7bb a3b6 6fbd
000001e0: 93e0 3b3c 3d1e d8bd 938b e7bd 2e0f fdbd
000001f0: c335 753d 47d4 2fbd 2c8b 363d ddb4 063d
00000200: 02e0 e53b fba7 e4bd 4e0c 4c3d 9f0b 913a
00000210: c944 36bd 48b6 13be 5dfd 83bd 90bf 12bd
00000220: 035a 5ebd f685 b33b e6c3 e8bd d25b 75bc
00000230: 8520 27bd aafd 43bd 18a5 a5bd 5a15 96bd
00000240: 09a6 3f3b cd21 5f3d b9ac 373d 8fb5 12bd
00000250: 966a a43d 15cf 103d b46a 37bd 6e02 013d
00000260: 99e4 cdbd 664e 273d dc46 febd 848f ac3c
00000270: a806 e6bc a628 8abc 2124 82bd 6d39 ce3c
00000280: f192 fd3b 1542 afbd f378 68bd 8068 083d
00000290: e138 96bd 1ca3 e4bd e9b6 c7bd 7655 293c
000002a0: ffc1 593d faf3 d8bd a25b 2abe a096 3b3c
000002b0: 7afc cebc 45dd afbc 0bba 4bbd 8d75 27be
000002c0: 1799 c0bd 9b31 0a3c 890f 8dbd 85e6 f83c
000002d0: 289e 0e3c edea f5bc e919 983b b4ad 56bd
000002e0: 9958 d4bd 8eec 06be 5cde a43b 2b11 863d
000002f0: a16f f3bd f05b 9fbb 7309 1fbd aa25 c1bd
00000300: 5a3e debd 0055 21be 0bfd 81bc 2e61 28bd
00000310: fb88 3c3d 63c3 41bc 5a64 8ebd bc57 a63c
00000320: a3b2 073d 1b6d c9bd 0f0d 96bd 3097 0c3d
00000330: 3ade e6bd 32bf 893d f396 303d 8f38 8cbd
00000340: 1582 babd 32ed 6fbd 4036 8b3c 50ee 8fbd
00000350: 5680 b93c ae79 b73c ec1c 43bd a92b 1b3d
00000360: ec87 ddbd 9fc9 f53c 4548 1abd 118a 83bc
00000370: 8689 31bd 2e57 8fbd fd44 18bd 8837 9abd
00000380: 97d5 5bbd 92da 49bd c82c 91bd 563a 253c
00000390: 9a2d 97bd e1fb 74bd 832a 7e3d 4190 e63a
000003a0: d88c 9abd 17c3 713d f947 48bd acba 8abd
000003b0: 0f4b 66bd 9dcd 85bd 6eaf 77bd ad6c dd3c
000003c0: 92b6 23bd 9466 aabc 3ea3 af3c 00f0 37bd
000003d0: 367f 1ebd 9b37 a03d 79ba 9c3d 267e 82bc
000003e0: 27fa 99bd c0b8 993c 5ce1 c93c c0d4 97bd
000003f0: 272c 4abc af9b 24bd 42c0 d63c 61cf d4bc

bias f4 [100]
-0.11425834 -0.061694145 -0.04417642 -0.14893836 -0.010431057 -0.08658316 -0.16926418 -0.04759959
-0.09236849 -0.10632534 -0.27526703 -0.2201079 -0.06997872 -0.20895825 -0.08746771 -0.026793757
-0.016571246 -0.04807559 -0.18115737 -0.017264957 -0.18044077 -0.104765706 0.19447479 -0.23685044
0.2491554 -0.11747239 -0.2579592 -0.1910659 -0.34347904 -0.26586482 -0.091166034 -0.17328614
0.06499288 -0.06098711 -0.07848609 -0.35317233 -0.112412274 -0.08202575 -0.1241718 -0.22586523
-0.3404989 -0.09659269 -0.11703764 -0.057423092 -0.06899859 -0.107567795 -0.05032757 -0.12019227
-0.2569275 -0.19966438 0.03640625 -0.19245704 -1.3562151 -0.20575264 -0.07389049 -0.100786805
-0.017864482 -0.22243468 -0.074609645 -0.21925238 -0.20316307 -0.1099452 -0.2980034 -0.26076013
-0.3222096 -0.08024067 -0.19983548 -0.18786268 -0.0839599 -0.15236092 -0.13601933 -0.12347477
-0.034577474 -0.07905363 -0.17311862 -0.22180775 -0.30697238 -0.05314946 0.09421772 -0.14149791
-0.25199026 -0.10353136 -0.18277855 -0.22373761 -0.14460143 -0.24997891 -0.13586383 -0.05087458
-0.29098523 -0.2256065 -0.1172687 -0.18445574 -0.1271791 -0.11017854 -0.05067151 -0.14665379
-0.12280708 -0.24612954 -0.06801887 -0.25966787
00000000: 4700 eabd 00b3 7cbd 55f2 34bd 4c83 18be
00000010: 06e7 2abc 8352 b1bd 9753 2dbe caf7 42bd
00000020: b12b bdbd 1ac1 d9bd cdef 8cbe f763 61be
00000030: 0151 8fbd 27f9 55be 4522 b3bd 957e dbbc
00000040: 6cc0 87bc e9ea 44bd 5181 39be 3d6f 8dbc
00000050: 77c5 38be 678f d6bd 6624 473e ec88 72be
00000060: 9822 7f3e 5d95 f0bd 3a13 84be c7a6 43be
00000070: 7cdc afbe 6f1f 88be 42b5 babd ec71 31be
00000080: fd1a 853d 9fcd 79bd 51bd a0bd 01d3 b4be
00000090: 6838 e6bd 1efd a7bd c94d febd 3749 67be
000000a0: df55 aebe 63d2 c5bd 6eb1 efbd 7a34 6bbd
000000b0: 224f 8dbd 814c dcbd 4824 4ebd 5d27 f6bd
000000c0: 008c 83be d274 4cbe b81e 153d 7513 45be
000000d0: 7598 adbf d2b0 52be e653 97bd 5069 cebd
000000e0: 8958 92bc ebc5 63be f1cc 98bd b283 60be
000000f0: fb09 50be f32a e1bd e793 98be 5a82 85be
00000100: a8f8 a4be 3855 a4bd aca1 4cbe 135f 40be
00000110: 2bf3 abbd 8004 1cbe a748 0bbe 57e0 fcbd
00000120: 1ca1 0dbd dfe6 a1bd 0246 31be 9221 63be
00000130: 7c2b 9dbe 40b3 59bd 38f5 c03d d4e4 10be
00000140: de04 81be 4008 d4bd 4d2a 3bbe 791b 65be
00000150: 6612 14be 79fa 7fbe e31f 0bbe dd61 50bd
00000160: 04fc 94be 6405 67be 922a f0bd f7e1 3cbe
00000170: 3d3b 02be 49a5 e1bd ee8c 4fbd 692c 16be
00000180: 4782 fbbd 6209 7cbe 7a4d 8bbd 30f3 84be

weight f4 [100, 100, 1]
0.02747759 -0.018735431 0.036453124 -0.03256586 -0.13315506 0.056199912 -0.02156635 0.025665622
-0.05128939 -0.09963321 -0.052647382 -0.013448097 -0.0028816734 -0.15430507 -0.07662074 -0.07226574
-0.008779594 -0.102651075 -0.124843694 -0.16294813 -0.014179348 -0.061424788 -0.13941386 -0.0804128
0.03618535 -0.096511334 -0.052358106 0.031227738 0.034537647 -0.11474301 -0.02469616 -0.022616748
0.07361419 -0.10655815 -0.0047800085 -0.09630495 -0.09254439 0.03804283 -0.07676169 0.027780743
-0.0541758 -0.04585532 0.058674287 -0.0046370598 0.0141584715 0.08790863 0.08406063 0.03444884
0.025349528 0.06627428 -0.15395002 -0.13967162 -0.06257628 -0.096564695 -0.0534352 -0.11117732
0.024860984 0.0047303834 -0.058689617 -0.16982755 -0.0812932 -0.09579072 -0.090381846 0.057364706
-0.03184008 -0.050699003 -0.07451323 0.016747134 0.0585156 -0.104717426 -0.008517985 -0.07167874
-0.043825846 0.010850011 -0.08379259 -0.028372804 -0.082023345 -0.07378274 -0.02982442 -0.06296437
0.011916254 0.075046495 0.022043327 -0.054758996 0.03703347 0.051077485 -0.07741468 -0.026567843
0.03348399 -0.011257171 0.041317504 0.0026405007 -0.0069813123 0.019764438 -0.069226384 -0.0296441
-0.07281832 -0.13601226 0.06663525 -0.046067726 0.05759374 -0.021112338 -0.052921217 -0.0826522
0.009377157 0.07540912 -0.056738727 -0.09080247 -0.093520895 0.082164675 -0.06026654 0.0860806
0.017682642 0.080241345 -0.051871005 0.09260969 0.09185332 0.056764394 -0.021750638 0.05127808
-0.09036623 -0.052411105 -0.008988056 0.010208023 0.026256084 -0.07593877 -0.07131222 -0.028854929
-0.06447889 -0.032315046 -0.08535652 -0.06700156 -0.046694998 -0.06946383 0.071403705 0.028139958
0.0027157343 0.029196862 -0.087836415 -0.10060564 0.0058502294 0.010468648 -0.025783032 -0.018085102
-0.046355493 0.007216849 -0.074094325 -0.065414675 -0.00045102416 -0.10886885 -0.060921833 -0.034501415
0.0790157 -0.021224177 -0.08968645 0.029132342 0.01604271 -0.068832226 -0.06355455 -0.019931672
-0.013336969 -0.04199747 0.039893102 -0.06763154 0.0924243 0.030394277 -0.09047379 0.09190007
-0.056016564 -0.079048514 -0.01337513 0.02022147 0.04460662 0.07992129 0.049647927 -0.015898632
-0.0816791 0.017141562 0.041463885 0.0063554742 -0.018731177 -0.10170072 -0.004923386 0.0779007
-0.075428374 -0.051766146 -0.018212004 -0.102613896 -0.044350866 -0.06087917 -0.009107107 0.067548595
0.026843283 0.013475556 -0.05502744 -0.09573404 -0.021590926 0.027684761 0.082956865 0.025406161
-0.10767548 -0.037914757 0.049984343 -0.004526411 -0.06267065 -0.07359467 -0.12146603 0.07703739
0.07697588 -0.041320335 -0.042545352 -0.094114654 -0.047094844 -0.036277816 0.029060436 0.08628574
0.0065527796 -0.03149685 0.009538587 0.0049966434 -0.03978526 -0.07023332 -0.14495054 0.0818606
0.10457634 -0.0064410795 -0.04626894 -0.012735618 -0.03000882 0.06470348 0.061469175 0.041046184
0.045561578 0.08058789 -0.030356959 -0.04652206 0.051158924 0.009152479 -0.03693559 0.014844771
0.03470615 0.0020668951 -0.038675435 -0.06654554 -0.051996216 -0.020498643 0.029981555 -0.051201567
-0.020444103 -0.11604769 -0.03569397 0.07760833 -0.31682038 0.014325441 0.04319205 -0.07349711
00000000: af18 e13c 0c7b 99bc df4f 153d c763 05bd
00000010: cd59 08be e131 663d eaab b0bc b640 d23c
00000020: d314 52bd 7f0c ccbd c8a4 57bd 6855 5cbc
00000030: 75da 3cbb 2602 1ebe 56eb 9cbd 0f00 94bd
00000040: 49d8 0fbc ba3a d2bd 0dae ffbd e0db 26be
00000050: 7f50 68bc 8f98 7bbd 82c2 0ebe 77af a4bd
00000060: 1737 143d bca7 c5bd 7475 56bd 50d1 ff3c
00000070: 5977 0d3d 62fe eabd 9a4f cabc c246 b9bc
00000080: 09c3 963d 293b dabd 9ea1 9cbb 883b c5bd
00000090: ea87 bdbd ccd2 1b3d 3c35 9dbd 7194 e33c
000000a0: 72e7 5dbd cad2 3bbd 7354 703d 7af2 97bb
000000b0: eff8 673c 7109 b43d fb27 ac3d 3a1a 0d3d
000000c0: d0a9 cf3c cfba 873d 13a5 1dbe 1406 0fbe
000000d0: fe27 80bd b6c3 c5bd dede 5abd efb0 e3bd
000000e0: 43a9 cb3c 5501 9b3b 8664 70bd 46e7 2dbe
000000f0: 0d7d a6bd ed2d c4bd 1e1a b9bd 41f7 6a3d
00000100: be6a 02bd c2a9 4fbd 649a 98bd 4931 893c
00000110: 0eae 6f3d 1776 d6bd 058f 0bbc 4ecc 92bd
00000120: bb82 33bd 3fc4 313c 739b abbd 156e e8bc
00000130: dbfb a7bd 681b 97bd 5852 f4bc 77f3 80bd
00000140: 643c 433c fab1 993d 3594 b43c f84a 60bd
00000150: 68b0 173d a036 513d 968b 9ebd cea4 d9bc
00000160: 8226 093d ff6f 38bc 8b3c 293d 400c 2d3b
00000170: 7ec3 e4bb 08e9 a13c 90c6 8dbd 2fd8 f2bc
00000180: c521 95bd cc46 0bbe 1078 883d 83b1 3cbd
00000190: 6ae7 6b3d c8f3 acbc ebc3 58bd 8e45 a9bd
000001a0: a6a2 193c 1970 9a3d de66 68bd a5f6 b9bd
000001b0: e287 bfbd f445 a83d 0cda 76bd 074b b03d
000001c0: 30db 903c 9355 a43d b176 54bd 26aa bd3d
000001d0: 981d bc3d c881 683d 652e b2bc f708 523d
000001e0: ee11 b9bd 07ad 56bd a442 13bc 8d3f 273c
000001f0: 0017 d73c c985 9bbd 240c 92bd 2c61 ecbc
00000200: 820d 84bd c85c 04bd 66cf aebd 1d38 89bd
00000210: 4143 3fbd 0d43 8ebd 1b3c 923d c585 e63c
00000220: 76fa 313b 422e ef3c 94e3 b3bd 540a cebd
00000230: 48b3 bf3b b184 2b3c f036 d3bc 3527 94bc
00000240: 42df 3dbd 517b ec3b c4be 97bd 21f8 85bd
00000250: 7077 ecb9 a2f6 debd 2c89 79bd 5b51 0dbd
00000260: fcd2 a13d 53de adbc 88ad b7bd f3a6 ee3c
00000270: 006c 833c e9f7 8cbd e328 82bd bf47 a3bc
00000280: 4d83 5abc 8a05 2cbd f366 233d 6882 8abd
00000290: f448 bd3d 6bfd f83c 534a b9bd 1b36 bc3d
000002a0: a071 65bd 30e4 a1bd 5c23 5bbc 7fa7 a53c
000002b0: 6eb5 363d c6ad a33d a05b 4b3d d93d 82bc
000002c0: 5f47 a7bd 766c 8c3c 09d6 293d 9541 d03b
000002d0: 2072 99bc 7848 d0bd 5b54 a1bb 678a 9f3d
000002e0: 317a 9abd bd08 54bd 5731 95bc 3c27 d2bd
000002f0: 41a9 35bd 705c 79bd fa35 15bc eb56 8a3d
00000300: 72e6 db3c 94c8 5c3c 7464 61bd 3510 c4bd
00000310: 74df b0bc 27cb e23c 4ae5 a93d 9520 d03c
00000320: f684 dcbd 814c 1bbd 62bc 4c3d 4a52 94bb
00000330: 7859 80bd cdb8 96bd 2fc3 f8bd c7c5 9d3d
00000340: 88a5 9d3d 833f 29bd 0944 2ebd 2fbf c0bd
00000350: 86e6 40bd 0c98 14bd 2710 ee3c 94b6 b03d
00000360: b3b8 d63b d702 01bd bc47 1c3c e2ba a33b
00000370: def5 22bd 7dd6 8fbd ea6d 14be 88a6 a73d
00000380: 1f2c d63d b10f d3bb 8084 3dbd 0ea9 50bc
00000390: 0fd5 f5bc 4283 843d 1ac7 7b3d 0b20 283d
000003a0: c79e 3a3d 440b a53d 28af f8bc ea8d 3ebd
000003b0: 058c 513d 47f4 153c c649 17bd 7b37 733c
000003c0: 0928 0e3d bf74 073b 226a 1ebd 0749 88bd
000003d0: fcf9 54bd c5ec a7bc e19b f53c bcb8 51bd
000003e0: 647a a7bc 69aa edbd d733 12bd 1ef1 9e3d
000003f0: 4836 a2be 41b5 6a3c 26ea 303d a785 96bd

bias f4 [100]
-0.0015286712 -0.07934604 -0.07325007 0.09218763 -0.000726993 0.043246306 0.048136573 -0.010396664
-0.0033909068 -0.011144217 -0.12791681 -0.06113289 -0.07671901 -0.08221774 -0.0072416165 -0.036930617
-0.067005455 -0.021950807 0.109419234 -0.022985544 -0.12177641 -0.060028598 -0.19322006 -0.059851438
-0.00368414 -0.08350016 0.040223394 -0.14644562 -0.1268056 0.0037002903 -0.038755164 -0.02781291
-0.4722932 0.04655303 -0.06077518 0.051105574 -0.014382554 -0.05509391 -0.005982736 -0.015086508
-0.154974 -0.111108966 0.05351525 -0.0006793948 -0.1431091 -0.033372995 -0.044740375 -0.13752843
-0.05201231 0.038346466 -0.09546102 -0.0038942015 -0.053174287 -0.0099222455 -0.04568471 -0.15126726
-0.08038282 -0.107586615 0.028198564 -0.099314794 -0.10495088 -0.032722764 -0.1043497 0.094741814
0.003095648 -0.01014927 -0.060525563 -0.060545757 -0.068078555 -0.032642126 -0.006579618 -0.20964155
-0.086062 0.008256832 -0.13682121 0.010879017 -0.0360438 -0.12567277 -0.19527678 -0.028431995
-0.047953997 -0.001033742 -0.025868727 -0.22672066 -0.02146703 -0.11195766 -0.27104986 0.07161642
0.14136901 -0.0022850719 -0.055107947 -0.09472163 -0.05444656 -0.00071166485 -0.13523453 -0.1081407
-0.08953065 -0.015183433 -0.12061885 -0.020186925
00000000: b25d c8ba 2d80 a2bd 2204 96bd decc bc3d
00000010: ad93 3eba 0a23 313d db2a 453d c556 2abc
00000020: fa39 5ebb 3c96 36bc a0fc 02be 7b66 7abd
00000030: db1e 9dbd c661 a8bd 154b edbb 8f44 17bd
00000040: 283a 89bd 2ed2 b3bc 3117 e03d 2e4c bcbc
00000050: e965 f9bd 8ce0 75bd 7bdb 45be c826 75bd
00000060: 9d71 71bb 2202 abbd 49c1 243d d7f5 15be
00000070: 54d9 01be 9280 723b bcbd 1ebd e6d7 e3bc
00000080: 6ad0 f1be 64ae 3e3d 65ef 78bd 1454 513d
00000090: cea4 6bbc 27aa 61bd d40a c4bb 672d 77bc
000000a0: 81b1 1ebe 198d e3bd cf32 5b3d 6a19 32ba
000000b0: 318b 12be 1fb2 08bd af41 37bd 41d4 0cbe
000000c0: dc0a 55bd 2f11 1d3d 1181 c3bd dc35 7fbb
000000d0: 48cd 59bd ea90 22bc e41f 3bbd cee5 1abe
000000e0: bf9f a4bd 5f56 dcbd ad00 e73c 8e65 cbbd
000000f0: 7df0 d6bd 4e08 06bd 4cb5 d5bd ff07 c23d
00000100: 5be0 4a3b 2049 26bc a7e9 77bd d4fe 77bd
00000110: c56c 8bbd c0b3 05bd d699 d7bb 46ac 56be
00000120: 4641 b0bd aa47 073c dc1a 0cbe e83d 323c
00000130: aaa2 13bd 5db0 00be a3f6 47be 37ea e8bc
00000140: 696b 44bd a07e 87ba a7ea d3bc 7629 68be
00000150: a0db afbc 0f4a e5bd 0cc7 8abe a1ab 923d
00000160: 0ac3 103e 25c1 15bb dfb8 61bd 6afd c1bd
00000170: 5b03 5fbd 058f 3aba ec7a 0abe df78 ddbd
00000180: d85b b7bd efc3 78bc 0407 f7bd 0d5f a5bc

weight f4 [100, 100, 1]
-0.042152837 0.05302342 0.054658536 0.0054779793 -0.012924059 -0.056300987 -0.05572475 -0.06422955
-0.05089712 -0.13338225 0.11405956 -0.1384186 -0.10263257 0.036992192 -0.08024605 0.004059422
0.10283414 -0.01175102 0.033934858 0.056505032 -0.085243836 -0.0679507 -0.07440536 -0.008582072
-0.06951507 -0.047681864 -0.07817049 0.06357775 0.0534235 -0.010703191 0.09078658 -0.10977732
-0.04686151 0.0009460218 -0.042769104 -0.03926206 -0.052186403 -0.06643186 -0.11334555 0.044277314
0.06530728 0.010553793 -0.04667378 0.015755557 -0.030653715 -0.09969312 -0.25734875 0.015300949
-0.11057273 0.039011218 0.08694085 -0.017434066 0.09706044 -0.13889267 0.09296748 0.07985766
-0.022333039 -0.017384587 -0.023062201 -0.09577624 -0.0246394 0.050239146 0.08975251 0.031826787
-0.005218277 -0.17175922 -0.0932054 0.09412592 -0.0106883375 0.022372466 0.06099172 0.016140118
0.026246335 0.047716543 0.005162969 -0.11912845 -0.010228477 0.06446995 -0.014184486 -0.1419233
-0.036439743 -0.030383656 0.040466208 -0.2197525 0.080981225 0.022983922 -0.024458874 -0.13581209
-0.05816331 -0.061509077 -0.014312416 0.093984954 -0.13638575 -0.12644506 -0.09845079 -0.06060693
-0.075749464 -0.10357726 0.09529843 -0.0068740803 0.065304734 -0.09485756 -0.10692936 -0.053764753
-0.09046823 -0.02762777 -0.0043674293 0.05305338 -0.011146267 -0.092567764 0.0016257887 0.04796036
-0.040774953 0.008237628 -0.10709193 0.08378168 -0.013794654 -0.06098108 -0.025656363 0.040168334
0.10353086 -0.004863952 -0.08474645 -0.0098757595 0.02855756 -0.004101115 -0.12776063 -0.10663709
0.07841169 -0.09558156 0.100624554 -0.09754704 -0.07156824 0.065174356 -0.01676146 0.04902901
-0.083966665 -0.045192953 -0.020788373 0.01703845 0.07731905 0.015552477 -0.03979184 0.051482182
-0.018789373 0.03167011 -0.22458929 -0.007755535 0.007655813 -0.114100724 0.019161452 -0.05012057
0.052296616 0.04904155 0.024975125 -0.016860012 0.06363809 0.07877972 0.078643054 -0.031594366
0.11230185 -0.0060133333 -0.028328804 0.027689518 0.0030074855 -0.04859702 0.053245097 0.013165575
-0.016735032 -0.042772975 0.080041796 0.021323116 0.022651955 0.013770849 0.0012687761 -0.050761357
0.081999876 -0.07056395 -0.0018328059 -0.0416448 0.050082017 -0.06847361 -0.035664167 -0.114555344
-0.085485466 0.065530814 0.04661609 -0.057939418 0.040811636 0.03584666 -0.0046789385 0.087438665
-0.12960061 -0.055451386 -0.034801707 -0.008883095 0.04142363 0.01981233 0.03411218 0.10554207
0.08688022 0.09530256 -0.06211205 0.039405145 -0.036028218 -0.09614453 -0.059125982 0.09312981
0.114495255 -0.013316034 -0.09718835 0.01192359 -0.089543544 0.039216474 0.07208676 -0.009370007
0.005461812 -0.013327623 -0.0028155388 -0.041481033 -0.01694158 0.06110635 -0.009322095 -0.0834705
-0.015279663 0.08923771 -0.05587643 -0.028878033 0.06785835 0.095472395 0.09881512 -0.010425811
0.0658004 0.023430293 -0.09917683 0.05929256 -0.06274279 0.01211623 0.017712459 -0.08346578
-0.06361049 -0.046205606 0.010812901 -0.011032963 0.05677546 -0.04732478 -0.08116432 -0.038534712
0.018814966 -0.10028401 0.0838628 0.025390476 0.0046041133 -0.078954704 0.04543434 0.021435738
00000000: 74a8 2cbd 162f 593d a1e1 5f3d 9f80 b33b
00000010: 6fbf 53bc dd9b 66bd a33f 64bd c88a 83bd
00000020: 8079 50bd 5b95 08be 0f98 e93d 9bbd 0dbe
00000030: 0631 d2bd 2085 173d 0b58 a4bd e604 853b
00000040: b59a d23d 5a87 40bc 47ff 0a3d d271 673d
00000050: 5294 aebd bd29 8bbd d661 98bd d29b 0cbc
00000060: eb5d 8ebd 0f4e 43bd da17 a0bd 0d35 823d
00000070: 9ad2 5a3d 705c 2fbc 51ee b93d eed2 e0bd
00000080: dbf1 3fbd 73fe 773a a82e 2fbd 41d1 20bd
00000090: 69c1 55bd 6d0d 88bd b621 e8bd 215c 353d
000000a0: d3bf 853d d1e9 2c3c 012d 3fbd cc11 813c
000000b0: 801d fbbc e82b ccbd 37c3 83be d5b0 7a3c
000000c0: f573 e2bd 3aca 1f3d 0b0e b23d e3d1 8ebc
000000d0: a0c7 c63d e139 0ebe bc65 be3d 6a8c a33d
000000e0: c7f3 b6bc 1f6a 8ebc f1ec bcbc 5526 c4bd
000000f0: 91d8 c9bc 90c7 4d3d 2ad0 b73d ce5c 023d
00000100: 15fe aabb a6e1 2fbe 79e2 bebd 17c5 c03d
00000110: 231e 2fbc 7646 b73c 74d2 793d 4838 843c
00000120: 8e02 d73c 6c72 433d 202e a93b 9ef9 f3bd
00000130: 5895 27bc d208 843d 0c66 68bc 5754 11be
00000140: d741 15bd 25e7 f8bc e5bf 253d cd06 61be
00000150: 7cd9 a53d c748 bc3c fa5d c8bc 5312 0bbe
00000160: a73c 6ebd f1f0 7bbd a07e 6abc 2f7b c03d
00000170: b5a8 0bbe d07a 01be 91a0 c9bd f93e 78bd
00000180: 8922 9bbd 5120 d4bd d32b c33d f73f e1bb
00000190: 7dbe 853d ae44 c2bd c8fd dabd 6e38 5cbd
000001a0: 6847 b9bd a253 e2bc a71c 8fbb 804e 593d
000001b0: d59e 36bc 2b94 bdbd 6b18 d53a 1572 443d
000001c0: a303 27bd 1ef7 063c 0453 dbbd bb95 ab3d
000001d0: f902 62bc 4cc7 79bd 4b2d d2bc 8d87 243d
000001e0: fd07 d43d c961 9fbb 8c8f adbd f0cd 21bc
000001f0: 8bf1 e93c a562 86bb afd3 02be 8c64 dabd
00000200: 4f96 a03d 44c0 c3bd 3f14 ce3d bec6 c7bd
00000210: 5f92 92bd 227a 853d 544f 89bc a5d2 483d
00000220: b7f6 abbd 3f1c 39bd 614c aabc 3894 8b3c
00000230: 7359 9e3d d1cf 7e3c c5fc 22bd fbde 523d
00000240: 2cec 99bc 84b8 013d bcfa 65be 2522 febb
00000250: 9ddd fa3b a4ad e9bd 7af8 9c3c 3a4b 4dbd
00000260: fa34 563d cbdf 483d a298 cc3c 021e 8abc
00000270: b054 823d 4357 a13d 9c0f a13d 1869 01bd
00000280: 83fe e53d 7f0b c5bb cf11 e8bc 21d5 e23c
00000290: 3c19 453b ab0d 47bd 8817 5a3d 6db4 573c
000002a0: e817 89bc b732 2fbd f4ec a33d d1ad ae3c
000002b0: 9890 b93c 219f 613c 104d a63a 24eb 4fbd
000002c0: 8def a73d d583 90bd c33a f0ba bd93 2abd
000002d0: cd22 4d3d e43b 8cbd 9714 12bd fe9b eabd
000002e0: 0113 afbd 0535 863d 83f0 3e3d e251 6dbd
000002f0: 1a2a 273d f3d3 123d c851 99bb 0b13 b33d
00000300: 06b6 04be fe20 63bd 3c8c 0ebd 678a 11bc
00000310: d3ab 293d 784d a23c 37b9 0b3d 7126 d83d
00000320: 42ee b13d fd2d c33d 3469 7ebd 4a67 213d
00000330: 5392 13bd 6ce7 c4bd 162e 72bd d8ba be3d
00000340: 7d7c ea3d 7f2b 5abc b00a c7bd 295b 433c
00000350: 9b62 b7bd 74a1 203d 39a2 933d a884 19bc
00000360: 00f9 b23b 1a5c 5abc e784 38bb 04e8 29bd
00000370: 12c9 8abc a74a 7a3d b3bb 18bc 95f2 aabd
00000380: 8d57 7abc 43c2 b63d afde 64bd a091 ecbc
00000390: 52f9 8a3d 0887 c33d 955f ca3d 05d1 2abc
000003a0: 5cc2 863d e3f0 bf3c 391d cbbd c1dc 723d
000003b0: 4b7f 80bd 2783 463c b819 913c 1bf0 aabd
000003c0: 3746 82bd 1742 3dbd 9828 313c 9ac3 34bc
000003d0: 628d 683d a1d7 41bd 7b39 a6bd 93d6 1dbd
000003e0: d821 9a3c b461 cdbd 42c0 ab3d b0ff cf3c
000003f0: 1ade 963b 01b3 a1bd 5c19 3a3d 009a af3c

bias f4 [100]
0.0017775263 -0.008988783 -0.090922184 -0.0051544807 -0.0005277267 -0.021504544 -0.013933349 -0.096863985
-0.019959204 -0.001948687 -0.08046259 -0.021080999 -0.005495198 -0.028691882 -0.07530308 0.015606072
-0.0053124954 -0.04626313 -0.14568593 0.021097513 -0.041214146 -0.33678812 -0.05370135 -0.0067231706
-0.0032110913 -0.009195356 -0.0015768972 -0.016641317 -0.004648994 0.22356354 -0.03166544 -0.0756022
0.20395042 -0.25883228 -0.02098998 0.005208304 -0.054155268 -0.001488796 -0.0036619874 0.13009594
-0.008056221 0.08590042 -0.14792657 -0.044165757 -0.09134518 -0.029050564 -0.117920026 -0.0055319676
-0.037602462 -0.07407153 -0.030911516 -0.06639927 0.13816975 -0.00011044959 -0.012136339 -0.22410002
-0.089538716 -0.079865396 -0.0069979327 -0.089512795 -0.018076504 -0.009628395 -0.005914733 -0.040687412
0.27622595 -0.099779196 -0.05659024 -0.017259983 -0.10937625 0.17123757 -0.07230699 -0.29790246
-0.014086327 0.003470399 -0.0022035958 -0.048459012 0.23263276 -0.093868755 -0.022395013 -0.0024576543
0.17384125 -0.002895534 -0.073884524 -0.0048449924 0.21601188 -0.0043125227 0.0056074583 -0.115512446
-0.0934158 -0.055010166 0.054992415 -0.116956286 -0.063402876 -0.25986546 -0.03326744 -0.1986978
-0.20543213 -0.021498054 -0.0038598892 -0.031880222
00000000: e3fb e83a b045 13bc 6935 babd ebe6 a8bb
00000010: 2457 0aba 4c2a b0bc b448 64bc a060 c6bd
00000020: 7c81 a3bc 166b ffba 92c9 a4bd 0fb2 acbc
00000030: 1011 b4bb 3d0b ebbc 8038 9abd 9cb0 7f3c
00000040: 7114 aebb 687e 3dbd b12e 15be b1d4 ac3c
00000050: 2ad0 28bd 7e6f acbe f2f5 5bbd 0b4e dcbb
00000060: 2c71 52bb 1ea8 16bc e4af ceba 5f53 88bc
00000070: 9756 98bb d7ed 643e 9fb3 01bd 54d5 9abd
00000080: 61d8 503e aa85 84be 2ef3 abbc 6caa aa3b
00000090: ead1 5dbd b423 c3ba f4fd 6fbb df37 053e
000000a0: 3dfe 03bc 8fec af3d 107a 17be 27e7 34bd
000000b0: 2f13 bbbd 73fb edbc 0e80 f1bd 8245 b5bb
000000c0: 0a05 1abd d0b2 97bd 263a fdbc 57fc 87bd
000000d0: 5f7c 0d3e 2ca1 e7b8 7fd7 46bc 7a7a 65be
000000e0: 1360 b7bd 7890 a3bd ea4e e5bb 7c52 b7bd
000000f0: 2d15 94bc 6ac0 1dbc 60d0 c1bb d8a7 26bd
00000100: 7d6d 8d3e 0959 ccbd 2bcb 67bd cf64 8dbc
00000110: a800 e0bd e758 2f3e b015 94bd ac86 98be
00000120: 56ca 66bc a26f 633b 346a 10bb f57c 46bd
00000130: 4837 6e3e 433e c0bd bf75 b7bc 9910 21bb
00000140: 7103 323e 00c3 3dbb c550 97bd bec2 9ebb
00000150: 3832 5d3e 1050 8dbb c5be b73b ca91 ecbd
00000160: c850 bfbd 5752 61bd ba3f 613d c786 efbd
00000170: 5ed9 81bd 160d 85be 7043 08bd 7077 4bbe
00000180: cd5c 52be b01c b0bc 32f6 7cbb d694 02bd

weight f4 [100, 100, 1]
-0.105028674 0.06795455 -0.090665594 -0.00085309724 -0.022156067 0.05475838 -0.05162333 0.074624434
-0.055672634 0.059623882 -0.00046594144 -0.09960127 -0.07742121 -0.04181365 0.056782734 0.042793512
0.03007312 0.052199394 0.048296258 0.03972605 -0.02150364 0.073803715 -0.09957323 0.054442424
0.083097145 -0.0689814 0.0042344243 -0.05844626 -0.024560126 -0.06566202 -0.1086943 -0.04308653
0.0026805578 -0.018307569 0.054997694 -0.09878848 0.009653258 0.083106935 -0.03173399 -0.03434823
0.06820402 0.07100078 0.035072874 -0.07749654 0.09961158 0.092103794 0.010221446 -0.05187903
0.085962854 0.054388084 0.059397157 -0.099715285 -0.06640124 0.008330641 0.03682865 -0.079796135
-0.085690774 0.05834786 -0.08176547 -0.07654281 0.054507565 0.069287635 0.091526166 0.002964874
-0.024902644 -0.086125135 -0.080179945 -0.09270052 -0.024452163 -0.036974333 -0.03680718 0.036438584
-0.08202345 0.08362208 0.07675162 -0.087911025 -0.04297301 -0.020989193 -0.03377959 0.016003218
-0.0045612203 -0.09742633 0.0018908978 0.07055242 -0.008333301 0.03796555 0.09267049 -0.05856196
0.052772343 -0.098182954 -0.014156393 0.052600276 0.06455678 -0.08478063 0.09528497 0.014065458
-0.08260988 -0.065562904 -0.026454464 -0.021659466 -0.03623515 -0.011594001 -0.046139657 0.048869994
-0.086977534 0.056039017 -0.07247232 -0.069332264 0.06793046 0.08845284 0.09436782 -0.024435539
0.015318691 0.009414842 0.07846155 0.009480776 0.00412553 0.084048696 0.063632466 -0.1224092
0.080166034 -0.046879184 -0.0990329 -0.096698344 -0.071220286 -0.013591391 -0.035262063 -0.14511716
-0.02070757 0.04749167 -0.0985496 0.07060466 -0.044348307 -0.033175934 0.12895006 -0.0057522836
-0.07234415 -0.045569852 0.056410953 0.00951702 -0.14118049 0.087629296 0.024965707 -0.0062095644
-0.0118896365 -0.019580914 0.016200567 0.035467423 -0.105684325 -0.076985575 0.010829141 0.05011268
0.0450233 -0.041139945 -0.019287815 -0.018946093 0.0047447733 -0.0019274572 0.034222428 -0.08963302
0.08100876 -0.061674472 0.04870788 -0.047161765 -0.007899422 -0.0062202844 0.06106506 0.027075462
-0.002919968 0.008005615 -0.09982524 -0.07569778 0.02065459 0.044685844 0.016895382 -0.036205545
-0.06854505 0.04331584 0.06565285 0.16179305 -7.22521e-05 0.042218186 -0.017513419 0.055558078
-0.009190166 -0.09135672 0.052941237 -0.003403013 -0.0771403 0.0076019648 -0.06000295 0.024984313
0.038328018 -0.0119760325 0.011835872 -0.027365983 -0.022242095 -0.10235167 -0.07206259 -0.00872226
-0.07708659 0.020922272 -0.0060009 -0.117411815 -0.117504574 -0.08398403 0.077414714 -0.018163146
-0.07465977 0.027006777 0.09914714 0.034049086 -0.004036846 0.09769406 -0.47452214 -0.010149449
-0.017967075 0.00036513287 0.014181559 -0.1093303 0.042319108 -0.0880416 -0.021849645 0.08167058
-0.017680215 0.015092138 -0.046320494 -0.08867087 0.048368435 -0.1251388 -0.2000751 -0.024483688
-0.09686781 -0.09957812 0.056254324 -0.01886399 -0.09757411 -0.031775642 -0.004881836 -0.010613896
0.088968955 -0.10437442 0.043747768 0.09098395 0.041020572 0.05250578 0.008972565 -0.09278387
0.05232095 0.068550825 -0.08876637 -0.06139644 -0.0080377795 -0.13610002 -0.0707605 -0.023609659
00000000: 4619 d7bd c12b 8b3d e2ae b9bd 63a2 5fba
00000010: a480 b5bc 534a 603d fc72 53bd b2d4 983d
00000020: fd08 64bd 2c38 743d 9a49 f4b9 c0fb cbbd
00000030: 038f 9ebd ca44 2bbd 0395 683d 4048 2f3d
00000040: e75b f63c 08cf 553d 4cd2 453d c8b7 223d
00000050: 6728 b0bc 6726 973d 0ded cbbd 05ff 5e3d
00000060: d62e aa3d 1f46 8dbd edc0 8a3b 5865 6fbd
00000070: 5132 c9bc cf79 86bd 1e9b debd 807b 30bd
00000080: 4cac 2f3b c1f9 95bc 4345 613d 9d51 cabd
00000090: b328 1e3c f833 aa3d 80fb 01bd bbb0 0cbd
000000a0: 8dae 8b3d db68 913d 93a8 0f3d 82b6 9ebd
000000b0: 2801 cc3d eaa0 bc3d da77 273c 1b7f 54bd
000000c0: 4b0d b03d 0ac6 5e3d 6f4a 733d 8737 ccbd
000000d0: 60fd 87bd 3e7d 083c a3d9 163d 286c a3bd
000000e0: a57e afbd 2afe 6e3d a874 a7bd 7ac2 9cbd
000000f0: 5343 5f3d ade6 8d3d 1272 bb3d 554e 423b
00000100: a100 ccbc 6062 b0bd 6235 a4bd c5d9 bdbd
00000110: e74f c8bc 6672 17bd 20c3 16bd a040 153d
00000120: e9fb a7bd 0e42 ab3d f42f 9d3d b20a b4bd
00000130: 7804 30bd 87f1 abbc 785c 0abd 2e19 833c
00000140: 4a76 95bb 7587 c7bd 00d8 f73a ca7d 903d
00000150: 6688 08bc c481 1b3d 07ca bd3d aade 6fbd
00000160: d027 583d 2514 c9bd 37f0 67bc 6373 573d
00000170: 5836 843d 78a1 adbd c424 c33d cf72 663c
00000180: 5e2f a9bd d845 86bd 08b7 d8bc 316f b1bc
00000190: 4f6b 14bd c4f4 3dbc f0fc 3cbd e72b 483d
000001a0: 4721 b2bd 2b89 653d 5e6c 94bd 13fe 8dbd
000001b0: 201f 8b3d c326 b53d ea43 c13d 0a2d c8bc
000001c0: 3ffb 7a3c b640 1a3c 73b0 a03d 4255 1b3c
000001d0: 742f 873b b921 ac3d bd51 823d adb1 fabd
000001e0: 172e a43d 6304 40bd c3d1 cabd c809 c6bd
000001f0: f1db 91bd 6dae 5ebc f46e 10bd 9899 14be
00000200: eca2 a9bc a086 423d 5fd4 c9bd 2d99 903d
00000210: 92a6 35bd 7de3 07bd 7c0b 043e a77d bcbb
00000220: 2b29 94bd 74a7 3abd 2c0f 673d 46ed 1b3c
00000230: 9e91 10be fd76 b33d e284 cc3c 9a79 cbbb
00000240: c0cc 42bc 2768 a0bc 0db7 843c 4a46 113d
00000250: 0671 d8bd 9daa 9dbd b66c 313c f442 4d3d
00000260: 5a6a 383d 5c82 28bd 7b01 9ebc d634 9bbc
00000270: 0b7a 9b3b bba2 fcba d12c 0c3d 8491 b7bd
00000280: ece7 a53d 5f9e 7cbd ea81 473d b22c 41bd
00000290: 946c 01bc 87d3 cbbb 5b1f 7a3d 5ccd dd3c
000002a0: ef5c 3fbb fc29 033c 2d71 ccbd 7007 9bbd
000002b0: d133 a93c 8108 373d 2f68 8a3c 444c 14bd
000002c0: 5961 8cbd f36b 313d 0075 863d 14ad 253e
000002d0: 0d86 97b8 faec 2c3d 4d78 8fbc de90 633d
000002e0: 5a92 16bc 3b19 bbbd e9d8 583d 1605 5fbb
000002f0: bcfb 9dbd e719 f93b a7c5 75bd e7ab cc3c
00000300: d7fd 1c3d 1f37 44bc 3feb 413c a02e e0bc
00000310: 0e35 b6bc c19d d1bd 8d95 93bd cfe7 0ebc
00000320: 93df 9dbd 2f65 ab3c 33a3 c4bb 9b75 f0bd
00000330: 3da6 f0bd d2ff abbd 9b8b 9e3d e1ca 94bc
00000340: 39e7 98bd 513d dd3c a80d cb3d 0e77 0b3d
00000350: 8547 84bb d313 c83d 91f4 f2be e049 26bc
00000360: b02f 93bc 4e6f bf39 c559 683c 90e8 dfbd
00000370: cd56 2d3d 284f b4bd 07fe b2bc e842 a73d
00000380: 19d6 90bc 0445 773c 8fba 3dbd 1399 b5bd
00000390: fb1d 463d 6324 00be 7de0 4cbe 0492 c8bc
000003a0: a162 c6bd 9def cbbd ef6a 663d a888 9abc
000003b0: efd4 c7bd 2d27 02bd cff7 9fbb e8e5 2dbc
000003c0: 5b35 b63d 42c2 d5bd dc30 333d cb55 ba3d
000003d0: 3005 283d 4d10 573d aa01 133c 7805 bebd
000003e0: 7e4e 563d 6064 8c3d 25cb b5bd d57a 7bbd
000003f0: e4b0 03bc ce5d 0bbe e2ea 90bd 0b69 c1bc
