data/pretrained_models/donor-3.pt (torch, 225197 bytes, 14 tensors)

weight f4 [100, 4, 9]
-0.063050576 -0.21910451 0.16469806 -0.23853156 -0.35006902 -0.38753548 0.06662254 0.15833153
1.7647633e-05 0.03566952 0.095488645 0.21474051 -0.38426748 -0.33993435 0.084511064 0.22320215
-0.11938289 0.30436456 0.26737309 -0.03423837 -0.12209192 -0.09477886 -0.28960833 -0.1878664
-0.6517038 -0.5450712 -0.12340257 -0.018686375 0.16312571 -0.032742076 -0.204692 0.12100726
0.3494035 -0.6856397 0.24589293 -0.4195665 0.10327381 -0.094786525 -0.27400416 -0.4480613
0.5140649 -0.06873456 -0.25812036 -0.2570926 0.12436028 -0.44621578 -0.6453598 -0.3020175
-0.016252056 -0.037707955 0.11579562 0.082558714 0.06775363 0.012633884 0.10334238 -0.036915228
-0.0026316398 0.10815468 0.52534395 -0.067184865 0.454841 -0.03210809 0.016940705 -0.05991354
-0.031146202 -0.069067016 -0.20081834 -0.2625391 0.016171433 -0.05219691 -0.16858084 0.16030967
-0.10760922 -0.1257646 -0.0220498 -0.3676969 -0.46448708 0.09168641 0.04436083 -0.6314276
-0.22122158 -0.27465525 -0.5987676 0.05579446 0.078513436 -0.41657585 -0.20216326 -0.5565766
0.12895471 -0.12809831 0.12514536 0.23746958 -0.30084872 0.10324108 0.1710682 0.14969991
-0.21437743 0.077441186 0.36206812 -0.22087732 0.02908007 0.32334292 -0.52080196 -0.17323202
-0.7113646 -0.0300499 -0.20236194 -0.42876247 -0.0013860731 -0.2832702 0.14059551 0.27264142
-0.5607699 -0.53508675 -0.65028894 -0.34993774 0.2000039 0.008521696 -0.20697035 0.24730137
-0.30292302 -0.87088484 -0.33930102 0.011392961 -0.4868556 -0.18135764 0.33369955 0.30992186
-0.10540421 -0.027441045 -0.086770125 0.2136241 0.22879249 -0.022950554 0.31089455 0.03747475
0.09376542 0.30031666 -0.42620608 -0.030820206 -0.2960878 0.2958005 0.042505704 -0.35082763
0.17381568 -0.071205996 -0.06636745 0.14979996 -0.24287614 -0.0773802 -0.3424703 0.20586017
-0.19977212 0.16231355 0.35637015 0.024786234 0.39592558 -0.16833496 0.45200813 -0.23579785
-0.5994625 0.12951666 -0.03370777 -0.16203615 -0.5853221 -0.2738635 -0.24206801 0.19205151
0.01724611 0.0865286 0.11132544 -0.19008055 -0.19815071 0.44878772 0.115686595 0.12572654
0.0595454 0.4457808 0.13584287 -0.08241421 0.08445269 -0.40392193 0.35719505 -0.4657029
-0.006998191 -0.073593 0.0135329105 0.16584648 0.043923564 -0.277453 -0.12939964 -0.14627983
-0.41425887 0.17972197 -0.19190799 0.19559479 -0.4795241 0.059914537 0.21552011 0.45511824
-0.27407965 0.09447199 0.3401806 0.20609757 0.1609038 -0.07869268 0.28999105 -0.07871875
0.39097694 -0.081223264 -0.31302935 -0.21494935 -0.07734854 0.069696635 -0.43816534 -0.47116688
0.054871306 -0.100499585 0.30927038 0.052742835 -0.37747747 -0.28314325 -0.21761379 0.45694363
0.34187678 -0.13613465 0.02412401 0.2875341 0.18594293 -0.77112263 0.55783737 0.18564181
0.61515003 0.21494427 0.032370687 0.35687786 -0.3720484 -0.01897375 -0.35269755 0.04599646
0.32260716 -0.46887904 -0.6196013 0.28023902 0.1162543 0.33650368 -0.18237524 0.16575943
0.2564386 0.18626398 0.3374053 0.13047527 0.09895464 0.028382784 0.22232006 -0.17544238
00000000: a920 81bd ef5c 60be 9ca6 283e 9e41 74be
00000010: 3f3c b3be 0d6b c6be 6671 883d a921 223e
00000020: 010a 9437 341a 123d 8d8f c33d f0e4 5b3e
00000030: b5be c4be e00b aebe 2314 ad3d 1b8f 643e
00000040: 047f f4bd acd5 9b3e 20e5 883e 883d 0cbd
00000050: 540b fabd 6b1b c2bd 8b47 94be 0d60 40be
00000060: 0fd6 26bf c989 0bbf 7dba fcbd 2b14 99bc
00000070: 6d0a 273e 8e1c 06bd c89a 51be a8d2 f73d
00000080: 04e5 b23e 1586 2fbf 5bcb 7b3e 6cd1 d6be
00000090: 3881 d33d 701f c2bd 464a 8cbe 4a68 e5be
000000a0: c299 033f b4c4 8cbd 5a28 84be a4a1 83be
000000b0: 9ab0 fe3d 6576 e4be 4d36 25bf 0aa2 9abe
000000c0: 0823 85bc a873 1abd 4126 ed3d 8b14 a93d
000000d0: 6ac2 8a3d 5afe 4e3c 2ba5 d33d 6c34 17bd
000000e0: 9777 2cbb 3380 dd3d f17c 063f 3898 89bd
000000f0: ebe0 e83e c683 03bd 3cc7 8a3c e667 75bd
00000100: 5226 ffbc 0273 8dbd 53a3 4dbe 866b 86be
00000110: f479 843c 6dcc 55bd 75a0 2cbe 3828 243e
00000120: 3962 dcbd 6fc8 00be c8a1 b4bc c542 bcbe
00000130: 40d1 edbe 16c6 bb3d b4b3 353d 3da5 21bf
00000140: e987 62be 9d9f 8cbe d548 19bf bb88 643d
00000150: a7cb a03d 6e49 d5be e303 4fbe ce7b 0ebf
00000160: b40c 043e 342c 03be 1b26 003e 3a2b 733e
00000170: d808 9abe 0f70 d33d 812c 2f3e ef4a 193e
00000180: c285 5bbe 7c99 9e3d fe60 b93e aa2d 62be
00000190: 5439 ee3c 348d a53e 4753 05bf bc63 31be
000001a0: fe1b 36bf 352b f6bc f837 4fbe c186 dbbe
000001b0: e5ac b5ba cb08 91be 45f8 0f3e a897 8b3e
000001c0: 9e8e 0fbf 72fb 08bf 5679 26bf 0a2b b3be
000001d0: d3cd 4c3e 959e 0b3c 09f0 53be 923c 7d3e
000001e0: ba18 9bbe 4ff2 5ebf ddb8 adbe 8ba9 3a3c
000001f0: 2345 f9be d1b5 39be abda aa3e 14ae 9e3e
00000200: 2ade d7bd 0bcc e0bc 89b4 b1bd 47c0 5a3e
00000210: 9448 6a3e cd02 bcbc 922d 9f3e 207f 193d
00000220: 1608 c03d 1bc3 993e af37 dabe a87a fcbc
00000230: d298 97be 2a73 973e 761a 2e3d ae9f b3be
00000240: bdfc 313e 73d4 91bd a8eb 87bd 2965 193e
00000250: 86b4 78be 8379 9ebd 4458 afbe 02cd 523e
00000260: 1091 4cbe 8635 263e 2676 b63e 800c cb3c
00000270: c2b6 ca3e 0060 2cbe 9c6d e73e fe74 71be
00000280: 6076 19bf 04a0 043e 2911 0abd ceec 25be
00000290: abd7 15bf d637 8cbe ade0 77be 27a9 443e
000002a0: b747 8d3c e835 b13d 98fe e33d 7aa4 42be
000002b0: 05e8 4abe 81c7 e53e 18ed ec3d 75be 003e
000002c0: e1e5 733d 623d e43e 651a 0b3e c8c8 a8bd
000002d0: 88f5 ac3d dbce cebe 45e2 b63e 9c70 eebe
000002e0: 1551 e5bb edb7 96bd 24b9 5d3c a9d3 293e
000002f0: 32e9 333d 520e 8ebe 5781 04be 61ca 15be
00000300: bd19 d4be 0909 383e 8783 44be 004a 483e
00000310: 2f84 f5be f268 753d 4eb1 5c3e 4205 e93e
00000320: 2b54 8cbe 887a c13d 272c ae3e 3e0b 533e
00000330: f7c3 243e a129 a1bd b579 943e 4c37 a1bd
00000340: 212e c83e 6258 a6bd 6245 a0be af1b 5cbe
00000350: e968 9ebd 1cbd 8e3d 3557 e0be c93c f1be
00000360: bcc0 603d bad2 cdbd b058 9e3e df08 583d
00000370: ba44 c1be 27f8 90be 26d6 5ebe 84f4 e93e
00000380: 790a af3e e266 0bbe b79f c53c ab37 933e
00000390: d367 3e3e 4b68 45bf 6ece 0e3f e318 3e3e
000003a0: 797a 1d3f 5a1a 5c3e 2097 043d b2b8 b63e
000003b0: 217d bebe d66e 9bbc c694 b4be c966 3c3d
000003c0: c42c a53e ea10 f0be 319e 1ebf 7d7b 8f3e
000003d0: bc16 ee3d 364a ac3e 93c0 3abe d7bc 293e
000003e0: ec4b 833e fcbb 3e3e 63c0 ac3e 4f9b 053e
000003f0: bba8 ca3d 0383 e83c dfa7 633e 2ba7 33be

bias f4 [100]
0.37670794 -0.07864178 -0.05574838 0.2317768 0.11880505 -0.028516706 0.16159108 -0.10581998
-0.113432355 0.19992554 -0.15205094 -0.08976493 -0.058474418 -0.037022386 -0.12509209 -0.12618275
-0.006455804 -0.15346506 -0.18945304 0.3221024 0.25384027 -0.09659308 0.1636696 -0.16652556
0.26369056 -0.10776097 0.2757769 -0.025149265 -0.15036708 0.09209613 0.042488933 -0.08545429
-0.11910371 -0.050622772 0.006267675 -0.10213928 0.22330368 -0.18834692 -0.07876552 -0.080425434
0.24310459 0.2913351 -0.021947974 0.22550598 0.15326239 0.07330244 0.47048476 -0.18082654
0.0016236018 -0.032279804 -0.13495585 0.14692041 -0.09750725 -0.060758296 0.064131394 -0.20110789
-0.19782354 0.17372243 0.0038833523 -0.10741257 -0.118451975 -0.09021077 0.21668307 0.28568944
0.06642639 -0.087943085 -0.1006065 -0.06570105 0.26097888 -0.08860307 0.21680497 -0.14949067
-0.091991596 0.08826843 0.26961038 0.26792082 0.016428983 -0.16298307 0.21261738 0.12670524
-0.143315 0.06337269 0.23980916 0.24195842 -0.10482375 -0.09892623 0.2597941 -0.18421066
-0.14044705 0.05615152 -0.15436082 0.10584435 0.14863794 -0.055646654 0.06127601 -0.15661632
-0.15641207 -0.010301534 0.22873692 -0.11505415
00000000: dddf c03e f10e a1bd 6a58 64bd e656 6d3e
00000010: 1050 f33d de9b e9bc 2278 253e 25b8 d8bd
00000020: 394f e8bd 48b9 4c3e 3eb3 1bbe add6 b7bd
00000030: df82 6fbd c9a4 17bd 2418 00be 0d36 01be
00000040: 368b d3bb f225 1dbe faff 41be 9bea a43e
00000050: 5af7 813e 98d2 c5bd 0199 273e ad85 2abe
00000060: 7302 873e c9b1 dcbd a132 8d3e d505 cebc
00000070: d4f9 19be e59c bc3d e008 2e3d a902 afbd
00000080: a5ec f3bd d359 4fbd 1261 cd3b 662e d1bd
00000090: b8a9 643e 04de 40be d14f a1bd 17b6 a4bd
000000a0: 69f0 783e e029 953e 3dcc b3bc 0aeb 663e
000000b0: d1f0 1c3e 971f 963d 61e3 f03e 982a 39be
000000c0: 09cf d43a d437 04bd de31 0abe 4e72 163e
000000d0: e2b1 c7bd b1dd 78bd 5257 833d 3aef 4dbe
000000e0: 4192 4abe 4be4 313e d77f 7e3b 1ffb dbbd
000000f0: f396 f2bd 6dc0 b8bd 2be2 5d3e e345 923e
00000100: 8f0a 883d 811b b4bd c80a cebd 468e 86bd
00000110: 069f 853e 8775 b5bd 1f02 5e3e 1514 19be
00000120: 1766 bcbd 14c6 b43d 5f0a 8a3e eb2c 893e
00000130: 1396 863c 09e5 26be 5fb8 593e 05bf 013e
00000140: 2bc1 12be 8ac9 813d 8890 753e f3c3 773e
00000150: d6ad d6bd d699 cabd bb03 853e b8a1 3cbe
00000160: 5ad1 0fbe 23ff 653d c310 1ebe ecc4 d83d
00000170: 8b34 183e bfed 63bd 8efc 7a3d 0760 20be
00000180: 7c2a 20be c4c7 28bc 033a 6a3e 83a1 ebbd

weight f4 [100, 100, 1]
-0.23778355 0.18717834 -0.015149109 -0.31527308 -0.06187543 0.06274933 -0.090232685 -0.24486811
-0.06497827 -0.24344164 -0.26368973 -0.2044509 -0.007593326 -0.043261025 -0.20352763 -0.01049679
0.26587597 0.4042244 -0.12173923 -0.14349946 -0.21063344 0.28111613 -0.043573473 0.07882469
-0.063997865 -0.12818067 -0.08968605 -0.18376447 0.25943395 -0.048488762 -0.02063965 0.032918394
0.054476194 -0.09769734 -0.1250216 0.104843244 -0.106789485 -0.064795665 -0.017372875 0.04308817
-0.043969616 -0.24111485 0.025005726 -0.030798998 0.061710622 -0.045712758 -0.020599315 -0.122618325
0.0045079826 0.2027532 -0.27089247 0.05848425 0.37164325 -0.02276011 -0.027435021 -0.23560245
-0.21807209 -0.07475962 0.047987178 0.11531065 -0.20432782 -0.18012932 -0.07790946 -0.045075674
-0.0045416043 0.060711484 0.070704594 -0.11107942 -0.058633924 0.19891264 0.04186956 -0.055665407
0.036530994 -0.069507785 -0.008798189 -0.20234773 -0.12129166 0.40125442 -0.14368355 -0.34150216
0.08069314 0.23485243 -0.009354919 -0.26354158 -0.43443918 0.039822914 -0.43382132 0.17113775
0.027643597 -0.20200664 -0.0044537173 -0.36018106 0.1460162 0.11583521 -0.2584524 0.032132424
-0.116289005 -0.02752089 -0.013742006 0.11690074 -0.054724757 -0.12304754 -0.052077416 -0.11119746
0.01759773 0.058087293 0.029584184 -0.09778047 0.014000081 0.114454575 -0.060116448 -0.052205224
0.042318724 -0.01704534 -0.1273444 0.048847307 0.09110753 0.025438502 -0.13546874 -0.0741748
-0.0066547324 0.026493484 -0.12920848 -0.06642225 0.04599877 -0.007142903 -0.102828845 0.028581725
-0.020369837 -0.021585254 -0.03196083 -0.13345489 -0.035253104 -0.020405106 0.06526579 0.045932487
-0.10477062 -0.0035909119 -0.1547201 -0.0023700953 0.0681574 -0.2029471 -0.07410568 -0.08350308
-0.15297526 -0.12662256 -0.08429915 0.18329798 -0.082317814 -0.023563262 -0.08203444 -0.102841035
-0.040378276 -0.1052964 -0.01906042 0.014756748 -0.16921248 -0.06412746 -0.024059262 -0.091672555
-0.15137002 -0.11105214 -0.054199375 -0.094591156 -0.14641532 -0.13328563 -0.02015402 0.05437559
-0.11244993 0.048786473 -0.062052406 -0.04975145 -0.119670734 -0.115751475 0.04529157 -0.11727589
-0.007251213 -0.1341538 0.016432308 -0.1359232 -0.11489633 0.0036549447 -0.08533501 -0.07009883
-0.10577263 -0.054270845 0.032057114 -0.068014294 -0.10235986 -0.108861156 -0.028854575 -0.13230117
0.017085953 0.10299902 -0.11770196 -0.06444991 -0.14151214 0.0030109992 -0.06349905 -0.010841161
-0.045395896 -0.053397566 -0.10692194 0.08169128 -0.0065521663 -0.051920943 -0.09847418 0.07577133
-0.053815354 -0.032915358 0.0013766885 0.020467028 -0.08989911 -0.067948036 -0.08613087 -0.042644326
0.054566942 0.013861848 0.082139105 0.0420854 0.0028698195 0.011343388 -0.077116035 -0.06718605
-0.051649883 0.053899392 -0.059968304 -0.04477238 -0.020076027 0.019962389 -0.081674226 0.031117292
-0.046321906 -0.0136201745 0.014399346 -0.06436021 -0.039426897 -0.062971026 0.03507115 0.059871424
-0.11060136 -0.06994994 -0.06408799 -0.06395469 0.024180913 -0.041803874 -0.02616731 0.025122859
-0.0015798665 0.055568837 -0.048571844 0.07486959 -0.048968315 0.009710349 -0.109370865 -0.09453285
00000000: 887d 73be aeab 3f3e f833 78bc 796b a1be
00000010: 1771 7dbd b982 803d eacb b8bd b5be 7abe
00000020: 5413 85bd c448 79be 5702 87be 945b 51be
00000030: 6fd1 f8bb 7932 31bd 8c69 50be bafa 2bbc
00000040: e520 883e 80f6 ce3e 6b52 f9bd 86f1 12be
00000050: 4bb0 57be 74ee 8f3e 197a 32bd d76e a13d
00000060: 5011 83bd cb41 03be 52ad b7bd c12c 3cbe
00000070: 87d4 843e 279c 46bd 7c14 a9bc 70d5 063d
00000080: 6e22 5f3d 8b15 c8bd aa05 00be 0eb8 d63d
00000090: 72b4 dabd 97b3 84bd 8f51 8ebc 397d 303d
000000a0: 7c19 34bd d0e6 76be cfd8 cc3c 2e4e fcbc
000000b0: 47c4 7c3d 4d3d 3bbd e5bf a8bc 511f fbbd
000000c0: b3b7 933b 899e 4f3e 6bb2 8abe 2e8d 6f3d
000000d0: 0648 be3e 6973 babc 69bf e0bc c541 71be
000000e0: 4a4e 5fbe 921b 99bd 348e 443d fd27 ec3d
000000f0: 503b 51be d273 38be ff8e 9fbd 45a1 38bd
00000100: bdd1 94bb 9bac 783d 92cd 903d 9b7d e3bd
00000110: 202a 70bd c1af 4b3e 6a7f 2b3d 6901 64bd
00000120: 86a1 153d 195a 8ebd 4826 10bc 3e34 4fbe
00000130: c367 f8bd 3871 cd3e c821 13be 5fd9 aebe
00000140: 7242 a53d 287d 703e 6045 19bc ecee 86be
00000150: d06e debe 5a1d 233d d41d debe bc3e 2f3e
00000160: d374 e23c d4da 4ebe 7df0 91bb a769 b8be
00000170: 4585 153e 033b ed3d df53 84be 4a9d 033d
00000180: ee28 eebd 7d73 e1bc 2726 61bc a869 ef3d
00000190: 1127 60bd 5900 fcbd 214f 55bd 7ebb e3bd
000001a0: 1d29 903c f1ec 6d3d 885a f23c 2141 c8bd
000001b0: 9960 653c 2967 ea3d aa3c 76bd 25d5 55bd
000001c0: 6656 2d3d aba2 8bbc 9266 02be 1d14 483d
000001d0: 9696 ba3d 6864 d03c 51b8 0abe f5e8 97bd
000001e0: f10f dabb dd08 d93c 3a4f 04be 6308 88bd
000001f0: 3569 3c3d 030f eabb ee97 d2bd 3924 ea3c
00000200: a5de a6bc 8fd3 b0bc 5ce9 02bd 66a8 08be
00000210: 8f65 10bd 9c28 a7bc 12aa 853d b423 3c3d
00000220: fb91 d6bd 8155 6bbb f26e 1ebe 9a53 1bbb
00000230: 1b96 8b3d 5dd1 4fbe b8c4 97bd aa03 abbd
00000240: 8ca5 1cbe 58a9 01be 08a5 acbd 77b2 3b3e
00000250: 3e96 a8bd be07 c1bc ac01 a8bd 529e d2bd
00000260: b163 25bd a4a5 d7bd 9924 9cbc 4ac6 713c
00000270: 0946 2dbe 4255 83bd ee17 c5bc d2be bbbd
00000280: be00 1bbe 4e6f e3bd 2a00 5ebd 02b9 c1bd
00000290: e6ed 15be 077c 08be 0b1a a5bc f0b8 5e3d
000002a0: 264c e6bd 53d4 473d aa2a 7ebd 2dc8 4bbd
000002b0: ee15 f5bd 1c0f edbd a783 393d 582e f0bd
000002c0: 959b edbb 9d5f 09be 0c9d 863c 742f 0bbe
000002d0: c44e ebbd cc87 6f3b 1fc4 aebd fa8f 8fbd
000002e0: 529f d8bd 1b4b 5ebd 524e 033d 144b 8bbd
000002f0: 0ca2 d1bd 99f2 debd 6e60 ecbc f579 07be
00000300: d7f7 8b3c 26f1 d23d ba0d f1bd 50fe 83bd
00000310: 8fe8 10be 2f54 453b ca0b 82bd 209f 31bc
00000320: 0cf1 39bd 68b7 5abd e4f9 dabd c24d a73d
00000330: 8eb3 d6bb 0eab 54bd d5ac c9bd 002e 9b3d
00000340: 7d6d 5cbd 41d2 06bd 0072 b43a 78aa a73c
00000350: 061d b8bd 5728 8bbd 6265 b0bd d1ab 2ebd
00000360: 9681 5f3d ce1c 633c 8c38 a83d be61 2c3d
00000370: 9513 3c3b 9ed9 393c 03ef 9dbd d798 89bd
00000380: d48e 53bd 9cc5 5c3d 53a1 75bd 3e63 37bd
00000390: 7b76 a4bc 2a88 a33c d144 a7bd b1e9 fe3c
000003a0: 0abc 3dbd 2727 5fbc 3ceb 6b3c 49cf 83bd
000003b0: 197e 21bd f4f6 80bd c4a6 0f3d bd3b 753d
000003c0: f782 e2bd ea41 8fbd 9040 83bd adfa 82bd
000003d0: 0d17 c63c 8a3a 2bbd d45c d6bc 74ce cd3c
000003e0: 8613 cfba 269c 633d 45f3 46bd 3a55 993d
000003f0: 0093 48bd 2818 1f3c d5fd dfbd 709a c1bd

bias f4 [100]
-0.084417306 -0.0032445036 -0.08182415 -0.004926232 -0.052633133 0.010662836 -0.07394146 -0.10000694
0.18892281 -0.06490776 0.007478467 0.0016886666 -0.18024728 -0.08960813 -0.067748494 -0.043995865
-0.21177706 0.015245183 -0.11764669 0.027020145 -0.029253067 -0.07954021 -0.1217765 -0.12457601
0.3320344 -0.17069255 -0.14157854 -0.13184255 -0.05858814 -0.16114597 -0.08524711 -0.15496689
-0.10894509 -0.07634454 -0.048024036 -0.20736511 -0.10722476 -0.017569177 -0.11755524 0.01761599
-0.0002576354 0.09690572 -0.18163706 -0.17187364 0.058625747 -0.08505909 -0.15120108 -0.10994698
-0.16986616 -0.13557465 -0.034626767 -0.14864057 -0.21503243 -0.07585137 -0.023134634 -0.058022577
-0.03221824 -0.14288697 -0.14539583 -0.10801754 -0.08706659 0.02196445 0.0031655917 -0.1861309
0.008668861 -0.0672298 -0.14068656 0.006222471 -0.072758146 0.010751457 -0.113246374 -0.10205852
-0.114356 -0.1944795 -0.16226836 -0.30190074 -0.23391971 -0.0008283449 -0.105740115 -0.07474337
0.030247625 -0.0900984 -0.062259253 -0.024861919 0.11967198 -0.020247305 -0.14556521 -0.24514171
-0.24507326 -0.07882586 -0.08742835 -0.07230209 -0.03977264 0.14438854 -0.017374765 -0.12988867
-0.09982618 -0.083033845 -0.18478549 0.018455464
00000000: fbe2 acbd bda1 54bb 6c93 a7bd 3b6c a1bb
00000010: d795 57bd 2db3 2e3c 9f6e 97bd 70d0 ccbd
00000020: fb74 413e 5cee 84bd ee0d f53b 4056 dd3a
00000030: be92 38be 7884 b7bd b9bf 8abd 0235 34bd
00000040: 16dc 58be efc6 793c bff0 f0bd 5a59 dd3c
00000050: 21a4 efbc fae5 a2bd f565 f9bd b521 ffbd
00000060: 6a00 aa3e 07ca 2ebe f7f9 10be bc01 07be
00000070: 1efa 6fbd 7303 25be 0996 aebd a4af 1ebe
00000080: 9a1e dfbd 875a 9cbd dab4 44bd 8557 54be
00000090: a898 dbbd 3ced 8fbc cdc0 f0bd 694f 903c
000000a0: 3d13 87b9 8276 c63d 11ff 39be a5ff 2fbe
000000b0: 8d21 703d 7633 aebd 75d4 1abe e22b e1bd
000000c0: 65f1 2dbe 15d4 0abe ccd4 0dbd 3c35 18be
000000d0: 7631 5cbe f757 9bbd d884 bdbc 15a9 6dbd
000000e0: 46f7 03bd f650 12be a5e2 14be 4d38 ddbd
000000f0: f84f b2bd caee b33c d175 4f3b 1999 3ebe
00000100: d707 0e3c c7af 89bd 2310 10be dfe5 cb3b
00000110: 3902 95bd e126 303c b7ed e7bd 0f04 d1bd
00000120: 7b33 eabd a225 47be ad29 26be bc92 9abe
00000130: a688 6fbe 4925 59ba 468e d8bd 0d13 99bd
00000140: dec9 f73c 8385 b8bd 8f03 7fbd 39ab cbbc
00000150: 9516 f53d addd a5bc 0c0f 15be 6e06 7bbe
00000160: 7cf4 7abe 746f a1bd a20d b3bd 1e13 94bd
00000170: a3e8 22bd 97da 133e 8655 8ebc 8901 05be
00000180: ab71 ccbd a60d aabd 6838 3dbe ea2f 973c

weight f4 [100, 100, 1]
0.06332598 -0.0054236306 -0.014146787 -0.11765486 -0.26994184 0.05753741 -0.11912197 0.07326821
0.14896831 -0.1593206 -0.16735382 0.04925597 -0.1336009 0.17040677 0.23849183 -0.21006891
-0.043552745 0.31960693 -0.017876854 -0.0043655327 0.008726492 -0.1000374 -0.005525423 -0.123790935
-0.07216328 0.042818204 0.007750247 0.08289797 0.027527554 -0.052516486 -0.09981071 -0.04792017
-0.05334475 -0.046115384 -0.046444263 0.17256007 -0.14238816 -0.13600586 -0.04852204 0.08691984
0.0022810423 -0.14903232 0.021495936 0.10171655 -0.15167472 0.06406882 -0.18864109 -0.08072617
-0.15081638 -0.049169965 0.1045566 -0.16441667 -0.067054845 -0.034904163 -0.14672717 -0.12841211
-0.053000707 -0.082795374 0.22809413 -0.028179994 0.013383909 -0.092151366 -0.17818592 0.0012141262
-0.2462795 -0.17981993 0.02490029 0.00060008635 -0.071239956 -0.005684457 0.055537384 -0.12753627
0.06087391 -0.10064908 -0.0061860397 0.16473822 0.017307322 0.004869835 -0.17645197 -0.008016683
-0.093383096 0.025304643 -0.138638 -0.08705811 -0.18274206 0.47231233 0.024437131 -0.004899878
-0.038337655 -0.0016013586 -0.009337838 -0.11834474 -0.1383415 -0.112286456 -0.2382399 -0.006521529
-0.063440315 -0.042003166 -0.010109418 0.4463463 -0.031499498 -0.08608721 -0.01409359 0.010092454
-0.09340002 -0.012329722 0.04056593 0.087958746 -0.050278164 0.04146829 -0.012940365 0.08112179
-0.09410035 -0.07069148 -0.053402677 0.0032688722 -0.032899953 0.019580428 -0.08581251 0.081485055
-0.010704027 -0.04052027 -0.056066386 -0.0790163 -0.08750082 -0.07195628 0.042982683 0.01944204
-0.058470957 -0.083477855 0.036598034 -0.09063512 0.03700423 -0.046270274 0.07928529 -0.080022916
-0.08318087 -0.05461076 -0.06787856 0.07399443 -0.042267106 -0.0073016672 -0.094903365 0.07031694
-0.011009383 0.038505737 0.012012494 -0.030208293 -0.09182637 -0.08064546 -0.08677518 -0.033948466
-0.07181809 0.07949141 -0.09563954 0.043265264 -0.026775468 0.026222683 -0.023645742 -0.06495934
-0.10475575 -0.029492488 -0.002378154 -0.028123867 -0.050179597 0.072321646 0.07433208 -0.004755839
-0.060791135 0.07130579 0.05022329 0.0027140458 0.04486941 -0.05564449 -0.05378101 -0.03924537
-0.023720415 -0.017930528 0.066279046 0.05204231 0.07959427 0.07295981 0.042775538 0.08164136
-0.07206824 -0.039201293 0.06644154 0.086433664 -0.019303765 -0.00058102177 -0.07075934 0.0029030899
-0.0056966636 0.031789698 -0.1010485 0.095953606 -0.036772806 -0.011579416 0.034573227 0.050002847
0.14957468 0.05473389 -0.08359191 0.034012165 -0.062623814 -0.05631216 0.20961487 0.14096095
0.2546026 -0.034937333 -0.0012873269 0.003376145 0.20064211 0.099971786 0.277923 0.066915184
-0.006591554 0.2298217 0.09696167 0.018731285 0.032347426 -0.10793021 -0.03223117 0.023519723
0.19019529 0.07277437 -0.054174494 0.29356164 0.038881313 -0.042419635 0.029572833 0.105288066
-0.04918432 0.08267937 -0.11187319 0.2841426 -0.23516475 -0.026298292 0.17119429 -0.013220818
0.2829507 -0.4374319 -0.23319753 0.030207312 0.033479612 -0.009153676 -0.1378965 0.0028387215
-0.11293548 -0.08676493 -0.12518424 -0.010211041 -0.0057857335 -0.034647547 -0.39661282 -0.11821168
00000000: 0db1 813d b6b8 b1bb edc7 67bc 08f5 f0bd
00000010: d135 8abe 59ac 6b3d 38f6 f3bd a50d 963d
00000020: 268b 183e f024 23be cd5e 2bbe a1c0 493d
00000030: adce 08be 1d7f 2e3e 3437 743e 4e1c 57be
00000040: 5d64 32bd 85a3 a33e 7b72 92bc be0c 8fbb
00000050: 8ff9 0e3c 69e0 ccbd 9c0e b5bb 1a86 fdbd
00000060: 57ca 93bd 2462 2f3d c9f5 fd3b 69c6 a93d
00000070: 7781 e13c 871b 57bd 8f69 ccbd f147 44bd
00000080: 0680 5abd 7ce3 3cbd 573c 3ebd 96b3 303e
00000090: 34ce 11be 1f45 0bbe 0cbf 46bd 0703 b23d
000000a0: 8a7d 153b ee9b 18be 3f18 b03c c450 d03d
000000b0: 9e50 1bbe 8336 833d 212b 41be c353 a5bd
000000c0: 9c6f 1abe 7266 49bd c521 d63d d85c 28be
000000d0: 0d54 89bd abf7 0ebd a63f 16be 777e 03be
000000e0: 4517 59bd 9f90 a9bd 8291 693e bbd9 e6bc
000000f0: 2f48 5b3c dbb9 bcbd 5f76 36be 5123 9f3a
00000100: b130 7cbe b722 38be b1fb cb3c 1d4f 1d3a
00000110: 41e6 91bd ae44 babb 2b7b 633d de98 02be
00000120: ec56 793d 1b21 cebd 43b4 cabb 23b1 283e
00000130: 16c8 8d3c 2393 9f3b d3af 34be 6858 03bc
00000140: a33f bfbd af4b cf3c 1ff7 0dbe 864b b2bd
00000150: bc20 3bbe ecd2 f13e 6130 c83c 288f a0bb
00000160: f207 1dbd aee4 d1ba bbfd 18bc ba5e f2bd
00000170: 65a9 0dbe 71f6 e5bd 29f5 73be 8db2 d5bb
00000180: ffec 81bd 830b 2cbd f9a1 25bc 8187 e43e
00000190: 9e05 01bd 7e4e b0bd cde8 66bc d25a 253c
000001a0: 8248 bfbd 9a02 4abc 7628 263d b723 b43d
000001b0: 7af0 4dbd a7da 293d d303 54bc 2e23 a63d
000001c0: afb7 c0bd b2c6 90bd c4bc 5abd 933a 563b
000001d0: 1ac2 06bd 2267 a03c 78be afbd a3e1 a63d
000001e0: f15f 2fbc 95f8 25bd dea5 65bd 4cd3 a1bd
000001f0: a133 b3bd d05d 93bd 9c0e 303d ea44 9f3c
00000200: 3e7f 6fbd 70f6 aabd d2e7 153d e89e b9bd
00000210: bf91 173d e685 3dbd 5360 a23d 0ee3 a3bd
00000220: bb5a aabd 88af 5fbd ea03 8bbd 648a 973d
00000230: 4620 2dbd d342 efbb b25c c2bd 5402 903d
00000240: b360 34bc 31b8 1d3d 0dd0 443c 6277 f7bc
00000250: 770f bcbd 7229 a5bd 30b7 b1bd 8c0d 0bbd
00000260: 5d15 93bd 64cc a23d aade c3bd eb36 313d
00000270: 3a58 dbbc f4d0 d63c b7b4 c1bc 6709 85bd
00000280: 2f8a d6bd 3b9a f1bc ceda 1bbb 0664 e6bc
00000290: 1f89 4dbd 5f1d 943d 6b3b 983d ded6 9bbb
000002a0: 2000 79bd c508 923d f0b6 4d3d 22de 313b
000002b0: fdc8 373d 7aeb 63bd 7a49 5cbd c1bf 20bd
000002c0: 5151 c2bc 0be3 92bc 4fbd 873d 512a 553d
000002d0: 5202 a33d f46b 953d 6735 2f3d 9633 a73d
000002e0: 8398 93bd 8991 20bd 8112 883d 2204 b13d
000002f0: ee22 9ebc b64f 18ba 46ea 90bd c441 3e3b
00000300: 14ab babb ea35 023d 84f2 cebd 5383 c43d
00000310: 159f 16bd 97b7 3dbc a89c 0d3d c9cf 4c3d
00000320: 1b2a 193e a530 603d 3c32 abbd 5750 0b3d
00000330: ea40 80bd 94a7 66bd 48a5 563e 1158 103e
00000340: 465b 823e 731a 0fbd 86bb a8ba 5042 5d3b
00000350: 2075 4d3e 02be cc3d ec4b 8e3e d40a 893d
00000360: f6fd d7bb 6156 6b3e d793 c63d 5a72 993c
00000370: bc7e 043d 840a ddbd d504 04bd 6fac c03c
00000380: 8ec2 423e bb0a 953d 13e6 5dbd b64d 963e
00000390: 0342 1f3d 36c0 2dbd ba42 f23c 45a1 d73d
000003a0: 7f75 49bd cd53 a93d c51d e5bd 247b 913e
000003b0: 07cf 70be 846f d7bc 8e4d 2f3e 219c 58bc
000003c0: eade 903e 13f7 dfbe 55cb 6ebe 5375 f73c
000003d0: eb21 093d 4df9 15bc bd34 0dbe d809 3a3b
000003e0: b84a e7bd d0b1 b1bd 4c30 00be 364c 27bc
000003f0: 4096 bdbb 96ea 0dbd d610 cbbe f718 f2bd

bias f4 [100]
0.05746283 -0.09494899 0.089266635 -0.0995641 0.2827269 0.1589371 -0.09106008 -0.039253972
-0.097300254 0.19706336 0.096156865 -0.24648319 -0.10984769 -0.07969659 0.1345669 0.065866396
-0.15420218 -0.029768381 -0.072021 0.071675375 0.05275907 0.081906885 0.23027495 -0.07131579
0.07096722 0.14208977 0.15658222 -0.08717763 -0.0488631 0.07513981 -0.10839585 0.04958184
-0.08304287 -0.061879963 -0.071623825 0.10747137 -0.007754251 0.07390191 -0.094300404 0.048891842
-0.13098599 -0.11589709 -0.10582915 -0.09797515 0.11172551 -0.017909314 0.027895918 -0.10077338
0.07354062 -0.0010037269 -0.07704764 0.0052788155 0.019850176 -0.10996438 -0.06496364 0.13624664
0.16989408 0.06245897 -0.0055429167 -0.07561411 0.0023100346 0.07867943 0.0214798 0.06719544
0.003370386 -0.09060025 0.019691784 -0.05737378 -0.09296212 0.08680588 -0.041183475 -0.0068462244
0.012789438 0.06624655 0.23286228 -0.057076007 -0.09014632 -0.12368084 -0.104560986 -0.25023717
0.07316428 -0.053915374 0.0012618501 0.07207021 -0.08189143 0.0040847096 0.010963803 0.056280877
0.050919868 0.09247795 0.06865125 0.078570716 0.22126271 -0.029697584 0.1060502 -0.27150503
0.036043357 -0.07784125 -0.096895225 0.15614222
00000000: 255e 6b3d 9e74 c2bd 6dd1 b63d 43e8 cbbd
00000010: 95c1 903e 68c0 223e b57d babd c6c8 20bd
00000020: 5b45 c7bd faca 493e e4ed c43d 1766 7cbe
00000030: d3f7 e0bd f737 a3bd e8cb 093e f6e4 863d
00000040: 2de7 1dbe d2dc f3bc bf7f 93bd 8aca 923d
00000050: e519 583d ccbe a73d 32cd 6b3e 030e 92bd
00000060: 4357 913d fb7f 113e 1757 203e 2f8a b2bd
00000070: ad24 48bd e7e2 993d a5fe ddbd 5416 4b3d
00000080: 6112 aabd d875 7dbd 83af 92bd f319 dc3d
00000090: 5f17 febb e259 973d 9220 c1bd d042 483d
000000a0: 3121 06be 745b edbd f4bc d8bd 32a7 c8bd
000000b0: 58d0 e43d 8eb6 92bc fb85 e43c 4662 cebd
000000c0: 779c 963d 7c8f 83ba 27cb 9dbd eaf9 ac3b
000000d0: d69c a23c 0135 e1bd a80b 85bd 3d84 0b3e
000000e0: b7f8 2d3e fad4 7f3d 5ba1 b5bb 92db 9abd
000000f0: f363 173b ae22 a13d 68f6 af3c c39d 893d
00000100: b2e1 5c3b a08c b9bd aa50 a13c c500 6bbd
00000110: ed62 bebd 48c7 b13d 01b0 28bd 4b56 e0bb
00000120: ca8a 513c 45ac 873d 7373 6e3e 88c8 69bd
00000130: a29e b8bd 614c fdbd 1224 d6bd 161f 80be
00000140: 27d7 953d 5ed6 5cbd aa64 a53a 8c99 933d
00000150: b2b6 a7bd 07d9 853b 86a1 333c c786 663d
00000160: 5a91 503d 1465 bd3d 0799 8c3d afe9 a03d
00000170: b192 623e 5948 f3bc d930 d93d b502 8bbe
00000180: 33a2 133d 3c6b 9fbd 0171 c6bd bfe3 1f3e

weight f4 [100, 100, 1]
-0.13721626 0.081882484 -0.017252402 -0.014093907 -0.23114742 0.013618001 0.03040114 0.049660444
0.02742067 -0.030679101 -0.064656 0.09829299 -0.071642525 0.00067297224 -0.18918233 0.0039803465
0.10617306 -0.021140447 -0.03856382 0.035541043 -0.1689285 -0.09182293 -0.23684259 -0.039293118
-0.068766885 -0.08897856 -0.044463802 0.050012063 0.08929323 0.029996544 0.0063918745 -0.09275078
-0.036026075 0.046868928 -0.119721815 -0.088434026 -0.05696073 -0.13580969 0.05108905 -0.15875289
0.14966914 -0.029270621 -0.056452435 0.09487935 0.021562431 0.030540079 -0.21736914 -0.059113186
0.06701404 -0.018289886 -0.04055256 -0.05596535 -0.073779546 -0.048737485 0.05102642 -0.07535508
-0.06015623 -0.0052280873 -0.024535857 -0.025126904 -0.040666882 -0.02362393 0.075941466 -0.07285465
-0.089297414 -0.013876429 0.030668546 -0.09170934 -0.094910145 -0.04003311 -0.09670162 -0.009999172
-0.10482942 -0.10334287 -0.07867842 -0.072172016 0.038895067 0.1086494 -0.060851015 0.16486041
-0.0015754463 0.07288492 0.013385825 -0.11883225 0.050855715 -0.09521929 -0.004502632 -0.0567066
0.013023546 -0.017859558 0.047066566 -0.009470183 -0.0967401 -0.053972024 -0.14179987 0.0070406036
0.06577607 -0.08484393 0.050205458 0.06122791 -0.07325507 0.041399013 -0.17908774 -0.021563753
-0.0017546682 -0.16706091 -0.11725891 0.02897197 -0.016730728 -0.014835887 0.0025966507 -0.1943191
0.015870258 -0.07607759 -0.020469338 -0.14199485 0.09073413 -0.0070859008 -0.14645414 -0.028876727
-0.019186312 -0.0041039325 -0.046972442 0.008840689 -0.12342504 -0.18876521 -0.0031556087 -0.107192025
-0.08603797 -0.01365159 -0.012684187 -0.07273489 -0.0500565 0.013296874 -0.040227395 0.09045776
-0.01967324 0.08951663 0.06881786 -0.050886266 -0.064997524 0.03435938 -0.10015946 0.056222286
0.008520847 0.07896173 -0.0651279 0.052087434 0.038964015 0.055295084 -0.06156819 -0.13821998
-0.0421809 -0.047542628 -0.073732 -0.052521884 -0.032586332 0.24696411 -0.022197923 -0.07192368
-0.00965841 -0.07718004 -0.049439196 -0.057614516 -0.0027957351 -0.051226832 -0.08614774 0.011588896
0.019072177 -0.1481432 0.10975414 0.011262601 -0.0025201808 0.062546544 -0.024720583 -0.085578695
-0.06931282 0.035456106 0.05536395 -0.020337066 -0.014784801 -0.09347673 0.011610537 -0.070964366
0.0055468706 -0.08218807 -0.046894576 -0.07569861 -0.047690626 0.07286216 -0.023375578 -0.07986273
-0.049599003 0.02591848 -0.16477771 -0.0862536 0.008938992 0.085010104 -0.025921734 0.74053085
0.059129614 -0.018415412 -0.108227484 0.06272442 -0.1507918 0.0039503463 -0.10758535 -0.04574404
-0.039927695 -0.23064975 -0.013076806 -0.06273197 0.084796034 0.004991864 -0.16253915 0.046494152
0.13079932 0.0035766128 -0.07479732 -0.00785914 -0.018772474 -0.042166557 -0.1348635 -0.01669985
0.014724107 -0.11083793 0.028039582 -0.0043063005 -0.01595969 -0.09070033 0.02476217 -0.06794996
0.08387232 0.014790704 -0.1111489 0.13563652 -0.0680161 0.060634233 0.038859997 0.0013603565
-0.21056648 0.057458572 0.06640032 -0.056066837 -0.062402345 0.07891832 -0.09952424 0.05487949
-0.12857026 -0.12744616 -0.04175395 -0.14278734 -0.011721021 -0.057991747 -0.10112617 0.020202734
00000000: 6b82 0cbe 01b2 a73d e954 8dbc 21ea 66bc
00000010: e9b1 6cbe 091e 5f3c d00b f93c c068 4b3d
00000020: 50a1 e03c bd52 fbbc 5d6a 84bd d64d c93d
00000030: 51b9 92bd 676a 303a 03b9 41be 916d 823b
00000040: 4371 d93d bb2e adbc 19f5 1dbd 7c93 113d
00000050: 98fb 2cbe a90d bcbd dd86 72be d2f1 20bd
00000060: a7d5 8cbd 643a b6bd ad1f 36bd 73d9 4c3d
00000070: 5edf b63d 50bb f53c ee72 d13b 1ff4 bdbd
00000080: 1490 13bd a2f9 3f3d b630 f5bd e61c b5bd
00000090: a84f 69bd b211 0bbe c042 513d 1e90 22be
000000a0: de42 193e f1c8 efbc ab3a 67bd 1b50 c23d
000000b0: b2a3 b03c 302f fa3c 0496 5ebe ab20 72bd
000000c0: a83e 893d acd4 95bc 711a 26bd ec3b 65bd
000000d0: bb19 97bd f5a0 47bd 1401 513d c453 9abd
000000e0: 6166 76bd 6050 abbb 6cff c8bc f0d6 cdbc
000000f0: 5192 26bd f986 c1bc 3387 9b3d d234 95bd
00000100: 90e1 b6bd f659 63bc 9a3c fb3c 1bd2 bbbd
00000110: 4060 c2bd c2f9 23bd 800b c6bd 91d3 23bc
00000120: cfb0 d6bd 6da5 d3bd 2722 a1bd ecce 93bd
00000130: 6f50 1f3d 9483 de3d ea3e 79bd 2bd1 283e
00000140: 357f ceba b044 953d 3850 5b3c 535e f3bd
00000150: 154e 503d 5502 c3bd d18a 93bb 2e45 68bd
00000160: b660 553c 354e 92bc dfc8 403d d428 1bbc
00000170: ac1f c6bd c511 5dbd fc33 11be ddb4 e63b
00000180: 9bb5 863d a8c2 adbd 3da4 4d3d 1eca 7a3d
00000190: c106 96bd 0392 293d c762 37be 78a6 b0bc
000001a0: e5fc e5ba 0412 2bbe 7025 f0bd a056 ed3c
000001b0: e10e 89bc 3812 73bc 922c 2a3b 96fb 46be
000001c0: 5802 823c 91ce 9bbd 50af a7bc 1967 11be
000001d0: d1d2 b93d d830 e8bb 13f8 15be e38e ecbc
000001e0: 9d2c 9dbc 487a 86bb 2d66 40bd 8ad8 103c
000001f0: 44c6 fcbd ab4b 41be 54ce 4ebb 7e87 dbbd
00000200: ad34 b0bd ebaa 5fbc 56d1 4fbc 08f6 94bd
00000210: 0b08 4dbd 22db 593c 7bc5 24bd eb41 b93d
00000220: c629 a1bc 7f54 b73d 61f0 8c3d 1e6e 50bd
00000230: 6c1d 85bd 6cbc 0c3d 6720 cdbd 5749 663d
00000240: 069b 0b3c b0b6 a13d c761 85bd a259 553d
00000250: bb98 1f3d 197d 623d ed2e 7cbd 8a89 0dbe
00000260: e1c5 2cbd 0fbc 42bd ce00 97bd 3021 57bd
00000270: 3f79 05bd 29e4 7c3e 6bd8 b5bc b94c 93bd
00000280: 4f3e 1ebc 9210 9ebd c180 4abd 33fd 6bbd
00000290: a738 37bb 3ad3 51bd 3a6e b0bd 5adf 3d3c
000002a0: 413d 9c3c dab2 17be c7c6 e03d c686 383c
000002b0: 9e29 25bb 6718 803d d282 cabc e243 afbd
000002c0: e1f3 8dbd 6c3a 113d 4fc5 623d eb99 a6bc
000002d0: f33b 72bc ba70 bfbd 1f3a 3e3c c455 91bd
000002e0: 86c2 b53b 3852 a8bd 8714 40bd df07 9bbd
000002f0: 3f57 43bd c238 953d 247e bfbc 128f a3bd
00000300: 5328 4bbd fe52 d43c 7dbb 28be baa5 b0bd
00000310: da74 123c c719 ae3d d159 d4bc 6e93 3d3f
00000320: e531 723d ebdb 96bc 5fa6 ddbd a975 803d
00000330: 2a69 1abe e871 813b b555 dcbd 1a5e 3bbd
00000340: 398b 23bd 732f 6cbe 1a40 56bc 9e79 80bd
00000350: 8ba9 ad3d ca92 a33b aa70 26be a770 3e3d
00000360: 42f0 053e 9b65 6a3b 562f 99bd 9fc3 00bc
00000370: bbc8 99bc d7b6 2cbd a819 0abe 20ce 88bc
00000380: 623d 713c fffe e2bd 44b3 e53c de1b 8dbb
00000390: e5bd 82bc 18c1 b9bd 09da ca3c 5929 8bbd
000003a0: 40c5 ab3d b554 723c 09a2 e3bd 4de4 0a3e
000003b0: 064c 8bbd 9a5b 783d a92b 1f3d fd4d b23a
000003c0: bd9e 57be ae59 6b3d e4fc 873d 57a6 65bd
000003d0: 9a99 7fbd ee9f a13d 5dd3 cbbd 51c9 603d
000003e0: eca7 03be 3f81 02be 3106 2bbd d836 12be
000003f0: 8609 40bc c188 6dbd 3d1b cfbd 3480 a53c

bias f4 [100]
-0.17154178 -0.020625018 -0.001610296 -0.0032634323 -0.0070674988 -0.060632385 -0.045659732 -0.0885503
0.045748364 -0.0015549617 -0.0017446855 0.09758227 -0.073098816 0.021836398 -0.10780645 0.016525876
-0.07796755 -0.05886449 -0.13569991 -0.08351351 -0.0005646408 0.16992916 -0.15491848 -0.07984727
-0.053845394 -0.008494863 0.117619686 0.29452425 -0.004879297 0.14715824 -0.13509224 -0.048353154
-0.017123401 -0.011942403 -0.0049466626 -0.107074834 -0.0894013 0.03833234 0.026953721 0.1302523
-0.06606673 -0.0020810002 -0.07772622 -0.053246364 -0.015776334 -0.010860289 -0.076332 -0.0054556523
-0.057241898 -0.03553854 -0.08174285 0.08546353 -0.0029569748 0.006533843 -0.008154431 -0.015240079
-0.0069697597 -0.022372345 -0.0007907885 -0.01749151 -0.017466754 0.21078575 -0.06716498 -0.04315587
-0.21231954 -0.0016313255 -0.06436749 -0.070716016 -0.21254286 -0.07562782 -0.11718721 -0.08976374
-0.19567962 -0.050747216 -0.011316935 -0.003721842 -0.025004292 -0.1251122 -0.021502746 -0.025511343
-0.11367046 -0.0112248855 -0.009514791 -0.072453655 0.062986776 -0.020513983 0.01321136 0.020049397
-0.013192377 -0.0537666 -0.19951007 -0.036217485 0.15113552 -0.06990744 -0.03456783 -0.05000613
-0.061899707 -0.04055549 -0.13274388 -0.030133385
00000000: a6a8 2fbe ccf5 a8bc 9110 d3ba 4fdf 55bb
00000010: 7a96 e7bb aa59 78bd b305 3bbd dc59 b5bd
00000020: a362 3b3d dbcf cbba eead e4ba 37d9 c73d
00000030: d5b4 95bd 3fe2 b23c a1c9 dcbd 4661 873c
00000040: 73ad 9fbd e41b 71bd ebf4 0abe 2209 abbd
00000050: 6704 14ba e901 2e3e f3a2 1ebe f786 a3bd
00000060: fd8c 5cbd 0a2e 0bbc 97e2 f03d e2cb 963e
00000070: 83e2 9fbb a6b0 163e 9f55 0abe f50d 46bd
00000080: 6046 8cbc 12aa 43bc 9d17 a2bb 0d4a dbbd
00000090: 0718 b7bd 5f02 1d3d 0dce dc3c dc60 053e
000000a0: fe4d 87bd 6461 08bb ed2e 9fbd dc18 5abd
000000b0: 5f3d 81bc 5bef 31bc f453 9cbd 54c5 b2bb
000000c0: 7b76 6abd dc90 11bd cc68 a7bd 8107 af3d
000000d0: cec9 41bb d919 d63b 2a9a 05bc 86b1 79bc
000000e0: 9562 e4bb 3546 b7bc eb4c 4fba 5b4a 8fbc
000000f0: 7016 8fbc 38d8 573e cb8d 89bd 36c4 30bd
00000100: 4b6a 59be 33d2 d5ba 1ad3 83bd 8fd3 90bd
00000110: d6a4 59be c2e2 9abd d9ff efbd 0dd6 b7bd
00000120: 3d60 48be 50dc 4fbd aa6a 39bc 26ea 73bb
00000130: cdd5 ccbc 6a1d 00be 8726 b0bc 2afd d0bc
00000140: 0fcc e8bd 95e8 37bc ede3 1bbc 9562 94bd
00000150: 36ff 803d f10c a8bc 7674 583c a23e a43c
00000160: d724 58bc 5e3a 5cbd 5e4c 4cbe c958 14bd
00000170: 45c3 1a3e a22b 8fbd ff96 0dbd 3ad3 4cbd
00000180: 8c8a 7dbd 831d 26bd 03ee 07be 4ada f6bc

weight f4 [100, 100, 1]
-0.07650987 0.00947014 0.042254783 -0.052243207 -0.08016221 -0.013447321 0.078731894 -0.013134778
0.056400113 -0.098367475 -0.0564966 0.05769334 0.0012641192 -0.07600384 -0.045101926 -0.0077277776
-0.03934127 -0.08056664 0.036502257 0.00814672 0.07273364 -0.05911131 -0.0708854 -0.09115187
0.013943097 0.018202543 0.040878084 0.053326037 0.055590604 -0.12879036 0.011911869 0.01997522
0.08081575 0.056692395 -0.020221222 -0.061401546 0.026610255 -0.09497054 -0.008560026 -0.07857328
0.036286592 0.095092766 -0.013862932 0.09015268 0.008094144 -0.015792264 -0.030653056 -0.078580074
0.05479145 -0.05435574 0.011580968 0.034985136 0.01296704 -0.018103985 -0.056578346 -0.035603143
0.0009945552 0.064879164 0.07850962 -0.006420966 -0.04403424 -0.021803383 -0.028023554 -0.049364753
-0.073111385 0.017180674 0.019483184 0.029236704 -0.066193156 -0.032070305 0.033655554 -0.060915958
-0.04469037 0.093256146 -0.026841413 -0.078566514 0.024009285 0.091424406 0.060262162 0.08686576
0.027478004 0.042114314 -0.08099618 0.080291405 -0.09968377 -0.008899174 -0.064444736 0.0066688987
-0.07086519 -0.09914466 -0.09811356 -0.028775806 0.041225623 0.004443562 -0.032124504 0.07961571
-0.058734525 -0.08200882 0.0064902636 -0.07163667 -0.07761608 -0.048571255 0.030343069 -0.006122911
-0.03431026 0.09714717 -0.00481856 0.0824002 -0.024671113 0.03393787 -0.0044918894 -0.1008929
-0.08742561 -0.053198613 0.052817263 0.08762181 0.062829055 0.012409735 -0.0802824 0.013971937
-0.051801562 -0.11223018 0.08191822 -0.015345884 0.029878736 0.069923036 0.08295166 -0.05172754
0.09309679 -0.08813987 0.03197676 -0.07897969 -0.059717048 -0.021801818 0.04200567 -0.030671358
0.093787946 0.08543437 0.070748106 -0.10233655 -0.035910536 0.071693085 0.064061455 0.00018272932
-0.09604297 -0.05197481 0.05430751 -0.09623418 0.011166907 0.04486704 0.037115384 0.08150028
-0.0420478 -0.07300798 0.045574736 0.006523764 0.044955887 -0.073705964 0.024499178 0.003023219
-0.09527385 -0.054615326 0.009625221 0.013236046 -0.0680211 -0.05683459 -0.06344205 0.05343535
0.0981483 0.06640575 -0.097997636 0.08282388 -0.07855877 0.06154194 -0.0064205527 -0.017645283
0.05970974 0.013731026 0.015745832 0.025670683 0.07778456 0.020785892 0.06473293 0.018584896
-0.09140972 -0.07502202 0.0012499333 0.031427946 0.013510632 0.042676937 0.00967314 0.0931095
-0.06741409 0.072139956 -0.05951437 -0.022580242 -0.044984903 0.024496233 -0.014294899 0.08882995
0.14096715 -0.054065425 0.06103164 -0.07416648 -0.03797649 -0.024352944 -0.063880526 -0.0052954867
-0.071984835 -0.09807038 0.015194674 -0.02679646 0.023267735 -0.038858175 -0.098339915 0.04093597
-0.003771627 0.032576587 -0.03283638 0.044787724 0.033192456 -0.015593857 0.08607011 0.07118224
-0.08501184 0.08299475 0.058486093 -0.16259699 -0.0025479316 -0.048796892 0.009890037 -0.037700403
0.0013817191 0.098614454 -0.048789658 0.06410604 0.029171253 0.02919333 0.12227217 -0.0075991373
0.023170667 -0.014942646 0.06801174 -0.033801023 0.042521585 0.05388661 -0.019673444 -0.061043322
-0.04563414 -0.058246303 0.08015666 0.073603064 0.08885615 -0.009611547 -0.017199717 -0.025478289
00000000: 35b1 9cbd a528 1b3c 5a13 2d3d f9fc 55bd
00000010: 162c a4bd 2752 5cbc 303e a13d 4033 57bc
00000020: ce03 673d e374 c9bd fb68 67bd da4f 6c3d
00000030: cdb0 a53a e7a7 9bbd ccbc 38bd 4c39 fdbb
00000040: 5024 21bd 1f00 a5bd 6483 153d d279 053c
00000050: 60f5 943d b31e 72bd 5d2c 91bd d5ad babd
00000060: 9671 643c 801d 953c c76f 273d 676c 5a3d
00000070: f9b2 633d 9fe1 03be 002a 433c 13a3 a33c
00000080: ba82 a53d 4936 683d faa6 a5bc 3080 7bbd
00000090: c0fd d93c ea7f c2bd 5a3f 0cbc 07eb a0bd
000000a0: 40a1 143d ffbf c23d 5a21 63bc f8a1 b83d
000000b0: 4d9d 043c c75e 81bc 1e1c fbbc 97ee a0bd
000000c0: 006d 603d 20a4 5ebd 1abe 3d3c 934c 0f3d
000000d0: b573 543c cf4e 94bc b2be 67bd 9ad4 11bd
000000e0: bc5b 823a 5edf 843d a7c9 a03d f766 d2bb
000000f0: 3f5d 34bd 029d b2bc a791 e5bc b232 4abd
00000100: 6cbb 95bd 7cbe 8c3c 339b 9f3c d081 ef3c
00000110: 4790 87bd 275c 03bd 68da 093d 0383 79bd
00000120: 400d 37bd 14fd be3d 86e2 dbbc 7be7 a0bd
00000130: 1faf c43c b83c bb3d 75d5 763d ade6 b13d
00000140: 8d19 e13c 0f80 2c3d 53e1 a5bd d26f a43d
00000150: 0127 ccbd d7cd 11bc 9afb 83bd c786 da3b
00000160: c521 91bd 5b0c cbbd c3ef c8bd 3dbb ebbc
00000170: 33dc 283d 4d9b 913b fc94 03bd 900d a33d
00000180: 9d93 70bd 3df4 a7bd 47ac d43b 3fb6 92bd
00000190: 2ef5 9ebd a7f2 46bd 0792 f83c b3a2 c8bb
000001a0: ea88 0cbd 18f5 c63d 03e5 9dbb 70c1 a83d
000001b0: 131b cabc 7002 0b3d b330 93bb f0a0 cebd
000001c0: 330c b3bd cae6 59bd ea56 583d 1073 b33d
000001d0: 85ac 803d 3352 4b3c 196b a4bd 8dea 643c
000001e0: e02d 54bd f0d8 e5bd bdc4 a73d 4d6d 7bbc
000001f0: 40c4 f43c cf33 8f3d 8fe2 a93d 42e0 53bd
00000200: 88a9 be3d ad82 b4bd 10fa 023d 1bc0 a1bd
00000210: dd99 74bd ba99 b2bc 230e 2c3d 8042 fbbc
00000220: e513 c03d 37f8 ae3d 62e4 903d d395 d1bd
00000230: ed16 13bd d3d3 923d a732 833d 079b 3f39
00000240: 2db2 c4bd 8ae3 54bd 8d71 5e3d 6d16 c5bd
00000250: 67f5 363c 80c6 373d 4d06 183d 9ee9 a63d
00000260: 503a 2cbd 3585 95bd 93ac 3a3d 4dc5 d53b
00000270: aa23 383d 27f3 96bd 80b2 c83c 3321 463b
00000280: f01e c3bd 52b4 5fbd 1ab3 1d3c 00dc 583c
00000290: a54e 8bbd 63cb 68bd e8ed 81bd 07df 5a3d
000002a0: fa01 c93d bdff 873d fcb2 c8bd 919f a93d
000002b0: 6ce3 a0bd 6713 7c3d 8063 d2bb d78c 90bc
000002c0: 3392 743d 19f8 603c 67fd 803c 534b d23c
000002d0: 834d 9f3d 2d47 aa3c b392 843d 5a3f 983c
000002e0: 0535 bbbd 25a5 99bd cdd4 a33a 97ba 003d
000002f0: b35b 5d3c 03ce 2e3d 177c 1e3c 32b0 be3d
00000300: 6610 8abd 1dbe 933d 57c5 73bd 33fa b8bc
00000310: 1742 38bd 53ac c83c 2735 6abc 7aec b53d
00000320: b159 103e b573 5dbd 50fc 793d 98e4 97bd
00000330: 3c8d 1bbd d37f c7bc cbd3 82bd c385 adbb
00000340: c96c 93bd 20d9 c8bd 15f3 783c 4084 dbbc
00000350: fa9b be3c c029 1fbd 7066 c9bd 7aac 273d
00000360: 672d 77bb 076f 053d 717f 06bd 5573 373d
00000370: d0f4 073d 607d 7fbc 8745 b03d ffc7 913d
00000380: b01a aebd 27f9 a93d 1d8f 6f3d d37f 26be
00000390: 33fb 26bb 40df 47bd d209 223c bd6b 1abd
000003a0: cd1a b53a 60f6 c93d aad7 47bd 074a 833d
000003b0: 8df8 ee3c da26 ef3c d569 fa3d 2f02 f9bb
000003c0: 69d0 bd3c 00d2 74bc bd49 8b3d f172 0abd
000003d0: 1d2b 2e3d 35b8 5c3d 342a a1bc 9008 7abd
000003e0: ddea 3abd ad93 6ebd 2d29 a43d 34bd 963d
000003f0: 37fa b53d c079 1dbc 6ce6 8cbc d8b7 d0bc

bias f4 [100]
-0.103251055 -0.07531038 -0.1968445 -0.32814196 -0.09803398 -0.17547035 0.03896987 -0.04958022
-0.097309045 0.011514497 0.026345272 -0.0024009424 -0.0052439775 -0.039804053 0.018618427 0.011744348
0.0025090312 0.053172223 -0.0453333 -0.12201604 -0.066025175 -0.10891116 -0.07591804 0.06942428
0.03432477 0.26842052 -0.08226065 -0.02152159 -0.09060367 -0.060368214 0.0124591645 -0.051163442
-0.0031225858 0.15221967 0.04561998 -0.03516692 0.033029553 0.073684484 -0.06567361 -0.0048506986
0.006876343 0.010468454 0.015670342 -0.06318257 -0.056374386 -0.038102128 -0.067692466 -0.046127792
0.0459807 0.016485259 0.013408071 0.038461428 -0.020162294 -0.08179432 -0.104620546 0.05112455
0.002119148 0.071018554 -0.041364033 0.2085878 -0.107882604 0.01815166 -0.08397156 0.09185963
-0.09021013 -0.11696317 -0.12994023 0.03340992 -0.31551075 0.022630302 -0.03111854 -0.07323018
-0.09796424 -0.021298934 -0.086288214 0.09698266 0.15544155 -0.08434075 -0.10526283 -0.12878539
-0.105153054 -0.16599941 -0.051565617 -0.1217875 0.12763181 0.074780665 -0.20637767 0.01996225
0.2562122 -0.02301974 -0.04850106 0.002345222 -0.03889748 0.013289369 -0.061439004 -0.030095194
-0.092234746 -0.047759723 -0.16723692 0.0074463263
00000000: 4a75 d3bd 543c 9abd 9b91 49be 3902 a8be
00000010: 0ac6 c8bd 80ae 33be df9e 1f3d a114 4bbd
00000020: f749 c7bd 4da7 3c3c 0ad2 d73c 2159 1dbb
00000030: acd5 abbb 9309 23bd ac85 983c 5e6b 403c
00000040: 8f6e 243b 1ecb 593d 69af 39bd 8ce3 f9bd
00000050: 3538 87bd d00c dfbd eb7a 9bbd 512e 8e3d
00000060: 2198 0c3d 6a6e 893e 4678 a8bd 0c4e b0bc
00000070: 6b8e b9bd a944 77bd 8621 4c3c c290 51bd
00000080: 4ca4 4cbb 79df 1b3e 04dc 3a3d 300b 10bd
00000090: ff49 073d e4e7 963d e37f 86bd 9cf2 9ebb
000000a0: f252 e13b e183 2b3c 175f 803c dd65 81bd
000000b0: d4e8 66bd fa10 1cbd 59a2 8abd 7ff0 3cbd
000000c0: 4256 3c3d 180c 873c 87ad 5b3c bb89 1d3d
000000d0: 652b a5bc c883 a7bd 4c43 d6bd fa67 513d
000000e0: 67e1 0a3b 2d72 913d 556d 29bd 0a98 553e
000000f0: 8ef1 dcbd cab2 943c 48f9 abbd e720 bc3d
00000100: 17c0 b8bd 638a efbd 0d0f 05be d7d8 083d
00000110: a08a a1be 2f63 b93c 4fec febc b4f9 95bd
00000120: 7aa1 c8bd 1a7b aebc e0b7 b0bd d89e c63d
00000130: 122c 1f3e d8ba acbd 0a94 d7bd 51e0 03be
00000140: 7c5a d7bd c0fb 29be 7836 53bd ba6b f9bd
00000150: eab1 023e 9b26 993d ab54 53be df87 a33c
00000160: 3f2e 833e e593 bcbc 0ca9 46bd 4cb2 193b
00000170: f752 1fbd a7bb 593c 77a7 7bbd 328a f6bc
00000180: 92e5 bcbd b39f 43bd 2840 2bbe 5000 f43b

weight f4 [100, 100, 1]
0.034465984 -0.05593742 0.0038760146 0.02751791 -0.10411716 -0.2428025 0.07432791 0.04009953
-0.075694084 0.030313142 0.064459264 -0.018362125 0.041432925 -0.06530982 0.07021685 0.019470297
-0.07980084 0.06442581 0.019456778 -0.015407259 -0.024395455 -0.023832092 -0.02927313 -0.12156961
-0.060478467 -0.03582628 -0.4214065 0.016125182 0.07041364 -0.051218294 -0.07993347 0.021321038
0.0741461 -0.029288227 0.075074635 -0.09682925 -0.045033857 0.0070554595 -0.035226554 0.051665023
-0.050685 -0.061394986 0.047781624 0.085328415 -0.015978526 0.06545689 -0.22085477 -0.050194133
0.002916455 -0.041580386 0.09596409 -0.10450504 -0.14406687 0.004181278 0.02430156 -0.06851402
-0.076981306 -0.13957447 -0.0815514 -0.08305778 -0.108884014 -0.10918252 0.014703967 -0.046305224
-0.029618759 -0.09604391 -0.04432888 -0.09052947 -0.2426216 -0.010582134 -0.007030046 -0.0649109
0.0005603254 0.03934456 0.06848838 -0.031587318 -0.07501988 -0.051766183 0.0071970494 -0.031023337
0.10779706 0.07699449 -0.07234892 -0.012482251 -0.011529617 -0.11596371 -0.010352144 -0.045132283
0.009313021 0.074747205 -0.106968634 0.041565016 -0.025852753 -0.03232971 0.055167127 -0.0069989967
0.04052776 0.08527055 -0.12797347 -0.026219351 0.096356906 0.08888409 -0.045806956 0.026069576
0.042886715 -0.040193945 -0.0752055 0.004974163 0.0967943 -0.08431662 -0.09575177 -0.08419855
-0.1056671 0.020380292 0.081767164 0.029199298 -0.024752593 -0.10073122 -0.04664686 0.006891239
0.024089789 -0.097289644 -0.034242827 -0.026580857 0.07203429 0.04489599 -0.05757272 -0.0004228993
-0.013167418 0.09536735 -0.07591956 -0.03194673 -0.013191813 -0.112813585 -0.02640137 0.052806426
-0.006986623 -0.04563288 -0.09964969 0.046320822 0.0003776155 0.023868121 -0.0735691 0.0067321896
-0.064474255 0.0763183 -0.10326417 -0.07828658 0.030253075 0.055037342 -0.09431254 -0.047411527
-0.0648719 0.080448486 -0.0486464 -0.1133348 -0.06156149 -0.0674186 0.029793294 -0.0572832
-0.039768405 -0.046794694 -0.0081747435 0.036050428 0.031884894 0.046007 -0.107335806 -0.07960705
-0.060328133 0.01376904 0.04682262 0.029523278 0.0037874698 0.013928688 0.007694125 -0.06657596
0.023529962 -0.023266828 -0.011771071 0.056917574 0.010968315 -0.01909846 0.049502388 -0.0024340749
0.06520528 -0.05862988 -0.0322248 -0.0017977544 0.041687638 0.08341692 -0.038958896 -0.1049546
0.07989259 -0.043141015 0.0026159168 0.014790248 -0.0995036 -0.04780984 -0.08521053 0.026394611
0.098968506 0.047558308 0.03624281 0.014020302 -0.00052545883 -0.08236743 -0.03780984 0.0077487268
0.03385402 0.028200591 -0.0056038694 0.041616943 -0.035403997 0.00498848 0.0039191027 -0.035174485
0.033701178 -0.02117664 0.030504083 0.0033723593 -0.04372579 -0.09841745 0.038812146 -0.12919292
-0.05188298 -0.040424787 -0.014172437 -0.017923396 0.057608165 0.016522396 -0.10808451 -0.022260154
0.09182192 -0.0021554038 -0.041613717 0.027988221 0.015431969 -0.050248705 -0.022844901 0.08710736
0.07643281 -0.005370668 0.0370234 -0.01884669 -0.053380314 0.08248837 0.023240691 0.07195985
-0.03271472 0.06093553 0.07334344 -0.053859796 0.019092977 0.09104868 -0.07194439 -0.117435426
00000000: 342c 0d3d a31e 65bd bc04 7e3b 3d6d e13c
00000010: 613b d5bd 38a1 78be 3b39 983d 683f 243d
00000020: 8005 9bbd 4453 f83c 3803 843d 2b6c 96bc
00000030: 92b5 293d 28c1 85bd dacd 8f3d 2c80 9f3c
00000040: 9f6e a3bd aef1 833d d263 9f3c ba6e 7cbc
00000050: fad8 c7bc 853b c3bc 34ce efbc 7df9 f8bd
00000060: 45b8 77bd 94be 12bd 98c2 d7be f518 843c
00000070: 0735 903d 46ca 51bd 29b4 a3bd 75a9 ae3c
00000080: e9d9 973d dded efbc bbc0 993d 6a4e c6bd
00000090: 6c75 38bd 7c31 e73b b849 10bd b49e 533d
000000a0: 139b 4fbd 4f79 7bbd aab6 433d aac0 ae3d
000000b0: 66e5 82bc 430e 863d c127 62be 5d98 4dbd
000000c0: ff21 3f3b 3250 2abd d288 c43d bd06 d6bd
000000d0: 4486 13be 1a03 893b 1114 c73c 1451 8cbd
000000e0: 60a8 9dbd 9cec 0ebe 6c04 a7bd 331a aabd
000000f0: 95fe debd 169b dfbd e8e8 703c 8caa 3dbd
00000100: 0aa3 f2bc abb2 c4bd 3392 35bd 8467 b9bd
00000110: cc71 78be b060 2dbc 4d5c e6bb 02f0 84bd
00000120: cde2 123a c327 213d a343 8c3d b461 01bd
00000130: 06a4 99bd c708 54bd 3ad5 eb3b a724 febc
00000140: b4c4 dc3d 4aaf 9d3d ac2b 94bd 5b82 4cbc
00000150: b8e6 3cbc 627e edbd 0a9c 29bc a1dc 38bd
00000160: a495 183c 1015 993d 5f12 dbbd 1440 2a3d
00000170: 27c9 d3bc 286c 04bd edf6 613d d757 e5bb
00000180: 7000 263d 53a2 ae3d 7a0b 03be f7c9 d6bc
00000190: c556 c53d dd08 b63d 13a0 3bbd dd8f d53c
000001a0: fba9 2f3d 68a2 24bd 5705 9abd 4efe a23b
000001b0: 173c c63d 31ae acbd 8119 c4bd 4a70 acbd
000001c0: fe67 d8bd 92f4 a63c 8b75 a73d 5e33 ef3c
000001d0: f3c5 cabc 2b4c cebd c710 3fbd e7cf e13b
000001e0: f357 c53c cb3f c7bd 3542 0cbd 19c0 d9bc
000001f0: b786 933d dce4 373d 5fd1 6bbd 95b8 ddb9
00000200: 27bc 57bc f54f c33d b77b 9bbd 93da 02bd
00000210: 7922 58bc cf0a e7bd b047 d8bc 8d4b 583d
00000220: 0bf0 e4bb 8be9 3abd 2315 ccbd e7ba 3d3d
00000230: b2fa c539 1487 c33c 65ab 96bd b399 dc3b
00000240: 140b 84bd c54c 9c3d 2a7c d3bd b754 a0bd
00000250: 4cd5 f73c d66e 613d ef26 c1bd 9732 42bd
00000260: 8fdb 84bd 2dc2 a43d 7341 47bd 131c e8bd
00000270: e727 7cbd c312 8abd 1111 f43c caa1 6abd
00000280: 32e4 22bd cbab 3fbd 5cef 05bc 9da9 133d
00000290: bc99 023d d671 3c3d e0d2 dbbd 0509 a3bd
000002a0: a21a 77bd 8a97 613c 13c9 3f3d cdda f13c
000002b0: 3337 783b 2735 643c 001f fc3b fa58 88bd
000002c0: e8c1 c03c 139a bebc 73db 40bc 6722 693d
000002d0: 73b4 333c 6074 9cbc 04c3 4a3d 0085 1fbb
000002e0: 598a 853d e325 70bd 27fe 03bd a1a2 ebba
000002f0: a8c0 2a3d 7dd6 aa3d 5d93 1fbd 70f2 d6bd
00000300: ba9e a33d a2b4 30bd cd6f 2b3b cc52 723c
00000310: 8bc8 cbbd 40d4 43bd dc82 aebd 8339 d83c
00000320: 00b0 ca3d 80cc 423d 5773 143d 69b5 653c
00000330: f2be 09ba 41b0 a8bd 7ede 1abd 08e9 fd3b
00000340: 83aa 0a3d ed04 e73c aaa0 b7bb 8776 2a3d
00000350: c803 11bd 6776 a33b d16b 803b 1f13 10bd
00000360: 3f0a 0a3d a27a adbc b3e3 f93c cd02 5d3b
00000370: d019 33bd 178f c9bd 7cf9 1e3d 264b 04be
00000380: 3f83 54bd 7694 25bd 8233 68bc 16d4 92bc
00000390: 8af6 6b3d fa59 873c 695b ddbd ed5a b6bc
000003a0: 210d bc3d ad41 0dbb 2573 2abd 8e47 e53c
000003b0: 5fd6 7c3c 96d1 4dbd 3b25 bbbc 5865 b23d
000003c0: ce88 9c3d 6efc afbb d9a5 173d 6064 9abc
000003d0: 51a5 5abd aaef a83d 4363 be3c b05f 933d
000003e0: dfff 05bd 8997 793d 1635 963d 179c 5cbd
000003f0: e068 9c3c bb77 ba3d 9557 93bd fc81 f0bd
