data/pretrained_models/donor-2.pt (torch, 225197 bytes, 14 tensors)

weight f4 [100, 4, 9]
00000000: 9516 ed3d 66f9 93be 04cd 313e 72e3 8cbe
00000010: 5f66 f63e 9dab f23d 9ce5 b4ba 5cbd 2abe
00000020: 6db1 813e 57b6 2abf a139 2d3c 99f2 7fbe
00000030: 7f4e 34be 9cf6 b83e 78b4 75be e939 693e
00000040: 76bb 51be d23c a93c 99a1 663d 27c8 e23e
00000050: 646e babe 4813 883c 1586 153d 745d 9c3d
00000060: d56d aabd 4a39 8e3d fcac 26bc 0cc7 1cbe
00000070: 7701 cdbe 3aad b53e 75a1 56be 64d9 5abe
00000080: 8714 6bbe 198f 21be be62 26be c236 62be
00000090: 5afc b63d a817 c3be 572c b5be c8fa 1dbe
000000a0: ca84 883e 906f 7ebe b69e 8fbd bf2a 9d3e
000000b0: d71c 023e a8dd 453e a5db a63e 3276 e8bd
000000c0: 7be3 95be e6d1 523e d55d b1ba b424 68be
000000d0: d4b6 5e3e 686e 02be 661a 61bc 5562 6c3e
000000e0: a61d 9c3d 61e5 9d3d bbf4 8d3e 4e57 a23e
000000f0: 4229 b43e 10d1 14bf 2b22 09be 8e3a 3a3d
00000100: a097 503e 7c03 bcbe f471 803d c25b 83be
00000110: ab18 3cbe 04aa c93e d981 4c3e 5e19 973e
00000120: 167f 05be 0bbf ca3d b631 ee3c 7b1a 12bd
00000130: 9d3c 29be 3be6 a2be 549a 01bd 8a88 44bd
00000140: b9bd a53e aa73 b83c f8c5 e8be b7ce 743d
00000150: 2285 a93d 0f47 29be 057a d5bd 4b57 113e
00000160: c3ac 4a3e dbc5 ccbd 396c 61bd 3581 2dbf
00000170: 8ef4 a43d 2880 15bd 0a7a 8abe cd6d 193e
00000180: 065a c6be 69d7 e4be 215e 8ebe c665 5abe
00000190: cb39 f7bd bab5 79bd 21c0 e8be 4261 393d
000001a0: 1427 7e3e bbc9 713d f77d a43e 9f91 933d
000001b0: 54db 033e c005 06bd ee97 b13e 0362 2abe
000001c0: b861 9fbe c972 003e 938b fabd e138 373e
000001d0: a60b 263e 6bd0 753d c454 383e 279e aa3e
000001e0: ae00 fe3a 08f2 7abd c354 a5be d8f9 053d
000001f0: f072 2a3e a3b5 46bf 17c7 2d3e d98f 923d
00000200: a774 3bbf 5cce 09be f36a 13be 0714 593e
00000210: b121 083e dc21 33bf adc8 7d3e e1cf 8fbc
00000220: cc9c a63e 112e 9b3d a815 783e fb00 953d
00000230: b499 25bf de76 093e aefb a43e 589a 793e
00000240: ead7 9abd 1a15 1a3e e1e4 aabe fabf 3e3e
00000250: 9be4 1f3f 6073 f3be 0cc2 693c 6280 2d3e
00000260: 77c4 93be 850b 2dbe be61 96bd ac1a 8dbe
00000270: e659 5ebe 81b0 2abd 1bc0 fc3e 8963 463e
00000280: 431f 1b3e 4170 ea3d c60e cc3d d19e e2be
00000290: ddeb e53c 2966 173e 9824 be3e 3667 813c
000002a0: 559b 18be 3297 ebbe 13e1 633d 7a7b b93e
000002b0: 4253 533e f9c3 a3bd e9b5 0cbf eb44 b4bd
000002c0: f1b1 fb3d 205b 073d d276 873e d0fe d33d
000002d0: 5a31 21bd 5db0 2fbd 3ff8 c43b 66b5 183f
000002e0: c007 33bf e491 4cbf e7ee 9abd 63de 2abb
000002f0: 9d1a b53e f18d 7cbd 6696 a1bd 9cbf 023d
00000300: 7c7e debc 39d6 833e fd33 7f3e 0b35 45bf
00000310: 34a2 573e 9447 eebe 2c51 1b3e a361 813d
00000320: d698 01bd 24d1 2abe 445b 5bbf 482a a63d
00000330: 141a 0f3e 231e eb3d 4da1 c83e f0eb 9ebc
00000340: b85e 553e e7ae 173e 1ec6 d5be 6fb1 41bd
00000350: f7d2 1c3e 9caa 593d 6b03 6ebe 8bc3 3dbf
00000360: ee2f ef3d 0d06 5abe 54f6 483e 9684 653e
00000370: 1d45 8dbe c0db 483d 1509 f73d d5c8 73bd
00000380: 2fe9 efbd 4353 41bc 408e 23be 92f9 c9bc
00000390: 28df de3e 1b0e 5dbe 239b 8fbe 770c 9d3e
000003a0: 6354 443e de12 093e 4d79 81be 3ca5 89bd
000003b0: 8386 863d 91d6 bfbe ea77 a2be 2f2f 3dbe
000003c0: be04 6b3e e97f ab3c 13e6 72be f5e6 07bf
000003d0: 343c b13e 31f4 2abe d79e 293f b55f 1e3e
000003e0: 17f3 34be 739b 16bf 3e0a 933d 9c81 933c
000003f0: 7d6e a43d a307 09bf 3740 95be 3da3 d2bc
0.11576573 -0.28901213 0.17363364 -0.27517277 0.48124978 0.11849139 -0.0013801339 -0.16673797
0.25330678 -0.6668448 0.010572822 -0.24994887 -0.17608069 0.36125648 -0.23994625 0.22775997
-0.20481667 0.020658884 0.056306455 0.4429333 -0.36412346 0.016610757 0.036504824 0.07635012
-0.0832173 0.06944521 -0.010173079 -0.15310305 -0.4004018 0.35483724 -0.20960028 -0.2137199
-0.2295705 -0.15777244 -0.16248605 -0.22091201 0.08934851 -0.38103986 -0.3538539 -0.15427697
0.2666381 -0.24847245 -0.070126936 0.30696675 0.12706314 0.19322836 0.3258945 -0.11350669
-0.29275116 0.20587882 -0.0013531992 -0.22670251 0.21749431 -0.12737429 -0.013739204 0.23084386
0.076228425 0.07709766 0.27725777 0.31707233 0.35187727 -0.58131504 -0.1339194 0.045466
0.2037034 -0.36721408 0.06271735 -0.25655943 -0.18368785 0.39387524 0.19971408 0.2951154
-0.1303676 0.0989972 0.029076438 -0.035669785 -0.16527028 -0.31816277 -0.03164132 -0.047981776
0.3237131 0.02251609 -0.45463538 0.05976745 0.08277346 -0.16531013 -0.10423664 0.14193456
0.19792466 -0.099986754 -0.05503485 -0.6777528 0.080544576 -0.036499172 -0.27046233 0.14983292
-0.38740557 -0.44695595 -0.2780619 -0.21327886 -0.1207157 -0.060964324 -0.45459083 0.045258768
0.24819595 0.059030276 0.32127354 0.072055094 0.12876636 -0.032720327 0.34686226 -0.16638951
-0.3112924 0.12543787 -0.12233653 0.17892791 0.16215381 0.060013216 0.18001086 0.33323786
0.0019378865 -0.061265975 -0.3229123 0.032708973 0.16645408 -0.77620906 0.16970478 0.07156343
-0.7322487 -0.13457626 -0.14396267 0.21199046 0.13294102 -0.6997354 0.24783583 -0.01755518
0.32541502 0.07577146 0.24227011 0.07275578 -0.6468766 0.1342425 0.32223266 0.24375284
-0.075607136 0.15047112 -0.33377746 0.18627921 0.624582 -0.47548962 0.014267456 0.16943505
-0.28860828 -0.16898926 -0.073428616 -0.27559412 -0.21713981 -0.041672233 0.49365315 0.19373907
0.15148644 0.11447192 0.09963755 -0.44261792 0.02806657 0.14785065 0.37137294 0.015796285
-0.14903004 -0.4601379 0.05563457 0.36227018 0.20637229 -0.07996363 -0.5496507 -0.088022076
0.12289799 0.033045888 0.2645784 0.10351336 -0.039353706 -0.042892803 0.0060110386 0.5965179
-0.699337 -0.7991011 -0.07565098 -0.0026072494 0.35371867 -0.061658803 -0.07890014 0.031921014
-0.027159922 0.25749376 0.24922176 -0.7703406 0.2105797 -0.46538985 0.15167683 0.06317451
-0.031639896 -0.16681343 -0.85686135 0.08113533 0.13974792 0.114803575 0.39185563 -0.019399613
0.20836914 0.14812814 -0.41752714 -0.047288354 0.15314852 0.05314122 -0.23243491 -0.741265
0.11679064 -0.2129137 0.19625217 0.22413859 -0.27591792 0.049037695 0.12062279 -0.0595177
-0.11714398 -0.011799636 -0.15972233 -0.024655137 0.4352963 -0.21587412 -0.28048047 0.30673572
0.19172816 0.13386104 -0.25287858 -0.06720969 0.06568625 -0.3746839 -0.31732112 -0.1847503
0.22951028 0.020935016 -0.23720579 -0.5308679 0.34616244 -0.16694714 0.66257995 0.15466197
-0.17670856 -0.58830947 0.07179688 0.018006139 0.080288865 -0.5352728 -0.29150555 -0.025712604

bias f4 [100]
00000000: 0b0a f23d 8e44 84bd 2e10 af3d 05d9 09be
00000010: 3a79 17be 49f5 653e 5590 70be 7602 d73d
00000020: 7d17 813d c56e 123e c595 7bbd 727a d0bc
00000030: 5bc0 23bd 8915 683e 38bf 0bbe c2d6 91bd
00000040: bba4 74bc 960c 06ba 6f55 52be 0050 c6bc
00000050: 5d53 dabd f921 babd d5dd febd 9042 fdbd
00000060: 6c69 8bbd ba81 a03e 3740 54be 7a3e f5bd
00000070: 6b1f eabd ba70 6e3e 12b5 4e3e cc7e b6bd
00000080: 3aa0 003e b6a0 79bd aa9e ce3d ef83 183e
00000090: c531 923e c8b3 5a3d c78f 06bd 746d 4f3e
000000a0: 72b9 853e c7b5 ccbd 58ee 693e 5acc cfbd
000000b0: f0d1 e93d de6f 9a3e 98b9 0dbe 72e0 733e
000000c0: 6362 643d 5cdb 9c3e 9f85 91bd 3a12 47be
000000d0: 6642 27bd d4a6 f83d 40d1 d23e 2951 443e
000000e0: cd74 05be 6969 7ebe 8146 23be ba50 58be
000000f0: 60b4 0e3e bd51 14be c17c 1ebe 7b4f 0fbe
00000100: 6d8b a43d 7d6a ffbd d668 05be 4167 27bd
00000110: 4742 3f3e 6d42 fe3e 1288 e8bd 9bf8 e3bb
00000120: 5c49 a93e ee19 48bd a26a d0ba 720b 13be
00000130: 4e34 183e ad14 ab3d 3867 5dbd b27e d6bd
00000140: 2697 da3d 5edc a03e b0e9 97bd 2df9 e23c
00000150: 6b00 1a3e 636a acbd 421c 22be c59f 0bbe
00000160: 942a dc3d bab6 e8bd 4482 02be 9d6f 0bbe
00000170: d22e 683e e242 bcbd f031 c4bd 4a08 f93d
00000180: af92 3cbc 2eb3 febd df87 b3bc dad9 6c3c
0.11818322 -0.06458388 0.08548008 -0.13461693 -0.14792338 0.2245685 -0.23492558 0.10498516
0.06303308 0.14300068 -0.06142213 -0.025449011 -0.039978366 0.22664465 -0.13647163 -0.0712104
-0.014931853 -0.000511357 -0.20540403 -0.024208069 -0.106604315 -0.09088511 -0.12444655 -0.123662114
-0.06807217 0.31348974 -0.20727621 -0.11974807 -0.11431774 0.2328519 0.2018626 -0.08910903
0.12561122 -0.06094428 0.100888565 0.14894079 0.28553596 0.05339411 -0.03285196 0.20256597
0.26118046 -0.09995609 0.22844827 -0.10146399 0.114169955 0.30163473 -0.1384033 0.23816088
0.05575789 0.30636108 -0.07105564 -0.19440547 -0.040834807 0.12141195 0.4117527 0.19171585
-0.13032837 -0.24844898 -0.15944864 -0.21124545 0.13935995 -0.14484306 -0.15477277 -0.13995163
0.08034406 -0.12471483 -0.13028273 -0.040869955 0.18677627 0.49660054 -0.11354078 -0.0069571263
0.3306378 -0.048852853 -0.001590092 -0.14359835 0.14863703 0.08353553 -0.054053515 -0.10473384
0.106733605 0.31418127 -0.07417619 0.027706707 0.15039222 -0.08418729 -0.15831092 -0.13635166
0.10750309 -0.11362977 -0.12745005 -0.13616796 0.2267411 -0.091924444 -0.09579837 0.12159784
-0.0115095815 -0.124365196 -0.021915374 0.014456237

weight f4 [100, 100, 1]
00000000: fe67 dc3c f05c 093e dad2 8bbe 895b c03d
00000010: ad9e 2abe bafe 933a 9a7c c7bc 32ce 013e
00000020: 2267 22be 84f7 ccbd 246f 82be 75d7 c5bd
00000030: 61af 80be d0b3 b6be cd90 2abd 6bcb fabc
00000040: 9b90 b2bd 67d8 0c3e 5103 b0bc c7ea 0d3e
00000050: fd6c e6bd 5752 cf3d f64c 53bd 7cd0 91bc
00000060: 44aa e13d 3d10 003e 8f5a 6f3e e47b a8bd
00000070: 12ff 93bd be4b 52be eb40 efbd e8f3 82bd
00000080: 3170 a3bd 7717 3cbd 0be8 79be 6b1f 4dbe
00000090: d483 84bd 09db 813e 95aa 5abe 8d92 263d
000000a0: 74ec 663c 360e 143e e68e 6b3d c70b 4ebe
000000b0: 36f6 80be 949d 91bc 5aea 0e3e c778 9f3e
000000c0: d107 ae3b c345 cb3c 62cd 163e f358 cf3d
000000d0: 65c6 0e3d db78 36be 3ccd 4fbe e2ee 133c
000000e0: eb59 053e fa64 b13d 63db da3d 696e d63c
000000f0: e738 6cbe 4ce9 dabd 747f f33d a2ce 62be
00000100: 2c42 f33d 5cf0 2ebe 939d 59bc 7f7f 80bd
00000110: c5bb 9cbd a954 433d 0440 9f3d 9134 273e
00000120: a5cf b4bd 7239 45be 9317 82bd 4c5f 303e
00000130: 303e d33c 35e2 36be 1d23 1c3e 1cbe 7a3d
00000140: b3a9 74bc 32f0 bfbc bb2f 25be 0101 9d3e
00000150: 7e92 abbd 09a3 4a3d 5a45 c83d 1cc4 e8bd
00000160: 674d ecbd 58c8 88bd 16e6 853d b543 2ebe
00000170: 7eca 94be 2a8a 32be d164 023d 36fc 523c
00000180: 8d16 38bc f3e2 a7be 5f71 3fbc 5e4e 1fbd
00000190: 8452 42bd f91a 5e3c 0295 d1bd 3628 a1bb
000001a0: 25e6 c0bc ac03 673c 0e1c 3fbb 1883 8fbd
000001b0: 5661 9ebd bb70 44bd 37b4 f23c 80e5 a4bd
000001c0: 9a2f 2e3b b699 73bd e4e7 6b3d 0896 8aba
000001d0: f44c 8abd 4542 2ebd 2c37 91bd 725d cbbd
000001e0: 2f3e 753d 53be e4bd 0822 883d cbbd cfbd
000001f0: 6993 81bd da1a 813d 078f cbbd ab60 2abc
00000200: 3fea 3f3d 21e9 e9bd 4e02 bbbd 9d4e 85bd
00000210: 9a2f 85bd 48b5 34bd ba17 e0bd e806 a3bc
00000220: 1d40 92bd 12bc 4f3d 34d7 e13c f987 cb3c
00000230: 74bb e3bd 493d aebd 9ca1 373d 6f8e 863d
00000240: 8fe1 953c 5ea9 84bd dcbb 7b3d f843 94bd
00000250: 9c63 e1bd fec9 6e3d 9853 a9bd ea25 c3bd
00000260: d0f3 d7bd 0050 76bd 94f5 2e3d 7cc8 d1bc
00000270: dc1f 603d d3ec ad3d de2e 7e3c 27ee 743d
00000280: b7fc 753d b347 913c 9143 423d 1abd 2fbd
00000290: eacb ab3b 674b a13c b955 083d a540 ebbd
000002a0: 1c4b 953d fcc6 603d 01ca 7ebd 442d f33c
000002b0: 0665 dd3c b1d6 243c 53cf 85bd b405 1cbc
000002c0: 17e9 613d 9f24 dabc 9ba3 5cbd 0cc8 36bd
000002d0: 1daf 44bd 1c62 ba3c c284 3bbd c8fe 093d
000002e0: 3d8b c0bd 4e70 f8bd c0d8 613d 29bf e0bc
000002f0: 2508 80bc d3cb 443d 0212 cb3c 6c36 783d
00000300: 73ec 85bd 22fe 4f3d 7a04 90bd 7868 24bd
00000310: 218c 873d b298 b73c 874b 95bd f2f1 a1bd
00000320: 40df 993d c0af dabd 755f 5abd 79b8 7e3e
00000330: 6cbd 35be 2d7c a93d 4628 103e 2fe9 023c
00000340: 0ad2 493d 1283 5a3e 1c7a 17be 0a26 2cbe
00000350: cf5f 89be 267c 05be 0450 02bc ab65 2cbe
00000360: fd54 edbd 2c6f b93d 46a3 a1be 1ad7 143e
00000370: 24ac 68be 344f 69bd 0a1f a43d 996d 95be
00000380: f28b c33d 5133 553e d315 6d3e b09f cbbd
00000390: eb41 fe3d 14b2 89be 7fd9 74be 2229 4cbe
000003a0: 48b3 abbd 6ce2 82be 7da3 eebc 2ef2 d2bd
000003b0: cc03 0e3e f01e 473e 00a7 8bbe edae 35bc
000003c0: 43d2 ab3d 2c30 233e 7fd5 d23d ab04 72bd
000003d0: 0630 5cbe 7c67 b1bd 607e c6bd ef48 e83b
000003e0: e884 e7bd ab4a 723e 31bf fe3d cb37 3f3e
000003f0: cca5 27be c539 59bd 7606 813e 8703 a7bd
0.026905056 0.13414359 -0.27309304 0.09392459 -0.16662093 0.0011291124 -0.024351407 0.12676314
-0.15859655 -0.10008147 -0.2547542 -0.09660236 -0.25133803 -0.3568406 -0.041642 -0.030614575
-0.087189876 0.13754426 -0.021485956 0.13859092 -0.112512566 0.10123127 -0.051587068 -0.017799608
0.11018804 0.12506194 0.23374389 -0.08226755 -0.07226385 -0.20536706 -0.11682304 -0.06394178
-0.07980383 -0.045920815 -0.24404924 -0.20031516 -0.06470457 0.25362423 -0.21354134 0.040667105
0.014094461 0.14458546 0.057509325 -0.2012168 -0.25187844 -0.017775334 0.13956586 0.31146833
0.0053109904 0.024813538 0.14726785 0.101243876 0.034857173 -0.1781954 -0.20293134 0.009029122
0.13022582 0.08661838 0.10686376 0.026175695 -0.23068582 -0.10689029 0.11889544 -0.22149137
0.11877856 -0.17083877 -0.0132821975 -0.06274318 -0.07653002 0.04768816 0.07775882 0.16328646
-0.088286676 -0.19260195 -0.06352153 0.17223853 0.02578649 -0.17859729 0.1524777 0.06121646
-0.014933038 -0.023429964 -0.16131489 0.30664828 -0.083775505 0.04947189 0.09778853 -0.1136553
-0.11538201 -0.066788375 0.06538026 -0.17018016 -0.2906074 -0.17435518 0.031834427 0.012877515
-0.011235845 -0.32790336 -0.011684745 -0.038893096 -0.047441974 0.0135562355 -0.10233499 -0.0049181236
-0.023547241 0.014099997 -0.002916101 -0.07007426 -0.07733409 -0.04795907 0.029626949 -0.08051586
0.0026578666 -0.059472762 0.057594195 -0.0010573277 -0.06752959 -0.04254367 -0.07090601 -0.09929933
0.059873756 -0.11169114 0.06647116 -0.10143622 -0.063269444 0.0630395 -0.0993939 -0.010399024
0.046854254 -0.11421419 -0.09131299 -0.06509135 -0.0650322 -0.044118196 -0.109420255 -0.019900754
-0.07141135 0.050716467 0.027568437 0.02484511 -0.11119738 -0.08507783 0.044831857 0.06570136
0.018296031 -0.06477617 0.061458454 -0.072395265 -0.11005327 0.058298104 -0.08267897 -0.09528716
-0.105445504 -0.060134888 0.04271467 -0.025608294 0.054717883 0.08492436 0.015514104 0.059797432
0.06005546 0.017734384 0.047427718 -0.04290495 0.0052428143 0.019689275 0.033284876 -0.11486939
0.072897166 0.054877266 -0.062204365 0.02968467 0.02702571 0.010060952 -0.065336846 -0.009522844
0.055153932 -0.02662879 -0.053866964 -0.044624373 -0.048018564 0.02275186 -0.045780905 0.033690244
-0.094015576 -0.121307954 0.05513835 -0.027434902 -0.015628884 0.048045944 0.02478886 0.060598776
-0.0653924 0.05077947 -0.07032104 -0.04013869 0.06618524 0.022411678 -0.07289796 -0.079074755
0.07513285 -0.10678053 -0.05331369 0.24875058 -0.1774804 0.08275638 0.14077863 0.007990166
0.049272574 0.21339062 -0.14792675 -0.16811386 -0.2683091 -0.1303564 -0.0079536475 -0.16835658
-0.11588476 0.090544075 -0.3156988 0.1453518 -0.22721916 -0.0569603 0.08013733 -0.2918518
0.09548177 0.20820357 0.23152857 -0.09942567 0.124149166 -0.26893675 -0.23911093 -0.19937566
-0.083838046 -0.2556337 -0.029130692 -0.10300098 0.13868636 0.19445395 -0.27275848 -0.011089069
0.083897136 0.15936345 0.102946274 -0.059086483 -0.21502694 -0.08662316 -0.09692073 0.0070887725
-0.11304647 0.23661296 0.124388106 0.18673627 -0.1637184 -0.05303361 0.25200242 -0.0815497

bias f4 [100]
00000000: 74f0 c9bd 2799 18be d9a0 093e 3146 583e
00000010: 41c8 2cbd 8c56 c83d 8270 cabd b37a 2b3e
00000020: 9ee4 783e aded b73d dad4 16be b2e6 adbd
00000030: 0224 0bbe 11a5 7fbc 3600 233d b6f2 513e
00000040: 0751 2f3e 54fa 8e3d 53e2 293e 7345 203b
00000050: 4733 d83d 2568 de3c 1ee4 933d 764e 113e
00000060: fbee f23c a2ec 743d 7dcd 3dbe c53c 553e
00000070: a4fb c63d 9326 783e bed3 65be 65e4 aabc
00000080: 0cce 6a3c 0e06 32bd ab5c 263d 21f1 aabd
00000090: adef 60bd f25e 8f3e bdee 623e 4263 24bd
000000a0: 794e ab3e a6ff ed3d f68c 153e e59c a3bd
000000b0: c725 6ebd 36a4 8f3e 1b2d 59be c9ed 27be
000000c0: 2fcc 57be a329 ebbd 0c06 993d 11c4 9cbd
000000d0: ae93 033e fd7c d9bd 2306 53bb ec5d fe3d
000000e0: fc4f 15bc eb94 38bc def8 233e a4a8 d93d
000000f0: b785 8e3d 54c4 9bbc d573 173e 07ce 843d
00000100: d997 19be d23b d73d da67 2c3e fc64 a13d
00000110: f810 b73d 09e9 773d 9a7f 32be 0d18 fdbe
00000120: 5e33 4ebd 681a e83d 4f65 02be de7d 8c3e
00000130: cd3b eb3c f146 433d 402b d1bc ce1d d03d
00000140: 20e2 5ebc 9197 503d 1aca 413d 470e e33d
00000150: 2e39 883b e6c8 c2bd 6606 ff3d 3abd 8b3d
00000160: 5c35 063d 2e68 453e 8b3e 043e 2201 08be
00000170: 740c 3b3e a9bd 2f3d a9ad 2b3d 0b08 fcbc
00000180: 0664 483e 46eb f93d 3533 723e aaba 463e
-0.09860316 -0.14902173 0.13440265 0.21120526 -0.042183165 0.097821325 -0.098847404 0.16746025
0.2430596 0.0898088 -0.14729634 -0.08491267 -0.13587955 -0.01560332 0.039795123 0.20502743
0.17120753 0.0698134 0.16590242 0.0024455457 0.105566554 0.02714927 0.07221244 0.14190087
0.02965497 0.059795983 -0.18535419 0.20823963 0.097159654 0.24233465 -0.22444054 -0.02086086
0.014331352 -0.043462805 0.04061572 -0.08346773 -0.054916073 0.28002125 0.22161384 -0.040133722
0.33458307 0.11621027 0.14604554 -0.0798891 -0.058141496 0.2805497 -0.21208613 -0.16399302
-0.21073984 -0.11482551 0.074718565 -0.07654584 0.12849304 -0.10619543 -0.0032199703 0.12420258
-0.009113308 -0.011265974 0.16012904 0.10627869 0.06959098 -0.019014515 0.1479028 0.06484609
-0.14999332 0.10509457 0.16836491 0.07880589 0.089387834 0.060524974 -0.17431489 -0.49432412
-0.050341956 0.113331616 -0.12733959 0.2743978 0.028715039 0.047675077 -0.025533319 0.10161935
-0.013603717 0.050925795 0.04731188 0.110867076 0.004157207 -0.095109746 0.12452392 0.068232015
0.03276573 0.19278023 0.12914483 -0.13281682 0.18266469 0.042905483 0.041913662 -0.030765554
0.19569406 0.12203078 0.23652346 0.19407144

weight f4 [100, 100, 1]
00000000: 07d5 3f3d 2607 50bd de69 01be caeb 39bd
00000010: 040c a63e c831 0a3e 51dc c53d 2c3b bd3b
00000020: 2b3c 5a3d 62ba f4bd 5b1b a63e bdeb 15bc
00000030: ee19 363d 4faa 89be c286 5b3e 36ba a6bd
00000040: 36e2 2fbe 98a5 943d b204 643e eb20 8b3e
00000050: 1e3c 893d 7408 42b9 0946 0e3d 2555 06ba
00000060: c516 4c3d 1f7a 9fbd f1bc 5a3e 927f 3f3e
00000070: 5b2c 4a3b 6b66 99bd 3b87 863d e2a3 a13d
00000080: 428e f93d b9a1 b43d e2d4 833d 34ad c5bc
00000090: 70b6 183e 69b3 3abe 5c60 60be cb0a 0ebd
000000a0: dad2 b2bc 1ae9 cebd dd53 59be 5247 2d3e
000000b0: e07a 1e3e f5e7 55be cfd9 bd3e 06bf 223e
000000c0: f93d 973e 2773 a53e 280f 1fbe 734e 233e
000000d0: 0eda 8ebd 45ba 333d 2589 29bd c0f0 4c3e
000000e0: 486d 93bd 5a92 43be 52af 393d 6e15 30bd
000000f0: 3052 753c ef8a 43be 8d5b 51bd 0237 1ebe
00000100: 5114 14be 91e0 0cbe c63c 0d3f 4701 743d
00000110: 860e e13c 4282 0cbe 493f 353e fc6e 69be
00000120: a4a4 47be 99b9 6b3d e3fe 59b9 6db0 23be
00000130: 02a8 cdbc b29e 1cbe 9ada 9e3d 8a0d 28be
00000140: e22e edbd 5e04 603e b8a8 2d3e 6f0a 5dbc
00000150: 62f2 123e e081 68bc 7efe 373d 67fc 1abe
00000160: 11b4 46be 6bbb 69bd 075a 98bd 6b2d 4b3d
00000170: 74d2 a9bc 092a fb3d 5f10 eb3d 44d9 b2bd
00000180: 875c 93be a71c bf3d 1538 c93e bd27 cdbd
00000190: 2eda b1bd 5de5 b03d 00fa 5dbd 2761 79bb
000001a0: 126a e3bd b353 93bd 5dff 663d f42f 97bd
000001b0: fb98 a3bd 10cf d9bc 79b6 e1bc eaf4 97bb
000001c0: ad89 02bd 3186 f23c d546 e9bc 1da3 96bd
000001d0: 3936 b7bd 454b 0bbe 5241 b0bd 89ea 84bd
000001e0: f472 adbc 9c9a 4fbd 7b39 e3bd 90d3 793d
000001f0: 7ab5 abba c683 f1bd 06e9 7b3d fd1f 423d
00000200: 29f3 babd caae 73bd 1c3b a9bd c04f c4bc
00000210: 92d5 a7bd 2866 963d d739 943d c3ff b0bd
00000220: bead adbc df1d e03c 5353 b0bd 9028 143d
00000230: 7e77 52bd f857 f0bd aabc 07be e270 bdbd
00000240: 7353 ebbd c84d 3e3d 3a5e 8a3d 9288 943d
00000250: ba35 293d 8f85 86bd 1568 9dbd b0f0 f83c
00000260: b747 a3bd b593 a53d 6c28 c73c a915 8fbd
00000270: 5892 223d 5953 05be 132f debc 1e5a 8fbd
00000280: a006 8dbd 9ec1 27bd c451 15bc 1075 56bd
00000290: 674b 783b 6890 a4bd 2b01 263c c674 b1bc
000002a0: 36bf 683d d770 2e3d 8d3d c3bd 2d94 563d
000002b0: 59b5 aabd a6ab 86bc b54f bc3c 3db5 f8bd
000002c0: eff7 d6bb 342e e2bd a2b7 723d 430c 5a3d
000002d0: 71b5 b43d 5d9b 7cbd 4e23 5cbd 88d6 e1bd
000002e0: b015 28bd ddbe f63c 02da d9bd d7f2 03be
000002f0: ffcc d4bc c6cb 54bc 1769 7bbc 12f7 e0bd
00000300: 1051 a3bb f9eb 783d 34fb 9e3b 5142 7fbc
00000310: 4619 16be ae66 9f3c ecb7 cebd 7d6f 53bd
00000320: 770f bf3c 4d69 ef3c 4ce4 223d ae88 1a3d
00000330: 5ae4 b73e 566b 53be 8076 30bc 078c 863d
00000340: 68c6 473e e810 50be 131f 8e3e 6080 753d
00000350: 07fb b83d d14b d9bb a5fc 3f3e 592e 1ebe
00000360: 8820 a3bd 5c4c 313e fa79 263e 0ce7 aa3e
00000370: dfef db3d 87b1 403d cbbe 5dbe 78df db3c
00000380: 94f7 743e 0644 25be b1ea 813e d9ed 6e3d
00000390: 5110 02be 3434 73bd 417c 043e 0ca8 f03d
000003a0: 33de 6bbd 1796 33bd 7fa3 603e cfbc 26bd
000003b0: e455 57bd 43d5 79be 2779 54be 3265 59bd
000003c0: 7330 523e ae09 2fbe 6c27 cd39 fcf7 a93d
000003d0: 927b cb3e f0bc 9abe ca5d 213e 7236 1cbe
000003e0: bfbe 0f3d e3bd 893d 5045 f5bd 167d 4ebd
000003f0: 154d 12bb 66d6 eb3d f686 2cbe 0022 a93e
0.046834018 -0.050788067 -0.12638041 -0.04539088 0.32431042 0.13495553 0.09661163 0.005774876
0.053280037 -0.11949612 0.32442746 -0.009150443 0.044458322 -0.26887748 0.21438125 -0.08140986
-0.17176136 0.07258147 0.22267416 0.27173552 0.067009196 -0.00018504431 0.03473476 -0.0005124382
0.049826402 -0.077869646 0.21361138 0.18701008 0.0030849192 -0.07490238 0.06568762 0.07892586
0.12185337 0.08819909 0.064370885 -0.024130441 0.14913344 -0.18232502 -0.21911758 -0.03467826
-0.021829057 -0.10103054 -0.21223398 0.16921738 0.1547656 -0.20889266 0.37080237 0.15893182
0.2953947 0.32314417 -0.15533125 0.15947895 -0.069751844 0.043878812 -0.041390557 0.20013714
-0.07198578 -0.19098797 0.045333214 -0.042989187 0.014973208 -0.19095968 -0.0511127 -0.15450671
-0.14460875 -0.1375754 0.5517086 0.05957153 0.027472746 -0.13721564 0.17699923 -0.22796243
-0.19496399 0.057550047 -0.00020789685 -0.1598527 -0.025104526 -0.15294912 0.07756539 -0.16411415
-0.11581208 0.21876666 0.16958892 -0.013491257 0.14350274 -0.014191121 0.044920437 -0.15135346
-0.19404627 -0.0570635 -0.07439046 0.04960386 -0.020730235 0.12263877 0.11477732 -0.087328464
-0.2878153 0.09331637 0.393006 -0.10017345 -0.086841926 0.086374976 -0.054193497 -0.0038052292
-0.11104216 -0.07193699 0.056395877 -0.07382193 -0.07988163 -0.026587993 -0.02755283 -0.0046373503
-0.03186958 0.029605003 -0.028476158 -0.0735533 -0.08945889 -0.13602932 -0.08606209 -0.064900465
-0.021172978 -0.050684556 -0.11094948 0.060992777 -0.0013100349 -0.11792712 0.061501525 0.047393788
-0.0912841 -0.059492864 -0.08263227 -0.023963809 -0.08195032 0.073437035 0.072375946 -0.08642533
-0.02120101 0.027357994 -0.08609643 0.036171496 -0.051383488 -0.11735529 -0.13255563 -0.09250046
-0.11490526 0.046460897 0.067562535 0.07252611 0.041311003 -0.06568443 -0.07685868 0.030388206
-0.07972663 0.080848135 0.024311267 -0.06986553 0.039690346 -0.13020076 -0.027122056 -0.0699961
-0.06886029 -0.040956132 -0.009113733 -0.052357733 0.003788674 -0.08035356 0.010132114 -0.021662127
0.056822978 0.04258808 -0.09533224 0.052387405 -0.083353706 -0.01643927 0.022987226 -0.121439435
-0.0065603177 -0.11043969 0.059257157 0.05323435 0.0882367 -0.061671603 -0.053744607 -0.11027247
-0.041036308 0.030120308 -0.10637285 -0.12885605 -0.025976656 -0.0129880365 -0.01534488 -0.10984625
-0.0049840286 0.060771916 0.004851723 -0.015579776 -0.14658079 0.019458141 -0.10093674 -0.051619995
0.023322804 0.029225016 0.039768502 0.037728004 0.35916406 -0.20646414 -0.01077044 0.06569677
0.1950928 -0.20318949 0.27758083 0.05993688 0.09032255 -0.0066313525 0.1874872 -0.15447368
-0.07965189 0.17314285 0.16257468 0.333794 0.10739111 0.047044303 -0.21654813 0.026839957
0.23922569 -0.1613923 0.25374368 0.058332298 -0.12701537 -0.059375957 0.12938024 0.117508024
-0.057584953 -0.04384431 0.21937369 -0.040707406 -0.052572146 -0.24397759 -0.20749341 -0.053075023
0.20526294 -0.17093536 0.0003913002 0.082992524 0.39742714 -0.30222273 0.15758434 -0.15255144
0.03509402 0.06725671 -0.11976111 -0.05041226 -0.0022323777 0.11515503 -0.16848359 0.33033752

bias f4 [100]
00000000: e3bd 59bd bbbb efbd 13f9 f9bc 1326 32bd
00000010: 1ecd 9cbd ba14 cbbd f7d0 6d3d 7a7a 313d
00000020: 0501 a4bd 7b53 43be 1615 15bd dac2 d4bd
00000030: b138 8f3d d36b 28bd f473 ac3b 30cc 6aba
00000040: b740 933c bc6a c7bb 2d52 2bbd f022 80bc
00000050: b649 46bd 35ec 28bb 412e 81bd 1814 70bd
00000060: 7d6f 12bd f973 243c a5f4 ea3c 2732 72bd
00000070: 5e1d 92bd 17d6 6dbb 0d99 31bc 91c4 033d
00000080: da87 a7bd 6cdc c2bd 8d19 7dbc 485c 67bc
00000090: f025 01bd 0c29 fc3c da55 d9bd fa00 7cbd
000000a0: ee6e afbd 38ac aebb 93aa 56bc 1b54 b4bd
000000b0: bd7f e3bc e63e aabd c645 1f3d f662 4a3d
000000c0: 9363 e4bd 733d c8bc 8895 4dbd ab07 c139
000000d0: eb46 b2bd f224 7ebd 3b75 d8bd 480c 91bc
000000e0: 385f dfbd 4185 713e 9b29 5fbc c5ce e5bc
000000f0: c145 0dbd ed33 09bd f7dc a1bc 6e97 e0bd
00000100: 3b9f 98bd 1fdd 94bc 3ada e5bd c8cc 133d
00000110: 9df9 ad3c f56d a9bb d9b7 0cbe 25c2 9cbb
00000120: ad30 13bd 06ff 193d 0bb9 7dbd 3bee 08bb
00000130: b64b d4bd e760 3cbc ff0c 09bd 12bb ddbc
00000140: 15e8 3b3c d36c 0bbb af51 223d 5f33 213d
00000150: 564d f63b 487e f5bd 1f5f ad3c 8ffb 7fbc
00000160: 452e efbd 9d2a c1bd e142 9e3b 17af 38bd
00000170: 6336 143c edf0 f8bb 5e94 cebc 77fd 1e3d
00000180: e3ad 023d 86ed 00be 8cc6 9bbd 9923 58bd
-0.053159606 -0.117057286 -0.030514276 -0.04349334 -0.076563105 -0.09916063 0.058060613 0.043329693
-0.08008007 -0.19074814 -0.036397062 -0.103887275 0.06993235 -0.041118454 0.005262846 -0.0008956818
0.017975194 -0.006085722 -0.041826416 -0.01564166 -0.04841014 -0.0025775556 -0.0630765 -0.058612913
-0.035750855 0.010037416 0.028681109 -0.05912986 -0.071345076 -0.0036290938 -0.010839713 0.032169882
-0.081802085 -0.095146984 -0.015447986 -0.014121123 -0.03153032 0.030781291 -0.10612078 -0.06152437
-0.0856608 -0.0053305887 -0.0131021915 -0.08805104 -0.027770871 -0.08312778 0.0388849 0.049410783
-0.11151805 -0.024443364 -0.050191432 0.00036817542 -0.08704933 -0.062046953 -0.10569235 -0.017706051
-0.109068334 0.23585989 -0.013620759 -0.028052697 -0.03449035 -0.033496786 -0.019758685 -0.10966383
-0.07452246 -0.018171845 -0.11223264 0.036083966 0.021237189 -0.0051705786 -0.13742007 -0.004783886
-0.035935093 0.037596725 -0.06194405 -0.002089395 -0.10366003 -0.011497713 -0.03345966 -0.027066741
0.011468907 -0.002127458 0.03962868 0.039355632 0.0075165434 -0.11986977 0.021163521 -0.015623941
-0.11678747 -0.09431956 0.00482975 -0.045088854 0.00904617 -0.00759708 -0.025217231 0.03881594
0.031904113 -0.12590608 -0.07606229 -0.052768324

weight f4 [100, 100, 1]
00000000: 3a09 44bc cbc6 84bd b1f1 383d f02f 643c
00000010: 974a 3e3c 1317 0e3d bf0d aebd 95fe 97bd
00000020: 7013 5c3d da35 82bd 9549 523c aad4 d3bc
00000030: 3f28 dd3b 21bf c03c 2b23 dcbd 7fd3 7b3d
00000040: e188 b03d 345f bb3d ac2d 25bc 19a4 5ebc
00000050: 92d3 00bc eb24 46bd ff21 623d e0e1 bf3c
00000060: bf8a b9bc 32de afbd de47 79bc 1466 afbd
00000070: 6cdd b13c 2f8f d73c 1e92 c3bd 00a0 3abd
00000080: 80a4 bebd e8b7 66bd e50d 10bd 5dbb 5abc
00000090: e43c d7bd f749 0cbd 6f71 c9bd 511f 0fbd
000000a0: 02ad 563d d504 45bd 89fd 2f3d 4d03 933d
000000b0: d831 8c3d 9824 f2bc 56e7 173c e25d 5c3a
000000c0: 8a57 c9bd 2f8f d53c 4f0d cfbd ce29 65bd
000000d0: 80a6 d53b 3fb8 f7ba 5c82 8c3c 5ccd 843d
000000e0: 96f6 58bd fb1b 03bd ad64 053d c1a2 433d
000000f0: 889a 9bbd d8ae 783d 4ed7 e1bc 7ab6 b53d
00000100: b5b0 b73c 374c b43b 8d41 683b 43b0 92bd
00000110: 4dfb 21bc 98e9 9e3d e3b3 be3d cf47 89bd
00000120: eb30 f13c d207 53bc 2f26 9f3d 68d0 4cbd
00000130: 9dc9 4f3d fe04 643d dd2c 95bd 7705 983d
00000140: 5159 293c 74b7 653c d25f 193d d499 783b
00000150: 9711 9ebd b7b4 953d 787b 6b3c 1f67 c8bd
00000160: c388 3cbd 9679 e43c 4fd7 273d a572 8cbd
00000170: 8d63 14bd 6d84 413b a552 063d 4015 adbd
00000180: 1293 683c 0bc0 633d 3cd1 ae3c c0b2 3fbd
00000190: 0bcd a2bd a833 9c3d b78b 46bd a7f2 e0bd
000001a0: e5a8 673d 8a61 2b3d ba3c d9ba c058 53bd
000001b0: 3906 4b3d a81b 48bd 2a0c b83c 926f 95bd
000001c0: 26bb a23a 7eba 50bd f665 9a3b 3976 0d3a
000001d0: 1d86 4a3d 64ba 483d 3335 533c f823 14be
000001e0: fd65 febd 18e6 cabd e781 47bd e4b9 dabd
000001f0: 784c ec3c c992 8bbc 0d22 99bd b1a5 613d
00000200: 1037 36bd 4549 c7bd e3a6 5dbd 77b0 07be
00000210: 2413 b03d 2d27 b03d 4ecb 473d 0f0a 6ebd
00000220: 7f01 78bd 116f 9c3c 4b43 a83d c232 a83d
00000230: b45a cebd fa13 93bb b518 293d 265c 793d
00000240: 1d24 b5bd a8b4 2ebc dbfa 6fbd a8e6 32bd
00000250: 1a3a 263d 5023 503d 0506 77be 4097 81bc
00000260: 407b 9ebd 92c0 3dbc 95e5 183c b2e0 debd
00000270: 9aae 83bc df61 f7bb 163c 6dbd f7a4 0dbc
00000280: 20b6 553c f480 563c 3f3b 1abe 5bbd c9bb
00000290: 5961 a4bd 6307 d0bd 12e9 bfbd 6386 b03d
000002a0: eb77 2cbd fa9b 8cbd f67a b13c 5100 0fbe
000002b0: 6bc1 1c3c e0df a6bd 7af4 a03d 6a82 2dbe
000002c0: 85fd f63b 4f41 26bd d2b0 88bc b966 b6bc
000002d0: 3666 ed3c e4dc 5fbd f682 43bb 5e4c 3d3d
000002e0: aaf2 c8bd d47e a03d d448 a73d 5a3d 24bd
000002f0: c130 f1bd 0492 47be d7a2 59bd 985f 0fbd
00000300: 0290 893d 1c66 783d bde0 173a 7c1b 98bd
00000310: 40b2 d7bc 1ad9 9bbd 39e3 d0bc 32f5 cd3b
00000320: b416 efbc 237b f53b 319e 5e3d ad14 23bd
00000330: 79e2 3fbd f3a1 32bd c470 673d adf3 043d
00000340: 6873 f93c 7369 afbd 6b68 97bd 8cec 64bd
00000350: b57a 303c 8ebd febb e2f6 8e3d 3fb9 3fbd
00000360: 81b1 903d 0952 66bc 278d 6dbc 48a4 62bd
00000370: f62e 7abd e914 8cbd 02d9 f13c a2e7 75bd
00000380: 3f04 a3bc dd03 f73c 6606 2b3d d6ef 82bd
00000390: c0bb 48bd 84b6 843d 5601 093d 5cf0 cebd
000003a0: efb2 93bd 36d1 793c 8672 c0bd 5057 98bd
000003b0: 91d4 7ebc 3d2b 763d 071f 17bd c1a6 60bd
000003c0: af09 9c3d b84c ab3d cbab 623d 9001 a8bd
000003d0: 4654 d4bd 52a9 753d e52a 6cbd c629 c4bd
000003e0: f0d1 3a3d c4ce b6bc d41a a5bd 2a6e 903d
000003f0: af9d a93d 0936 183c a9f5 00bd 8b35 d4ba
-0.01196509 -0.06483229 0.04515237 0.013927445 0.011614463 0.034689974 -0.084987156 -0.074216045
0.053729475 -0.063579276 0.012834926 -0.025858242 0.0067491825 0.023528637 -0.10748895 0.061480995
0.086198576 0.09149018 -0.01008169 -0.013588929 -0.007862942 -0.04837505 0.055208202 0.023423135
-0.022649167 -0.08587302 -0.015214888 -0.08564392 0.021712027 0.026313392 -0.09549354 -0.045562744
-0.0930872 -0.05632773 -0.0351695 -0.013350335 -0.10509661 -0.034250226 -0.09836089 -0.034941975
0.052411087 -0.04810031 0.0429664 0.07178364 0.068454444 -0.029558465 0.009271463 0.00084063236
-0.0983115 0.026069252 -0.1010996 -0.05594807 0.0065200925 -0.0018899514 0.017152004 0.06484482
-0.052969538 -0.032009106 0.032566715 0.047762636 -0.07597834 0.06071362 -0.027568486 0.08872695
0.022423128 0.0055022496 0.0035439462 -0.071625255 -0.009886575 0.07759398 0.093116544 -0.067031495
0.029442271 -0.0128802825 0.07770955 -0.05000344 0.050729383 0.055668823 -0.072839476 0.07422917
0.010336236 0.014020789 0.037444897 0.0037933486 -0.07718199 0.07309859 0.014372699 -0.09785294
-0.046028864 0.027890008 0.04097682 -0.06857804 -0.03622775 0.0029528395 0.03279366 -0.08451319
0.014195221 0.05560307 0.021340005 -0.04680133 -0.07949265 0.0762704 -0.048473086 -0.10983782
0.056557555 0.041841067 -0.0016573884 -0.05159831 0.04956648 -0.0488545 0.022466738 -0.07296671
0.0012415394 -0.050959103 0.0047118617 0.00053963397 0.049444307 0.04900588 0.012891102 -0.14466846
-0.124217965 -0.09907168 -0.04870787 -0.10679987 0.028845057 -0.017037766 -0.07477198 0.055089656
-0.044486105 -0.09730772 -0.054114234 -0.1325091 0.08597401 0.08601222 0.04877787 -0.05811506
-0.0605483 0.01909593 0.0821596 0.08212806 -0.10075894 -0.0044884654 0.041283328 0.060878895
-0.08844779 -0.010663189 -0.058588844 -0.043677002 0.040582754 0.050814927 -0.2412339 -0.015819192
-0.07738352 -0.011581557 0.00933208 -0.10882701 -0.016074467 -0.007549509 -0.05791863 -0.008645288
0.01304391 0.013092268 -0.15061663 -0.006156606 -0.0802638 -0.10157659 -0.093706265 0.08619382
-0.04210655 -0.06865688 0.021665078 -0.13964964 0.009567599 -0.081481695 0.0785913 -0.1694428
0.007537546 -0.040589627 -0.016685877 -0.022265779 0.028979402 -0.054654017 -0.0029832697 0.046215408
-0.098119095 0.078366905 0.08168188 -0.040097572 -0.11776877 -0.19489294 -0.05313381 -0.035003275
0.067169204 0.060644254 0.00057936815 -0.07427117 -0.026330113 -0.07609768 -0.025498973 0.006285333
-0.02918563 0.0074914857 0.05435008 -0.03981464 -0.04684684 -0.043611478 0.056504026 0.03245895
0.030450538 -0.08565035 -0.07392963 -0.05588965 0.010771443 -0.0077740615 0.06980683 -0.046807524
0.07065106 -0.014057645 -0.014498985 -0.055332452 -0.06107994 -0.06839926 0.029522423 -0.060035355
-0.019899486 0.03015321 0.04175415 -0.06393401 -0.049007177 0.064801246 0.03344854 -0.10104439
-0.07211863 0.015247634 -0.093968436 -0.074385285 -0.0155536095 0.06009983 -0.036894824 -0.05484653
0.076190345 0.08364242 0.055339616 -0.08203423 -0.103676364 0.05997593 -0.057658095 -0.0957828
0.04561037 -0.02231539 -0.08061758 0.07052262 0.08282029 0.009290227 -0.03148428 -0.0016190273

bias f4 [100]
00000000: 6b1a 3cbd 003b 60bd fce3 e43b 5315 39bd
00000010: 0044 10bd 3b8d 8bbd 4aac fbbb 657f 043e
00000020: a84f eeb8 58f8 02bc 2bc6 a1bd ba18 3bbc
00000030: 1f9c e8be 72e6 04bb 1207 f139 82af afbc
00000040: 8dfe 28be 2225 babc c9a9 86bd 99b6 52be
00000050: cadb 2dbd 8345 a7bd c77d b4bd 3862 4cbc
00000060: 474d 0abd 3d35 67bd a577 d7b8 920e 07bc
00000070: 99ea fcbd 9fd8 59be b280 88bb 29b1 acbd
00000080: 456a 89bd 0de7 85bc 3514 80bb 96f0 44be
00000090: e3cc 843d 3f20 e5bd 3239 cd3c 4350 fbbc
000000a0: 0737 9fbc ce80 86bc ae22 a8be 4aca 8dba
000000b0: 40a4 86bd d0ae 7bbc 7b69 513d 292f cbbc
000000c0: bbd0 56bc deb3 ddbc 6a9d 5abc 8627 45be
000000d0: d62e 04bd fc9d 79bc c04b 11bd 177f a53c
000000e0: c287 cabb 5819 30be c268 9bbc 66e4 bebd
000000f0: 9161 bcbd 1b2c a2bc ae5c ab3c c8b6 f1bb
00000100: 0994 9ebd ffc2 3bbc 5c8d ad3c 676e 56bc
00000110: 2c4a 503a b3f0 83bd c438 093e 0946 37bc
00000120: a503 8f3d 84fe fbbc afa7 98bd 0b76 79bb
00000130: 6215 303b e860 633c cb00 773c 41e1 18bd
00000140: 6e03 84bd 16a7 e03b 9738 d83c 7cf2 4ebe
00000150: 06f5 87be 1a66 12be 57e0 2f3c 22cd fc3d
00000160: 9c50 ebbc 0816 87bb 0a63 d6bd 98f4 4dbc
00000170: 73b6 67be 5763 b73c 9379 603c 620e 97be
00000180: 303e c9bd bd63 1fbe f985 f6bd fc58 d5bd
-0.04592363 -0.054743767 0.0069851857 -0.045186352 -0.0352211 -0.06814047 -0.0076804506 0.12939222
-0.000113635615 -0.00799378 -0.07899126 -0.0114194695 -0.4543161 -0.0020278958 0.0004597237 -0.021445993
-0.16503353 -0.022722784 -0.06575353 -0.20577468 -0.042445935 -0.08167555 -0.088130526 -0.012474589
-0.033765104 -0.056447256 -0.000102742844 -0.00824322 -0.123494335 -0.2127404 -0.0041657323 -0.08432228
-0.067097224 -0.016345525 -0.003908659 -0.19232401 0.064843915 -0.11187791 0.025051687 -0.03067792
-0.019435419 -0.01641884 -0.32838959 -0.0010817733 -0.06574297 -0.015361503 0.051125985 -0.024802761
-0.013111289 -0.027063306 -0.0133431945 -0.19253358 -0.03227123 -0.01523542 -0.03547263 0.020202203
-0.0061807344 -0.17197168 -0.01897085 -0.09320907 -0.09198297 -0.019796422 0.020918217 -0.0073765256
-0.07743079 -0.011460065 0.02118557 -0.013087845 0.0007945623 -0.06442394 0.1340056 -0.011186131
0.06983117 -0.030761011 -0.07453858 -0.0038064744 0.0026868214 0.013878085 0.015075873 -0.037324194
-0.06445967 0.0068558557 0.026394172 -0.20209688 -0.26554126 -0.14296761 0.010734639 0.123438135
-0.028724961 -0.0041224994 -0.10468109 -0.012570523 -0.22628193 0.022386236 0.013700861 -0.2950316
-0.098263144 -0.15565391 -0.12037272 -0.10417363

weight f4 [100, 100, 1]
00000000: e609 be3d ae03 64bd c48f 44bd 6b3a 08be
00000010: 51e6 053d c1f9 d2bc 241d a23b 88d2 eebd
00000020: 7f63 803c 94eb 753c ea0a c73d 9061 a23c
00000030: 4677 c43d 8aba 9fbc 93e2 35bc 02da 143d
00000040: ed71 28bd f573 9cbd cec7 6b3d bc46 a53d
00000050: 0cc7 87bd 7b0c 603c ae8b 923d 5efa 57bd
00000060: 155a 7f3d ec4a 9a3d 2ddb 95bd b55b b23c
00000070: 609f 2dbd 1d2f 9fbc c9da dabd 73b3 56bc
00000080: 93cc a5bd 4a58 513d cb64 61bd 427d bf3c
00000090: afcd 963d 9d26 c93d a069 1e3d 0ac0 8f3d
000000a0: 3a62 173d 1251 03bd 09a4 813d c732 92bc
000000b0: ca0d 71ba 50b5 afbd d735 dabd 019b 89bc
000000c0: 3731 cc3c 581e 113d 7d93 a5bd fad4 c0bd
000000d0: da4a 07bc ed34 12bc 29fe bb3d b0bf f6bc
000000e0: 551e 3cbd 81b0 09bd e588 94bd 623c a13d
000000f0: b99e 383d 1753 c4bd 6ec6 3f3d ad60 e6bb
00000100: 8121 c5bd 26da ac3c c253 e9bd 519c 823c
00000110: faa8 89bd 16b2 0bbd 814a b5bd 27cc 34bd
00000120: d433 813c 8422 09bc 6758 9bbc 217c 77bd
00000130: 6853 d63c a2dc 3dbd 3999 1abd d53b 8fbd
00000140: e0b1 35bd 4fa2 53bc 6556 f6bd 562c b5bd
00000150: d10a 903d 887b 2c3d 15ad 123d 0f42 313d
00000160: 4dd1 aebd 80e8 a7bd 7f03 843b d84f 9f3c
00000170: 6cbd 53bc e406 a73c e256 d4bc e5d9 13bd
00000180: d617 283c 0fbb aabc b6a7 b73c b904 813d
00000190: 629d 893d 6e96 f43b 86f5 713c 19d0 073d
000001a0: 88ce b23d afe7 7abc f9b8 29bc 1c23 aabd
000001b0: 9421 47bd 8869 1fbd e626 83bd 242f 843d
000001c0: df12 4e3c 64f1 943d 1a07 b43d c008 39bd
000001d0: a857 8abd 3a7d 7ebd ca5b c73d 2ad9 993d
000001e0: 38bc ccbd 4f92 af3d 7a3c afbc b533 b9bd
000001f0: f80a 2b3d 2439 d23c d5ef 0fbd e7c5 5a3d
00000200: d9cc af3c e902 76bc a2ef 2f3d 49bd aa3c
00000210: f160 2d3d 6ea9 91bd 53c5 50bc 9ee1 76bc
00000220: 7177 83bd d0a8 c7bd 64a9 a63d 9079 be3d
00000230: c5d9 583d 9df5 a4bd 452f 803d 9425 0c3d
00000240: 1d2e b1bd 8c10 9ebd 138f 67bd 788b a0bd
00000250: da95 c6bd 6d5e c5bd 7dc3 16bd 3d6c 78bd
00000260: 9aa8 8fbd 5667 a2bd 82d9 bc3d 1820 b03d
00000270: f3ee 1e3c 9a64 da3b 8d79 febc 2245 833d
00000280: 0da9 7bbd d12d a13d e3bb 9e3d a7e8 4d3d
00000290: c146 b93c 5399 27bd 9775 28bc a305 043d
000002a0: e0d9 12bd e1b2 35bd 4b6a 8e3d 8596 9abd
000002b0: 339c 63bc 3a58 95bd 8736 b73c 9be1 b73c
000002c0: b72c 9dbd aee7 1d3c cb50 dcbb 1d70 b3bd
000002d0: ae32 273c 6dc0 acbd 9dac abbd e5a4 90bd
000002e0: a54c 593d 338f 193d cec6 f33c 1297 083c
000002f0: 3f63 c73d fef1 90bd ab51 c03d 08b8 0ebd
00000300: 028e b13d 8866 e7bc b318 a9bd 3388 b5bd
00000310: a068 b93d 18c3 773d 2d3c 8dbc 0a1b 91bd
00000320: 90bf a6bd d0ad b8bd f794 803b bbab 813d
00000330: ec30 cabb e250 863d b140 483c 7e56 5dbd
00000340: 7e87 4d3d 6f4d 323d 5af2 b23c 38ec 2fbd
00000350: 6179 c93c 1830 bb3d d366 bdbd 90f7 123d
00000360: 1aed 17bc b824 c8bd 056f 133d 6342 3ebc
00000370: 314d b0bd 43b6 993d cd0c 6e3b 3fdd 03bc
00000380: 497a b03d 33ea 03bd 06c2 a1bc 6aa9 733d
00000390: 708a 393d 734e 8dbc b391 c73d d511 bcbd
000003a0: aa42 b5bd 073f 1bbc 5469 4b3d 4386 113d
000003b0: f529 023c 63c1 2bbd 29cd 96bb b7b3 8fbd
000003c0: 73af 87bc efac 923d 4569 e9bb 34a3 a83d
000003d0: fee7 9cbd 8204 aa3d 5374 39bc 2fc5 93bd
000003e0: 1dd0 333d afbc 2a3d 6d41 403d fa02 f43b
000003f0: 4d7d 58bd 85dc b53b 5db2 ba3d a371 9d3d
0.09279232 -0.05566757 -0.047988668 -0.13303535 0.03269035 -0.025753858 0.0049473215 -0.116612494
0.015672443 0.0150097795 0.097188786 0.019821912 0.09593062 -0.019498128 -0.011101383 0.03634072
-0.041124273 -0.076393045 0.057563595 0.08070132 -0.06629762 0.013674851 0.07155548 -0.052729003
0.06234177 0.075338215 -0.07317195 0.021772245 -0.04238832 -0.019431645 -0.10686261 -0.013104307
-0.0809566 0.05110959 -0.055027764 0.023375157 0.0736345 0.09821818 0.03867495 0.070190504
0.03695891 -0.032059737 0.06330115 -0.017846478 -0.0009195475 -0.085795045 -0.106548004 -0.016797544
0.024925811 0.03542933 -0.08084772 -0.09415622 -0.008257592 -0.008923751 0.091793366 -0.0301207
-0.045927364 -0.033615593 -0.07252673 0.07872845 0.045073245 -0.09586161 0.046820097 -0.0070305676
-0.09625531 0.021100115 -0.11392929 0.015943678 -0.06721683 -0.034105383 -0.08852101 -0.044140007
0.015771784 -0.008370046 -0.018963052 -0.060421113 0.026162818 -0.04635299 -0.03774378 -0.06993834
-0.044359088 -0.012917115 -0.12028197 -0.08846347 0.07033313 0.042109996 0.035809595 0.04327589
-0.08536015 -0.08198643 0.004028737 0.019447252 -0.01292358 0.020389028 -0.025920335 -0.036096472
0.010259589 -0.02084115 0.022418838 0.06299729 0.067194715 0.0074642217 0.01476801 0.03315744
0.08730799 -0.015314027 -0.010359042 -0.08307478 -0.048616007 -0.038919 -0.06403904 0.06454304
0.012577741 0.07272604 0.08790417 -0.04517436 -0.06755 -0.062131144 0.09734304 0.07512124
-0.099968374 0.08572828 -0.021391142 -0.090430655 0.041758507 0.025662012 -0.03514083 0.05341139
0.021459984 -0.015015342 0.04295314 0.020842211 0.04232878 -0.07112394 -0.012742358 -0.01506844
-0.06419266 -0.09748995 0.081377774 0.0930053 0.052942056 -0.080546595 0.06259016 0.034215525
-0.086513735 -0.07718 -0.05653293 -0.078391016 -0.09696551 -0.09637151 -0.036807526 -0.0606501
-0.0701458 -0.07929866 0.09221174 0.085998714 0.009700525 0.0066648247 -0.03106382 0.064096704
-0.061440516 0.07870067 0.0775068 0.050270703 0.022616746 -0.040917706 -0.010281942 0.032231938
-0.035852313 -0.044360045 0.069538675 -0.075482406 -0.013892221 -0.072922185 0.022364868 0.022446444
-0.07674544 0.009637756 -0.0067234985 -0.08761618 0.010204954 -0.0843514 -0.08382533 -0.07062701
0.05305161 0.03749008 0.029757883 0.008336799 0.097357266 -0.07077406 0.09390577 -0.034843475
0.08669664 -0.028247133 -0.08256664 -0.088638686 0.09053159 0.06048879 -0.017240608 -0.070852354
-0.081420064 -0.09017527 0.003924008 0.06331583 -0.0061703827 0.06558396 0.012222455 -0.054037564
0.050178044 0.043530878 0.021844078 -0.042949885 0.02459401 0.091400325 -0.09248128 0.035880625
-0.009272838 -0.097726285 0.03599455 -0.0116125075 -0.08608473 0.07505467 0.0036323548 -0.008048355
0.08617074 -0.03220577 -0.019745838 0.059487738 0.04529804 -0.017249322 0.09744587 -0.09183089
-0.08850606 -0.009475476 0.049660996 0.035528433 0.007944574 -0.041932475 -0.0046020937 -0.070167
-0.016563153 0.07161891 -0.007123145 0.082342535 -0.076614365 0.08301641 -0.011319238 -0.07215344
0.043899644 0.04168385 0.046937395 0.007446644 -0.05285387 0.0055499696 0.09116051 0.0768769

bias f4 [100]
00000000: 7771 83bc 2588 57bd c96a 0ebe 08d0 edbd
00000010: 8706 9dbd 04da 14bd 3380 a0bb 6614 7dbd
00000020: fe4f cfbc 2c76 c0bd 6e1e 03bd ea4a 4cbd
00000030: edc4 19bd 3469 0bbe 1545 f2b9 0792 a5be
00000040: 1ebd e6bc d3c6 fcbc 374e 95bc 052f 033e
00000050: 50bf fdbc f508 83bd 1385 25bc 0946 8ebc
00000060: 9605 abbd 33e4 79bd ef00 d1bd 0732 833b
00000070: 3be1 5c3e 0dbd 28bc c774 a1be 7585 78ba
00000080: 7070 c6be 0349 1abd ac6d 60bd ab7d 9abd
00000090: 3422 0cbe 9bae 843d 733f b5bc 7802 03ba
000000a0: 55fb ea3d 585e 01bd 7a8b 3c3e 68d2 1bbd
000000b0: 9c80 acbc 4330 d7bb 471a 94bc 1805 c5bb
000000c0: b8d6 bab9 02ba fdbd 1bbf 85bb f5eb 95bc
000000d0: 783d 24bd f521 d1bb 1235 b7bd 9bf6 67bd
000000e0: 41d8 9ebc f58e b2be d183 57bd 03f2 1ebd
000000f0: 6a45 aabd 4b33 16bc 4290 133e d3a7 e4bc
00000100: a5ab 00ba 7c90 79be ad65 cdbc 515a a9bc
00000110: 52ae 9dbc 0a16 273b 1d74 e7bd 7cf0 fabb
00000120: 7a03 38bc fb3f 67be 3a96 5fbc dd88 10be
00000130: 313f 55bd f1f4 ddbb 679d 90be 512b 443e
00000140: cb95 fa3d 4ecc 7ebd 1092 3a3a 9b26 05bd
00000150: 4b8e 05bd 85b1 71bd 5cbc 23bd 9d1c c4bd
00000160: 111a 91bd 78c9 403e 08b3 01bd 7e2d dcbc
00000170: a6c1 ebbd 6339 aebb e782 a1bb 8e68 3ebd
00000180: e487 b0bc 5914 e9bc 6009 b0bd 1f5d b438
-0.016045315 -0.052620072 -0.13907923 -0.116119444 -0.076672606 -0.03634073 -0.004898095 -0.06178703
-0.025306698 -0.093975395 -0.032011442 -0.04987613 -0.03754132 -0.1361435 -0.00046209307 -0.32337973
-0.02816635 -0.030856526 -0.018225772 0.12810905 -0.030975014 -0.06398193 -0.010102528 -0.01736738
-0.08350675 -0.061008643 -0.10205256 0.0040037665 0.21570294 -0.0102989795 -0.31534407 -0.0009480336
-0.38757658 -0.037667286 -0.05479209 -0.075435005 -0.13684922 0.06478616 -0.022124982 -0.0004997621
0.11473719 -0.031584114 0.18412581 -0.038042456 -0.02105742 -0.0065670325 -0.018078936 -0.00601257
-0.00035636663 -0.12388994 -0.0040816194 -0.01830099 -0.040097684 -0.006382222 -0.08945669 -0.056631666
-0.019390227 -0.34874693 -0.052615944 -0.03880502 -0.08314021 -0.009167503 0.14410499 -0.027912056
-0.00049083895 -0.24371523 -0.025072897 -0.020672949 -0.019248161 0.0025495314 -0.11301444 -0.0076580625
-0.011231298 -0.22583 -0.013646657 -0.14114709 -0.052062217 -0.006773584 -0.28245088 0.19157149
0.12235602 -0.06220656 0.0007117102 -0.03250752 -0.032606404 -0.059007186 -0.039974555 -0.0957577
-0.0708505 0.18826854 -0.031664878 -0.026877161 -0.11511545 -0.0053168996 -0.004928935 -0.04648643
-0.021549173 -0.028452085 -0.08595538 8.600414e-05

weight f4 [100, 100, 1]
00000000: 111b 4ebb 0b0f 62bb da64 a9bd 51c4 84bd
00000010: 8544 143d fdd8 6e3c 3a2b 43bd 6292 97bd
00000020: 20b9 6bbd e4d8 d23d 5de5 90bd 5dc6 07bd
00000030: f665 c5bd f65b 313d 7c32 a63c 065f dfbb
00000040: 7889 f4bb 1a84 8a3d 284b af3c d993 453d
00000050: 102e b63c a4e6 993d e74e 95bd 1d5d 82bd
00000060: 9dac 73bd 5305 77bd 8b26 80bd e821 bfbd
00000070: 45ec 44bc 226e aebc 7826 3abc 1e81 a2bd
00000080: 6fbe eb3c 08d2 94bd 8508 223d 69c6 b93d
00000090: b999 0a3c 632c 0f3d 25fd 873c 1715 b3bd
000000a0: b5c2 593d a9ff 91bc a47d 543b babb a73c
000000b0: 2675 5b3d cd69 c03d 1a27 acbd 136d 933d
000000c0: efff 743d bc24 a2bd 0d38 c33c 3b1c b0bd
000000d0: ba37 9bbb 4b88 3cbd 9af1 123d f929 30bd
000000e0: 73bd d6bc 174e 8d3c fc71 8cbc 4581 06bd
000000f0: 9300 bb3d 7fdd efbc f2c7 193d 48b8 75bb
00000100: 257a ba3c 03b6 3e3d be09 433d 3319 2e3d
00000110: 9d96 aebd ea08 cfbc 5bf0 663d 0227 a43d
00000120: 332b 1abd facc e9bd a11c d53c 46cf 99bd
00000130: 786a f5b9 5a5d 753c 7ce6 f8bd 9715 d7bd
00000140: 1254 bfbd 6ec3 94bc 936d fbbd aad4 ecbb
00000150: 80c0 b33d 908f d1bd 77e0 a1bd b379 4ebd
00000160: 7af2 38bd f1e0 1cbd a123 bf3d 841a 3c3d
00000170: b00b 9fb9 7130 18bc e4af 853d 0aa3 c23d
00000180: 3dc3 653b 7d8c c43d 0023 56bd 86f9 d2bd
00000190: 80d9 8a3d 4d03 a93d 8310 3cbd 9afe 4d3c
000001a0: 73f3 7fbc 4af2 c8bd 33dd 593c 3a4f bf3c
000001b0: 3044 01bd f7ec 39bd b8a4 9e3d a7cf f43c
000001c0: 97db 9e3d a88c 88bd 33b3 5eb9 0551 ed3c
000001d0: 7366 623d 9ddc 5c3d 4a75 a83d 4801 96bd
000001e0: 40e7 a9bd 1880 a73d f703 c3bd 6acd 73bd
000001f0: d0d4 793d ba13 853d 67db babd 337b b4ba
00000200: e710 3c3d a2e3 8ebd 8c4b a0bd e7ef f53b
00000210: 6344 62bc 13d6 5ebd e505 99bd c3af 55bd
00000220: e78b adbc 6de9 9a3d 3399 b13c 9afc 39bd
00000230: 6035 fcbc d25b 953d b837 b4bd 7aaa 203d
00000240: 4d93 e0bb 8a53 14bd f002 aebd a5f7 babd
00000250: c703 b53d 6a14 91bd da91 a33d 8d0d 48bc
00000260: 4738 6dbd 4767 9a3d cdfc a13a 30c3 6c3d
00000270: 27ba adbc 5b34 c4bd 7342 903c 0086 ec3a
00000280: 57ad 31bd a7b5 28bd 1886 9a3d cd01 133b
00000290: 6342 7bbd 46fd 20bc 2849 8dbd 931b be3d
000002a0: b30a 223c 7a49 8fbd 8141 f2ba 4d13 433c
000002b0: 0034 afba 6c83 593d 0d85 6cbd a0df e93c
000002c0: e38d 3bbd 97e0 b5bd 8516 a53d cbca 88bd
000002d0: 2256 8b3d 5072 903d 1be9 6cbd c738 0abd
000002e0: 801a aa3c 781e a03d 4359 073d f04a a43d
000002f0: c070 9c3d 4d12 0abc d24f a9bd a7c4 c4bd
00000300: 63f8 babd e365 33bd 726d bdbd 404e b7bc
00000310: 37b8 343d 976e 893d 1a11 293d f980 a8bb
00000320: edc3 07bc 0575 82bd 8ba9 483d 6aa8 6e3d
00000330: 1dac 713d d7ad 2ebd 405d e13c 52a9 a1bd
00000340: 6cce c1bd 1dca 2d3d 2a98 b9bd 238e b13d
00000350: f829 cc3d 2720 7e3c 731e 5bbd 9e81 a33d
00000360: b752 813d f3fe 35bc 35cc 583d 1582 d3bd
00000370: 97cf 633d 73a0 76bd 2b22 783d d394 89bd
00000380: d0cb 10bd 587a 9bbd 9959 d83c 2d0e a5ba
00000390: 66f3 5abd 0799 523d 1922 373c 73be d03c
000003a0: 2e45 a8bd 228f ab3d 9306 9dbc 53c0 0f3d
000003b0: d78a 99bd ee35 3f3a 5c91 eebd 50de 01be
000003c0: 8400 64bd bd1b 68bd de02 843d adbc e5bc
000003d0: 9028 463c e887 ba3d d42f f93c 0104 07be
000003e0: 4242 81bc 1142 913d 0c77 83bd 9068 7d3d
000003f0: 1ac0 70bd 1afa 30bd bc70 13bc d7d3 18bd
-0.0031449238 -0.003449383 -0.08271189 -0.06482757 0.036198158 0.014578101 -0.047648646 -0.07400967
-0.057549596 0.10295275 -0.070749976 -0.03314816 -0.09638588 0.04330059 0.020287745 -0.0068167476
-0.0074626766 0.067634776 0.021398142 0.0482367 0.022238761 0.07514694 -0.0729044 -0.06365416
-0.05949079 -0.060307812 -0.062573515 -0.09332639 -0.012019222 -0.02129275 -0.011361711 -0.079347834
0.02877733 -0.07266623 0.039558906 0.09071047 0.008459502 0.03495444 0.0166002 -0.08744257
0.053164203 -0.017822104 0.003242352 0.020475257 0.05357852 0.0939518 -0.084058955 0.07198539
0.05981439 -0.07917163 0.023830438 -0.085991345 -0.0047368677 -0.046028417 0.03587494 -0.04300878
-0.026213383 0.01724915 -0.017144196 -0.032838125 0.09130969 -0.029280422 0.0375442 -0.0037493873
0.022763321 0.0465603 0.047616713 0.0425045 -0.08524821 -0.025272805 0.056381565 0.08015253
-0.037638854 -0.11416049 0.026014628 -0.075102374 -0.00046809367 0.01497587 -0.121533364 -0.10502165
-0.09342207 -0.018159594 -0.12276759 -0.0072275 0.08776951 -0.102324605 -0.079041414 -0.05040903
-0.04515312 -0.03830046 0.093329675 0.045923725 -0.0003033555 -0.009288893 0.06527689 0.095037535
0.0035058998 0.095971085 -0.052279472 -0.10301499 0.06779766 0.08252583 -0.045914184 0.012572909
-0.015622008 -0.09811838 0.013297367 0.023353208 -0.03155917 -0.045392003 0.07746261 0.029884173
0.07756727 -0.06667453 -0.00021238327 0.028969297 0.055273484 0.05392133 0.08225496 -0.07324463
-0.082960606 0.08178729 -0.095222406 -0.05952207 0.06099397 0.06497903 -0.09123879 -0.0013769626
0.045914557 -0.06977011 -0.078269094 0.007505405 -0.01381025 -0.054403376 -0.074718274 -0.052169573
-0.021184875 0.07564054 0.021679496 -0.045406915 -0.03078717 0.07292904 -0.0879969 0.03922508
-0.006853497 -0.03621248 -0.08496654 -0.09129266 0.08838611 -0.07083972 0.07986803 -0.012210262
-0.057915 0.0753923 0.0012358666 0.057803333 -0.021206928 -0.095802985 0.01760981 0.0018045306
-0.0433782 -0.041188862 0.075451076 0.0022431493 -0.06134261 -0.00982601 -0.06898719 0.09282603
0.009890246 -0.069964364 -0.0018482656 0.011906457 -0.0013366938 0.05310385 -0.057744075 0.028549016
-0.04578961 -0.08880728 0.08060936 -0.06679305 0.06803538 0.070530534 -0.057839494 -0.033745553
0.02076459 0.078183115 0.03304411 0.08022106 0.07638693 -0.008427215 -0.08267178 -0.09607821
-0.09129407 -0.04379834 -0.09249391 -0.02237618 0.044120993 0.067105465 0.041276075 -0.005142328
-0.008286458 -0.06369976 0.048989814 0.05826608 0.05900203 -0.042646255 0.027510285 -0.078936234
-0.094632 0.04242908 -0.09062226 0.086696886 0.099689424 0.015510595 -0.053495836 0.07983707
0.06314605 -0.011108148 0.052929122 -0.103275456 0.055617895 -0.06021161 0.06057946 -0.06717839
-0.03535062 -0.075916946 0.026409911 -0.0012592726 -0.05345478 0.05141547 0.011177563 0.025481438
-0.0821632 0.0837691 -0.019168174 0.035095524 -0.07497185 0.0007294108 -0.11648819 -0.12682462
-0.055664554 -0.05666708 0.064458594 -0.02804407 0.012094632 0.09107953 0.030418314 -0.13185121
-0.015778664 0.07092679 -0.06419191 0.061867297 -0.058776952 -0.043207265 -0.008999046 -0.0373114
