data/pretrained_models/donor-5.pt (torch, 225197 bytes, 14 tensors)

weight f4 [100, 4, 9]
0	0x3e04be6e	0.12963268
1	0xbdec82ab	-0.115483604
2	0x3e9dc5e0	0.3081503
3	0x3e23e5a9	0.16005577
4	0x3eef8426	0.4678051
5	0xbe0e9be5	-0.13926657
6	0xbbc0576f	-0.005869798
7	0x3e29e538	0.16591346
8	0xbe4a9234	-0.19782335
9	0x3e2a7207	0.1664506
10	0x3e06bc4e	0.1315777
11	0xbc8509ec	-0.016240083
12	0xbed20ad8	-0.41023898
13	0x3ecb286d	0.3967928
14	0x3e93dd08	0.2887957
15	0x3bdd9f33	0.006763363
16	0x3effa82c	0.49932992
17	0x3e6f7d66	0.2338768
18	0x3cc599cc	0.024121188
19	0x3e652862	0.22378686
20	0x3e114876	0.14187798
21	0x3d7aee19	0.061262224
22	0xbdd29004	-0.10281375
23	0x3e8d35cc	0.27580106
24	0x3e906baf	0.28207156
25	0xbf97cf9a	-1.186023
26	0xbee6e3c3	-0.45095643
27	0x3ea0e00d	0.31420937
28	0x3e8034ba	0.25040227
29	0xbcf0bc21	-0.029386582
30	0xbe84d90c	-0.25946844
31	0xbca1990f	-0.019726304
32	0x3e3baf52	0.18328598
33	0x3d5f98c2	0.05458904
34	0x3f181aad	0.59415704
35	0x3eb2efb1	0.34948495
36	0x3e7d2e03	0.24724583
37	0xbf10ed19	-0.5661178
38	0x3dd60eac	0.10452017
39	0x3f0d0eb3	0.55100554
40	0xbe7cb488	-0.24678242
41	0xbe185248	-0.14875138
42	0xbed7254c	-0.42020643
43	0x3ebbe36a	0.3669694
44	0x3e80651b	0.25077137
45	0x3cc675e1	0.02422613
46	0xbc37632f	-0.011193081
47	0x3dad0a75	0.0844926
48	0x3eb2db9e	0.3493318
49	0xbeec7564	-0.46183312
50	0x3ca101a3	0.0196541
51	0xbce66d9c	-0.028128438
52	0xbed9747a	-0.42471677
53	0x3b3bfd6f	0.0028684994
54	0x3e6391bc	0.22223562
55	0x3ec129ff	0.37727353
56	0xbb0981cf	-0.0020981913
57	0xbe70c96a	-0.23514333
58	0xbeb21efb	-0.3478926
59	0x3e842683	0.25810632
60	0x3e80371a	0.2504204
61	0xbe2cd019	-0.16876258
62	0x3e4e2044	0.20129496
63	0xbdeb05c5	-0.1147571
64	0x3e86a263	0.26295766
65	0x3ee734c8	0.45157456
66	0x3ed0ae80	0.40758133
67	0x3e321a39	0.17392816
68	0x3ec3624c	0.38160932
69	0x3e661bd9	0.2247156
70	0x3eee7fe6	0.46581954
71	0xbeaf8ae6	-0.3428566
72	0x3c994040	0.018707395
73	0x3e332b77	0.1749705
74	0x3e945874	0.28973734
75	0x3e80dfd1	0.25170758
76	0x3e9b9e5b	0.30394253
77	0x3e839b3f	0.2570438
78	0xbeb2d76f	-0.34929988
79	0xbec65221	-0.38734534
80	0xbd0c3cb8	-0.034237593
81	0xbdfdfa9d	-0.12401316
82	0x3d289496	0.041157328
83	0x3e8a08b6	0.2695977
84	0x3cc31708	0.023814693
85	0x3e682144	0.2266894
86	0xbeb3ac0b	-0.35092196
87	0xbcfeeed1	-0.031119736
88	0x3e9c8ecd	0.30577698
89	0xbed9904b	-0.424929
90	0xbe27e63a	-0.16396418
91	0xbe088d8f	-0.1333525
92	0xbe9fcbc3	-0.31210145
93	0xbcf6237a	-0.030046213
94	0x3dc42bd4	0.09578672
95	0xbe531e94	-0.20617133
96	0x3e843fa0	0.25829792
97	0xbddeeb52	-0.108847275
98	0xbe46e762	-0.19424203
99	0x3e768072	0.24072435
100	0xbdca6ace	-0.098836526
101	0xbe7bd59f	-0.24593209
102	0xbe56b9d3	-0.20969324
103	0xbeb0d9fa	-0.34541303
104	0xbf0e7e1d	-0.55661184
105	0x3d83042d	0.06397281
106	0x3b83d84c	0.0040235873
107	0x3e78f5a8	0.2431246
108	0x3d981754	0.074263245
109	0xbdbbd6b7	-0.09171813
110	0x3e0138bf	0.12619303
111	0x3e91a0a0	0.2844286
112	0xbdeab00b	-0.11459359
113	0xbc7fcd6b	-0.01561294
114	0xbdfe7719	-0.1242506
115	0x3ea6350f	0.32462355
116	0xbeb39e7c	-0.3508185
117	0x3d43c077	0.04779097
118	0x3e9c7c6d	0.3056368
119	0x3e355303	0.17707448
120	0x3e9f8c0d	0.31161538
121	0x3e08e716	0.13369402
122	0x3ed36d41	0.41294292
123	0x3d9fb644	0.07798436
124	0xbe563f00	-0.2092247
125	0x3eb522c3	0.35378084
126	0xbc10ea06	-0.008844858
127	0xbe57e96d	-0.21085139
128	0xbe5164a3	-0.20448546
129	0xbe29920e	-0.16559622
130	0x3d9e6f79	0.077361055
131	0xbe8c4ccf	-0.2740235
132	0xbd8fc39e	-0.07019733
133	0x3da12acc	0.07869491
134	0xbf01cf57	-0.50707
135	0x3e48f882	0.19626048
136	0x3e99d6dd	0.3004674
137	0xbe534ec0	-0.2063551
138	0x3eab586d	0.334659
139	0xbe110878	-0.14163387
140	0xbe0ce8b5	-0.13760646
141	0x3edd598f	0.4323239
142	0xbecb8942	-0.39753157
143	0xbdac097a	-0.08400245
144	0xbd4ceb22	-0.050028928
145	0x3dacb39a	0.08432694
146	0x3dff83cc	0.1247631
147	0xbe20479d	-0.15652318
148	0x3e92e798	0.28692317
149	0xbdbb0602	-0.09132005
150	0xbeab0de2	-0.3340903
151	0x3e15de5a	0.14635602
152	0x3e74917e	0.23883626
153	0xbec4edba	-0.3846262
154	0xbe93c298	-0.288594
155	0xbe876d45	-0.26450554
156	0xbe746041	-0.23864843
157	0xbc14fdfe	-0.00909376
158	0x3d9dd6ca	0.077069834
159	0x3e4d2945	0.20035274
160	0x3d4bef63	0.049788844
161	0x3d2af56c	0.04173796
162	0x3e5306ac	0.20608014
163	0xbd2bd298	-0.041948885
164	0x3d9feaa6	0.078084275
165	0xbd0ffebb	-0.03515504
166	0x3e4e0836	0.2012032
167	0xbe50f3a3	-0.2040544
168	0x3e5ecdd6	0.21758208
169	0x3d609156	0.054826103
170	0xbe8171e2	-0.25282198
171	0x3ee757b8	0.45184112
172	0x3e8ef671	0.27922395
173	0x3dce80ab	0.10083135
174	0xbda5b937	-0.080919676
175	0xbec6e361	-0.3884535
176	0xbe84c7b8	-0.25933623
177	0xbef9c882	-0.48785788
178	0xbec77d38	-0.38962722
179	0xbe9c9e46	-0.30589503
180	0x3d9652bb	0.07339998
181	0x3cb415f4	0.021983124
182	0x3cccbcd6	0.024992388
183	0xbf0da5f6	-0.5533136
184	0x3eb658e1	0.35614684
185	0x3dda52bd	0.10660312
186	0x3db65643	0.08903172
187	0x3df95e09	0.12176139
188	0xb9c24e74	-0.00037061016
189	0x3cb082b8	0.021546707
190	0xbc149d88	-0.0090707615
191	0xba903e4d	-0.0011004895
192	0x3f084a42	0.5323831
193	0x3ea447c0	0.3208599
194	0xbd33b3ff	-0.04387283
195	0x3e3753b1	0.1790302
196	0x3c394ff2	0.011310564
197	0x3eb799d4	0.3585955
198	0x3cec5b92	0.028852258
199	0x3ce7a989	0.028279083
200	0x3b5894c6	0.003304766
201	0xbf17d4f6	-0.5930933
202	0xbeebe74b	-0.460749
203	0xbba420e0	-0.005008802
204	0xbdd912c1	-0.1059928
205	0x3d34d435	0.04414769
206	0xbd156ac8	-0.036478788
207	0xbd8028a7	-0.06257754
208	0x3cef37d6	0.02920143
209	0xbe08d2c1	-0.13361646
210	0x3f1d9e29	0.6156946
211	0xbd430423	-0.047611367
212	0xbc96ff61	-0.018432321
213	0x3e15c8d0	0.14627385
214	0x3dab5bee	0.083671436
215	0x3e270b03	0.16312794
216	0x3e112dd6	0.14177641
217	0xbd586cb3	-0.05283804
218	0x3e6c4242	0.2307215
219	0xbebf9d4b	-0.37424693
220	0x3dab61a9	0.083682366
221	0x3d71c04d	0.059021283
222	0xbe628791	-0.22122027
223	0x3f0d27a3	0.55138606
224	0x3ea7efa1	0.3280001
225	0xbc68d6d6	-0.014211377
226	0xbd11e3b2	-0.035617538
227	0x3e811930	0.2521453
228	0x3d121bf7	0.0356712
229	0x3f678680	0.90439606
230	0xbf296a9d	-0.66178304
231	0xbe04d973	-0.12973575
232	0xbe36f146	-0.17865476
233	0xbd058fae	-0.032607727
234	0x3dc2dd4f	0.095148675
235	0x3ddd5801	0.10807801
236	0xbed6cd14	-0.41953337
237	0x3e63db66	0.22251663
238	0xbeb8c055	-0.36084238
239	0x3e6f2ce8	0.23356974
240	0x3ec91878	0.3927648
241	0xbd65ad9f	-0.05607378
242	0x3e8f33b0	0.27969122
243	0x3e6459fa	0.22299948
244	0xbe09ad15	-0.13444932
245	0x3eee609b	0.4655808
246	0xbeb1147e	-0.34585947
247	0xbd47a8f2	-0.048745103
248	0x3e430aed	0.19047137
249	0xbe8e0d2f	-0.27744433
250	0xbe3e383c	-0.18576139
251	0xbef373fe	-0.47549433
252	0xbe98fa0c	-0.2987827
253	0x3d9159e2	0.07097222
254	0xbdd2515a	-0.10269423
255	0xbf2741a3	-0.6533453

bias f4 [100]
0	0xbd815286	-0.06314568
1	0x3e884b88	0.26620126
2	0x3d4226bf	0.047400232
3	0x3e049ce8	0.1295048
4	0x3e5c81ac	0.21533841
5	0xbdf3a6ba	-0.11897035
6	0xbdbecd5c	-0.09316513
7	0x3cb79a7f	0.022412537
8	0xbe33b3ed	-0.17549105
9	0xbca8a55d	-0.020586664
10	0x3ec2a3fb	0.38015732
11	0xbdbb67b1	-0.09150637
12	0x3de7de9e	0.11321758
13	0x3d52822d	0.051393677
14	0x3d0f5214	0.034990385
15	0xbc70f781	-0.014707447
16	0xbc43fdaf	-0.011962338
17	0x3e5b4647	0.21413527
18	0xbc41fa8d	-0.011839521
19	0xbd26a188	-0.040681392
20	0xbda1c9d5	-0.078998245
21	0x3e2c3371	0.16816498
22	0x3e5ec161	0.21753456
23	0xbc8c7ca0	-0.01714927
24	0x3e704838	0.2346505
25	0xbc9132c7	-0.017724408
26	0xbe147d1f	-0.14500855
27	0xbdb09b94	-0.08623424
28	0x3ebd3b87	0.36959478
29	0xbd91ee28	-0.07125503
30	0xbdb172f9	-0.086645074
31	0xbd639a55	-0.055567104
32	0xbdd7868e	-0.10523711
33	0x3e6b9f43	0.23009972
34	0x3e24312f	0.16034387
35	0xbdd92167	-0.10602074
36	0xbe929569	-0.28629616
37	0x3d726ffb	0.059188824
38	0xbc5aeaeb	-0.013361673
39	0x3e19b52b	0.15010516
40	0xbd70c498	-0.058781236
41	0x3e3fffb4	0.18749887
42	0x3d8296b0	0.063763976
43	0xbd7f0a4d	-0.062265683
44	0x3dbc2113	0.09185996
45	0x3e83f51b	0.25772938
46	0x3e7c0a03	0.24613194
47	0xbe217f81	-0.15771295
48	0x3dbd2591	0.09235681
49	0xbe0ff040	-0.14056492
50	0xbe0379ca	-0.12839428
51	0x3e294873	0.16531543
52	0xbe25d710	-0.16195321
53	0xbd447790	-0.047965586
54	0x3cf7b693	0.030238425
55	0x3e474562	0.19460061
56	0xbde592db	-0.11209651
57	0x3e540d69	0.2070824
58	0xbd3ea4c3	-0.046543848
59	0xbdb8eff4	-0.090301424
60	0xbe146135	-0.14490207
61	0xbe339ff7	-0.1754149
62	0xbd114e4d	-0.035475064
63	0xbe18b126	-0.14911327
64	0x3efa07ec	0.4883417
65	0xbe2cc43b	-0.16871731
66	0xbd6a49ec	-0.057199404
67	0xbd669ee6	-0.05630388
68	0x3da5b6bb	0.08091494
69	0xbdc85aed	-0.09782968
70	0x3dc39536	0.09549944
71	0x3e5b815e	0.21436068
72	0x3eadf4b2	0.3397575
73	0x3c88547c	0.016641848
74	0xbdba16c1	-0.09086371
75	0xbd4caa16	-0.049966894
76	0xbe34ad89	-0.17644323
77	0x3e17ac11	0.14811732
78	0x3e34b279	0.17646207
79	0x3cc095b8	0.023508891
80	0xbdf79bfa	-0.12090297
81	0x3e65ae86	0.22429857
82	0x3e0dd2f9	0.13850011
83	0xbdf10707	-0.117689185
84	0xbe6ddcbe	-0.23228738
85	0xbd3fa86b	-0.046791475
86	0xbe80ec47	-0.25180265
87	0xbe2e52d2	-0.17023781
88	0x3e83c787	0.25738165
89	0xbe0c3f20	-0.13695955
90	0xbdb98dae	-0.090602264
91	0xbdf45d0d	-0.119318105
92	0xbdbffd03	-0.0937443
93	0x3e347d2b	0.17625873
94	0x3e7c3a54	0.24631625
95	0x3e82b9ac	0.2553228
96	0xbdc907d0	-0.09815943
97	0xbd302128	-0.04300037
98	0xbdbd725e	-0.092503294
99	0xbdae303e	-0.08505295

weight f4 [100, 100, 1]
0	0xbe6f3274	-0.2335909
1	0x3e139db3	0.14415626
2	0x3e808851	0.25104
3	0xbdb1c48a	-0.08680065
4	0x3b44b4a9	0.0030014908
5	0xbda7b1aa	-0.081881836
6	0x3d3a399b	0.045465093
7	0xbc21bd0a	-0.009871731
8	0xbe15344d	-0.14570732
9	0xbdb38af6	-0.08766739
10	0x3edb6b9c	0.42855537
11	0xbe94b164	-0.29041588
12	0xbde9b669	-0.11411745
13	0x3de9259d	0.11384127
14	0xbe86550e	-0.26236767
15	0xbc24c0f2	-0.010055767
16	0xbdfd9706	-0.12382321
17	0x3dd910c1	0.10598899
18	0x3e2ce025	0.1688238
19	0xbdec9eec	-0.115537494
20	0xbb66e2dd	-0.0035230436
21	0xbe22a5e9	-0.15883602
22	0xbe2f9a6f	-0.17148755
23	0x3c7402c6	0.014893239
24	0xbe84dfdd	-0.25952044
25	0xbd112faa	-0.035445847
26	0xbee71ca5	-0.45139042
27	0x3cc0e63d	0.023547286
28	0xbe77c16a	-0.24194875
29	0xba75d93b	-0.0009378378
30	0x3d157957	0.03649267
31	0x3da83785	0.082137145
32	0xbebe6858	-0.37188983
33	0x3e0ff988	0.14060032
34	0x3b92d027	0.00448038
35	0x3d9c3962	0.076281324
36	0xbda578a5	-0.08079652
37	0xbe4ab2eb	-0.19794814
38	0xbbd2471b	-0.006417168
39	0xbe5509b9	-0.2080449
40	0x3e083587	0.13301669
41	0xbc84f42b	-0.01622971
42	0xbb4ce88d	-0.003126654
43	0xbe45b535	-0.19307406
44	0x3ebde362	0.37087542
45	0x3e6556ce	0.22396395
46	0x3dc20fd4	0.09475675
47	0xbde8427c	-0.11340806
48	0x3e1bb247	0.15204726
49	0x3c9c0911	0.019047292
50	0x3e2a95c9	0.16658701
51	0xbe097550	-0.13423657
52	0xbf1678ab	-0.58777875
53	0xbea8792e	-0.32904953
54	0xbe17c7ce	-0.14822313
55	0x3e3b0848	0.18264878
56	0xbde48dca	-0.111598566
57	0xbdff0d12	-0.12453665
58	0xbd3d7afb	-0.04625986
59	0x3cf4a0d5	0.029861847
60	0xba4f6bef	-0.00079125067
61	0x3db93036	0.09042399
62	0xbe33be02	-0.17552951
63	0x3eae717b	0.34070954
64	0x3e1d1c4c	0.15342826
65	0xbeadeaac	-0.33968103
66	0xbe116911	-0.14200236
67	0xbe2fd4bb	-0.17170994
68	0x3d5f7195	0.05455168
69	0x3e37495e	0.17899081
70	0xbba46954	-0.005017439
71	0x3d132636	0.035925113
72	0x3d41c86a	0.04731027
73	0x3c07ff24	0.008300576
74	0xbe765db4	-0.24059182
75	0xbe4141b2	-0.18872717
76	0x3c970e8d	0.018439556
77	0x3d78baaf	0.06072491
78	0x3e4d122c	0.20026463
79	0xbe39618b	-0.18103616
80	0xbca12a74	-0.019673564
81	0xbd9c4bca	-0.07631643
82	0x3dd45d0e	0.10369311
83	0xbe5312cc	-0.20612639
84	0xbe4f3ab7	-0.20237242
85	0xbe32c78d	-0.17458935
86	0xbc26266e	-0.010140998
87	0xbb0cbe27	-0.0021475644
88	0x3e8563bf	0.26052663
89	0x3e845284	0.25844204
90	0x3c231de4	0.009955857
91	0xbee47da4	-0.44627106
92	0x3d8125c9	0.06306035
93	0x3e2ac0b4	0.16675073
94	0x3e4e964f	0.20174526
95	0x3e14f071	0.14544846
96	0xbdf37e91	-0.11889375
97	0x3da1d785	0.07902435
98	0xbeee2a24	-0.46516526
99	0xbe62716c	-0.2211358
100	0xbda3f8d5	-0.08006445
101	0xbd934208	-0.07190329
102	0xbc029174	-0.007969249
103	0x3cd84a6f	0.02640268
104	0xbdb17fdc	-0.08666965
105	0xbdd4c8eb	-0.103898846
106	0xbddbdb4c	-0.10735187
107	0xbe1993b8	-0.14997756
108	0x3d33820e	0.0438252
109	0x3c8542f8	0.016267285
110	0xbda42344	-0.08014539
111	0xbdca4b10	-0.09877598
112	0xbc1edd6e	-0.009696348
113	0xbdc28b09	-0.09499175
114	0xbdaba29e	-0.08380626
115	0xbddee6f2	-0.10883893
116	0xbd244823	-0.040107857
117	0x3cb75f3a	0.022384275
118	0xbddf1fc3	-0.1089473
119	0x3ccdaa4d	0.02510562
120	0xbd47e00a	-0.048797645
121	0xbdd8dedd	-0.10589383
122	0xbd994442	-0.07483722
123	0xbd9ff2ab	-0.07809957
124	0xbcbb0ced	-0.022833312
125	0xbd2bdc91	-0.041958395
126	0x3d5328e9	0.051552687
127	0xbd55abee	-0.052165918
128	0xbd9fe88e	-0.07808028
129	0xbd7e1139	-0.062028144
130	0xbd24ed51	-0.040265385
131	0xbce0f51a	-0.027460624
132	0x3c99b3e1	0.01876253
133	0xbd7d0608	-0.06177333
134	0x3b977889	0.004622523
135	0xbde6bdad	-0.112666465
136	0x3d75a1c6	0.059968732
137	0xbdeaa753	-0.11457696
138	0xbd1a79d3	-0.037713837
139	0x3d46754f	0.048451718
140	0xbdb32533	-0.087473296
141	0xbd2f1f57	-0.042754497
142	0x3d1c6e79	0.038191292
143	0xbb068560	-0.0020526275
144	0x3d763b45	0.060115118
145	0xbdf294c4	-0.11844781
146	0xbde5a6d6	-0.11213462
147	0x393a7535	0.00017782005
148	0xbd0b4a29	-0.03400627
149	0x3d465ae7	0.048426535
150	0x3d5d64b4	0.054051116
151	0xbd6905e7	-0.056890395
152	0x3d4c4c1e	0.04987728
153	0x3d6ac430	0.057316005
154	0xbbf500dc	-0.007476909
155	0x3d383fe5	0.04498281
156	0xbd5b3ac3	-0.053522836
157	0xbdb2de89	-0.087338515
158	0xbd0052a5	-0.031328816
159	0x3aa4f0bc	0.0012583951
160	0x3d63303b	0.055465918
161	0xbd84898e	-0.06471549
162	0xbe06c012	-0.13159207
163	0xbddfd2be	-0.10928868
164	0x3d16c768	0.036811262
165	0x3d2b1eda	0.04177747
166	0xbcc6efe7	-0.024284316
167	0xbdcef0c0	-0.10104513
168	0xbdf22283	-0.11822989
169	0xbd850eca	-0.064969614
170	0x3cb210a9	0.02173646
171	0xbe1436fa	-0.14474097
172	0x3c94d55b	0.018168142
173	0x3dafb771	0.085799105
174	0xbd30f75e	-0.043204658
175	0xbd989a33	-0.07451286
176	0xbd9b3e64	-0.075802594
177	0x3c89acb2	0.01680598
178	0xbe04e343	-0.12977318
179	0xbc3eed72	-0.011653291
180	0xbdaa7ee0	-0.08324981
181	0x3cf0fa54	0.02941624
182	0xbd1e030b	-0.03857712
183	0x3b8d0c2b	0.004304429
184	0x3c817dff	0.01580715
185	0xbd71c74b	-0.05902795
186	0x3df4f781	0.1196127
187	0x3c92eb19	0.017934369
188	0xbc5a2062	-0.013313385
189	0x3c6b2ed9	0.014354431
190	0xbdba06f6	-0.09083359
191	0xbd496ae4	-0.049174204
192	0x3c8e375f	0.017360387
193	0xbd8e609a	-0.06952019
194	0xbd7c891d	-0.0616542
195	0xbd414bd7	-0.047191467
196	0xbc311bde	-0.010809867
197	0xbcc0b60a	-0.023524303
198	0xbdbc34ca	-0.09189756
199	0x3d278971	0.04090256
200	0xbdb75f6a	-0.08953746
201	0xbd10ba4c	-0.035333917
202	0x3e047a22	0.12937215
203	0x3cbf38aa	0.02334245
204	0xbd7825d5	-0.060582954
205	0xbd8d562b	-0.06901201
206	0xbd8635ba	-0.06553216
207	0xbdbb5aee	-0.09148203
208	0x3d7723ab	0.06033675
209	0xbc4e627f	-0.0125967255
210	0x3ca4eec9	0.020133393
211	0xbd925c10	-0.07146466
212	0x3bfcfad0	0.007720329
213	0xbdbe326b	-0.0928696
214	0xbcf8a0c9	-0.030350106
215	0xbd26d173	-0.04072709
216	0x3c49c786	0.0123156365
217	0x3d335e47	0.04379108
218	0x3d767898	0.0601736
219	0xbe48d88f	-0.1961386
220	0xbdb6ba2c	-0.08922228
221	0x3d41b949	0.047295842
222	0xbe0e5d1d	-0.13902707
223	0xbc40c7ab	-0.011766355
224	0x3d5b3e97	0.053526487
225	0x3c2f4e14	0.010699768
226	0xbd9eeecd	-0.077603914
227	0xbd2dab96	-0.042399965
228	0x3bd811e5	0.00659393
229	0x3d440097	0.047852125
230	0x3d1c54d7	0.038166847
231	0xbafc40ef	-0.0019245426
232	0xbd3b6864	-0.04575385
233	0xbde89cd6	-0.11358039
234	0xbd5cee19	-0.053938005
235	0x3daaaaa4	0.08333328
236	0x3dc41137	0.09573596
237	0x3d3b49d8	0.04572472
238	0xbdc9d1cf	-0.09854471
239	0xbcae64ce	-0.021288302
240	0xbdaeeed0	-0.085416436
241	0x3d99195d	0.07475541
242	0x3d7b8ce3	0.061413657
243	0xbcc3bc50	-0.023893505
244	0xbb9b07a5	-0.004731136
245	0x3dc51d6f	0.09624755
246	0xbd332dbc	-0.043744788
247	0x3cd8a69f	0.026446639
248	0x3dd8945c	0.10575172
249	0x3d3742e6	0.044741534
250	0x3ca022b5	0.0195478
251	0x3d93cadb	0.07216426
252	0xbd8b0132	-0.06787337
253	0x3d3d9e3f	0.046293493
254	0xbdd7d6a2	-0.10538985
255	0xbc7b25cf	-0.0153288385

bias f4 [100]
0	0xbdc02532	-0.093820944
1	0xbd96b451	-0.073586114
2	0xbde7a4ac	-0.113107055
3	0xbd6eb6a3	-0.058279645
4	0xbcee219f	-0.029068766
5	0xbe18c2ee	-0.1491811
6	0xbe500bb8	-0.2031697
7	0xbe580f32	-0.21099547
8	0x3c22c63e	0.00993496
9	0xbdd866b6	-0.105664656
10	0xbcabc3e1	-0.020967426
11	0xbe7c51d0	-0.24640584
12	0x3de0e538	0.1098122
13	0xbd27e2c9	-0.040987764
14	0xbd056564	-0.032567397
15	0xbe263d0a	-0.16234222
16	0xbe2a745e	-0.16645953
17	0xbd930293	-0.07178225
18	0xbd11aa37	-0.03556272
19	0x3e4eec88	0.20207417
20	0x3e1248d5	0.14285596
21	0xbdd9796c	-0.106188625
22	0xbd054f0a	-0.03254608
23	0x3c01a662	0.007913204
24	0xbe0f60a7	-0.14001714
25	0xbcb32975	-0.021870354
26	0x3dc32f9e	0.09530567
27	0xbde1c85d	-0.110245444
28	0xbd444603	-0.04791833
29	0xbd4c5663	-0.049887072
30	0xbde92a1e	-0.11384986
31	0xbd50f8f9	-0.05101869
32	0x3d356ec3	0.044295084
33	0x3d551de7	0.05203047
34	0xbe6dc4bf	-0.23219584
35	0xbe05db0b	-0.1307184
36	0x3dbaedb7	0.09127372
37	0xbd412111	-0.047150675
38	0xbda4ae33	-0.08041038
39	0x3e0d5ea4	0.13805634
40	0xbe104afe	-0.14091107
41	0x3da442f2	0.08020581
42	0xbdf820c1	-0.12115622
43	0x3c4b5605	0.012410645
44	0xbe8871bd	-0.26649275
45	0xbe451912	-0.19247845
46	0xbe0c8916	-0.13724169
47	0xbdf17d3c	-0.11791465
48	0xbd48cc99	-0.049023245
49	0xbd8e728e	-0.06955443
50	0xbde86709	-0.113477774
51	0xbc261b75	-0.010138382
52	0xbd64813f	-0.05578732
53	0xbdf5e72b	-0.120069824
54	0x3d90706e	0.07052694
55	0xbded647b	-0.11591431
56	0x3d2b3f76	0.041808568
57	0xbdce6147	-0.10077148
58	0xbc688069	-0.014190772
59	0x3cba347e	0.022730108
60	0xbdaceea4	-0.084439546
61	0xbe8cfc71	-0.27536348
62	0x3c291e57	0.010322175
63	0xbdaf441a	-0.08557911
64	0x3e1d289a	0.1534752
65	0xbe039f07	-0.12853633
66	0xbda3c1aa	-0.07995923
67	0xbe52932f	-0.20563959
68	0x3d395f99	0.045257185
69	0xbe5b3e40	-0.21410465
70	0xbdd854d5	-0.105630554
71	0xbdd83716	-0.10557382
72	0xbd978ede	-0.07400297
73	0xbd81efb4	-0.06344548
74	0xbd7d1341	-0.06178594
75	0xbe18be3c	-0.14916319
76	0xbdfa9a0c	-0.12236413
77	0xbd944f14	-0.072416455
78	0x3df5aa2b	0.119953476
79	0x3dcf8f5e	0.10134767
80	0xbe889f4c	-0.26684034
81	0x3d7acd25	0.061230797
82	0xbe1963fa	-0.14979544
83	0x3b690ee1	0.0035561847
84	0xbdcb7c10	-0.099357724
85	0xbd5a2f69	-0.05326787
86	0xbe36ebbf	-0.17863367
87	0xbda054d0	-0.07828677
88	0xbda45bee	-0.08025347
89	0xbe6b1dd0	-0.22960591
90	0xbe6feb44	-0.2342959
91	0xbdd16324	-0.10223988
92	0xbe705d9f	-0.23473214
93	0x3d806c08	0.06270605
94	0xbd2fc5fc	-0.042913422
95	0xbd438666	-0.047735594
96	0x3cc78bc4	0.024358638
97	0xbd580416	-0.05273827
98	0x3d96b43e	0.07358597
99	0xbd669aed	-0.056300092

weight f4 [100, 100, 1]
0	0x3caed5b7	0.021342142
1	0xbdd89fb2	-0.105773345
2	0x3d4843a3	0.04889263
3	0xbd311e0c	-0.043241546
4	0x3dcc2a48	0.09969002
5	0xbda1eb7b	-0.079062425
6	0x3da3dccb	0.08001097
7	0xbd682aa4	-0.05668129
8	0x3db2883c	0.08717391
9	0x3d8cea6e	0.068806514
10	0xbb7a6b7f	-0.0038211045
11	0x3dab85b9	0.08375115
12	0xbda5d5a4	-0.08097389
13	0x39a8dd4f	0.00032208345
14	0xbbadb644	-0.005301269
15	0xbcf7f53c	-0.030268304
16	0xbd2061ab	-0.039155643
17	0x3c1c7fdb	0.0095519675
18	0x3d3124ad	0.043247867
19	0xbb54dd9a	-0.0032480718
20	0xbd0d68cf	-0.03452378
21	0xbd7b3307	-0.06132796
22	0x3d652e78	0.05595252
23	0x3ddac821	0.10682703
24	0xbddd3133	-0.108004
25	0x3e07ca6f	0.13260816
26	0xbdbddc28	-0.09270507
27	0x3c7cec04	0.01543713
28	0xbd436fd0	-0.047714055
29	0x3d821d97	0.063533
30	0xbd8c9beb	-0.068656765
31	0x3d38c550	0.045110047
32	0x3dedd6f8	0.11613268
33	0x3cf63f8b	0.030059597
34	0xbcdbecc2	-0.026846293
35	0x3dcb6fcb	0.09933432
36	0xbe02c118	-0.12768972
37	0x3c93bcaa	0.018034298
38	0xbd38cef1	-0.04511923
39	0xbe13c880	-0.14431953
40	0xbd5a0db2	-0.053235717
41	0x3d32b342	0.043627985
42	0xbd161ce9	-0.036648665
43	0xbc9d4e88	-0.019202486
44	0xbdaecae4	-0.08534792
45	0x3d148829	0.036262665
46	0xbd36d50a	-0.044636764
47	0x3d463dcc	0.048398778
48	0xbd7c12a3	-0.06154121
49	0xbb5dc97f	-0.0033842025
50	0xbd561011	-0.052261416
51	0x3c97ffc6	0.01855458
52	0xbda445cf	-0.080211274
53	0x3db798cf	0.08964693
54	0xbdbd8c63	-0.09255292
55	0xbcad2c3c	-0.021139257
56	0xbd28a47b	-0.041172486
57	0x3d8152a8	0.063145936
58	0x3bc3b6f9	0.00597274
59	0x3d6fb40d	0.05852132
60	0xbc84e8f9	-0.016224371
61	0xbd4f7adb	-0.050654273
62	0x3dccd720	0.10001969
63	0x3cd1dc61	0.02561778
64	0xbe6400fa	-0.22265998
65	0x3db6ccc0	0.08925772
66	0xbde05ed4	-0.10955587
67	0x3d90b54c	0.0706583
68	0x3d90c568	0.07068902
69	0x3d2e7ec9	0.04260138
70	0xbd9444b7	-0.07239669
71	0x3cba42e4	0.022736974
72	0xbccdb8ff	-0.025112627
73	0xbdc8e6dd	-0.09809659
74	0xbd1dfc6e	-0.038570814
75	0xbd861877	-0.06547635
76	0xbdd8621a	-0.105655864
77	0xbd15a259	-0.03653178
78	0xbdb013f1	-0.085975535
79	0x3ddb0f35	0.1069626
80	0xbdae0f51	-0.08499015
81	0x3e434547	0.19069396
82	0xbb95f6be	-0.004576533
83	0x3de22fc0	0.11044264
84	0x3a31c50d	0.0006781377
85	0x3d02b5d1	0.031911675
86	0xbd8f8d93	-0.07009425
87	0xbd8a5431	-0.067543395
88	0xbd82f22b	-0.06393846
89	0xbd8f873c	-0.07008216
90	0xbd9425b4	-0.07233754
91	0x3c9a172c	0.018809877
92	0xbbee1735	-0.00726595
93	0x3d86ea04	0.06587604
94	0x3de3dc23	0.11125972
95	0x3b84e0f2	0.004055136
96	0x3d2233f6	0.039600335
97	0xbd80210b	-0.062563024
98	0x3d4c0804	0.04981233
99	0xbc02cdaf	-0.007983609
100	0x3d63e38a	0.05563692
101	0x3d40a1a7	0.047029164
102	0xbcfda00d	-0.030960107
103	0x3d9990b2	0.074983016
104	0x39608892	0.00021413181
105	0x3d88a97b	0.06672951
106	0xbda21dd8	-0.079158485
107	0xbdcaa314	-0.09894386
108	0x3d50e673	0.051001024
109	0x3cdeae47	0.027182711
110	0x3ba0315c	0.0048886966
111	0xbd7db90a	-0.061944045
112	0x3d9c98b7	0.076463155
113	0xbce353e0	-0.027749956
114	0x3d6d748a	0.05797247
115	0xbd6d1f20	-0.05789101
116	0x3c808e26	0.015692782
117	0x3d8c5464	0.06852034
118	0xbc35df65	-0.011100625
119	0xbdad5953	-0.08464303
120	0xbcbd928b	-0.023141166
121	0xbdbddc14	-0.09270492
122	0xbb9b4495	-0.0047384
123	0xbdb20c3c	-0.0869374
124	0xbd058bc6	-0.032604
125	0xbdc60e9f	-0.096707575
126	0x3dae1958	0.08500928
127	0x3c2dd2ce	0.010609342
128	0x3d4a6692	0.049414225
129	0x3cb719e3	0.022351211
130	0x3db526f0	0.08845317
131	0x3d881d9d	0.06646273
132	0xbdc3e8a6	-0.095658585
133	0x3d15e7c6	0.03659799
134	0x3dbfe1b6	0.09369223
135	0xbd22c08a	-0.0397344
136	0xbcf9ba95	-0.030484477
137	0xbdbe2206	-0.09283833
138	0x3da7b2a7	0.08188372
139	0x3d8b032c	0.06787714
140	0x3cd1e23a	0.025620569
141	0x3d0cb14d	0.034348775
142	0x3dac39e2	0.08409478
143	0xbd520223	-0.05127157
144	0x3bf97333	0.00761261
145	0x3d070ff5	0.032974202
146	0x3d6171d7	0.055040207
147	0xbcf2df4d	-0.029647494
148	0xbda8a25f	-0.08234095
149	0xbc26652c	-0.010155957
150	0xbdc9781f	-0.098373644
151	0xbd7f93cb	-0.062396806
152	0x3aed5d9a	0.001810956
153	0xbd9a6640	-0.07539034
154	0xbd3dfd3a	-0.046384074
155	0x3d8a1df8	0.06743997
156	0xbd2baa5d	-0.041910518
157	0xbdb82133	-0.08990707
158	0xbd1f33aa	-0.03886763
159	0xbcacc02c	-0.021087728
160	0x3db44915	0.08803002
161	0xbcf8fa84	-0.030392893
162	0x3da37119	0.07980556
163	0xbb2d8376	-0.0026476062
164	0xbd90d875	-0.07072536
165	0xbd9076c4	-0.07053903
166	0xbd049e57	-0.032377567
167	0x3d81725c	0.063206404
168	0x3c8bec72	0.01708052
169	0xbd2932e3	-0.041308295
170	0x3cd47630	0.025935262
171	0xbc03be17	-0.008040926
172	0xbda153df	-0.07877325
173	0xba9f239a	-0.0012141347
174	0x3d4dbf6d	0.050231386
175	0x3d93feb1	0.07226313
176	0x3cdb99d5	0.026806751
177	0xbd8c7a78	-0.068592966
178	0xbd94187c	-0.072312325
179	0x3dad9a41	0.08476687
180	0xbdbf7c7a	-0.09349914
181	0xbd051b64	-0.032496825
182	0x3d969fe9	0.07354719
183	0xbdadf839	-0.0849461
184	0xbd94acd3	-0.07259526
185	0xbd10a193	-0.03531034
186	0x3d73df74	0.059539273
187	0xbd8e2383	-0.06940367
188	0x3d818b5f	0.06325411
189	0xbd0d12e0	-0.03444183
190	0xb7d14ccd	-2.4950505e-05
191	0x3da16c0c	0.078819364
192	0xbd9e6c89	-0.07735545
193	0x3d2533c2	0.040332563
194	0xbc2b544d	-0.010457111
195	0xbd8e0f6b	-0.069365345
196	0xbca665c7	-0.020312203
197	0x3cda61d5	0.026657978
198	0x3d5bff9b	0.05371056
199	0xbda6a063	-0.0813606
200	0x3dad95d9	0.08475847
201	0x3d18658a	0.03720621
202	0x3d2af763	0.041739833
203	0x3bb8ac2f	0.0056357603
204	0xbc4f697f	-0.01265943
205	0xbdbad9c3	-0.09123566
206	0xbdcd6e40	-0.10030794
207	0xbd414e36	-0.04719373
208	0xbc1623a0	-0.009163767
209	0xbdca9db4	-0.09893361
210	0xbd1f60cb	-0.03891067
211	0x3d8de9c7	0.06929355
212	0xbc0a0a01	-0.008425237
213	0x3d8441c2	0.06457855
214	0xbd2196e6	-0.03945055
215	0xbb00b064	-0.0019636387
216	0x3adb0697	0.0016710338
217	0xbdac60c9	-0.08416898
218	0x3d77d4ea	0.060505785
219	0xbd841355	-0.06449
220	0x3c81307f	0.015770195
221	0x3bbd91e2	0.005785213
222	0x3dac398f	0.08409416
223	0xba8318e6	-0.0010001927
224	0xbc6c8b6a	-0.014437536
225	0xbccc055a	-0.024904896
226	0x3d8aff44	0.06786969
227	0x3ca78252	0.020447884
228	0xbdc72315	-0.09723488
229	0x3d1dd6b8	0.03853485
230	0xbc00b349	-0.007855245
231	0xbd28888d	-0.04114585
232	0xbd9fc38b	-0.07800969
233	0x3d337c6c	0.04381983
234	0xbd55c635	-0.052190978
235	0x3cb4111f	0.02198082
236	0x3d6eca6b	0.05829851
237	0x3d769a80	0.060205936
238	0xba8d2b8d	-0.0010770425
239	0x3cbce664	0.023059078
240	0x3dba64fc	0.091012925
241	0xbd6869f0	-0.056741655
242	0xbd4eded1	-0.050505463
243	0xbc504da5	-0.012713824
244	0xbd459017	-0.048233118
245	0x3da2a75e	0.07942079
246	0x3bc392a3	0.005968408
247	0xbd57da71	-0.052698556
248	0xbc851e78	-0.01624988
249	0xbb77bdaa	-0.0037802258
250	0xbc28477b	-0.0102709485
251	0xbd61b83e	-0.055107348
252	0xbd8f74c6	-0.07004695
253	0xbd31c716	-0.043402754
254	0xbde25d5c	-0.11052963
255	0x3dc93562	0.09824635

bias f4 [100]
0	0xbd8882d9	-0.06665582
1	0xbd8a00c1	-0.06738425
2	0xbd79e5fd	-0.06101035
3	0xbe9ddde3	-0.3083335
4	0xbd39ff80	-0.04540968
5	0xbc1969f1	-0.009363637
6	0xbd956cf7	-0.07296174
7	0xbdf6ff33	-0.12060394
8	0xbdce526b	-0.10074314
9	0xbdadf824	-0.08494595
10	0x3cd05099	0.025429057
11	0xbdacb363	-0.08432653
12	0xbd99c8a3	-0.075089715
13	0xba980935	-0.0011599424
14	0xbcdff58f	-0.027338771
15	0xbdaafcbb	-0.08348986
16	0x3c6e8111	0.014557139
17	0xbe97edeb	-0.29673705
18	0xbde9ada1	-0.1141007
19	0xbdfb2e8f	-0.1226474
20	0xbd765aa8	-0.06014505
21	0xbc9c1f76	-0.01905797
22	0xbde1a007	-0.11016851
23	0xbc13ccfa	-0.009021038
24	0xbdcf25d8	-0.1011464
25	0xbcaeb1e7	-0.021325065
26	0xbc8cf560	-0.017206848
27	0xbea6bad3	-0.3256441
28	0xbdcd6626	-0.10029249
29	0xbdbf1863	-0.09330823
30	0xbd091a29	-0.033472214
31	0xbe13dec2	-0.14440444
32	0xbe644e47	-0.22295485
33	0xbc896f1f	-0.01677662
34	0xbdbf9d7c	-0.0935621
35	0xbe013b8b	-0.1262037
36	0xbd8c969c	-0.06864664
37	0xbdbd3515	-0.0923864
38	0xbd4a0b41	-0.04932714
39	0xbe9071c8	-0.28211808
40	0xbde85320	-0.1134398
41	0xbdd0ca5b	-0.10194846
42	0xbde810b6	-0.11331312
43	0xbdd56cfd	-0.104211785
44	0xbe1d25c7	-0.15346442
45	0xbd8659d7	-0.06560104
46	0xbdf6f328	-0.12058097
47	0x3c5aa7ab	0.013345639
48	0xbd7d9e8c	-0.06191878
49	0xbd00b46e	-0.03142207
50	0xbe284c5f	-0.16435383
51	0xbde0a467	-0.10968857
52	0xbdf0e82f	-0.117630355
53	0xbd6f79eb	-0.05846588
54	0xbce06ce2	-0.02739567
55	0xbdce414c	-0.10071048
56	0xbc82c65b	-0.015963724
57	0xbd8b7cab	-0.06810888
58	0xbdec485e	-0.115372404
59	0xbcad2499	-0.021135615
60	0xbdada033	-0.08477821
61	0xbcf5e871	-0.030018063
62	0xbdb987d8	-0.09059113
63	0xbdab114a	-0.08352907
64	0xbd8be40a	-0.068306044
65	0xbdb7fb21	-0.08983446
66	0xbda59ca1	-0.08086515
67	0xbdca935d	-0.098913886
68	0xbe549a43	-0.20761971
69	0xbe4e64c0	-0.2015562
70	0xbe080147	-0.13281737
71	0xbc2dac96	-0.01060023
72	0xbdec5f3e	-0.115416035
73	0xbea1fab8	-0.31636596
74	0xbd2e1c84	-0.042507663
75	0xbe01990b	-0.12656038
76	0xbd454a4e	-0.048166566
77	0xbd2fe8a1	-0.04294646
78	0xbb069cdc	-0.0020540273
79	0xbe0b3e55	-0.13597997
80	0xbd912855	-0.07087771
81	0xbc873515	-0.016504804
82	0xbdf94047	-0.12170463
83	0xbdc0e61a	-0.094188884
84	0xbc7e022b	-0.015503447
85	0xbe04c68b	-0.12966363
86	0xbd1ea219	-0.038728807
87	0xbdb8f983	-0.090319656
88	0xbd0b4726	-0.0340034
89	0xbd4aa015	-0.049469072
90	0xbceb45a6	-0.028719734
91	0xbd312afb	-0.04325388
92	0xbd073e68	-0.0330185
93	0xbdae9242	-0.0852399
94	0xbe19cffb	-0.15020745
95	0xbd828a5a	-0.06374045
96	0xbce15879	-0.027508007
97	0xbceaef1f	-0.028678475
98	0x3ae16e17	0.0017198947
99	0xbda0a765	-0.07844428

weight f4 [100, 100, 1]
0	0xbd91db57	-0.07121914
1	0x3be37233	0.006941104
2	0x3cdcd9f3	0.026959395
3	0xbc83e3e7	-0.016099883
4	0x3d214995	0.039376814
5	0xbd879bb7	-0.06621497
6	0xbd64e466	-0.05588188
7	0x3d2614b2	0.04054708
8	0xbd88c35a	-0.06677885
9	0xbd5ce46f	-0.05392879
10	0x3bfdf88f	0.0077505778
11	0xbe18b442	-0.14912513
12	0x3d964e01	0.07339097
13	0xbdb096ae	-0.0862249
14	0xbdb8de4e	-0.09026776
15	0x3c03434c	0.00801165
16	0xbdf7e8db	-0.121049605
17	0xbde0448e	-0.10950576
18	0xbda71556	-0.081583664
19	0xbd9a6ecb	-0.07540663
20	0x3da1ede2	0.07906701
21	0xbcdf2d4d	-0.02724328
22	0xbd07e8b2	-0.0331809
23	0xbdd6f68d	-0.104962446
24	0xbdbcd780	-0.09220791
25	0xbdb4825b	-0.08813926
26	0xbd42e918	-0.047585577
27	0xbd8fb982	-0.07017805
28	0xbba33765	-0.004980969
29	0xbda83e23	-0.08214977
30	0xbce0aaa1	-0.027425112
31	0xbcf3a041	-0.029739501
32	0x3ca38c73	0.019964432
33	0xbd4fc168	-0.050721556
34	0xbd1e03e6	-0.038577937
35	0x3d58fc5a	0.052975036
36	0xbd37185a	-0.044700958
37	0xbbcc553c	-0.0062357467
38	0xbd08332d	-0.03325193
39	0x3d512413	0.051059794
40	0xbe17b6fe	-0.148159
41	0xbd26e95d	-0.040749896
42	0x3d282d08	0.04105857
43	0xbdbfc109	-0.093629904
44	0xbb83668e	-0.004010028
45	0xbc607b5f	-0.013701289
46	0xbdce6ffd	-0.10079954
47	0xbd025af7	-0.031825032
48	0xbd792fe7	-0.0608367
49	0xbba814b1	-0.0051294197
50	0x3d5dc68a	0.05414442
51	0xbdb2a137	-0.087221555
52	0xbdfdb7e0	-0.12388587
53	0xbdd38fa2	-0.1033013
54	0x3d1a915e	0.03773629
55	0xbdd22362	-0.10260655
56	0xbd04d093	-0.032425474
57	0x3d725424	0.059162274
58	0xbd74d0ad	-0.05976932
59	0xbcc434bc	-0.023950927
60	0x3d31b312	0.043383665
61	0x3d8c5881	0.06852818
62	0xbd9e8fc0	-0.07742262
63	0xbe10e021	-0.14147998
64	0xbcb2976d	-0.021800721
65	0xbc00c8a3	-0.0078603355
66	0x3c895af9	0.016767012
67	0xbd6d4198	-0.057923883
68	0xbd95abb5	-0.07308141
69	0xbda90011	-0.08251966
70	0xbe09a858	-0.13443124
71	0xbe08a0e6	-0.13342628
72	0xbdaf0fc6	-0.085479304
73	0xbc7d801a	-0.015472436
74	0xbdb21fb6	-0.08697455
75	0x3c893572	0.016749118
76	0xbd99f3ff	-0.07517242
77	0xbcf7c8cb	-0.030247113
78	0x3d0b1364	0.03395404
79	0xbd96ae34	-0.07357445
80	0x3cd7511d	0.026283795
81	0xbcba64ba	-0.022753108
82	0x3d8ccb4e	0.06874715
83	0x3ce48089	0.027893322
84	0x3da1822e	0.07886158
85	0xbdecffea	-0.11572249
86	0xbd6803d9	-0.056644294
87	0x3dac21a7	0.08404856
88	0xbc5b0531	-0.013367937
89	0xbdf3eae7	-0.119100384
90	0xbce0fab7	-0.0274633
91	0x3caf9e8b	0.021437904
92	0xbd8b6338	-0.06806034
93	0x3c85735d	0.016290361
94	0xbc6d911a	-0.014499927
95	0xbd03bcca	-0.032162465
96	0xbcfd5fc0	-0.030929446
97	0xbd3590ae	-0.04432743
98	0x3acb3fe9	0.0015506718
99	0x3c9a7791	0.018855842
100	0xbdd37de6	-0.103267476
101	0x3c58e43d	0.01323801
102	0xbc7a3f22	-0.015273841
103	0xbcce1001	-0.025154116
104	0xbde49c7e	-0.11162661
105	0x3d62035f	0.055178996
106	0x3d47097a	0.048593022
107	0xbdfa740e	-0.12229167
108	0x3dace717	0.084425144
109	0xbd45e35f	-0.04831254
110	0xbbe79118	-0.007066857
111	0xbe450c3d	-0.1924295
112	0xbc4269cd	-0.011866045
113	0x3d32b6c3	0.043631326
114	0xbd66a364	-0.056308165
115	0x3c5889af	0.01321642
116	0xbddd31af	-0.10800492
117	0x3cbfd04b	0.023414752
118	0xbdc2540b	-0.09488686
119	0xbbdd68e9	-0.006756891
120	0xbd14bd4c	-0.03631334
121	0x3d9f5c10	0.077812314
122	0x3cb4d481	0.022073986
123	0xbbbb5efc	-0.00571811
124	0xbe26a9a0	-0.16275644
125	0x3d8a7367	0.067602925
126	0xbe116892	-0.14200047
127	0x3d98733b	0.074438535
128	0xbd34c4ca	-0.044132985
129	0xbe33bf5b	-0.17553465
130	0xbbddba10	-0.006766565
131	0xbd9833a8	-0.07431728
132	0xbc53ba28	-0.012922801
133	0xbbaad47c	-0.0052133184
134	0xbda9d943	-0.082933925
135	0xbe023322	-0.12714818
136	0xbb5e5ecf	-0.0033931022
137	0xbcd24a24	-0.025670119
138	0xbd044f41	-0.032302145
139	0xbce3e6f5	-0.02782009
140	0xbe187036	-0.14886555
141	0x3d891ed2	0.06695332
142	0xbcf9a85f	-0.030475793
143	0x3d866be6	0.06563549
144	0x3da41c5d	0.08013222
145	0xbd26b64f	-0.040701207
146	0xbb4aad50	-0.0030926056
147	0x3dbc55a5	0.09196023
148	0xbd66de33	-0.05636425
149	0xbcb32880	-0.021869898
150	0xbd304e0b	-0.043043178
151	0x3bf72c4d	0.007543123
152	0xbddea947	-0.10872131
153	0x3db9eca0	0.09078336
154	0x3cad4b5d	0.0211541
155	0xbce54049	-0.027984755
156	0xba92473d	-0.0011160147
157	0xbcae10d6	-0.021248262
158	0xbdf7d793	-0.121016644
159	0x3d28a78c	0.04117541
160	0xbdd6a755	-0.10481135
161	0xbdb7884e	-0.08961545
162	0xbd8e2112	-0.069399014
163	0xbd322ec0	-0.043501616
164	0xbd7ed0b8	-0.06221077
165	0xbd0792d6	-0.033099018
166	0x3c9731fd	0.018456453
167	0xbd8e09ec	-0.06935486
168	0xbd8aede2	-0.06783654
169	0x3d6a5f7c	0.057219967
170	0xbd5bb59a	-0.053639986
171	0xbbabd5d4	-0.005243996
172	0x3d8df869	0.06932146
173	0xbd19f5f6	-0.037588082
174	0xbd4beef7	-0.04978844
175	0xbdcb6aeb	-0.09932502
176	0xbdb16426	-0.0866168
177	0xbcb187a5	-0.021671126
178	0xbd0fecf8	-0.0351381
179	0x3ce4cf3e	0.027930852
180	0xbddfa8b3	-0.10920849
181	0xbeaa6cbb	-0.3328608
182	0xbdaa1585	-0.08304886
183	0xbd998379	-0.074957795
184	0xbc28293d	-0.010263738
185	0xbd7ecc82	-0.062206753
186	0xbcfe5e30	-0.031050771
187	0x3d300072	0.042969175
188	0xbd00c925	-0.031441826
189	0x3d4e4462	0.050358184
190	0xbd1c266a	-0.038122572
191	0xbcf5f5b4	-0.030024387
192	0x3c967d4b	0.018370291
193	0xbc6bc127	-0.014389313
194	0x3da1a7ab	0.07893308
195	0x3d62b3d7	0.05534729
196	0xbdc3276f	-0.09529006
197	0xbdd65ffb	-0.104675256
198	0xbe3858ad	-0.18002577
199	0xbcd2fbf3	-0.025754904
200	0xbdcbf4ae	-0.09958778
201	0xbd0fe0a0	-0.03512633
202	0xbbe9c187	-0.007133666
203	0xbd85d5dd	-0.06534932
204	0x3d9d6420	0.07685113
205	0xbddee64d	-0.1088377
206	0x3c8da712	0.01729158
207	0xbcb45a1d	-0.022015626
208	0xbd787854	-0.06066163
209	0xbd4e2600	-0.05032921
210	0x3c34fe67	0.011046982
211	0xbc9eb764	-0.019374557
212	0xbd97527b	-0.07388779
213	0xbd1ca520	-0.038243413
214	0xbca370d1	-0.019951256
215	0xbe0d63e8	-0.13807642
216	0xbe1a0dc7	-0.15044318
217	0xbdaca535	-0.08429948
218	0xbcb98c91	-0.022650035
219	0x3d146b0a	0.036234893
220	0xbc76b26d	-0.015057188
221	0x3c5a4c0d	0.013323796
222	0xbc4be8ea	-0.012445668
223	0xbcd6bdc4	-0.026213534
224	0xbd601796	-0.054709993
225	0xbc948f40	-0.018134713
226	0xbd21f7f1	-0.039543096
227	0x3d262d7e	0.04057073
228	0x3c44efea	0.012020091
229	0xbdc7cdea	-0.09756072
230	0xbc576de3	-0.013148758
231	0xbc79fb9a	-0.01525774
232	0x3d397f7a	0.045287587
233	0x3c0bbf70	0.008529529
234	0xbda791e5	-0.08182124
235	0xbcda628a	-0.026658315
236	0xbca4d121	-0.020119252
237	0x3d9b5790	0.075850606
238	0xbd18a061	-0.037262324
239	0xbd6a042e	-0.057132892
240	0x3bbc9c4d	0.005755937
241	0xbc47f9c0	-0.012205541
242	0xbc6e1a6a	-0.014532665
243	0xbd958777	-0.073012285
244	0x3d9217a8	0.07133418
245	0xbd5da055	-0.054107983
246	0x3c4a5c50	0.012351111
247	0x3d465a12	0.04842574
248	0x3da3f36c	0.080054134
249	0xbceecb65	-0.02914972
250	0xbd7ef25f	-0.06224286
251	0xbc7db7f1	-0.01548575
252	0xbdf0276f	-0.11726271
253	0x3d10f4dd	0.03538977
254	0xbcd14074	-0.025543429
255	0xbdfc68e2	-0.12324692

bias f4 [100]
0	0xbc023118	-0.007946275
1	0xbdbe8b70	-0.09303939
2	0xbca797a4	-0.02045805
3	0xbde8d1fa	-0.11368175
4	0xbc2adb90	-0.010428324
5	0x3d416df2	0.047223993
6	0xbe3538ef	-0.176975
7	0x3e22ebc4	0.1591025
8	0xbc05758c	-0.008145701
9	0x3de2ca07	0.1107369
10	0xbcf2351f	-0.029566346
11	0xbda7851f	-0.08179688
12	0x3e11326b	0.14179389
13	0x3c5ac10f	0.013351693
14	0xbcc80fad	-0.024421537
15	0x3e0882a2	0.13331082
16	0x3c92f4a0	0.017938912
17	0xbb06236a	-0.0020467886
18	0xbcbb48d7	-0.022861881
19	0xbdf26b36	-0.11836855
20	0xbc28fad4	-0.010313708
21	0xbdb1ea4b	-0.08687266
22	0xbd21d05c	-0.039505348
23	0xbea9861e	-0.33110136
24	0xbeb4e35e	-0.35329717
25	0xbc5bb54b	-0.013409923
26	0xbdca90ce	-0.098909006
27	0xbdb7c400	-0.08972931
28	0xbdbb978d	-0.091597654
29	0xbd629993	-0.05532224
30	0xbd6c3447	-0.057667043
31	0x3adeeca4	0.001700778
32	0xbdfe48db	-0.1241624
33	0x3c51f3d2	0.012814479
34	0x3e96fe6d	0.29490986
35	0xbe834bf2	-0.2564388
36	0xbc81170f	-0.015758066
37	0x3e16faa3	0.14744048
38	0xbd90fe95	-0.07079808
39	0xbd20b9ea	-0.0392398
40	0xbd8e3d62	-0.069453016
41	0xbeab4ce4	-0.334571
42	0xbcf3f769	-0.02978106
43	0xbcf65f91	-0.030074866
44	0xba48c77b	-0.00076591194
45	0xbde01a4e	-0.10942517
46	0xbe0cd68f	-0.13753723
47	0xbd36c479	-0.044620965
48	0x3e0dfabd	0.1386518
49	0xbd0a48be	-0.03376078
50	0xbb3623bd	-0.0027792298
51	0x3a378956	0.00070013606
52	0xbb8c5705	-0.0042828345
53	0xbca033e6	-0.019555997
54	0x3d9f4bfd	0.077781655
55	0xbdfeaebc	-0.12435672
56	0x3c11ede5	0.008906816
57	0xbd0e60b9	-0.03476021
58	0xbca51027	-0.020149304
59	0x3d6ae39f	0.057345983
60	0xbc8e4185	-0.017365227
61	0xbc80adf8	-0.015707955
62	0xbe369fa8	-0.17834342
63	0xbdcc4fad	-0.099761344
64	0xbd93c976	-0.0721616
65	0xbcb343b7	-0.021882875
66	0xbc88bb61	-0.016690912
67	0xbd8fbe07	-0.07018667
68	0xbd7593f8	-0.059955567
69	0x39618053	0.00021505477
70	0x3e27014d	0.1630909
71	0xbba465e0	-0.0050170273
72	0xbcacde95	-0.02110223
73	0xbdabb474	-0.08384028
74	0xbcbadc1c	-0.022810034
75	0xbe1a70f5	-0.15082152
76	0xbcd868e7	-0.026417209
77	0xbb2c0408	-0.002624752
78	0xbcece22f	-0.028916446
79	0xbcc9928c	-0.024606012
80	0xbcb9db02	-0.022687439
81	0xbd8ba322	-0.068182245
82	0x3b893acc	0.0041879173
83	0xbc88f444	-0.016718037
84	0x3e08c8cd	0.1335785
85	0xbca6c91b	-0.020359566
86	0x3bd25fdd	0.006420119
87	0x3c31b090	0.010845318
88	0xbd32fcee	-0.043698244
89	0xbd1af63e	-0.03783249
90	0xbdb558ee	-0.088548526
91	0xbd37da49	-0.044885907
92	0xbd003972	-0.031304784
93	0x39690bcb	0.00022225005
94	0xbeae901e	-0.34094328
95	0xbc3eb2e1	-0.011639328
96	0xbc5ec866	-0.013597583
97	0xb98be792	-0.0002668468
98	0xbb902982	-0.0043994794
99	0xbd44e36e	-0.048068456

weight f4 [100, 100, 1]
0	0x3d8bba82	0.06822683
1	0xbd660f1f	-0.056166764
2	0xbcc67208	-0.024224296
3	0x3bdbf86e	0.0067129647
4	0x3dac0ddb	0.0840108
5	0xbdfe7e30	-0.12426412
6	0xbd94c2fe	-0.07263754
7	0xbe1925b7	-0.14955793
8	0xbddc13a4	-0.10745934
9	0x3caac056	0.020843666
10	0xbd8de151	-0.06927741
11	0xb810d99a	-3.4534933e-05
12	0xbcf38eb9	-0.029731141
13	0xb9cd9a90	-0.00039215805
14	0xbd965e90	-0.07342255
15	0xbd98d7e2	-0.074630514
16	0x3d247384	0.040149227
17	0x3ce8c8fd	0.028416151
18	0xbce65fe2	-0.028121892
19	0x3d2263a1	0.039645795
20	0xbda0acac	-0.078454345
21	0x3cafc751	0.021457346
22	0x3cadda4f	0.021222262
23	0x3dcff7cc	0.101546854
24	0xbb977c5a	-0.004622978
25	0x3d95e531	0.073191054
26	0x3d8b3426	0.06797056
27	0xbcf20011	-0.029541047
28	0x3d2b290f	0.041787203
29	0xbc2f8c45	-0.010714595
30	0xbcd41dd9	-0.025893139
31	0xbd956a85	-0.072957076
32	0xbc8b94e5	-0.017038772
33	0x3da867b7	0.08222907
34	0xbce5e4e5	-0.028063247
35	0x3cd5d756	0.026103657
36	0x3d2cbab2	0.042170234
37	0x3c6a90a6	0.014316713
38	0x3cbd5775	0.023112992
39	0x3dd1f12b	0.10251077
40	0xbd5d781b	-0.05406962
41	0x3dd72264	0.10504606
42	0x3d8f85b5	0.070079245
43	0xbd8bd659	-0.06827993
44	0x3d01eb05	0.031718273
45	0x3cd98de9	0.026556926
46	0xbd9fb452	-0.07798065
47	0xbdaaf6b0	-0.08347833
48	0xbd7b7cda	-0.061398365
49	0x3d63cbbc	0.055614218
50	0xbbd5fb1b	-0.0065301782
51	0x3d6a0e22	0.057142384
52	0xbd8b420c	-0.06799707
53	0x3d08687f	0.03330278
54	0xbd54b3c0	-0.051929235
55	0x3c433b04	0.011915926
56	0xbda11e7d	-0.07867143
57	0x3d731f5d	0.059356082
58	0xbd84f62e	-0.064922675
59	0x3ca7adb1	0.020468565
60	0x3d2bc0ab	0.04193179
61	0xbdbc140f	-0.091835134
62	0xbdb2c8f2	-0.087297335
63	0xbd9da722	-0.07697894
64	0xbda67ce2	-0.08129288
65	0xbcc3fa08	-0.023922935
66	0x3de40292	0.11133303
67	0x3c9668f7	0.018360598
68	0xbcb50cee	-0.022100892
69	0xbce70744	-0.028201707
70	0xbdf97b90	-0.12181771
71	0x3d545c62	0.051845916
72	0x3bdcd69d	0.006739451
73	0xbd2bddf8	-0.041959733
74	0x3cad1e6c	0.02113267
75	0xbda72cb3	-0.081628226
76	0x3c4f223a	0.012642438
77	0xbb40f759	-0.0029444306
78	0xbcdd38af	-0.027004568
79	0x3d1aa8c7	0.037758615
80	0xbdac9969	-0.08427698
81	0xbdb68e8d	-0.08913908
82	0xbd82cf9c	-0.063872546
83	0x3d0706ca	0.03296546
84	0xbd26f25e	-0.040758483
85	0xbd5ed1c3	-0.054399263
86	0x3df44590	0.119273305
87	0x3c48e91c	0.012262609
88	0xbda09400	-0.07840729
89	0xbd3620d4	-0.0444649
90	0xbc8ae8e3	-0.016956752
91	0x3c72ee50	0.014827326
92	0x3d4605b6	0.04834529
93	0xbdc9f694	-0.09861484
94	0x3c77cded	0.01512478
95	0x3c95bf10	0.018279582
96	0xbdad7490	-0.08469498
97	0xbbdeeabb	-0.0068028844
98	0xbd2fa51c	-0.04288207
99	0xbd571aa1	-0.05251563
100	0xbcfa5a6d	-0.030560696
101	0xbde85895	-0.11345021
102	0xbd91108e	-0.07083236
103	0x3db6aa72	0.089192286
104	0x3d2dedb7	0.04246303
105	0xbdc87582	-0.09788038
106	0xbdc66621	-0.09687448
107	0x3d32daa5	0.043665547
108	0xbda181dc	-0.07886097
109	0x3d52a9d4	0.051431492
110	0x3cdecd35	0.02719746
111	0x3db73e7b	0.08947464
112	0xbd439fb9	-0.047759745
113	0xbd43f315	-0.047839243
114	0xbda43180	-0.08017254
115	0xbe060c2f	-0.13090585
116	0xbcbd9bd3	-0.023145592
117	0xbd19b553	-0.03752644
118	0x3d934c7f	0.07192325
119	0xbcdf50f3	-0.02726028
120	0xbbc72200	-0.006077051
121	0x3cb9f1da	0.022698332
122	0xbca49c5a	-0.020094085
123	0x3d081c5d	0.033230174
124	0x3da8b350	0.08237326
125	0x3d5f699a	0.05454407
126	0x3c895f4d	0.016769076
127	0xbd68d9b3	-0.05684824
128	0xbd6d51cf	-0.057939347
129	0x3c873dfa	0.016509045
130	0xbc99e553	-0.018786108
131	0xbddb3dba	-0.10705133
132	0x3db4e70e	0.08833133
133	0xba8ae333	-0.0010596275
134	0x3d09dba6	0.03365674
135	0x3d407043	0.04698206
136	0xbd7d36de	-0.061819904
137	0xbdef6090	-0.1168834
138	0xbc95b151	-0.018273028
139	0xbaede867	-0.0018150926
140	0x3d8a9e87	0.06768518
141	0xbc0da040	-0.008644164
142	0xbd805210	-0.06265652
143	0xbbc34c67	-0.0059600356
144	0xbd9b3f60	-0.07580447
145	0x3dac0fc1	0.08401442
146	0xbd7a5387	-0.061114814
147	0xbda73654	-0.08164659
148	0x3d5d26df	0.05399215
149	0xbd8b19d3	-0.06792035
150	0xbd083a7a	-0.033258893
151	0x3dc00219	0.093754
152	0x3d9c6c00	0.07637787
153	0x3cbd93d3	0.023141777
154	0x3d1a82e1	0.037722472
155	0xbdcb83cd	-0.099372484
156	0x3bafc058	0.0053635053
157	0xbabe8b33	-0.0014537334
158	0xbdaadf63	-0.08343389
159	0xbc96ccb4	-0.018408157
160	0x3da1a803	0.07893374
161	0xbdc25c39	-0.09490246
162	0x3d908023	0.0705569
163	0xbda668b5	-0.0812544
164	0xbdecd451	-0.11563934
165	0xbc0ebb8d	-0.008711708
166	0x3dba382b	0.090927444
167	0xbdbd48ab	-0.09242376
168	0x3d5f950d	0.054585505
169	0x3d89c633	0.067272566
170	0x3d1d1415	0.03834923
171	0x3d87617f	0.06610393
172	0xbda23540	-0.07920313
173	0xbd9f88c2	-0.07789756
174	0xbc2312cc	-0.009953212
175	0xbc3cb71a	-0.011518264
176	0xbda8be2a	-0.08239396
177	0x3c963038	0.01833354
178	0x3d862277	0.065495424
179	0xbd5e7a93	-0.054316115
180	0xbda96400	-0.082710266
181	0xbda9e07b	-0.082947694
182	0xbc31b028	-0.010845222
183	0x3cdf2571	0.027239533
184	0x3ce4e0e3	0.027939266
185	0x3cf2b500	0.029627323
186	0xbd9d1757	-0.07670467
187	0xbd6cb138	-0.057786196
188	0x3da3a065	0.07989577
189	0x3dc35dcf	0.09539377
190	0xbd8d2019	-0.06890888
191	0x3dc23f8b	0.09484776
192	0x3dac8f13	0.08425727
193	0x3dd37a41	0.103260525
194	0x3d077eed	0.03308003
195	0xbd1833ed	-0.037158895
196	0x3bca6a14	0.0061771963
197	0xbb84a380	-0.004047811
198	0xbcf1c197	-0.029511256
199	0xbca65ccb	-0.020307919
200	0x3dade025	0.08490018
201	0xbc5b9707	-0.013402707
202	0x3c9b1015	0.018928567
203	0x3db22edb	0.08700343
204	0xbc9c8295	-0.019105235
205	0xbd7d5aa3	-0.061854016
206	0xbd9a369b	-0.075299464
207	0x3d1ace12	0.03779418
208	0xbce75ca7	-0.028242422
209	0xbce70bc4	-0.028203852
210	0x3da070d3	0.078340195
211	0x3d2f9187	0.042863395
212	0x3c086654	0.008325178
213	0x3c50c189	0.012741455
214	0xbccb5a2b	-0.024823269
215	0xbdb3e64d	-0.08784161
216	0xbd82ee8c	-0.063931555
217	0x3d17248c	0.03690009
218	0xbdc26b65	-0.0949314
219	0x3d0087ed	0.03137963
220	0xbbb97043	-0.0056591346
221	0xbd0e93a9	-0.03480879
222	0x3d2bddd9	0.041959617
223	0x3d884465	0.0665367
224	0xbdc49a45	-0.09599737
225	0x3d6040ea	0.054749407
226	0xbd81fe4c	-0.063473314
227	0xbd9ad2be	-0.07559727
228	0xbceb3e08	-0.028716102
229	0x3dae63a2	0.08515097
230	0x3d0f8b3c	0.035044894
231	0x3b0a31e7	0.0021086873
232	0x3d248726	0.04016795
233	0x3d8476b7	0.064679556
234	0x3ced79ce	0.028988745
235	0x3c831b42	0.016004208
236	0xbd8eb74f	-0.06968557
237	0x3da1b67e	0.07896136
238	0xbca6d626	-0.020365786
239	0x3c5e6c31	0.0135755995
240	0xbb382cf0	-0.0028102957
241	0x3ddb2c84	0.1070185
242	0x3c986c76	0.018606406
243	0x3cd06c12	0.025442157
244	0x3cb47bd1	0.022031697
245	0xbc858ecd	-0.016303444
246	0x3d51a521	0.05118287
247	0x3d885ee6	0.066587254
248	0x3d2a4b1d	0.04157554
249	0xbc41b53f	-0.011822998
250	0x3da9fcdf	0.083001845
251	0x3d9b3388	0.07578188
252	0xbda1b52d	-0.07895885
253	0x3d20e599	0.03928146
254	0x3d518367	0.051150706
255	0x3d9bb0b3	0.07602062

bias f4 [100]
0	0xbd5394d3	-0.0516556
1	0xbd88a228	-0.06671554
2	0xbc8d3af5	-0.017240027
3	0xbd14208e	-0.03616386
4	0x3b73e18e	0.0037213298
5	0xbe3901e6	-0.1806713
6	0x3c495809	0.012289056
7	0xbda0c9e5	-0.07851008
8	0x3ba42702	0.005009533
9	0x3cdb9178	0.026802763
10	0xbc9a60f8	-0.018845066
11	0xbd8808b5	-0.06642286
12	0xbad1e07e	-0.0016012338
13	0x3b8a4cf7	0.0042206007
14	0x3e003780	0.12521172
15	0xbe1477a5	-0.14498766
16	0xbd31aff5	-0.043380696
17	0x3d6df013	0.05809028
18	0xbdb1a549	-0.08674104
19	0xbc8d2a8c	-0.017232202
20	0x3b8f3732	0.0043705935
21	0xbda10de5	-0.07863978
22	0xbdb643f2	-0.08899678
23	0xbda4902f	-0.08035313
24	0x3c6c7797	0.014432809
25	0x3d32a83d	0.043617476
26	0xbdaf0395	-0.08545605
27	0xbd30fede	-0.04321181
28	0xbcb36ca4	-0.02190239
29	0x3e20fc40	0.15721226
30	0xbd00dd98	-0.03146133
31	0x3da82400	0.082099915
32	0xbd49f34e	-0.0493043
33	0xbe3f6915	-0.1869243
34	0xbd05f5c0	-0.03270507
35	0xbdc44062	-0.095825925
36	0xbca4a3b7	-0.020097597
37	0xbd8b652c	-0.068064064
38	0xbd3a0cf9	-0.045422528
39	0xbe140475	-0.14454825
40	0xbd76fef1	-0.060301725
41	0xbd79f2e7	-0.061022665
42	0xbdbc862a	-0.09205277
43	0x3c662771	0.0140474895
44	0xbb47f254	-0.003050943
45	0xbd466fa2	-0.048446305
46	0xbd614935	-0.055001456
47	0xbc1d8c6c	-0.009615999
48	0xbd840813	-0.064468525
49	0xbce54cec	-0.02799078
50	0xbb0a0857	-0.00210621
51	0x3c9c6dbb	0.019095292
52	0xbdc8a57a	-0.09797187
53	0x3cb3b114	0.021935023
54	0xbc6d702f	-0.014492079
55	0x3d4ded5a	0.050275184
56	0xbaab16f3	-0.0013053104
57	0xbd9e32d7	-0.07724541
58	0xbd70896c	-0.058724806
59	0x3d1156b3	0.035483073
60	0xbda881ab	-0.08227857
61	0x3e591937	0.21201025
62	0xbdcc0f9a	-0.09963913
63	0x3b0b773e	0.002128079
64	0x3c54915f	0.012974112
65	0xbe291b56	-0.16514334
66	0xbc7ea7a5	-0.015542899
67	0xbe156d43	-0.14592461
68	0xbc89ecd6	-0.016836565
69	0xbe49dff9	-0.19714345
70	0x3cec49e6	0.028843831
71	0xbda06e08	-0.07833487
72	0xbd4c3ca1	-0.049862508
73	0xbe831cba	-0.25607854
74	0xbda11eee	-0.078672275
75	0x3c9658a0	0.018352807
76	0xbea0c73d	-0.31402007
77	0xbdd7e0c8	-0.105409205
78	0xbe1b9b26	-0.15195903
79	0xbda8595f	-0.08220171
80	0xbe084a6b	-0.13309638
81	0xbabe556c	-0.0014521307
82	0x3cd106de	0.02551597
83	0x3d33d883	0.043907654
84	0xbb4595b9	-0.0030149056
85	0x3c9ab2c4	0.01888407
86	0x3e541dda	0.20714512
87	0xbd2a627e	-0.041597836
88	0xbd85557e	-0.06510447
89	0x3c1ee806	0.009698873
90	0xbde141ba	-0.109988645
91	0xbc9cef26	-0.019157004
92	0xbc9924ed	-0.018694365
93	0x3bf6364b	0.0075137964
94	0x3e008c8d	0.12553616
95	0xbcf9c590	-0.030489713
96	0xbd78617c	-0.060639843
97	0xbc1d94a5	-0.009617959
98	0x3e6accb9	0.22929658
99	0xbcd9c394	-0.026582517
