data/pretrained_models/donor-4.pt (torch, 225197 bytes, 14 tensors)

weight f4 [100, 4, 9]
0	0x3c71ef3f	0.014766513
1	0xbd1d74df	-0.038441535
2	0xbeb9ab59	-0.3626354
3	0x3e73f6a5	0.23824556
4	0xbe4290b7	-0.19000517
5	0xbf2064d8	-0.62653875
6	0x3dfba51a	0.1228735
7	0x3e6bfbe9	0.23045315
8	0x3e20dd24	0.15709358
9	0x3d2aa904	0.041665092
10	0xbbfb8167	-0.007675338
11	0xbec57d9d	-0.38572398
12	0x3edc93f3	0.43081626
13	0x3d876cd3	0.066125534
14	0xbd8cf0ee	-0.06881891
15	0x3d94d47c	0.07267091
16	0xbbc3a41c	-0.005970491
17	0xbddb03cf	-0.10694086
18	0xbe8f0498	-0.27933192
19	0xbdadf871	-0.08494652
20	0xbd20dd23	-0.039273392
21	0xbeaa6d4c	-0.33286512
22	0xbe2579bf	-0.16159724
23	0x3e3acb98	0.18241727
24	0xbd22ef06	-0.03977873
25	0xbe5770c0	-0.21039104
26	0x3cf2870a	0.029605407
27	0x3e74643e	0.23866364
28	0x3e153d7f	0.1457424
29	0x39c215ff	0.00037018952
30	0x3efc9c7f	0.49338147
31	0x3d82af52	0.06381096
32	0x3db6c21e	0.08923744
33	0x3e5abe29	0.21361603
34	0x3ef1a5cf	0.47196814
35	0xbe8f44f0	-0.27982283
36	0xbebb15f3	-0.36540183
37	0x3c54c395	0.0129860835
38	0xbe21861f	-0.1577382
39	0x3e739d28	0.23790419
40	0x3ec88912	0.39167076
41	0x3e97d52b	0.29654822
42	0x3e242bb8	0.16032302
43	0xbef7fdc6	-0.484358
44	0xbe08cc71	-0.13359238
45	0x3e9e708c	0.3094524
46	0x3cd2058b	0.025637409
47	0x3dce30b3	0.100678824
48	0xbe26cf79	-0.16290082
49	0x3e997f37	0.2997987
50	0xbe3ead54	-0.18620807
51	0xbdc32676	-0.0952882
52	0xbe5ef394	-0.21772605
53	0x3d720b5b	0.05909286
54	0xbef75e7a	-0.48314267
55	0x3ea46379	0.32107142
56	0x3cfb9e85	0.030715236
57	0x3d40431c	0.046939
58	0x3f0e3321	0.55546767
59	0xbed8e53e	-0.42362398
60	0xbefac99a	-0.48981935
61	0x3e35edbb	0.17766468
62	0xbe7112ae	-0.23542282
63	0xbd85a2bb	-0.06525179
64	0xbe85aa84	-0.26106656
65	0x3e77119c	0.24127811
66	0xbb8fc782	-0.004387797
67	0xbebe90d9	-0.37219885
68	0xbe915704	-0.283867
69	0x3be20e31	0.0068986644
70	0xbd89b898	-0.067246616
71	0xbebd7a5d	-0.37007418
72	0x3ddbb3f5	0.107276835
73	0xbe867acb	-0.2626556
74	0xba83be28	-0.0010051178
75	0x3dff92ba	0.12479158
76	0x3f0ecb4b	0.5577895
77	0xbda5f2dd	-0.08102963
78	0x3dae0963	0.08497884
79	0xbf24383c	-0.64148307
80	0xbd48adc8	-0.048993856
81	0xbd4d9591	-0.050191466
82	0x3df0b2eb	0.11752876
83	0xbedd98d5	-0.43280664
84	0xbd8771b3	-0.06613483
85	0x3d4e2078	0.050323933
86	0x3da2a419	0.079414554
87	0xbea3ebca	-0.3201583
88	0xbe55ac98	-0.2086662
89	0xbc325ee5	-0.010886882
90	0x3c81adbd	0.015829915
91	0x3e7164b1	0.23573567
92	0x3c844af3	0.01614902
93	0x3c970185	0.018433342
94	0x3edb57c8	0.4284041
95	0xbc09939d	-0.00839701
96	0xbe81fc84	-0.25387967
97	0x3dc78bd3	0.09743466
98	0x3e59d74b	0.21273534
99	0xbe6d7e44	-0.23192698
100	0xbdf88792	-0.12135233
101	0x3e78669a	0.2425789
102	0x3cd15c52	0.025556717
103	0xbed9ce9c	-0.42540443
104	0xbd6d065a	-0.057867385
105	0xbe26896c	-0.1626336
106	0xbd3e5a83	-0.046473037
107	0xbe90dfda	-0.28295785
108	0xbcdff68b	-0.02733924
109	0xbe9cc693	-0.3062025
110	0x3eb11fd6	0.345946
111	0xbe89ae75	-0.26890913
112	0xbe410ecc	-0.18853301
113	0xbea3ab04	-0.31966412
114	0xbe45870e	-0.192898
115	0x3edad583	0.42741022
116	0x3e98965b	0.29802212
117	0x3daf5295	0.08560673
118	0x3e9d086c	0.30670488
119	0x3d5ad8ce	0.053429417
120	0xbdbf859e	-0.09351657
121	0xbeac06d8	-0.3359897
122	0x3ee0607a	0.43823606
123	0xbca2cb02	-0.019872192
124	0x3f0a7e8f	0.54099363
125	0xbca36529	-0.019945698
126	0x3c94c58d	0.018160606
127	0x3da5ee20	0.08102059
128	0x3cb26a85	0.021779308
129	0x3e271463	0.1631637
130	0xbe6c9417	-0.23103367
131	0x3e91683c	0.28399837
132	0x3ea13a1f	0.31489655
133	0xbf0509d2	-0.5196811
134	0xbdc13c48	-0.09435326
135	0x3d3a9267	0.045549776
136	0x3ecd7ca6	0.40134162
137	0xbe61199b	-0.21982424
138	0x3df8d7db	0.12150546
139	0x3ce258a4	0.027630158
140	0x3ecdf9b7	0.4022958
141	0x3eb32cb0	0.3499503
142	0x3d36a6d5	0.044592697
143	0xbc89b96e	-0.016812053
144	0x3db1df4d	0.08685169
145	0x3e0ab176	0.13544258
146	0x3da1a979	0.078936525
147	0x3b5c9e75	0.0033663784
148	0xbbd7672c	-0.0065735783
149	0x3d4faaac	0.050699875
150	0xbe89a07a	-0.26880246
151	0x3eecc02c	0.46240366
152	0xbec3b2c1	-0.38222316
153	0x39cc4721	0.00038962907
154	0xbd69851d	-0.057011712
155	0x3ceeb1f1	0.029137583
156	0xbed47c51	-0.41501096
157	0x3e88380a	0.26605254
158	0x3cc2d102	0.023781303
159	0xbda1945f	-0.07889628
160	0xbed8ca42	-0.4234181
161	0xbe461d73	-0.19347171
162	0x3dc1de69	0.094662495
163	0xbe1da44a	-0.15394703
164	0xbe78de9f	-0.24303673
165	0xbdd2d7b4	-0.10295048
166	0x3f1a4b91	0.60271555
167	0x3e54a886	0.20767412
168	0x3ea996a5	0.33122745
169	0xbec71276	-0.38881272
170	0x3e0354d6	0.12825331
171	0xbdee9919	-0.11650295
172	0xbcda6487	-0.026659263
173	0x3de38f71	0.11111344
174	0xbd53d11e	-0.0517131
175	0xbd975609	-0.07389457
176	0xbedb5035	-0.4283463
177	0xbd0a3437	-0.033741202
178	0x3db06df6	0.086147234
179	0x3e62f8f2	0.22165278
180	0x3d7aa6fc	0.061194405
181	0x3c71c079	0.014755362
182	0x3da5745f	0.08078837
183	0xbe161f24	-0.14660317
184	0xbc098fe2	-0.008396121
185	0xbe10a73c	-0.14126295
186	0x3de80299	0.113286205
187	0xbd72f33c	-0.059313998
188	0x3df3647d	0.11884401
189	0x3d8bcc59	0.068260856
190	0xbda3f92d	-0.08006511
191	0xbc784381	-0.015152813
192	0x3f2ce762	0.6754056
193	0xbe867a86	-0.26265353
194	0x3deb183b	0.11479231
195	0x3c6925bd	0.014230189
196	0xbe0b8903	-0.13626485
197	0x3e37f4e8	0.17964518
198	0xbd0bea23	-0.034158837
199	0xbd4ae660	-0.04953611
200	0x3d8df5e8	0.069316685
201	0xbf01b9be	-0.50674045
202	0xbd14e4d9	-0.03635106
203	0x3e361308	0.17780697
204	0xbe72610d	-0.23669834
205	0xbdb756f8	-0.08952135
206	0xbeb8e0a5	-0.3610889
207	0xbdac0946	-0.08400206
208	0x3ca68e8f	0.02033165
209	0xbc0eae94	-0.008708615
210	0x3eea8299	0.45802763
211	0xbd9a062c	-0.075207084
212	0xbe8d4d69	-0.27598122
213	0x3d70b1c9	0.0587633
214	0x3e67b461	0.22627403
215	0xbd92e3ca	-0.071723536
216	0x3d2a13dc	0.041522846
217	0x3cedb15e	0.02901524
218	0x3cdeac30	0.027181715
219	0x3f12fe11	0.57418925
220	0xbe31b05b	-0.1735243
221	0xbf51a7d0	-0.81896687
222	0xbf184ea5	-0.59495
223	0xbe6876e3	-0.22701602
224	0x3efeace7	0.4974129
225	0xbd227d9d	-0.039670575
226	0xbce59892	-0.028026853
227	0x3e407a64	0.18796688
228	0xbe57c6a5	-0.2107187
229	0x3e576995	0.2103637
230	0x3d293ac9	0.041315828
231	0xbdabf3d3	-0.08396115
232	0xbf212788	-0.62950945
233	0xbc80f5f5	-0.015742281
234	0x3e7bc83c	0.24588102
235	0x3d9e6a3c	0.07735106
236	0x3d6681ab	0.056276005
237	0xbdfa7691	-0.12229646
238	0xbe0a1804	-0.13485724
239	0x3ec86cfb	0.39145645
240	0x3dcd19e9	0.100147076
241	0x3e405c2d	0.18785162
242	0x3b1947fc	0.0023388853
243	0xbd0b4b07	-0.0340071
244	0x3d96dfad	0.073668815
245	0x3d12588a	0.03572897
246	0x3df84e85	0.121243514
247	0x3bf11ae9	0.0073579443
248	0xbf4e695f	-0.80629534
249	0x3f1bb002	0.6081544
250	0x3d80c368	0.06287271
251	0xbe6c2a24	-0.2306295
252	0xbec75536	-0.38932198
253	0x3e6aa1f4	0.22913343
254	0xbd473731	-0.04863662
255	0xbe1c7fd6	-0.1528314

bias f4 [100]
0	0x3daf5620	0.08561349
1	0xbe0c7247	-0.13715468
2	0x3dce2fcd	0.10067711
3	0xbdbb442d	-0.09143863
4	0x3e324a49	0.1741115
5	0x3de9024d	0.11377392
6	0xbd303e71	-0.0430283
7	0xbd11813d	-0.03552364
8	0x3d908a90	0.07057679
9	0x3dd2165d	0.10258172
10	0x3e67d29f	0.2263894
11	0x3dab1c96	0.08355062
12	0x3d801fd3	0.0625607
13	0xbdc20a23	-0.0947459
14	0xbe1880a8	-0.14892828
15	0xbdbfc39e	-0.09363483
16	0xbe051a10	-0.12998223
17	0x3e80d792	0.25164467
18	0xbe01d88a	-0.1268026
19	0xbd109de6	-0.035306834
20	0xbdba9cd4	-0.09111944
21	0x3c48caea	0.01225541
22	0xbd8b3695	-0.0679752
23	0x3dda1805	0.106491126
24	0xbe2e5924	-0.17026192
25	0x3d3127c2	0.043250807
26	0xbe0eff01	-0.13964464
27	0xbd3a34c8	-0.045460492
28	0x3eda4c5b	0.4263638
29	0xbdb3b096	-0.087739155
30	0xbe23ed20	-0.16008425
31	0x3e83deb4	0.25755847
32	0x3e8f1bfd	0.2795104
33	0x3e59fa00	0.21286774
34	0x3e26bb72	0.16282442
35	0xbe1b21c8	-0.15149605
36	0xbd0c23d7	-0.034213867
37	0xbcf716a5	-0.030162165
38	0xbdb2d576	-0.08732121
39	0x3ec04983	0.37556085
40	0xbbf6b168	-0.0075284727
41	0x3df6bef2	0.12048139
42	0x3e9e5c22	0.30929667
43	0xbddd10f4	-0.10794249
44	0xbd70f55e	-0.05882775
45	0x3e4c1f88	0.19933903
46	0x3d89cbe4	0.06728342
47	0x3e0f3f89	0.1398908
48	0xbdb89bf1	-0.090141185
49	0x3de69b77	0.11260121
50	0x3e82cd47	0.2554724
51	0x3e1526bc	0.14565557
52	0x3e49e6fb	0.19717018
53	0xbb8f3fdb	-0.004371626
54	0x3e4183f3	0.18897991
55	0xbe3f5e4e	-0.18688318
56	0x3e64a088	0.22326863
57	0x3e22b2b3	0.15888481
58	0xbe63aa48	-0.22232926
59	0xbe7c7c23	-0.2465673
60	0xbe019990	-0.12656236
61	0x3e802440	0.25027657
62	0xbe118227	-0.14209805
63	0xbdc5adae	-0.096522674
64	0x3ea56309	0.3230212
65	0x3defbb94	0.117056996
66	0xbdbc41ce	-0.09192239
67	0xbd552cad	-0.05204456
68	0xbc34f714	-0.011045236
69	0xbe0b50f0	-0.13605094
70	0x3e47af46	0.19500455
71	0x3ce12b0c	0.027486347
72	0xbb1ef26f	-0.0024253388
73	0xbbd51380	-0.0065025687
74	0x3ea70971	0.3262439
75	0xbd9064b2	-0.07050456
76	0xbd3e2e11	-0.04643065
77	0xbe03c7a2	-0.12869123
78	0xbdf4c26c	-0.119511455
79	0xbe458869	-0.19290318
80	0xbdbc2e7d	-0.091885544
81	0xbe059a89	-0.13047232
82	0xbe0b9f3a	-0.13634959
83	0x3c08f07e	0.008358119
84	0x3ebd3031	0.3695083
85	0xbd5c7530	-0.053822696
86	0x3cc947ff	0.024570463
87	0xbdc0428f	-0.09387695
88	0x3e7e99c7	0.24863349
89	0xbdb87bf4	-0.09008017
90	0xbe584e1a	-0.21123543
91	0xbd9c30e2	-0.07626511
92	0x3e64f559	0.22359218
93	0x3e379f9c	0.1793198
94	0xbc7d0ca0	-0.015444905
95	0x3e93f69f	0.28899094
96	0x3e337fc5	0.17529209
97	0xbc6f1693	-0.014592784
98	0x3b55c493	0.0032618388
99	0xbde9aac6	-0.114095256

weight f4 [100, 100, 1]
0	0xbd72fa25	-0.059320588
1	0x3e46acd6	0.19401869
2	0xbe516cbf	-0.2045164
3	0xbdc73b57	-0.09728115
4	0xbd726762	-0.059180625
5	0xbe1e630c	-0.15467471
6	0xbe95ea00	-0.2928009
7	0xbbddfe3c	-0.006774692
8	0xbe9a8d09	-0.30185726
9	0xbed9b0f8	-0.4251783
10	0xbf12aca4	-0.5729468
11	0xbe4853c4	-0.19563204
12	0xbe55d812	-0.20883206
13	0xbeb7370b	-0.35784182
14	0xbd2f1017	-0.042739954
15	0xbe3ddd95	-0.18541558
16	0xbe8f295a	-0.27961236
17	0xbe102b91	-0.1407912
18	0xbe58256f	-0.2110803
19	0xbcc3921a	-0.023873378
20	0xbddee040	-0.10882616
21	0xbcd87e33	-0.026427364
22	0xbd5b6e5a	-0.053572036
23	0xbeae71c2	-0.34071165
24	0xbed94fb8	-0.42443633
25	0xbde89722	-0.11356951
26	0xbe4e639c	-0.20155185
27	0xbe64c406	-0.22340402
28	0xbe8e465b	-0.27788052
29	0x3dbe40fc	0.092897385
30	0xbef8e421	-0.4861155
31	0xbe306b8e	-0.17228529
32	0xbebb13ca	-0.36538535
33	0xbe370e04	-0.1787644
34	0xbedf6702	-0.43633276
35	0xbe225926	-0.1585432
36	0xbe8ac2c5	-0.27101722
37	0xbdec4a64	-0.115376264
38	0xbe5382d2	-0.20655373
39	0x3e7ad16c	0.2449395
40	0xbdc79b96	-0.097464725
41	0x3ee4fe71	0.44725373
42	0xbec7d474	-0.39029276
43	0x3b7e16c4	0.0038770894
44	0xbe6879b3	-0.22702675
45	0xbe975575	-0.29557386
46	0xbaca3eed	-0.001543013
47	0xbe6e8f1e	-0.23296782
48	0xbe236928	-0.15958083
49	0xbe8b08bf	-0.2715511
50	0xbe80facd	-0.25191346
51	0xbec095c1	-0.37614253
52	0xbebb37fb	-0.36566147
53	0xbeec97c3	-0.46209535
54	0xbe8a5d3d	-0.2702426
55	0xbe970cd2	-0.2950197
56	0xbe21290f	-0.15738319
57	0xbef02c67	-0.46908876
58	0xbef1719c	-0.4715699
59	0xbdeaf07f	-0.11471652
60	0xbd1bcc7d	-0.038036812
61	0x3b675eed	0.0035304383
62	0xbd32aa75	-0.04361959
63	0xbda5363b	-0.08066984
64	0xbdd07f82	-0.1018057
65	0xbea0be88	-0.31395364
66	0xbdb7fbea	-0.08983596
67	0x3d7c553a	0.061604716
68	0xbbf03db0	-0.0073315725
69	0x3c9a650f	0.018847017
70	0xbdc44266	-0.09582977
71	0x3d4f11fc	0.05055426
72	0xbd02a35b	-0.03189407
73	0xbea0781c	-0.31341636
74	0x3c47b30e	0.012188686
75	0xbe464692	-0.19362858
76	0xbd5c2ab5	-0.053751666
77	0x3d435fa7	0.047698643
78	0x3d11c252	0.03558571
79	0xbe5b478a	-0.21414009
80	0xbde9978c	-0.114058584
81	0xbeed19de	-0.46308798
82	0xbd3e62b2	-0.046480842
83	0xbd2e241d	-0.04251491
84	0xbd440501	-0.047856335
85	0xbe351125	-0.17682321
86	0xbde46d28	-0.111536324
87	0xbe39abbc	-0.18131918
88	0xbe9299eb	-0.28633055
89	0x3e0d1207	0.13776408
90	0xbd92f29c	-0.0717518
91	0xbdb2bbb1	-0.087272055
92	0xbd669b56	-0.056300484
93	0x3d92fde3	0.07177331
94	0x3d1820f7	0.037140813
95	0xbe51a8af	-0.20474504
96	0xbdcf64ac	-0.101266235
97	0xbe8c0e8d	-0.2735485
98	0xbe50e528	-0.20399916
99	0x3e8914ee	0.2677378
100	0x3cb017f9	0.021495806
101	0xbddeb139	-0.10873646
102	0xbdb2af6d	-0.08724866
103	0xbd036ec7	-0.032088067
104	0x3d38f377	0.04515406
105	0x3db81566	0.089884564
106	0x3bfc8625	0.007706421
107	0xbd29da9d	-0.04146825
108	0xbc01c18d	-0.007919681
109	0xbd00c6fd	-0.03143977
110	0xbc3b0bca	-0.011416385
111	0x3d0dd570	0.034627378
112	0xbb697390	-0.003562186
113	0xbd2502d6	-0.040285908
114	0x3db2987f	0.087204926
115	0x3c309f5d	0.010780183
116	0x3db18027	0.08667021
117	0xbca8c101	-0.020599844
118	0xbde664e7	-0.11249714
119	0xbd94f027	-0.07272368
120	0xbcb81e99	-0.022475528
121	0xbe0e448f	-0.1389334
122	0xbd8bd52b	-0.06827768
123	0xbcbe22d8	-0.023209974
124	0x3d50ecc1	0.051007036
125	0x3d576a57	0.052591648
126	0xbd89e7b3	-0.06733646
127	0x3d5ba560	0.05362451
128	0xbdef672d	-0.11689601
129	0xbdd62706	-0.10456662
130	0x3db573f9	0.08860011
131	0x3c6d7f9f	0.014495759
132	0xbde4a69e	-0.11164592
133	0xbdcf651a	-0.101267055
134	0xbd22b11d	-0.03971969
135	0xbd06978d	-0.032859374
136	0x3d13f1c2	0.03611923
137	0xbd0224bc	-0.031773314
138	0x3c9689c3	0.018376237
139	0x3dd9f52a	0.106424645
140	0xbdc6bef9	-0.09704394
141	0x3ce26ec9	0.027640717
142	0xbd42c972	-0.047555394
143	0xbd236df8	-0.039899796
144	0x3d02d23b	0.031938773
145	0xbdb7ef7f	-0.08981227
146	0x3db7caff	0.08974265
147	0x3ca2a9f5	0.019856432
148	0x3d93fac9	0.07225568
149	0x3d87fc83	0.0663996
150	0xbcdf25ef	-0.027239768
151	0xbdafb272	-0.085789576
152	0xbcd592b8	-0.026070938
153	0x3b80fe2d	0.00393655
154	0xbc9e9056	-0.019355934
155	0x3a9f535f	0.0012155584
156	0x3dc88a03	0.09791949
157	0xbd8c5d77	-0.068537645
158	0x3d96f131	0.07370222
159	0x3dc01f23	0.09380939
160	0xbd661ff4	-0.056182817
161	0xbce2f4e3	-0.027704662
162	0xbd654a4d	-0.055979062
163	0xbd0ad93b	-0.033898573
164	0x3d3babe7	0.045818236
165	0xbd1da6a4	-0.038489
166	0xbd61f34b	-0.055163663
167	0x3c6df718	0.014524244
168	0x3c981648	0.018565312
169	0x3c801774	0.015636183
170	0xbe059c4c	-0.13047904
171	0xbd8f06f8	-0.06983751
172	0x3cd80226	0.026368212
173	0x3c4b5382	0.0124100465
174	0x3d7289aa	0.059213318
175	0x3d176541	0.036961798
176	0xbc768a1d	-0.015047577
177	0xbd135e93	-0.035978865
178	0x3dac14e9	0.08402426
179	0xbca3a878	-0.019977793
180	0xbc937510	-0.018000156
181	0xbe1c700d	-0.15277119
182	0xbd5fcfac	-0.05464141
183	0x3d2f2d48	0.042767793
184	0x3d2e6f1b	0.042586427
185	0xbd6567bb	-0.05600713
186	0xbd4472be	-0.04796099
187	0xbdb4dc9b	-0.0883114
188	0xbde4691f	-0.11152863
189	0x3cc2a72f	0.02376136
190	0xbd2ed092	-0.042679377
191	0xbc97d88b	-0.018535873
192	0x3b087bd6	0.0020825765
193	0xbd958dcd	-0.07302437
194	0xbc837a15	-0.016049424
195	0x3d3bb52c	0.045827076
196	0x3d185eb4	0.03719969
197	0xbd5ce8b9	-0.05393288
198	0xbca164e2	-0.019701425
199	0xbd8cb5bb	-0.068706
200	0xbe33b86c	-0.1755082
201	0x3eb49f01	0.3527756
202	0x3e8afe22	0.27147013
203	0xbe90658b	-0.2820247
204	0xbc233634	-0.0099616535
205	0xbe9c3691	-0.3051038
206	0xbc8fefc6	-0.017570388
207	0x3d155a2e	0.036462955
208	0xbe1fa9c7	-0.15592109
209	0xbde4d9b4	-0.11174336
210	0x3d8f2776	0.069899485
211	0xbe22ddb8	-0.15904891
212	0x3d648f15	0.055800516
213	0xbdf8087f	-0.121109955
214	0x3cafb7af	0.021449892
215	0x3cf9b75f	0.030482946
216	0xbcefd006	-0.029273998
217	0x3e0fca36	0.14041981
218	0xbea043f9	-0.3130186
219	0xbca8c9bc	-0.020604007
220	0xbe2ae510	-0.16688943
221	0xbe857236	-0.260637
222	0xbd8563f7	-0.065132074
223	0xbdd4463f	-0.10364961
224	0x3d0fa953	0.03507359
225	0xbe74517c	-0.23859209
226	0xbda2a3a9	-0.07941372
227	0xbd0d7b1e	-0.03454124
228	0xbe9751d7	-0.29554626
229	0xbdf86207	-0.12128072
230	0x3e007714	0.12545425
231	0x3c02a8c5	0.007974808
232	0xbdbe4d11	-0.09292043
233	0xbc175d51	-0.009238557
234	0x3d3012bd	0.04298662
235	0xbe37abc1	-0.17936613
236	0x3d8e6c4e	0.06954251
237	0x3c299531	0.010350511
238	0xbd769721	-0.06020272
239	0x3e511623	0.204186
240	0xbb475f3e	-0.003042176
241	0x3e3fdda9	0.187369
242	0xbec88e89	-0.39171246
243	0x3d60f42d	0.054920364
244	0x3d384e06	0.044996284
245	0xbdff7157	-0.1247279
246	0x3ddc0c73	0.10744562
247	0xbceb9198	-0.028755948
248	0x3df0c93b	0.11757132
249	0x3d9e50b6	0.07730238
250	0xbb49782a	-0.003074179
251	0xbe5b1f3d	-0.21398635
252	0x3c4180fc	0.011810537
253	0xbd8885d4	-0.06666151
254	0x3da1295f	0.07869219
255	0x3e5c9a46	0.21543226

bias f4 [100]
0	0xbe2ac070	-0.16674972
1	0xbdba0fe7	-0.090850644
2	0xbddc284f	-0.10749876
3	0xbd7da9c8	-0.061929494
4	0xbd924284	-0.07141593
5	0xbcf9d0e7	-0.03049512
6	0xbd528112	-0.051392622
7	0xbd0dbedd	-0.03460585
8	0xbe123608	-0.14278424
9	0xbd2e7039	-0.042587493
10	0xbdd9c168	-0.106325924
11	0xbb30deeb	-0.0026988338
12	0xbe3e9872	-0.18612841
13	0xbe7587a9	-0.23977531
14	0xbd089adb	-0.033350807
15	0xbdd71ca6	-0.10503511
16	0xbd523283	-0.051317703
17	0x3e899a0c	0.2687534
18	0xbe0a8835	-0.13528521
19	0xbdb3bb20	-0.08775926
20	0xbe19964b	-0.14998738
21	0x3c753d83	0.014968279
22	0xbe1f13de	-0.15534922
23	0xbd8aadd4	-0.06771436
24	0xbd28b647	-0.04118946
25	0xbe9b30eb	-0.3031076
26	0xbc76cf73	-0.015064108
27	0xbdd88691	-0.105725415
28	0x3eac33ae	0.33633178
29	0xbd957d59	-0.07299299
30	0xbe694042	-0.22778419
31	0xbe1d02de	-0.15333125
32	0x3dbcd803	0.092208885
33	0xbdc025f8	-0.09382242
34	0x3d2a3c97	0.04156169
35	0xbdf28689	-0.11842067
36	0xbe0e492c	-0.138951
37	0xbd43d1ab	-0.047807377
38	0xbd7ce5ea	-0.0617427
39	0xbd889823	-0.06669643
40	0xbe462282	-0.19349101
41	0xbd506657	-0.05087885
42	0xbe2b92cf	-0.16755222
43	0xbe8bce07	-0.27305624
44	0x3bc8abd7	0.0061240005
45	0xbd79b082	-0.060959347
46	0xbd9f95a2	-0.07792212
47	0xbe307e6a	-0.17235723
48	0xbe8ad428	-0.27114987
49	0xbe020842	-0.12698463
50	0xbd8fba6b	-0.07017978
51	0xbccca1fa	-0.02497958
52	0xbcabbfc6	-0.020965468
53	0xbd420b1d	-0.04737388
54	0xbcd94136	-0.026520353
55	0xbdc6be1d	-0.0970423
56	0xbe024612	-0.12722042
57	0x3bb015e1	0.005373702
58	0xbe0874f0	-0.13325858
59	0xbdfa9a3f	-0.12236451
60	0xbdaa9c4b	-0.08330592
61	0xbe24a646	-0.16079053
62	0x3d351e74	0.044218495
63	0xbe2430ea	-0.16034284
64	0xbdec1a35	-0.11528436
65	0xbdb4656a	-0.08808406
66	0xbd414e8d	-0.047194052
67	0xbd26ed85	-0.04075386
68	0xbe0f351e	-0.13985106
69	0xbbd902c5	-0.0066226446
70	0xbdbb8ba4	-0.09157494
71	0xbdee0bd6	-0.11623351
72	0xbdb7a738	-0.08967441
73	0xbd869a59	-0.06572408
74	0xbe3c7841	-0.18405248
75	0xbe3d9e32	-0.18517378
76	0x3d6a35bb	0.057180148
77	0xbd754f41	-0.059890036
78	0xbd122445	-0.03567912
79	0xbde2ebd7	-0.11080139
80	0xbdfb6e84	-0.122769386
81	0x3ea0555f	0.31315133
82	0xbe346f7b	-0.17620651
83	0xbdae66ac	-0.08515677
84	0xbd622ed9	-0.05522046
85	0xbdd7c078	-0.105347574
86	0xbcff59b9	-0.031170713
87	0xbd9a61c0	-0.075381756
88	0xbe7f67e8	-0.24941981
89	0x3dfc27bf	0.123122685
90	0xbe02d44a	-0.12776294
91	0x3d2a5ed6	0.04159435
92	0xbd00d908	-0.031456977
93	0x3c7dd93c	0.015493687
94	0xbdad103a	-0.084503606
95	0xbe13e883	-0.14444165
96	0xbd91238d	-0.07086859
97	0xbe3d0ec7	-0.18462668
98	0x3d2b78fa	0.04186342
99	0xbe00e1a0	-0.12586069

weight f4 [100, 100, 1]
0	0xbdb6d78f	-0.08927833
1	0xbdff9fc0	-0.12481642
2	0xbdc633b8	-0.09677833
3	0x3d5e2b77	0.05424067
4	0x3d545d21	0.051846627
5	0x3ccdd294	0.025124826
6	0xbda01186	-0.07815842
7	0xbc87acc0	-0.016561866
8	0x3d7816d1	0.060568634
9	0xbc9faad9	-0.019490646
10	0xbdca483b	-0.09877058
11	0xbd9bc513	-0.07605948
12	0xbd8038ee	-0.062608585
13	0xbdf74e1a	-0.120754436
14	0x3c6303ca	0.013855884
15	0xbd5a945b	-0.05336414
16	0xbda50b94	-0.08058849
17	0xbdc91a21	-0.09819437
18	0xbd848dc8	-0.06472355
19	0x3d90e2e7	0.07074528
20	0xbca5c95d	-0.020237619
21	0xbda616e8	-0.08109838
22	0x3d93931b	0.072057925
23	0xbe00b579	-0.12569226
24	0xbd49e888	-0.049294025
25	0xbd086b36	-0.03330537
26	0xbe0ca2be	-0.13733956
27	0x3c8d623f	0.017258761
28	0x3d233e35	0.039854247
29	0xbc98c5e0	-0.018649042
30	0x3d369416	0.04457482
31	0xbca654c5	-0.020304093
32	0x3d62b53e	0.055348627
33	0x3cb24ad6	0.0217642
34	0x3d994093	0.0748302
35	0x3d8cec9c	0.06881067
36	0x3d51cd9c	0.051221475
37	0xbda726f3	-0.08161726
38	0xbbd62f63	-0.0065364107
39	0xbda0157f	-0.078166
40	0xbcf8bd34	-0.030363657
41	0xbdaca1fa	-0.08429332
42	0xbd603327	-0.054736283
43	0x3d98bdf4	0.07458106
44	0xbd35ddac	-0.044400856
45	0xba12d619	-0.0005601361
46	0xbd7ca514	-0.06168087
47	0xbe059a0c	-0.13047045
48	0x3c1607f4	0.00915717
49	0xbda71f73	-0.08160295
50	0x3cddaa9e	0.027058896
51	0x3b883daf	0.004157744
52	0xbd3cd521	-0.046101693
53	0x3dabcc1f	0.083885424
54	0x3d93aadd	0.07210324
55	0xbcaa65f3	-0.020800566
56	0xbdaeb3e2	-0.08530404
57	0xbd305046	-0.043045305
58	0xbdf18303	-0.117925666
59	0x3d1dc948	0.038522035
60	0xbd87baea	-0.06627448
61	0x3c7e9752	0.015539007
62	0x3cdec222	0.02719218
63	0x3cb4a370	0.02205059
64	0xbc24d6bc	-0.010060962
65	0xbd58c818	-0.0529252
66	0x3bc85276	0.0061133457
67	0xbb353144	-0.0027647773
68	0xbd81af55	-0.0633227
69	0x3d7345ed	0.05939286
70	0x3d1dcc42	0.038524874
71	0xbde07015	-0.10958878
72	0xbd7ed4e8	-0.062214762
73	0xbdebd823	-0.11515834
74	0xbba27ec3	-0.004958959
75	0xbd96d873	-0.07365503
76	0xbd4298af	-0.04750889
77	0x3d178068	0.036987692
78	0x3d8e41a2	0.06946112
79	0x3c673b8c	0.014113318
80	0x3c357a40	0.01107651
81	0xbdfae7c1	-0.12251235
82	0x3d8d0d01	0.06887246
83	0xbc574bf6	-0.013140669
84	0x3ce60838	0.02808009
85	0x3cd32942	0.02577651
86	0x3d843507	0.06455427
87	0xbd7dd23e	-0.06196808
88	0xbd2dd8ce	-0.04244309
89	0xbdd6cde8	-0.10488492
90	0x3c637264	0.013882253
91	0xbcc67ca7	-0.02422936
92	0xbbba4b64	-0.005685257
93	0xbde2eba2	-0.110801
94	0xbcd53145	-0.02602447
95	0xbca534f4	-0.020166852
96	0x3d64835f	0.055789348
97	0xbde40961	-0.111346014
98	0x3d586f75	0.05284067
99	0xbcfc4ae3	-0.030797428
100	0xbc4b7ea8	-0.012420334
101	0x3d89d36b	0.06729778
102	0xbccf1fee	-0.02528378
103	0x3e48ac3c	0.19596952
104	0x3dc36d2b	0.095423065
105	0x3e25cb0a	0.16190735
106	0x3dd24ef2	0.10268964
107	0xbd7b9789	-0.061423812
108	0xbd7ff58d	-0.062490035
109	0x3e18dbbc	0.14927572
110	0x3d8a7e11	0.067623265
111	0xbd1f377f	-0.038871285
112	0xbd576458	-0.05258593
113	0x3e9384fc	0.28812397
114	0x3ccaa292	0.024735723
115	0x3bd323d8	0.006443482
116	0x3c1a02b4	0.009400059
117	0xbc47fe2f	-0.012206598
118	0x3c88433d	0.016633624
119	0x3e52caec	0.20585221
120	0xbcf799b7	-0.030224664
121	0xbc1d88b2	-0.00961511
122	0xbf026592	-0.50936234
123	0xbcc5f913	-0.02416662
124	0x3d4ccd55	0.050000507
125	0x3ec60c9f	0.38681504
126	0x3d558af7	0.05213448
127	0xbd332a53	-0.043741535
128	0x3de5caaf	0.112202995
129	0xbb46c998	-0.0030332562
130	0x3e6e3188	0.23261082
131	0x3e151726	0.14559612
132	0x3da5bb67	0.08092385
133	0xbd02a6ab	-0.03189723
134	0x3e9f3bbc	0.3110026
135	0xbc5e6d15	-0.013575812
136	0x3b30df47	0.0026988552
137	0xbd9308fd	-0.07179449
138	0x3c830e99	0.015998172
139	0x3e546851	0.20742919
140	0x3ead6780	0.33868027
141	0x3d27951a	0.04091368
142	0x3e0114b8	0.1260556
143	0x3d85926d	0.06522069
144	0x3d45ee9c	0.04832326
145	0xbe55c4c5	-0.20875843
146	0x3d80785f	0.06272959
147	0x3e671bba	0.2256917
148	0xbe1aef71	-0.15130402
149	0xbd96beaa	-0.07360585
150	0x3dde13fe	0.10843657
151	0x3cca5ac9	0.024701493
152	0x3e52fac4	0.20603472
153	0x3cedfc16	0.029050868
154	0xbdc33441	-0.09531451
155	0xbcd72565	-0.026262948
156	0x3dad0db1	0.08449877
157	0x3d2990f8	0.04139802
158	0xbd1e7d94	-0.03869398
159	0x3caabf90	0.020843297
160	0x3e44bf07	0.19213496
161	0xbdcff31b	-0.101537906
162	0x3df08e91	0.117459424
163	0x3e5e4e6f	0.21709608
164	0xbda79a6f	-0.08183753
165	0x3e6b4400	0.22975159
166	0x3d85eb53	0.06539025
167	0xbd335d7f	-0.043790337
168	0x3da98a1a	0.08278294
169	0x3d9d52f1	0.076818354
170	0x3d2981c6	0.041383527
171	0xbe066ce7	-0.1312748
172	0x3e3ef50f	0.1864817
173	0x3dee692b	0.11641153
174	0x3d972ff0	0.0738219
175	0xbcfa6519	-0.030565785
176	0x3ee920d9	0.45532873
177	0x3d93eeca	0.0722328
178	0x3daef466	0.08542709
179	0xbcfbea85	-0.030751476
180	0x3e7438ba	0.23849764
181	0x3e2ad22d	0.16681738
182	0xbc1ee4a7	-0.00969807
183	0x3d1f6209	0.038911853
184	0x3dfc6772	0.12324418
185	0xbd11037f	-0.035403725
186	0x3b2f13f1	0.0026714767
187	0x3d85ff15	0.06542794
188	0xbc56f906	-0.013120895
189	0x3dbef9d8	0.09324998
190	0x3d8ef418	0.06980151
191	0xbe49f8ef	-0.19723867
192	0x3c85ba25	0.016324112
193	0x3e0447d2	0.12918022
194	0x3dd06214	0.10174957
195	0xbe188996	-0.14896235
196	0x3d2ea7df	0.042640563
197	0xbec3443a	-0.3813799
198	0x3db884ea	0.09009726
199	0x3e0cfd73	0.13768558
200	0x3d9092bd	0.07059238
201	0xbdb9c8b5	-0.09071485
202	0x3dbd4a53	0.09242692
203	0xbd85f740	-0.065413
204	0xbdbe13e0	-0.092811346
205	0x3b9e4d04	0.0048309583
206	0xbb0a6298	-0.0021115895
207	0xbdd35643	-0.103191875
208	0xbd8c2b7f	-0.06844234
209	0xbe5868be	-0.21133706
210	0x3c0c5bf3	0.008566844
211	0x3b1bbea1	0.0023764747
212	0x3c5e1056	0.0135536995
213	0xbdbaff63	-0.091307424
214	0x3d4cf830	0.050041378
215	0xbd321495	-0.04347666
216	0xbd926b3f	-0.07149362
217	0xbe81c677	-0.2534673
218	0xbd522f92	-0.051314898
219	0xbcd01310	-0.025399715
220	0xbcbe708e	-0.02324703
221	0xbd863ba6	-0.06554346
222	0xbeb52229	-0.35377625
223	0x3d2c2b20	0.042033315
224	0x3d8b9297	0.06815069
225	0x3d703c16	0.058651052
226	0x3ca3aea7	0.019980742
227	0xbdd6ee3e	-0.1049466
228	0xbdf339c8	-0.11876255
229	0xbcd7f5c6	-0.026362311
230	0xbd76d7af	-0.060264286
231	0xbdedc78d	-0.11610327
232	0x3d4816d7	0.048849907
233	0x3d2bb5a4	0.041921273
234	0x3e1fd5f7	0.15608965
235	0xbdbb3176	-0.09140293
236	0x3d9f519b	0.07779237
237	0xbc94d4b2	-0.018167827
238	0xbd598102	-0.053101547
239	0x3d85ac98	0.0652706
240	0x3dc04cf6	0.09389679
241	0x3a8227d1	0.0009930079
242	0xbd3e752f	-0.046498474
243	0xbd41a82f	-0.047279533
244	0xbd9e0d03	-0.077173255
245	0x3dc00fa3	0.093779825
246	0xbceccf1b	-0.02890735
247	0x3cff9daf	0.03120312
248	0xbd98e574	-0.0746564
249	0xbcdd764e	-0.027033951
250	0xbe09d639	-0.13460626
251	0xbca75488	-0.02042605
252	0xbd0cd7e4	-0.034385577
253	0xbc82f23e	-0.01598465
254	0xbd36ad32	-0.044598766
255	0x3c66ca27	0.014086283

bias f4 [100]
0	0xbd9e46bf	-0.077283375
1	0x3d42537b	0.047442894
2	0x3ca0847e	0.019594427
3	0x3d7cd3b2	0.061725326
4	0xbe41b6e8	-0.1891743
5	0xbe0b2720	-0.13589144
6	0x3d82b841	0.063828
7	0xbc0b4ac4	-0.008501712
8	0x3d549328	0.05189815
9	0xbc8b295c	-0.016987495
10	0x3d0cdba1	0.034389142
11	0xbd44d948	-0.048058778
12	0x3c898b89	0.016790168
13	0x3c4c0524	0.0124523975
14	0xbd0f7cec	-0.035031244
15	0xbcd2ad6e	-0.025717463
16	0xbe6349d4	-0.22196132
17	0x3ca4a55c	0.02009838
18	0xbd1d8bb4	-0.03846331
19	0x3d745212	0.05964858
20	0xbe40a1f9	-0.18811788
21	0xbd3d576b	-0.046225946
22	0xbdde2ca3	-0.108483575
23	0xbdcf90b3	-0.10135021
24	0xbd4572c1	-0.04820514
25	0x3d804b2d	0.06264339
26	0xbd650bf7	-0.055919614
27	0xbf8a8a0b	-1.0823377
28	0x3d426ef0	0.04746908
29	0xbb7438a3	-0.0037265203
30	0x3be22a95	0.006902049
31	0x3b8c97a6	0.004290539
32	0xbddafba4	-0.10692528
33	0xbe3fd4dd	-0.18733545
34	0x3d234340	0.039859056
35	0xbd52408b	-0.051331084
36	0x3cd3e42c	0.025865637
37	0xbe0e634d	-0.13905068
38	0xbe711520	-0.23543215
39	0x3cd317ba	0.02576815
40	0x3bbb3eab	0.0057142577
41	0x3bd6d347	0.006555948
42	0x3cdd6e37	0.027030094
43	0x3d9cf892	0.076645985
44	0xbc88a8e0	-0.016682088
45	0xbccc21ab	-0.024918398
46	0xbe1e1f54	-0.15441638
47	0xbdcb503c	-0.09927413
48	0x3c46c9ab	0.012133042
49	0xbc995f41	-0.018722178
50	0x3cd66451	0.026170881
51	0xbd7f2df1	-0.062299673
52	0x3c7030ed	0.014660102
53	0x3d069cb6	0.032864295
54	0x3d35d8e8	0.04439631
55	0x3d2a3647	0.04155567
56	0x3c804af5	0.015660742
57	0xbe008ae5	-0.12552984
58	0x3cbc59e9	0.022992091
59	0xbaee445f	-0.0018178335
60	0xbd81797e	-0.06322001
61	0x3e184f80	0.14874077
62	0x3dfbf177	0.12301915
63	0xbe513871	-0.20431687
64	0x3e0d8796	0.13821253
65	0xbe0a7e3a	-0.13524714
66	0xbc1dc8c6	-0.009630388
67	0xbcca1ff0	-0.024673432
68	0xbdcf41f7	-0.10120004
69	0xbd94feaf	-0.072751395
70	0xbd880e60	-0.06643367
71	0xbd24e4ea	-0.040257372
72	0xbc3b3092	-0.011425154
73	0xbe8590df	-0.2608709
74	0x3b9176ed	0.004439226
75	0xbe5bf7da	-0.21481267
76	0x3dd56e62	0.104214445
77	0xbe0b9499	-0.13630904
78	0xbe35c9f5	-0.17752822
79	0x3b07bee6	0.002071315
80	0xbd7f8bf2	-0.06238932
81	0x3cf2456f	0.029574124
82	0xbe1f671c	-0.15566677
83	0x3ccfc443	0.02536214
84	0xbd1b865d	-0.037969936
85	0xbc7a1826	-0.0152645465
86	0x3cb3f8c2	0.021969203
87	0xb987cf10	-0.0002590348
88	0xbe0545e2	-0.1301494
89	0x3d5507b2	0.052009292
90	0xbde5f193	-0.11227717
91	0xbe482174	-0.19544011
92	0xbe40b676	-0.18819603
93	0xbd7d09d7	-0.061776962
94	0xbccdb91c	-0.025112681
95	0x3c7870fe	0.015163658
96	0x3da8aae2	0.08235718
97	0x3d29e734	0.041480258
98	0xbb83544f	-0.004007853
99	0xbca33eb2	-0.019927356

weight f4 [100, 100, 1]
0	0xbc116ba6	-0.008875763
1	0xbe3c0f85	-0.18365295
2	0x3de147e1	0.11000038
3	0xbd28c90a	-0.04120735
4	0x3cc63c5e	0.024198707
5	0x3cc4119a	0.023934174
6	0xbe38754b	-0.18013494
7	0xbd88e2a1	-0.06683851
8	0xbe25164c	-0.16121787
9	0x3dadbf32	0.08483733
10	0xbd90ae2e	-0.07064472
11	0x3db7909c	0.08963129
12	0xbcab6e25	-0.020926544
13	0xbbd8bfc1	-0.0066146557
14	0x3bc20728	0.0059212632
15	0x3da6a700	0.081373215
16	0x3bea557b	0.0071513033
17	0x3b853110	0.0040646866
18	0x3dbca05f	0.09210276
19	0x3c3dde18	0.011588596
20	0xbc85f517	-0.01635222
21	0x3d8c81d9	0.06860704
22	0x3db89b96	0.09014051
23	0xbd2b34aa	-0.04179827
24	0xbd8eb505	-0.069681205
25	0xbe197ac5	-0.14988239
26	0x3db24af1	0.087057
27	0xbc8596a8	-0.01630719
28	0xbd0b2384	-0.033969417
29	0xbd9d9adc	-0.07695553
30	0x3d29ca1f	0.041452523
31	0xbd1346da	-0.03595624
32	0xbd6ebf7c	-0.058288082
33	0x3c329fbf	0.010902344
34	0xbdf6f7b3	-0.120589636
35	0xbd868676	-0.06568615
36	0x3c446089	0.011985906
37	0x3d91d575	0.07120792
38	0x3d1a1d97	0.037625875
39	0xbdc82e57	-0.097744636
40	0x3db4b556	0.088236496
41	0xbde1ec48	-0.11031395
42	0x3d94b0c0	0.07260275
43	0xbe52bff9	-0.20581044
44	0xbddddebb	-0.10833498
45	0xba9d15cd	-0.0011984647
46	0x3da4b8da	0.0804307
47	0xbd0a56b7	-0.033774104
48	0x3cb7f8ef	0.022457568
49	0xbda2eeea	-0.079557255
50	0xbc462129	-0.012092867
51	0x3d72e5df	0.059301253
52	0xbd0c4483	-0.034245025
53	0xbe781e2e	-0.24230263
54	0xbc94b565	-0.018152902
55	0xbdfe66cf	-0.12421953
56	0xbd874a9d	-0.06606028
57	0x3a57aa1e	0.00082269486
58	0xbcaae1ca	-0.020859618
59	0x3d09c23a	0.033632495
60	0x3cf9a0da	0.030472208
61	0xbe813a17	-0.25239632
62	0xbdb535d4	-0.088481575
63	0x3cd8a503	0.026445871
64	0xbe319acf	-0.17344211
65	0xbd91ac18	-0.071129024
66	0xbd8a07de	-0.06739782
67	0xbbd69bd9	-0.00654934
68	0x3d3ab8c8	0.045586377
69	0x3da3d4ea	0.079995945
70	0x3d90916a	0.070589855
71	0xbbe243c1	-0.0069050496
72	0xbb1f3a87	-0.002429636
73	0xbd8b6f22	-0.06808306
74	0xbae4ecc5	-0.0017465582
75	0xbd31f7b4	-0.04344912
76	0xbe510e3c	-0.20415586
77	0x3b821c1a	0.003970635
78	0xbd0a9c20	-0.0338403
79	0x3d07ecfa	0.033184983
80	0xbda0ea36	-0.07857172
81	0xbe2fd5e4	-0.17171437
82	0x3d73377f	0.059379097
83	0xbd64b866	-0.05583992
84	0xbdc40cad	-0.0957273
85	0x3ccd6c79	0.025076138
86	0xbd09bed3	-0.03362925
87	0xbd285af4	-0.041102365
88	0xbd9cda6d	-0.07658849
89	0xbd02198b	-0.03176264
90	0x3d770b25	0.060313363
91	0xbd75cc47	-0.060009267
92	0xbd492256	-0.04910501
93	0xbda8996d	-0.08232389
94	0xbbc07004	-0.0058727283
95	0xbc9d83f8	-0.019227967
96	0xbd2adbd9	-0.04171357
97	0xbd01a989	-0.031655822
98	0x3dbbcae6	0.09169559
99	0xbc30ee5d	-0.010799018
100	0x3d5238cb	0.051323693
101	0xbd52f7cf	-0.05150586
102	0xbc0bd118	-0.008533739
103	0xbe13c4dd	-0.14430566
104	0xbcde642d	-0.027147377
105	0xbe08f44e	-0.13374445
106	0xbdce65fc	-0.10078046
107	0xbd9c1b61	-0.076224096
108	0xbdc273d8	-0.09494752
109	0x3c65c194	0.014023203
110	0xbcdb9bdf	-0.026807724
111	0x3dadc0df	0.08484053
112	0xbcd74351	-0.026277216
113	0x3daf134d	0.08548603
114	0x3d6b92ef	0.057513174
115	0xbca8e732	-0.020618055
116	0xbddca970	-0.10774505
117	0xbdc9c196	-0.09851377
118	0xbcf4261e	-0.029803332
119	0x3d9c26f5	0.07624618
120	0xbd032326	-0.032015942
121	0x3d837d37	0.06420367
122	0xbd92cacb	-0.07167586
123	0xbdad7073	-0.084687136
124	0x3d2716a0	0.04079306
125	0xbdde8d72	-0.10866822
126	0x3db4c91b	0.0882742
127	0xbc5ce4da	-0.013482297
128	0x3d03d224	0.032182828
129	0xbd847197	-0.06466978
130	0xbd4221d9	-0.04739556
131	0xbd414a1c	-0.047189817
132	0x3d0bdf30	0.034148395
133	0xbe151c81	-0.14561655
134	0xbc35f449	-0.011105605
135	0x3d8c07fd	0.06837461
136	0xbde177a0	-0.11009145
137	0xbd8eb92d	-0.06968913
138	0x3d9504c4	0.072762996
139	0xbd9d2f49	-0.076750346
140	0xbd24a073	-0.04019208
141	0xbdeff8a3	-0.117173456
142	0x3d2993c1	0.041400675
143	0xbdf93477	-0.1216821
144	0xbca00325	-0.01953275
145	0x3d7e02ef	0.062014516
146	0x3d03b6ac	0.03215663
147	0xbdce6a57	-0.100788765
148	0x3d2ee50e	0.042698912
149	0x3cfd50d1	0.030922325
150	0xbcd4f18f	-0.02599409
151	0xbda265cb	-0.07929572
152	0x3d024d08	0.031811744
153	0xbd9d52d2	-0.07681812
154	0xbdcd7bd6	-0.100333855
155	0xbd550c7a	-0.05201385
156	0x3cf78105	0.030212888
157	0xbb9872cc	-0.0046523567
158	0xbba5bf13	-0.005058178
159	0xbc062544	-0.008187596
160	0x3db8604b	0.090027414
161	0xbe014d6f	-0.12627195
162	0xbba9f1f9	-0.005186316
163	0x3c490488	0.012269147
164	0xbddc2329	-0.10748894
165	0x3bd0b029	0.006368656
166	0xbe0a3994	-0.13498527
167	0xbdbe60d2	-0.09295811
168	0x3d32de5d	0.043669093
169	0xbd4e2b0b	-0.050334018
170	0xbbb5d780	-0.0055493712
171	0xbd7f930f	-0.062396105
172	0x3b8b6333	0.004253769
173	0x3c7f26dd	0.015573231
174	0x3d6636f7	0.056204762
175	0xbb1f9767	-0.0024351717
176	0xbdd54434	-0.10413399
177	0x3d5774da	0.052601673
178	0xbd0fffc7	-0.035156038
179	0xbdfac293	-0.12244143
180	0x3bf76916	0.007550369
181	0xbd0aef73	-0.033919763
182	0xbd8d7f98	-0.06909102
183	0x3d845d51	0.06463111
184	0x3da197c2	0.07890274
185	0xbd8438d5	-0.06456152
186	0xbcc8f4c4	-0.024530776
187	0xbde55909	-0.11198623
188	0x3da75ffc	0.081726044
189	0xbd6d433e	-0.057925455
190	0xbda3eee7	-0.080045514
191	0xbd136773	-0.03598733
192	0xbd477e5f	-0.0487045
193	0xbd134c98	-0.035961717
194	0x3b6b9ff5	0.0035953496
195	0xbcbf0314	-0.023316897
196	0xbe018c64	-0.12651211
197	0xbde62b4b	-0.11238726
198	0xbcbb9053	-0.022895968
199	0xbe20b499	-0.15693893
200	0x3bbf81ae	0.0058443164
201	0xbde69452	-0.112587586
202	0xbdca9ae1	-0.09892822
203	0x3d36c2ad	0.04461925
204	0xbd143a1e	-0.036188237
205	0x3d95d733	0.073164366
206	0x3d0c7708	0.034293205
207	0x3d36f0e3	0.04466332
208	0xbd7a767f	-0.061148163
209	0x3cc89662	0.02448577
210	0x3d29d3da	0.041461803
211	0xbd73c23f	-0.05951142
212	0x3d97c87b	0.074112855
213	0xbdb4ae6b	-0.0882233
214	0xbaa9275e	-0.0012905409
215	0xbdd13454	-0.10215059
216	0xbd772dcf	-0.06034642
217	0xbd9f1254	-0.07767168
218	0xbd3a685b	-0.045509677
219	0xbdee71c5	-0.116427936
220	0x3d8b681f	0.06806969
221	0x3d524229	0.051332626
222	0xbd8c6923	-0.06855991
223	0x3dab2b3f	0.08357858
224	0xbd84ecc5	-0.06490473
225	0xbdc2ac03	-0.09505465
226	0xbd5a438b	-0.05328707
227	0xbe4a5ff6	-0.19763169
228	0x3db1bacc	0.08678207
229	0xbddf4a19	-0.10902805
230	0x3da4c807	0.08045965
231	0xbd8c45de	-0.068492636
232	0x3d9c1841	0.076218136
233	0xbe6e781d	-0.23288007
234	0x3c561caf	0.013068362
235	0xbda316fd	-0.07963369
236	0xbdf423a6	-0.11920862
237	0xbd5a14c0	-0.053242445
238	0x3decb19e	0.11557315
239	0xbd62049b	-0.055180173
240	0x3c927582	0.017878298
241	0xbd9766f2	-0.07392682
242	0xbda1e3df	-0.07904791
243	0x3bde82d7	0.0067904997
244	0x3c616725	0.013757502
245	0xbd0e4983	-0.034738075
246	0xbd1b50d2	-0.037918873
247	0xbd01b91d	-0.03167068
248	0xbd2e4191	-0.042542998
249	0x3dada8c6	0.084794566
250	0x3d90591e	0.07048248
251	0x3d13d193	0.036088537
252	0x3d58a4d3	0.052891564
253	0x3acc890b	0.0015604807
254	0xbc97bb21	-0.018521847
255	0xbd1c22c1	-0.03811908

bias f4 [100]
0	0xbc5a3933	-0.013319301
1	0x3bb252af	0.0054419856
2	0xbc4abfe7	-0.012374855
3	0xbd9f07cc	-0.07765159
4	0xbcb3ee30	-0.021964163
5	0xbd9cfc9e	-0.076653704
6	0x3c47ab7a	0.012186879
7	0xbd723871	-0.059135858
8	0xbe70c92a	-0.23514238
9	0x3c82b0cb	0.015953442
10	0xbd996509	-0.07489974
11	0x3c1cf36d	0.009579522
12	0xbd1f06f8	-0.038825005
13	0xbbb3010a	-0.0054627704
14	0x3dfacc07	0.122459464
15	0x39e02e16	0.00042758946
16	0x3c499a55	0.012304862
17	0xbdbb386d	-0.09141622
18	0xbb77c1b7	-0.0037804672
19	0x3b32a341	0.0027257951
20	0xbd919ff2	-0.07110585
21	0xbe11068e	-0.14162657
22	0xbcb0fbd8	-0.021604463
23	0xbc593a26	-0.013258493
24	0xbdb6918f	-0.08914482
25	0xbd6d92f9	-0.058001492
26	0x3c2f88c0	0.010713756
27	0xbe8a41e0	-0.27003384
28	0xbd0e1be0	-0.034694552
29	0xbc0f9812	-0.008764284
30	0x3c517f3e	0.012786685
31	0xbc9efe2f	-0.019408314
32	0x3da24c2f	0.07924687
33	0x3d9cf32d	0.076635696
34	0xbd6a4e8d	-0.057203818
35	0xbcf0dbf0	-0.02940175
36	0xbc80d787	-0.015727771
37	0xbe145955	-0.14487202
38	0xbda8dd6d	-0.082453586
39	0xb9ac0923	-0.00032813204
40	0xbceaff03	-0.028686052
41	0xbab76c8d	-0.0013994143
42	0x3d6b0c07	0.057384517
43	0xbd3bcf56	-0.045852028
44	0xbcf78f53	-0.03021971
45	0xbb6af61f	-0.0035852266
46	0x3e3a693e	0.18204209
47	0x3dfecff7	0.1244201
48	0x3ac64fee	0.0015130022
49	0xbd4bdff8	-0.04977414
50	0x3e4ae035	0.1981209
51	0xbd46f08e	-0.048569255
52	0xbcfcacd9	-0.030844139
53	0x3c0b53f2	0.008503901
54	0x3dc238a7	0.09483462
55	0xbd099b77	-0.03359553
56	0xbcd01389	-0.02539994
57	0x3da9c331	0.08289183
58	0xbd458259	-0.048220012
59	0xbd1ec2c5	-0.038759965
60	0xbcda1fee	-0.026626553
61	0xba1cb2f8	-0.0005977596
62	0xbd3de1f5	-0.046358068
63	0x3e005b59	0.12534846
64	0x3ccdf158	0.025139496
65	0xbd933644	-0.07188085
66	0xbd8a03b1	-0.06738985
67	0xbdc8a7a8	-0.09797603
68	0x3e27dd88	0.16393101
69	0xbccf286d	-0.025287831
70	0xbcd727b4	-0.02626405
71	0xbc2867ab	-0.010278623
72	0x3b9b40de	0.0047379574
73	0xbc0ae272	-0.00847684
74	0xbd42d6c5	-0.0475681
75	0xbe477038	-0.19476402
76	0xbc167d03	-0.009185079
77	0xbda82b53	-0.082113884
78	0xbc5f2580	-0.013619781
79	0xbd7f5257	-0.062334385
80	0x3d03fa30	0.03222102
81	0xbb5f6e3f	-0.0034092811
82	0x3ccf9840	0.025341153
83	0xbaf14ab5	-0.0018409105
84	0x3d7a79ec	0.06115143
85	0xbce79167	-0.028267575
86	0xb72fbd30	-1.04748615e-05
87	0xbe6756f3	-0.22591762
88	0xbda04afc	-0.07826802
89	0xbc82bc71	-0.015958996
90	0x3e4bebcf	0.19914173
91	0xbcda3ced	-0.02664038
92	0x3bfe4a9b	0.0077603585
93	0xbda2f351	-0.07956565
94	0xbd5c29be	-0.053750746
95	0xbd594bc7	-0.053050783
96	0x3d260566	0.040532492
97	0xbcbccca2	-0.023046795
98	0xbd7f4e43	-0.062330496
99	0x3ca3870a	0.019961853

weight f4 [100, 100, 1]
0	0x3db87c3d	0.090080716
1	0x3d76905d	0.06019627
2	0x3d756fcd	0.059921075
3	0x3bb7e29a	0.00561173
4	0x3d8c1409	0.06839759
5	0x3dbc9418	0.09207934
6	0x3ccc63da	0.024949957
7	0xbcf489fa	-0.029850949
8	0xbd1e7f2d	-0.038695503
9	0x3daed94b	0.08537539
10	0xbd8e0c82	-0.069359794
11	0x3d7ac1b5	0.06121989
12	0xbc3647cd	-0.011125517
13	0x3d375b30	0.044764698
14	0x3ba28b28	0.0049604364
15	0xbd7e942d	-0.06215303
16	0x3c8c8a2a	0.017155726
17	0xbc9b6cda	-0.018972803
18	0xbdad50da	-0.08462687
19	0x3d8cbd28	0.06872016
20	0x3d85f7d5	0.06541411
21	0x3d6150e4	0.055008784
22	0x3d24b128	0.040208012
23	0xbd10790d	-0.035271693
24	0xbd582ed3	-0.05277903
25	0xbd1ba61d	-0.038000215
26	0xbd9d7d1e	-0.0768988
27	0xbd90ba23	-0.07066753
28	0x3da35e4a	0.079769686
29	0xbd8a6c57	-0.067589454
30	0xbb4ca933	-0.003122878
31	0x3cec578d	0.028850341
32	0xbd1ecdf3	-0.038770627
33	0xbdb4656d	-0.08808408
34	0xbd9669a7	-0.0734437
35	0xbcaa470d	-0.020785833
36	0x3d87ad70	0.066248775
37	0xbd9e4f25	-0.07729939
38	0xba27f19a	-0.0006406546
39	0x3d7952b2	0.06086988
40	0x3c9479c7	0.018124474
41	0xbdb2c980	-0.08729839
42	0xbde7e945	-0.113237895
43	0x3d9041dd	0.070438124
44	0xbc545369	-0.01295934
45	0xbd88a400	-0.066719055
46	0xbcc9845c	-0.024599247
47	0xbd90f51b	-0.07078
48	0x3d413aba	0.047175147
49	0xbd02fba0	-0.03197825
50	0xbc9c479b	-0.019077113
51	0x3d87a84d	0.06623898
52	0xbc8a21e7	-0.016861869
53	0xbdcb4593	-0.099253796
54	0xbc19bc0c	-0.009383213
55	0xbd1f977a	-0.03896282
56	0xbd83c5a5	-0.06434182
57	0x3d80718d	0.06271658
58	0x3be7c780	0.007073343
59	0xbdbacc70	-0.091210246
60	0x3d6868ba	0.0567405
61	0xbd381300	-0.044939995
62	0xbd29dc77	-0.041470017
63	0xbd795c77	-0.060879197
64	0x3d195f22	0.03744424
65	0xbdaed6c2	-0.085370556
66	0x3d85065b	0.06495353
67	0xbd857ccf	-0.06517946
68	0xbc3c2aef	-0.011484846
69	0x3d02f057	0.031967487
70	0x3da56d3b	0.08077475
71	0xbcf69cfd	-0.030104155
72	0xbdd487b5	-0.103774466
73	0x3d83ca8f	0.06435119
74	0xbd9b792c	-0.07591471
75	0x3d665ec7	0.05624273
76	0x3d1fe0e5	0.039032836
77	0xbda803e0	-0.08203864
78	0x3dc7428d	0.097294904
79	0x3da0db02	0.078542724
80	0xbc023b29	-0.007948675
81	0x3ac53b9a	0.001504767
82	0xbdf7d2be	-0.12100743
83	0xbd831d4a	-0.06402071
84	0xbc40b05e	-0.011760799
85	0x3da1f51b	0.07908078
86	0x3cf89720	0.0303455
87	0xbc93a889	-0.0180247
88	0xbdb1a395	-0.08673779
89	0xbdc7a753	-0.097487114
90	0x3d5c1a75	0.05373617
91	0xbdb7faf8	-0.08983415
92	0xbdc196bd	-0.09452579
93	0xbdaa0c38	-0.08303112
94	0x3d806b0a	0.06270416
95	0x3d8d91ac	0.0691255
96	0xbd38d624	-0.045126095
97	0x3c7c5600	0.015401363
98	0xbd65c7e7	-0.056098845
99	0x3cbe1db8	0.02320753
100	0xbd785109	-0.060624156
101	0xbdb2cf24	-0.08730915
102	0x3d6a2c36	0.05717107
103	0xbafaaf33	-0.00191257
104	0xbb2fc702	-0.0026821499
105	0x3cb4e427	0.022081448
106	0x3c2ed8e8	0.010671832
107	0x3d6d8333	0.05798645
108	0xbdf10574	-0.11768618
109	0xbd4a7bdc	-0.049434528
110	0x3da700a6	0.081544206
111	0xbddf3c78	-0.109002054
112	0xbc54a438	-0.012978606
113	0xbb062786	-0.0020470335
114	0xbde8aba4	-0.11360863
115	0xbddb3d96	-0.10705106
116	0xbdfc6780	-0.123244286
117	0x3d077174	0.03306718
118	0x3d749638	0.059713572
119	0xbde084c2	-0.109628215
120	0x3a8f701e	0.0010943448
121	0x3d98c65b	0.07459708
122	0xbd236ef9	-0.039900754
123	0x3d985538	0.07438129
124	0x3daa19aa	0.08305676
125	0xbd773087	-0.060349014
126	0xbdbb29d2	-0.09138836
127	0xbe082a6f	-0.13297437
128	0xbde458db	-0.1114976
129	0x3da42d86	0.080164954
130	0xbd5248ab	-0.051338833
131	0xbdd5ace2	-0.104333654
132	0x3d3f7797	0.04674491
133	0xbd9863cf	-0.07440912
134	0xbdaf5934	-0.08561936
135	0xbdb23d0f	-0.08703052
136	0xbc9bf7e1	-0.019039096
137	0xbbaf1ee7	-0.00534426
138	0x3c8d49d6	0.017247122
139	0xbd9db7f6	-0.077011034
140	0x3d838be6	0.06423168
141	0x3d694b22	0.056956418
142	0xbdc18ac7	-0.09450298
143	0x3d400ea8	0.046888977
144	0x3b46d6fd	0.0030340545
145	0xbc2a21ac	-0.010384005
146	0xbdf7a626	-0.12092237
147	0xbe05c652	-0.13063934
148	0xbd01504e	-0.031570725
149	0xbcf03a60	-0.02932471
150	0xbca05eb8	-0.019576415
151	0xbc198854	-0.009370882
152	0xbc91751e	-0.017756041
153	0x3bcf8425	0.0063328915
154	0x3ce26ddf	0.027640281
155	0xbddaad3f	-0.10677575
156	0x3d16011a	0.036622144
157	0xbcbfe777	-0.0234258
158	0x3d023741	0.031790975
159	0xbaa6a92f	-0.0012715216
160	0x3ce920e6	0.02845807
161	0xbd8aacc7	-0.06771236
162	0xbc82fafc	-0.01598882
163	0x3d74dd42	0.05978132
164	0x3d19389a	0.037407495
165	0x3d3b2169	0.04568616
166	0xbca2fd87	-0.019896282
167	0xbdc6261c	-0.096752375
168	0xbdd9962f	-0.10624348
169	0xbdbe52bf	-0.09293126
170	0xbc2c1e1e	-0.010505227
171	0xbd92a99d	-0.071612574
172	0xbdb9776f	-0.09055983
173	0xbcca14e7	-0.02466817
174	0xbdd06986	-0.10176377
175	0xbd5906eb	-0.052985113
176	0xbd794722	-0.060858853
177	0xbdb7d59f	-0.08976292
178	0x3d0daa91	0.034586493
179	0xbd791330	-0.060809314
180	0x3c6ce23a	0.0144582335
181	0x3d43b561	0.0477804
182	0xbc3fdcf1	-0.011710391
183	0x3daa5079	0.0831613
184	0xbdc4e3eb	-0.096137844
185	0xbbc551e3	-0.0060217245
186	0xbd40aaa1	-0.047037724
187	0xbd9351e4	-0.07193354
188	0x3d513d57	0.05108389
189	0xbc910682	-0.017703298
190	0xbdb53994	-0.08848873
191	0xbdb390ae	-0.0876783
192	0xbde4bfd5	-0.111694016
193	0xbdc25277	-0.09488385
194	0x3d72f074	0.059311345
195	0x3d124f7b	0.03572033
196	0xbd6c4608	-0.057683975
197	0x3dadcb31	0.08486021
198	0x3da5909e	0.08084224
199	0xbdd70a4d	-0.105000116
200	0xbb71afab	-0.0036878388
201	0x3d1c8e61	0.03822172
202	0xbd115153	-0.035477947
203	0x3ce2a0fa	0.02766465
204	0xbc829d2a	-0.015944082
205	0xbdb3ca65	-0.08778838
206	0xbd889904	-0.066698104
207	0x3cd861d5	0.026413837
208	0xbd3af034	-0.04563923
209	0x3d17216a	0.0368971
210	0x3d9dd038	0.0770573
211	0x3d0d90d9	0.034561966
212	0x3dba948f	0.091103666
213	0xbd8665ed	-0.065624095
214	0x3cc78d00	0.024359226
215	0xbda071cc	-0.07834205
216	0xbe0e1516	-0.13875231
217	0xbd800081	-0.06250096
218	0xbdb2a45a	-0.08722754
219	0x3d4b1a47	0.049585607
220	0xbd8c21ef	-0.0684241
221	0xbdc9efa0	-0.09860158
222	0xbd8b9095	-0.06814686
223	0x3d00375f	0.031302806
224	0xbc2686da	-0.010163987
225	0xbce1822a	-0.027527887
226	0xbdc7a2e7	-0.09747868
227	0x3d3c934c	0.04603891
228	0xbd243699	-0.04009113
229	0x3cb7642a	0.02238663
230	0xbd8ed9d8	-0.06975144
231	0xbcfecdb0	-0.031103939
232	0xbdce4565	-0.1007183
233	0x3c91e775	0.017810563
234	0xbd54cc20	-0.05195248
235	0xbce04a5e	-0.027379211
236	0xbd739fab	-0.059478443
237	0xbdb4317f	-0.08798503
238	0x3cb66ae7	0.022267772
239	0x3d6bdf2e	0.057585888
240	0xbdc7c1da	-0.09753771
241	0x3cd1203f	0.025528071
242	0xbc932b43	-0.017964965
243	0xbd3fa727	-0.04679027
244	0xbd921b47	-0.07134109
245	0x3d082f85	0.033248443
246	0xbdb24935	-0.087053694
247	0xbde9238f	-0.113837354
248	0x3ce964bc	0.028490417
249	0xbda22ce8	-0.079187214
250	0x3ce96177	0.028488858
251	0xbdc33d35	-0.09533159
252	0xbd9d3eb7	-0.076779775
253	0xbbbd1a20	-0.0057709366
254	0xbe00af83	-0.12566952
255	0xbd4320c5	-0.047638673

bias f4 [100]
0	0xbcb1f0ba	-0.021721233
1	0x3b6a3277	0.0035735646
2	0xbc6c8f74	-0.014438499
3	0x3b4b35b4	0.0031007351
4	0x3c9eb5e9	0.01937385
5	0xbd41ad19	-0.04728422
6	0x3e2acfad	0.16680785
7	0x3c401452	0.011723595
8	0xbe72dc30	-0.23716807
9	0xbc4c9afc	-0.012488123
10	0x3ce808b8	0.02832447
11	0x3bf5492e	0.0074855303
12	0x3bbc610d	0.005748874
13	0xbd2f9f44	-0.042876497
14	0xbd216458	-0.039402336
15	0xbdb80028	-0.08984405
16	0x3da82221	0.082096346
17	0x3c18e2f8	0.009331457
18	0xbd801574	-0.06254092
19	0xbbbd4b16	-0.005776773
20	0xbda46687	-0.08027368
21	0x3e63d16f	0.22247861
22	0xbc2007c6	-0.009767478
23	0x3c6f1a31	0.014593647
24	0xbd4be317	-0.049777117
25	0xbdcbbd4c	-0.09948215
26	0xbcc6e4ec	-0.02427908
27	0x3c89b30d	0.01680901
28	0xbdeebed7	-0.116574936
29	0xbd99643a	-0.0748982
30	0x3b818d75	0.0039536306
31	0x394c7c8c	0.00019501353
32	0xbcafa2ca	-0.021439929
33	0xbe1d466f	-0.153589
34	0xbd030341	-0.031985525
35	0xbd9577e6	-0.072982594
36	0xbc1539cc	-0.009108018
37	0xbdbc272f	-0.09187161
38	0xbcb234e8	-0.021753743
39	0x3b769a34	0.0037628533
40	0xbe7e6ac7	-0.2484542
41	0x3e5c9416	0.21540865
42	0xbdeec266	-0.11658172
43	0xbdb3395e	-0.08751176
44	0xbc51a44a	-0.012795517
45	0xbc215a56	-0.009848198
46	0xbc8505f0	-0.016238183
47	0xbdc48b44	-0.09596875
48	0xbc2ce44e	-0.010552479
49	0xbb88ce40	-0.0041749775
50	0xbd3965da	-0.04526315
51	0xbcbdea30	-0.023182958
52	0xbe0a0e96	-0.13482127
53	0xbda4085b	-0.08009406
54	0xbcd630eb	-0.026146373
55	0xbd86e0e2	-0.06585862
56	0x3bd6e4ba	0.006558028
57	0xbd021dec	-0.031766817
58	0xbb98da85	-0.0046647214
59	0xbab6770b	-0.0013920976
60	0xbcebf143	-0.028801566
61	0xbcbdabd4	-0.023153223
62	0xbe279201	-0.1636429
63	0xbd28b659	-0.041189525
64	0x3e534c87	0.20634662
65	0xbd9df2ca	-0.07712324
66	0xbcfabd9f	-0.030607997
67	0xbe310dc8	-0.17290413
68	0x3e8c8f4e	0.27453083
69	0x3c082bdd	0.008311239
70	0x3c0159f6	0.0078949835
71	0x3c5fa480	0.01365006
72	0xbe10b1b3	-0.14130287
73	0xbc48a0f2	-0.012245404
74	0xbde00640	-0.10938692
75	0xbb7e1f8a	-0.0038776123
76	0xbce009ae	-0.027348366
77	0x3e1f6fe4	0.15570027
78	0x3b0e10bf	0.0021677462
79	0xbe9bf59c	-0.30460823
80	0xbdafe410	-0.08588421
81	0xbc91a4ac	-0.017778717
82	0x3c4ac624	0.012376342
83	0xbd096ad9	-0.033549163
84	0x3c9f6bc8	0.019460574
85	0xbdaa02df	-0.08301329
86	0x3c589532	0.013219165
87	0xbdbb2dca	-0.09139593
88	0xbbd620d3	-0.0065346747
89	0xbbd1f1a3	-0.006406979
90	0x3d2cdbc9	0.04220179
91	0x3c28416d	0.010269505
92	0x3e88504a	0.26623756
93	0xbbf57fbb	-0.0074920333
94	0xbd31e953	-0.043435406
95	0xbdcdb109	-0.100435324
96	0x3d17ceef	0.03706258
97	0xbc1782eb	-0.009247522
98	0x39f2280a	0.00046187668
99	0xbba4a912	-0.0050250376
