data/pretrained_models/spliceai-400-4.pt (torch, 796217 bytes, 106 tensors)

weight f4 [32, 4, 1]
000000 a3 20 c3 3d 03 aa 08 3d d5 55 ee be 93 0f 98 be
       0.09527709 0.03336526 -0.4654986 -0.29699382
000010 47 b8 08 bf 4c 7a 08 bf 8b 8e 08 3f b2 48 e5 3e
       -0.53406185 -0.5331161 0.53342503 0.44782025
000020 79 81 0a 3e 36 12 e7 3e 16 7f 4a be 81 e2 b8 be
       0.13525952 0.4513108 -0.19775042 -0.3611031
000030 82 5c 05 3f aa 40 07 be e0 4a 93 3d 64 b2 92 3e
       0.5209428 -0.13208261 0.07192016 0.28651726
000040 c0 de 82 3e f4 57 ba be 21 fd 4a be fa e9 ef be
       0.2556057 -0.36395228 -0.19823124 -0.46858197
000050 bc 5d bb 3c 1d 78 85 be c5 b1 4b 3e ae 6e 89 3d
       0.022871844 -0.26068202 0.19892032 0.067105636
000060 0b 0f e6 3e 56 9f 95 3d 3c 9b 7b 3e 96 6d f4 3d
       0.44933352 0.073057815 0.24570936 0.11934964
000070 ac e5 f1 3e de cd 1e be ed e4 f0 3e d7 29 95 3e
       0.47245538 -0.1550822 0.47049657 0.29133484
000080 ea ee 5f be 52 d6 b7 3e 71 92 ef 3e 45 23 a2 be
       -0.21868482 0.359057 0.46791413 -0.31667534
000090 23 12 8b be 0b 58 b8 3e dd bf d7 3e 41 bf 20 3e
       -0.27162275 0.3600467 0.42138568 0.15697958
0000a0 dd 14 10 3e 17 7e aa 3e 63 b5 f9 3e a1 db ad be
       0.14070459 0.33299324 0.487712 -0.33956626
0000b0 3e db 5c be f7 08 dc 3e 26 a3 83 3e 21 97 8b be
       -0.2156801 0.4297559 0.2571041 -0.2726374
0000c0 cd 83 65 be 51 37 00 3f ca a4 bc be fe b3 bd 3e
       -0.2241356 0.50084406 -0.36844474 0.37051386
0000d0 20 89 a5 3e 05 87 ec be 2f 45 14 bf 48 3c 45 3e
       0.3233118 -0.46196762 -0.57918066 0.19261277
0000e0 b4 49 80 3e ba f9 dc 3e f7 19 2c 3c 79 dc bb 3e
       0.2505623 0.43159276 0.010504237 0.36691645
0000f0 ab 22 cb be e7 77 b1 3e 96 ce 08 bf 21 e7 c3 3e
       -0.39674887 0.3466179 -0.53440225 0.38262275
000100 89 11 10 3e 29 a7 9f 3e b1 22 40 3e c6 8b ce be
       0.14069189 0.3118222 0.18763234 -0.40341014
000110 b9 1f c2 3d ef a7 f8 bc 26 6d 27 3e cf de f8 be
       0.09478707 -0.030353514 0.1635023 -0.4860749
000120 26 5e a2 be 00 98 60 be 33 e9 a1 be 1c 16 ee 3e
       -0.31712455 -0.21932983 -0.3162323 0.46501243
000130 2f e1 8a 3e 41 21 4b 3e 3c 24 11 be 3d 2e da be
       0.27124926 0.19836904 -0.14173979 -0.42613402
000140 1b a0 39 3e 5a 75 f3 3e b9 e6 0e 3e b8 11 d7 be
       0.18127482 0.4755047 0.13955201 -0.42005706
000150 0c b5 ab bc 5a b7 0c 3c 3c a1 9f 3e 71 74 6e 3e
       -0.020960353 0.008588636 0.311777 0.23286606
000160 a6 ee be be 65 81 12 bf 83 79 4d 3e a7 69 7c 3e
       -0.3729145 -0.5722869 0.20065884 0.24649678
000170 cd 5b ad 3e ca 51 ad 3e 94 e4 d9 3e 81 69 57 be
       0.338591 0.33851463 0.42557204 -0.2103634
000180 7f 90 02 bf 69 6c 6f 3e cb 3c f9 3e c8 a3 cd be
       -0.51001734 0.23381199 0.48679194 -0.40164018
000190 39 5d 8e be df f6 f4 3e 6b 78 da 3e 04 96 a9 bd
       -0.27805498 0.47844598 0.42669997 -0.08280566
0001a0 23 d1 b3 be 7d 88 c6 3d 2f 66 12 bf 11 b6 2a be
       -0.35120496 0.09694002 -0.5718717 -0.16671015
0001b0 a7 dd 05 be a7 c5 ec bd b9 55 89 3e f6 5f b6 bd
       -0.13072835 -0.11561137 0.26823214 -0.08905022
0001c0 1f bb c1 be d4 f0 16 bd 18 9e ae bc 6b 61 9d 3e
       -0.37838075 -0.036850765 -0.02131562 0.30738387
0001d0 85 78 d7 3c 33 db 50 be 89 fb 2c 3e f1 66 7e 3e
       0.026302585 -0.20396118 0.16892828 0.24843957
0001e0 c7 6c fa 3d 5a f6 90 be 2a 10 2c 3e 3c dc d8 bc
       0.12227779 -0.2831295 0.16803041 -0.026472203
0001f0 01 0d 8e 3e 26 3c 0e be 63 a3 9c bd d9 0f 8c 3e
       0.27744296 -0.13890132 -0.07648351 0.2735584

bias f4 [32]
000000 b0 7b 96 bd 47 cc 87 3e 74 9d c0 bd 2d c0 e4 3e
       -0.0734781 0.2652304 -0.09405032 0.44677868
000010 50 ea 70 bc f7 c5 fd bd 90 fd c4 3d dd 07 82 ba
       -0.014704302 -0.123912744 0.09618676 -0.0009920556
000020 75 a0 de 3e ad 91 b8 bd f3 5a a7 3e 39 41 13 be
       0.43481794 -0.090121605 0.32686576 -0.14380349
000030 20 08 33 3d 71 06 2c 3e be 9e f3 be 2b ea 05 3e
       0.04370892 0.16799332 -0.47582048 0.13077609
000040 3c cc 90 3e cc 83 40 3e 35 46 fa 3c d4 4f 51 bd
       0.28280818 0.18800277 0.030551055 -0.05110152
000050 32 6f 2a 3e d5 b8 24 3e 32 44 78 be c0 cd 53 3e
       0.1664398 0.16086133 -0.24244764 0.20683956
000060 eb aa e2 be 81 64 d0 3c 8a e3 4a be 09 26 5c be
       -0.44271025 0.025438549 -0.19813362 -0.21498884
000070 8b 6f c1 be ad 93 c5 3e db 2e 06 3d 7f a2 e7 3c
       -0.37780413 0.3858923 0.03275953 0.028275726

weight f4 [32, 32, 1]
000000 eb da 9e bc 7e 63 a2 bd 59 99 ff bd d2 ac 9b 3c
       -0.019391498 -0.07929133 -0.124804206 0.019003306
000010 98 4b 01 be d9 ad 7b bd 96 df 9b 3d f8 aa 09 3e
       -0.12626493 -0.06144509 0.07611005 0.13444126
000020 bb e6 80 bd b4 3d 27 be c6 f9 28 3e ce 9b 05 3e
       -0.06294008 -0.16332132 0.16501531 0.13047716
000030 4e 9c d6 3d e8 6c 9d bd 41 85 ea bc 9b bd 66 bc
       0.104790315 -0.07686788 -0.028627994 -0.014083291
000040 01 6f 10 3d 18 a2 fc 3a d5 dd d1 bd eb 81 2d 3e
       0.03526211 0.0019274382 -0.10247389 0.16944091
000050 18 8c 9b 3d 0a 60 d8 bc c8 d2 0b be 90 37 c4 bd
       0.0759508 -0.026412982 -0.13654625 -0.0958091
000060 22 c3 2a bd 03 64 c6 bc 57 57 74 3d 27 a0 3c bc
       -0.04169 -0.024217611 0.059653606 -0.011512793
000070 92 f0 96 3d ea 9b 02 be 5b 1d 3d bd 2b 12 67 3d
       0.07370104 -0.12754789 -0.046170574 0.05641381
000080 be a3 29 3e e4 c0 11 be 41 f2 e2 3b ba 33 da 3d
       0.16566369 -0.14233738 0.0069258516 0.10654397
000090 af d8 06 bd 04 52 dd 3c d2 c9 f9 3d 01 d0 27 be
       -0.03292149 0.027016647 0.12196697 -0.16387941
0000a0 76 ea e4 3d 3d b9 27 be 5d d0 26 3d 9d 27 a2 3d
       0.111775324 -0.16379257 0.040726054 0.07917712
0000b0 2c 93 63 bd b6 90 1e 3d 1e 4c 35 be a0 6d e6 3c
       -0.055560276 0.038712226 -0.17704818 0.028128445
0000c0 17 4d dc 3d ee f0 b8 3d 83 40 6c 3d cf d6 ea bc
       0.10756891 0.09030329 0.05767871 -0.028666882
0000d0 af 24 86 bd cc c7 1d 3e e1 76 20 3d 17 27 92 3d
       -0.065499656 0.15408248 0.03917587 0.07136362
0000e0 3d 75 8c 3d 1b 97 52 bd 7a 97 bf bc 6f f6 19 3e
       0.06858299 -0.051413637 -0.02338766 0.15035413
0000f0 41 89 16 3e 62 69 27 be 7b c3 15 be 0a f8 fd bc
       0.14700796 -0.16348794 -0.14625351 -0.031002063
000100 a2 51 66 3d 70 5b d2 bd 9e f3 c8 3d 40 86 2f be
       0.056230195 -0.102713466 0.09812091 -0.17141056
000110 39 c4 6c bb bb 13 04 3e 05 88 69 bd 32 04 6b bd
       -0.00361277 0.12898152 -0.057014484 -0.057377048
000120 99 86 de 3c 00 23 01 3e e0 a6 eb 3c b1 be ad 3c
       0.02716379 0.12611008 0.028766096 0.021209093
000130 89 af e4 bc fd 8d 2d be 31 3e 78 bd 18 09 0a 3e
       -0.027915733 -0.16948695 -0.060606185 0.13480031
000140 65 9c 04 be bc 8d 9c 3d 47 1b 79 bd fe b5 9a 3d
       -0.12950285 0.07644221 -0.06081703 0.075542435
000150 74 d3 89 3d db a3 e6 3d f5 89 c4 bd 62 23 0a bd
       0.067297846 0.11261722 -0.09596626 -0.03372515
000160 e2 93 d8 bd 16 1d d3 3c 13 aa 93 bd 6d 0e 06 3d
       -0.105750814 0.025770705 -0.072101735 0.0327286
000170 3f d5 08 be db 2b 56 bd e2 c1 1b be 45 19 28 be
       -0.13362597 -0.052287918 -0.15210679 -0.1641589
000180 19 56 59 3d fe b4 65 3c 19 92 a2 bd ca 23 78 bd
       0.053060625 0.014020203 -0.07938022 -0.060581006
000190 4a 5e 10 3e 8e 17 49 3b f2 c0 82 3d c5 c8 44 3e
       0.14098468 0.0030684206 0.06384458 0.19217212
0001a0 8e d8 35 3e 48 5f 4e bd 72 7a c8 3d f2 e9 39 bd
       0.1775839 -0.050383836 0.097889796 -0.045389123
0001b0 bb 41 e4 bd 11 82 29 3e db e8 fd bc 85 46 5b 3c
       -0.111453496 0.16553523 -0.030994823 0.013383512
0001c0 73 7a 4f 3d 6f 49 12 3e 95 5d 4b bc 81 72 0a bd
       0.050653886 0.14285825 -0.012412448 -0.033800606
0001d0 4c 07 a8 3d 93 65 31 3d 91 21 8b 3d 5e 58 3b 3e
       0.08204517 0.04330976 0.06793512 0.18295428
0001e0 32 23 9d bd 3a bb fa 3d a7 97 27 be f8 17 a1 3b
       -0.076727286 0.12242742 -0.16366445 0.0049161874
0001f0 0d 8e 2e 3d 83 40 18 be 70 1f 29 be 67 29 a6 bc
       0.04261594 -0.1486836 -0.16515899 -0.020283414
000200 c6 64 eb bc f3 14 f2 3d 98 3f a5 bd 00 51 21 3e
       -0.028734576 0.11820402 -0.0806877 0.15753555
000210 fb a1 9a bd f2 87 ff 3c 57 42 0b 3e e8 67 d3 3d
       -0.075504266 0.031192753 0.13599525 0.10322553
000220 8d 23 87 bd d3 90 95 3d 16 39 6a 3d 72 55 2f be
       -0.06598578 0.07303014 0.057183348 -0.17122439
000230 a9 8d 1e 3e 62 c1 50 3e 0d 11 d5 bb 88 5e 63 3e
       0.15483727 0.2038627 -0.0065022768 0.2220403
000240 b6 05 31 bc 8b d1 e1 bb 6d ee 24 bb cc eb d2 3c
       -0.010804584 -0.0068914345 -0.0025166527 0.025747202
000250 a2 b9 ae 3d 79 0f 05 be 2f 04 94 bd e4 4e f9 bd
       0.085315004 -0.12994184 -0.072273605 -0.1217325
000260 9d cc 51 bd c8 3b 3e 3d 69 4e f4 bd c3 e3 63 3c
       -0.051220525 0.04644373 -0.11929018 0.013909283
000270 c7 6e 37 be d7 1c a6 3d c9 cc da 3d d9 61 1f bd
       -0.17913352 0.081109695 0.10683591 -0.038911674
000280 83 42 b9 3d 1b b7 95 bc 72 10 05 be cf 5a 1a be
       0.09045889 -0.018275788 -0.12994555 -0.15073703
000290 d8 0b 35 be f3 22 18 3d da 48 22 3d c4 6d f8 bd
       -0.176803 0.037142705 0.039620258 -0.12130311
0002a0 16 25 6d bc fc 6e 3c 3c df 98 72 3c 16 0c 94 3d
       -0.014474174 0.01150107 0.014806955 0.07228868
0002b0 52 cc 4c 3e 5f 76 10 3e a6 0c 99 3d 59 26 28 3e
       0.19999817 0.14107655 0.074731156 0.16420878
0002c0 fe 2d a2 bd 6d cc 8c bd 43 98 90 bd 88 8b 5d 3c
       -0.079189286 -0.068749286 -0.070602916 0.013522036
0002d0 e4 a9 46 3d 6f 7d 54 3d 5a fc 00 be 1f cf 28 be
       0.048501864 0.051877435 -0.12596264 -0.1648526
0002e0 bb de 8b bd 8e cd b0 3d b4 45 33 be 91 11 63 3d
       -0.06829592 0.086329564 -0.17507058 0.055436675
0002f0 98 27 5f 3d e3 c0 b1 bd 4a e9 0b 3e 2f d7 a4 bd
       0.05448112 -0.08679368 0.13663211 -0.080488555
000300 c8 02 b6 3d cf 43 9e bc f8 cb f3 bd 23 e7 a5 bd
       0.08887249 -0.019319443 -0.11904138 -0.081007265
000310 ae 5d cb 3d c8 61 00 be 49 d3 0b 3e c2 69 a4 bd
       0.09929977 -0.125373 0.13654818 -0.08027984
000320 e5 20 91 bd 3c 13 0f be 9a cf 1e be cd be 01 be
       -0.07086352 -0.13972181 -0.15508881 -0.12670441
000330 e7 19 a9 3c e2 be d1 3d af 57 8f 3d b5 6e e3 3d
       0.020642234 0.10241486 0.06999146 0.111051
000340 a7 7a 0e be 0a bf 14 be 92 b4 1a 3e 61 d1 0f 3d
       -0.13913976 -0.14526 0.15107945 0.03511179
000350 45 cb bd 3d a1 91 8c 3d 94 20 6e 3d 26 0f bd bd
       0.09267286 0.06863714 0.058136538 -0.09231405
000360 2f fb 35 3e 3c 3e fb bc d8 2a 1b be 3b 1b ae 3d
       0.177716 -0.030669324 -0.15153062 0.085012875
000370 2f 77 df bd f1 39 cc 3c 26 72 23 3e 68 f6 c4 bd
       -0.10911404 0.024929972 0.15961513 -0.09617311
000380 c8 61 61 bd 85 eb 96 bc 54 68 80 bc 43 a9 82 bb
       -0.055024892 -0.018422851 -0.015674748 -0.0039874627
000390 33 8e d3 3a 6b d8 3f 3e 06 5a b4 3d a7 e5 84 bc
       0.0016140401 0.187349 0.08806233 -0.016222788
0003a0 4b fc 6d bd fe a4 64 3c 3d 54 e8 3d 88 21 6d bd
       -0.058101933 0.013955353 0.11344192 -0.057893306
0003b0 a5 5f c2 bd bf 1b c6 3d 61 df 93 bd 30 b1 ff 3c
       -0.09490899 0.09673261 -0.072203405 0.03121242
0003c0 b4 09 26 be 3b e2 be bd 8e 35 1c bd 3d 06 16 be
       -0.16214639 -0.09320494 -0.03813701 -0.14650817
0003d0 68 43 dd 3d e4 6b d9 bd 66 c8 0b 3e 29 31 70 bc
       0.10803872 -0.10616282 0.13650665 -0.014660158
0003e0 fa c3 a4 3d dc 01 aa 3d 69 17 b6 bd 6f fb 1c 3a
       0.08045192 0.08301136 -0.08891184 0.0005988394
0003f0 aa 45 f1 3c a9 09 65 bd ed 71 29 3e 79 ec 44 be
       0.029452164 -0.055917416 0.16547365 -0.19230832

bias f4 [32]
000000 f8 2f bb 3d 5b b5 22 be 46 69 9f 3d 63 30 29 bc
       0.09140009 -0.15889494 0.07783751 -0.010326478
000010 f2 e2 0b be fc fd c4 3d 7f c4 1e be 13 76 bf 3d
       -0.13660792 0.09618756 -0.15504645 0.09348693
000020 4c 09 94 3c 24 21 89 3c 95 7c 21 bd 06 6d 1b be
       0.01807084 0.016739435 -0.03942545 -0.15178308
000030 d1 6a 69 bd 98 a4 39 bd cc fb 35 bd dc bf 40 3c
       -0.056986634 -0.045322984 -0.044429585 0.011764493
000040 87 c5 12 be 2b 8e c8 bc 43 48 13 3e c1 2e f9 3d
       -0.14333163 -0.024481853 0.14383034 0.12167121
000050 20 99 8c 3c 51 0d aa bd 6a e9 1d 3e 0a de d2 3d
       0.01716286 -0.08303321 0.15421072 0.10296257
000060 22 e9 b0 bd 8b 7b dd 3b e8 74 bc 3d c0 bc 66 bd
       -0.086382166 0.0067591122 0.092019856 -0.05633235
000070 23 c6 26 3e 5c 39 f8 bd 1d af 6c 3d 65 38 d2 bd
       0.1628652 -0.121203154 0.05778419 -0.10264663

weight f4 [32]
000000 32 fc 7c 3f cd c1 76 3f 22 29 79 3f 19 2a 82 3f
       0.9882232 0.96389467 0.9732839 1.0169097
000010 d2 b7 85 3f 12 41 83 3f 9a 48 85 3f 50 dd 8c 3f
       1.0446723 1.0254233 1.0412781 1.1005039
000020 f1 50 63 3f f2 79 60 3f ef 70 65 3f e1 21 6a 3f
       0.8879538 0.87686074 0.8962545 0.91457945
000030 d0 b8 8c 3f b9 ab 80 3f 47 cb 8b 3f 03 91 93 3f
       1.09939 1.0052406 1.092141 1.1528629
000040 fd ba 5d 3f 7c 86 8f 3f 37 07 7f 3f 71 1f 83 3f
       0.86613446 1.1212916 0.99620384 1.024397
000050 7a 76 5d 3f 8d 35 79 3f 63 f5 6e 3f 39 7f 63 3f
       0.86508906 0.97347337 0.9334318 0.88866
000060 04 b6 85 3f 63 3e 67 3f 68 d7 83 3f e9 ae 86 3f
       1.0446172 0.9032957 1.0300112 1.0522128
000070 e2 72 68 3f 68 93 6d 3f 93 de 8c 3f 62 23 80 3f
       0.908003 0.9280305 1.1005424 1.0010798

bias f4 [32]
000000 42 22 57 bc c6 91 a9 bc ef 55 8e 3c e8 e5 7d bd
       -0.013130726 -0.020699393 0.01737496 -0.061986834
000010 98 ec 7b 3c 7a 6a 15 3d bd b8 4d 3d 5b 0e 90 3c
       0.015376233 0.036478497 0.05022501 0.01758497
000020 db 62 17 be e7 84 3b be 15 d2 d7 bd ad cb 11 be
       -0.14783804 -0.18312417 -0.10538117 -0.14237852
000030 f1 2d e4 3d 4b 9f da bd ef 50 df 3d db 68 ce 3d
       0.11141575 -0.10674914 0.10904109 0.10078593
000040 25 88 96 bd db 69 a9 3d 58 4a 3c 3d 27 eb 89 3d
       -0.07350186 0.082721435 0.045969337 0.06734305
000050 23 13 0b be 85 0c 6d bc 23 cd 2c bd 31 64 bc bd
       -0.13581519 -0.014468317 -0.04218782 -0.091987975
000060 1f 40 ee bc 47 d7 ee bd 75 f4 65 3d 52 a7 40 3d
       -0.02908331 -0.11662155 0.056141336 0.04703457
000070 49 59 7a bd 30 2c 85 bd 72 b8 c5 3d 13 fa ee bd
       -0.061120305 -0.06502569 0.09654321 -0.116687916

running_mean f4 [32]
000000 fa 3e 61 be fa aa 85 3e 61 2b e3 bd b7 1e 24 3f
       -0.2199668 0.26107007 -0.11092258 0.6410937
000010 19 fb 43 be 11 ec e1 bd 72 62 9b 3e 96 22 85 3e
       -0.19138755 -0.11031354 0.30348545 0.2600295
000020 b6 98 ec 3e 5d b1 31 3d b2 b3 de 3e 28 80 08 be
       0.4621026 0.043382037 0.43496472 -0.13330138
000030 e9 53 e5 3d 97 4a b7 3d e6 64 69 be f5 47 c3 3d
       0.11197645 0.08949774 -0.22792396 0.09535209
000040 c0 7f 9d 3e 15 f0 da 3d dd 11 ee bc 57 87 b9 bd
       0.30761528 0.10690323 -0.029061252 -0.09059017
000050 60 1d 60 3e 39 d0 91 3e 6b 16 ad be a2 fe c5 3e
       0.21886206 0.28479174 -0.33806166 0.38670832
000060 07 cf 07 bf f5 8d ee 3d d2 1e db be 95 76 74 be
       -0.53050274 0.1164817 -0.42796952 -0.2387336
000070 39 27 cc be 10 bc e8 3e 39 4f 0d 3d fe 8d 02 3e
       -0.39873675 0.4545598 0.03449938 0.12749478

running_var f4 [32]
000000 de a6 4a 3d 3f 6b 74 3e f4 38 b3 3d 20 c8 62 3d
       0.049475543 0.23869036 0.08751097 0.055366635
000010 4b 85 a0 3d f1 9d b9 3c 12 f3 c1 3c a2 d6 73 3d
       0.078379236 0.02265832 0.023675475 0.05953086
000020 a5 4f de 3d f5 31 8d 3d 6d a8 c2 3d bb 4f a6 3d
       0.10855035 0.06894294 0.09504781 0.08120676
000030 48 c9 f9 3d fc cf 0f 3e 0e d8 db 3c a5 47 23 3e
       0.121965945 0.14044183 0.026836421 0.15945299
000040 5c f9 98 3d 36 fa 85 3d 31 f6 e0 3d 02 21 9f 3d
       0.074694365 0.065418646 0.10984457 0.077699676
000050 3d 2a d0 3d 3a 29 9f 3c ac b2 e9 3d 30 29 8a 3d
       0.10164306 0.019428838 0.11411032 0.06746137
000060 fa fe 22 3e ca 8e c2 3d 4b 87 5c 3d 14 08 be 3c
       0.15917578 0.09499891 0.053839963 0.023197211
000070 56 82 78 3d 72 7c d6 3c 91 61 d0 3c 24 59 0c 3d
       0.060671173 0.026182387 0.025437148 0.0342647

weight f4 [32]
000000 0f d1 7d 3f 0a 4b 61 3f 5b 88 58 3f cb 94 49 3f
       0.99147123 0.88005126 0.8458306 0.78742665
000010 62 09 6f 3f 91 bc 68 3f 35 04 59 3f d5 fd 7e 3f
       0.9337369 0.9091273 0.84772044 0.99606067
000020 d4 b9 5c 3f 99 24 70 3f 8d 7b 7a 3f ca d7 52 3f
       0.8622105 0.93805844 0.97844774 0.8236052
000030 6c d7 41 3f cb 14 6e 3f 3e 36 63 3f d4 99 60 3f
       0.7571933 0.9300048 0.8875464 0.87734723
000040 22 79 75 3f 1c 56 72 3f d5 91 82 3f 16 6c 48 3f
       0.9588796 0.9466264 1.0200754 0.78289926
000050 0c 2a 6a 3f ff 83 50 3f ff 46 83 3f 8a ce 73 3f
       0.9147041 0.8145141 1.0256041 0.9523703
000060 89 bc 69 3f 4a 6b 5b 3f 02 2c 7d 3f 05 60 52 3f
       0.91303307 0.85710585 0.98895276 0.82177764
000070 85 b5 68 3f 50 b8 65 3f 93 8f 63 3f 79 ba 64 3f
       0.90901977 0.89734364 0.8889095 0.89347035

bias f4 [32]
000000 fa d2 4b bd c9 12 89 bc 79 4a d4 bd 0a a3 74 bd
       -0.04976175 -0.01673259 -0.10365767 -0.0597258
000010 d3 db 37 bd 86 26 52 be 4b 21 ea bd ee 52 6b bd
       -0.044887375 -0.20522508 -0.114321314 -0.057452135
000020 eb a6 ba bb 63 67 8f bd 20 ed 00 be c3 db f3 bd
       -0.0056961677 -0.07002141 -0.12590456 -0.119071506
000030 0f 12 21 be f9 8b c1 bd b3 39 b8 bd 32 ca b6 bd
       -0.15729545 -0.09450526 -0.0899538 -0.089252844
000040 29 3b 06 be 69 98 86 bd d4 3e 05 be 37 5f 0d be
       -0.13108505 -0.06572039 -0.13012248 -0.13805853
000050 6e e2 63 bd 74 b9 04 be 1d 8c 23 be fd 48 0c bd
       -0.055635862 -0.1296137 -0.15971418 -0.034249295
000060 7b 57 78 bc 2f 81 ea bd 00 97 b2 bd 8b 7f 87 be
       -0.015157576 -0.11450421 -0.08720207 -0.26464495
000070 ff 53 9c bd 27 2d fd bd bf c0 55 be 61 5b 6b bd
       -0.076332085 -0.12362128 -0.20874308 -0.057460193

running_mean f4 [32]
000000 6a fb a5 bf 0d f5 49 bf a5 90 75 bf bf 0c 38 3f
       -1.296735 -0.7888954 -0.95923835 0.7189445
000010 1e b3 99 bf eb 8a 0c c0 61 a7 bd 3f f2 9d 03 c0
       -1.2007787 -2.1959789 1.4816705 -2.0565152
000020 3f 41 3c 40 6e ed c5 bf 36 c3 a7 bf d2 e2 9d bf
       2.9414823 -1.5463083 -1.3106449 -1.2334845
000030 cf 4a 24 c0 8c 93 3e c0 1f 70 4a c0 05 f6 96 bf
       -2.567066 -2.9777555 -3.1630933 -1.1793829
000040 44 1a bd bf c2 ae ce bf 45 d6 d3 bf 3c f2 32 c0
       -1.4773641 -1.6147082 -1.6549765 -2.7960348
000050 41 16 7c 3f 97 5e 8c bf 04 1a 9d 3e de 26 46 bf
       0.98471457 -1.0966367 0.3068391 -0.77403057
000060 15 98 a5 bf 1b 93 9d bd a3 31 57 bf 38 76 09 40
       -1.2937037 -0.07694074 -0.84060115 2.1478405
000070 40 16 a7 bf 97 e5 ea bf 3f 26 32 c0 da 61 03 40
       -1.3053665 -1.8351315 -2.7835844 2.0528474

running_var f4 [32]
000000 81 6d 2e 40 6e 76 81 40 7d 85 a1 3f 3b 2d 1c 40
       2.7254336 4.0457067 1.2618862 2.4402606
000010 6c 21 27 40 d7 82 21 40 f5 b6 78 3f 9b dd 9d 40
       2.611415 2.5236108 0.9715417 4.9333014
000020 4d a4 6a 40 71 4c 8f 40 2c ab 8c 40 14 85 c0 3f
       3.6662781 4.478081 4.395895 1.5040612
000030 a2 65 35 40 5d ed 20 40 89 77 a5 40 86 0c 75 40
       2.8343282 2.5144875 5.1708417 3.8288894
000040 40 34 3d 40 0f 45 01 40 8f a7 b4 40 b6 5e 12 40
       2.956314 2.01984 5.645454 2.2870307
000050 e0 89 39 40 f9 5a 75 40 9f 73 29 40 98 27 97 40
       2.8990402 3.8336775 2.647682 4.723583
000060 1b b4 3d 40 7e 17 20 40 1b 69 80 40 da c7 b9 3f
       2.9641178 2.5014338 4.0128303 1.4514115
000070 89 ae 02 40 66 55 75 40 d2 12 7f 40 ee 67 99 3f
       2.0419028 3.8333373 3.9855237 1.1984842

weight f4 [32, 32, 11]
000000 70 9f 7e 3c 88 1f 71 bd 54 bc 9f 3d f2 e4 35 3e
       0.015540943 -0.05886796 0.077995926 0.17763117
000010 05 49 2e be 9f 30 4b bd 00 c1 9b 3c 48 0f 8d bd
       -0.17020042 -0.049606916 0.019012928 -0.0688768
000020 05 61 93 bd 3f de e2 3c 7e e2 b5 3b 93 55 21 bc
       -0.071962394 0.027693866 0.0055506816 -0.009847063
000030 3c ad cc bc 66 f0 4e bd 39 4e 37 be 06 1e 2d 3c
       -0.024984948 -0.05052223 -0.17900933 0.01056624
000040 a9 b8 b1 3c b9 28 49 bd 8b d8 67 3c c3 7e c6 3c
       0.021694498 -0.0491111 0.014150749 0.024230367
000050 de 46 07 3d e5 8c f7 3c 5f e5 33 bd eb 14 a0 bd
       0.03302657 0.030218551 -0.043919917 -0.0781649
000060 8e 42 24 bd 04 c9 8b 3d 17 13 0b bd a5 36 5b 3c
       -0.040102534 0.0682545 -0.033953752 0.0133797275
000070 bf 16 cd 3c d5 a1 24 bd 88 bf 3b 3c 1d ca 11 bd
       0.02503526 -0.040193398 0.011459239 -0.03559314
000080 60 ec eb bc 52 95 06 bc cd 4a b1 bc 27 58 74 3d
       -0.028799236 -0.008214312 -0.021642113 0.05965438
000090 ce be c7 3d f0 7a c9 bd 82 68 81 bd 67 16 fd bc
       0.0975319 -0.098379016 -0.063187614 -0.030894471
0000a0 e2 8f 15 3c 09 a4 c7 ba 7b 0c d6 b7 bc 8d 9d bc
       0.009128543 -0.0015231381 -2.55166e-05 -0.019232623
0000b0 16 2a f0 3a 07 13 f9 3c ba b9 00 3e f2 7b 00 3e
       0.001832309 0.03040458 0.12570849 0.12547281
0000c0 94 96 0e be 65 34 82 3c 84 0c 59 3d 58 b3 08 bd
       -0.13924628 0.015894124 0.05299045 -0.03337416
0000d0 9c b2 e3 3b d0 d7 ed bc e0 17 ce bc ec ef 3b 3c
       0.006948782 -0.029033571 -0.025157869 0.011470776
0000e0 9f 2d fb 3c 9e 74 ba 3c 71 1a 95 be 8c 70 cf 3d
       0.030661402 0.022760686 -0.29121736 0.101288885
0000f0 7d a5 13 bd 23 2a 19 bd f6 88 a9 3d 30 a7 83 bc
       -0.036046494 -0.0373937 0.08278076 -0.016070932
000100 5c 07 9a 3c d9 43 81 3c 3d 6f c6 bd dc c2 bf bd
       0.018802337 0.015779423 -0.09689186 -0.09363338
000110 97 b9 21 3e e8 5a 89 3d a4 e3 16 be a3 35 83 bd
       0.15793453 0.06706792 -0.14735276 -0.06406715
000120 23 44 2f 3d cc d5 13 3c 01 9f 44 bd 7d 75 0f 3d
       0.04278959 0.009023141 -0.0480032 0.035024155
000130 58 60 3c 3d 61 60 88 bd 9a e6 01 bc 23 05 7d 3d
       0.045990318 -0.06659008 -0.007928515 0.061772477
000140 a8 7c 3d bd 07 99 de bd fc 68 14 bd 35 8b 4c 3c
       -0.04626146 -0.108690314 -0.036232933 0.012484361
000150 b6 70 ed 3c 4d 05 91 3b 0a b1 65 bc 67 cb 34 bd
       0.028984409 0.0044256807 -0.01401926 -0.044139292
000160 d5 86 3d 3b cb 71 98 3c f2 7f db 3c ec 53 fa bd
       0.0028919477 0.018608948 0.026794408 -0.12223038
000170 7e 90 56 3b 48 09 18 39 75 c1 e4 3c 01 c0 23 bd
       0.0032739933 0.00014499307 0.027924279 -0.03997803
000180 29 54 ef bc 80 e6 60 3c c6 44 85 bc c9 eb 7a bd
       -0.029214935 0.0137268305 -0.016268145 -0.06126002
000190 d9 d8 59 bd 61 f7 46 bd cf f3 c2 bd 84 b4 2d 3c
       -0.053185318 -0.048575763 -0.09519159 0.01060212
0001a0 09 88 bf bc 8b fc 5c bd ae 9f fc bc 74 4a 52 3d
       -0.023380296 -0.05395178 -0.03083786 0.051340535
0001b0 6e c4 39 3d 69 f1 e6 3c ca 38 74 bd 9a 72 95 3b
       0.045353346 0.028191285 -0.05962447 0.0045607807
0001c0 97 16 97 3b a9 d4 bf bd e5 be 91 3d 7e e2 62 bc
       0.004610847 -0.093667336 0.07116488 -0.013847945
0001d0 f1 a1 78 bc f2 99 56 3d dd 29 41 3d ed 9f 5c 3b
       -0.015175329 0.052392907 0.047159065 0.003366466
0001e0 dc a6 e3 3a c5 c9 82 bd 72 63 88 bd c4 96 54 bd
       0.0017368454 -0.06386141 -0.06659593 -0.051901594
0001f0 cf e3 d9 bc 66 3f 61 3d 15 f5 33 3d ec d4 4e 3d
       -0.026597885 0.054992102 0.0439349 0.050496027
000200 fd 70 4c bd aa 32 92 bc e1 a0 26 3d 0e b8 7b bc
       -0.04991244 -0.017846424 0.04068077 -0.015363706
000210 6f 96 b5 3c 21 50 01 bd 05 0c 08 be 40 4e 22 3d
       0.022166459 -0.031570558 -0.13285835 0.039625406
000220 f1 b7 38 3d c5 96 8e bc f7 73 0b 3c 60 6e eb bc
       0.045097295 -0.017405877 0.008511535 -0.028739154
000230 7b 4d 4e 3c 0f 08 c2 bc 6b b5 4e 3c 0a ed f7 bc
       0.012591715 -0.023685483 0.012616496 -0.030264396
000240 60 a1 e7 3c b2 32 8c 3d 45 5d 8b 3d 1a 4a 13 be
       0.028275192 0.06845607 0.06804899 -0.14383736
000250 89 47 e8 3a 64 bc 68 bd ed fd 61 bd 36 48 a6 bb
       0.0017721514 -0.05682029 -0.055173803 -0.005074526
000260 d4 ed 5c bd 35 f5 d4 3c 51 ca 18 bc d8 57 9d bc
       -0.053937748 0.02599583 -0.00932558 -0.019206926
000270 64 b1 e6 bd 9f 1f f9 3c 26 dc 9d 3c b2 75 0c bd
       -0.11264303 0.030410586 0.019270014 -0.03429193
000280 b6 43 3b 3c 86 84 90 bd 5f a7 af bc e7 69 f4 3c
       0.011429718 -0.07056527 -0.021442113 0.029835654
000290 0b 0c 64 b9 5b e6 d7 bb d0 7c 6a 3d 67 ac 05 be
       -0.00021748261 -0.00658874 0.057247937 -0.13054048
0002a0 20 7a c0 3d dc 77 f6 3b 66 2a 63 3d 0a bf 34 3d
       0.093982935 0.0075216126 0.055460356 0.0441275
0002b0 4a 47 1f 3c a1 9e b3 3b 01 78 d4 3b 33 73 36 3d
       0.0097215865 0.0054815565 0.006484032 0.044543456
0002c0 f8 eb f7 bc f0 73 bb bd 03 1e 93 bd 9f 67 8a bd
       -0.030263886 -0.09152973 -0.07183459 -0.067580454
0002d0 82 95 b4 3a d5 db 1f 39 4a 2d 66 3c 4e 2a 6d 3b
       0.0013777467 0.00015245315 0.014048884 0.0036188546
0002e0 0e 5a 7e bd 9a 6f 11 3d cb 59 29 3d 0d 81 f2 bd
       -0.0620976 0.035506822 0.0413454 -0.11841021
0002f0 49 9d 48 be 41 3d 90 3e bd 01 0f be f1 e4 9f bd
       -0.1959125 0.28171733 -0.13965507 -0.07807339
000300 26 5e f2 bc af 34 bf bc c6 21 34 3d ab 10 08 bd
       -0.02958591 -0.023340551 0.04397752 -0.03321902
000310 f1 37 0c 3c 0e c5 89 bd 2a ac e3 bc b2 28 0a 3d
       0.008558259 -0.06727038 -0.027792055 0.033730216
000320 ad ce 10 be db 73 97 3d b5 a0 34 3d f6 03 c8 3d
       -0.1414134 0.073951446 0.044098575 0.097663805
000330 79 dd a0 bd 61 f9 1b bb da 47 34 3d c2 80 87 b8
       -0.078547426 -0.0023799764 0.044013835 -6.461285e-05
000340 53 a6 fb bc be 50 16 bd d0 f5 9b bd b2 df 04 3d
       -0.030718958 -0.036698096 -0.076152444 0.032439895
000350 10 8e e2 3d 4f e1 27 be a0 b8 93 bc 24 e8 ed bb
       0.110622525 -0.16394542 -0.018032372 -0.0072603393
000360 b9 63 7a bd af d3 28 bd 6d 89 17 3d fd 53 2e bd
       -0.06113026 -0.041217502 0.036996294 -0.042560566
000370 3c 5a 32 bd 67 ec 6d bd fa e4 e9 bc e5 16 27 3d
       -0.043543085 -0.05808678 -0.028551567 0.04079332
000380 ca 75 c8 3c e0 0f 24 3d 08 62 26 3d 02 cb 24 3d
       0.024470229 0.040054202 0.040620834 0.040232666
000390 db 4f ce bb 53 51 12 bd 20 45 25 bd 22 d6 e7 3c
       -0.0062961406 -0.035722088 -0.040349126 0.028300349
0003a0 1e 03 52 3d d2 18 21 bc 9f 08 39 be 6c 62 de 3d
       0.051272504 -0.009832578 -0.18069695 0.10858616
0003b0 c7 70 11 3d 4e 02 8b bd 53 51 44 3d f7 fa 5e bc
       0.035507943 -0.06787549 0.04792912 -0.013609639
0003c0 68 76 27 3b 90 ff 4e bd cf 09 3b bc b9 66 74 3d
       0.0025552753 -0.050536692 -0.011415913 0.059668276
0003d0 ea 7d 92 bb 30 68 04 be e0 92 6c 3d 55 81 47 3d
       -0.0044705765 -0.1293037 0.05775726 0.048707325
0003e0 a8 d8 a1 bc df 47 ad 3c bc 98 7f 3d d2 04 ae bc
       -0.01975663 0.021152435 0.06240152 -0.021242533
0003f0 85 24 e7 bc 91 5d 29 bd 74 b5 ba bd 92 6c 2c 3d
       -0.028215656 -0.041348998 -0.09116641 0.04209573

bias f4 [32]
000000 ac 3c 3c 3d a8 70 3a 3c d9 2c ba 3c b0 d0 fc 3c
       0.0459563 0.011379398 0.022726463 0.030861229
000010 e8 97 dd bc a8 fa d4 3b 7a 24 18 bd 84 47 c1 3c
       -0.027049974 0.006499607 -0.03714416 0.023593672
000020 48 17 48 3c 28 a8 c3 3c af cd 2d bd 34 52 8e bc
       0.012212582 0.023883894 -0.042432483 -0.017373182
000030 57 a4 82 3c e1 5f fa 3b c9 0d 1d bd 72 d6 5e 3d
       0.015947504 0.007640824 -0.038343225 0.05440373
000040 62 98 3c bd 85 46 ca bc 7d 0a 54 bd 26 df 29 bd
       -0.04604376 -0.02469183 -0.051767815 -0.041472577
000050 be 69 a9 bc 2b e6 e5 3c 19 f0 e9 bc 5d fe 15 bc
       -0.020680305 0.028063854 -0.02855687 -0.009154883
000060 84 1d 17 bc d0 58 5f 3c d2 14 1b 3d 67 3c 39 3d
       -0.009223346 0.013632014 0.037861653 0.04522362
000070 ac 93 5f bd 78 04 43 3c 62 53 3f bd 13 7e d9 bc
       -0.05458419 0.011902921 -0.04671038 -0.026549375

weight f4 [32, 32, 11]
000000 21 2d 82 bc ef 16 71 3d af a2 82 3d d2 8e 89 3b
       -0.01589066 0.05885976 0.06378686 0.0041979337
000010 bf f2 1e bd 9b 4b 74 bb c2 58 cb bc 18 59 1e 3d
       -0.03880572 -0.003727651 -0.024822596 0.038659185
000020 6e 79 52 bd 10 fc 25 bb 39 be 8d 3d 30 7c 12 bd
       -0.051385336 -0.0025327243 0.06921048 -0.035762966
000030 ea bd 3c 3a bd 41 6a bc 62 21 ca 3c 10 93 1f bd
       0.000719993 -0.0142979 0.024674121 -0.03895861
000040 69 85 d3 3b 59 33 7f 3c 20 6e ee bc 13 2c 40 3d
       0.0064551127 0.015576207 -0.029105246 0.046917032
000050 4d eb ad 3c 91 e1 29 bc d5 74 25 3d 94 e5 42 bd
       0.021230364 -0.010368721 0.040394623 -0.047582224
000060 ef fb cf 3c ef cf e2 bc c3 43 84 bc f1 98 2f 3a
       0.025388686 -0.027687041 -0.016145593 0.000669851
000070 f2 94 22 bd 4d f3 d4 3c db ff e9 3c ac 7d 03 3c
       -0.039692827 0.025994921 0.028564384 0.008025568
000080 7e a0 88 b9 d9 05 58 3b a5 a7 79 bd 09 df e5 3c
       -0.00026059517 0.003296247 -0.060950894 0.028060453
000090 ff 3b a5 bc a6 03 5f 3c 29 98 8e 3d 54 c6 04 bd
       -0.02017021 0.01361171 0.06962616 -0.032415703
0000a0 83 a7 85 bc 78 f1 78 bc 4a b9 57 bd cc 66 c6 3a
       -0.016315227 -0.015194289 -0.05266694 0.0015136837
0000b0 26 d6 bc 3c b7 3c 78 3d 17 f1 a3 3c 81 96 4f 3b
       0.023051333 0.060604777 0.020012422 0.00316754
0000c0 fd 97 2e bb 1b 05 4c 3b fc 32 51 bd ef 95 3b bd
       -0.0026640885 0.0031130973 -0.051074013 -0.045797285
0000d0 92 b0 bd bc 3c 82 1b bd 1c 5f 61 3c 43 47 5e bc
       -0.023155484 -0.037965998 0.013755586 -0.013566795
0000e0 15 13 fe bc 80 84 44 3d 1c 03 99 bc 29 4c 67 3d
       -0.031014958 0.047977924 -0.01867824 0.056469116
0000f0 a6 82 7a bd cb 1b 55 bd 5d ac 23 3d f3 da 12 bd
       -0.061159752 -0.05202846 0.0399593 -0.035853337
000100 fe 9f 97 bc 85 37 77 3c e6 a9 a1 bc 70 5c a3 bc
       -0.018508907 0.0150889205 -0.019734334 -0.019941539
000110 2c ae 14 bb 1a 83 66 bc fc 47 1e bd 35 26 9a bb
       -0.0022686822 -0.014069343 -0.03864287 -0.0047042617
000120 77 ab 3b 3d 95 dc ad bc 77 64 06 3d 63 8d 24 3d
       0.04581782 -0.021223346 0.032810654 0.0401739
000130 c8 bf c8 3c f6 59 0b 3d 9a 96 81 3d cc 1d 0c 3d
       0.02450551 0.03402134 0.06327553 0.034208104
000140 5d 73 2d 3d a3 40 b6 3c 56 cb 08 bd 31 44 68 bd
       0.042346347 0.022247618 -0.03339704 -0.056705657
000150 49 69 a0 bc c9 41 2e 3d 66 88 7f 3a 5c 77 cf bc
       -0.019581454 0.042543206 0.0009747803 -0.02532547
000160 e1 ee 86 3d 97 e4 7b 3d 29 f5 3e 3d 96 b3 f4 3c
       0.06588531 0.061497297 0.04662052 0.02987079
000170 0f 88 1a 3d b4 f3 cb 3c 5f 3b 99 ba 1f 12 96 3d
       0.03772741 0.02489648 -0.0011690668 0.07327675
000180 e1 35 f2 bb c1 43 45 3d 18 a6 0a 3d d2 4b f8 bc
       -0.007391677 0.04816032 0.033849806 -0.030309591
000190 98 0a 85 bd 53 a2 10 ba 7d 50 85 bd 4e ac a9 3b
       -0.06496161 -0.0005517352 -0.065094925 0.005178011
0001a0 e9 fc 34 bd 70 c2 77 bd d4 cb c4 bc be de 21 3d
       -0.044186506 -0.060488164 -0.024022974 0.039519064
0001b0 b2 17 ae 3b 78 9d 58 3d 73 0f 92 bd 4f 20 b7 bc
       0.0053128833 0.05288455 -0.07131853 -0.022354273
0001c0 a2 24 4e bc 1e 8f 87 bd 63 b4 80 bd 39 f3 92 3b
       -0.012581976 -0.06619094 -0.06284406 0.004484561
0001d0 70 3e e7 bc 05 56 44 bd 68 59 30 3d 73 9a b2 bc
       -0.028228015 -0.047933597 0.043054014 -0.021802163
0001e0 93 8f 3b bc 35 3a ec 38 3e 04 56 bc 3a e6 a9 3c
       -0.011447805 0.00011264199 -0.013062535 0.020739663
0001f0 51 b6 67 3c 29 06 4e 3d e4 cc 89 3c 01 36 25 bd
       0.014142589 0.050298844 0.016821332 -0.040334705
000200 65 5a 83 3d 81 76 aa bc 9f 23 dd 3b a0 18 11 3d
       0.06413726 -0.02080846 0.006748631 0.035423875
000210 20 22 31 bd 34 b7 8e bc be f2 86 3b 46 58 55 bd
       -0.043245435 -0.017421342 0.0041182926 -0.052086137
000220 92 cc 00 bd 67 f9 25 3c 45 a3 7d 3d f0 65 90 bb
       -0.031445093 0.010130263 0.061923284 -0.004406683
000230 b1 0c 1b 3d 82 28 18 bd f3 e9 6f bd ca 28 33 bd
       0.0378539 -0.037148006 -0.05857272 -0.04374007
000240 48 ff c7 3a bc 8f d8 3c 4e a2 cb bb 54 45 c0 3c
       0.0015258575 0.026435725 -0.0062144166 0.023470558
000250 82 0c a9 bc 1c 1b c2 bc 12 8d 2d 3c f8 40 32 bc
       -0.020635847 -0.023694567 0.010592716 -0.010879748
000260 96 45 fa 3c c1 a5 13 bd 81 37 19 bd 94 78 36 bd
       0.03055076 -0.036046747 -0.03740645 -0.044548586
000270 71 dc a2 bc 69 db bb bc c4 1c 33 bd 11 bf 2f bd
       -0.019880505 -0.022931771 -0.043728605 -0.042906824
000280 83 4a 98 3c 5e 0b 54 bd 0a 63 23 3d 6d 45 28 bc
       0.018590217 -0.051768653 0.039889373 -0.010270459
000290 f2 45 cc bc 15 e4 0e 3d a9 29 90 bd c8 fe 23 3d
       -0.024935696 0.034885485 -0.07039196 0.0400379
0002a0 51 6c 8d bc 93 a3 23 bc a0 e6 a6 bc 10 2b 8b bd
       -0.017263563 -0.00998773 -0.020373642 -0.06795323
0002b0 b0 6b a0 3c 37 0b 3e 3c 6e 41 40 bd 39 ea 35 bd
       0.0195826 0.0115993535 -0.0469374 -0.044412825
0002c0 dd 4e 35 3d 80 0f 44 3d dd d3 9e bb d9 22 67 3d
       0.044264663 0.047866344 -0.0048470334 0.056429718
0002d0 f2 a1 12 bd a1 33 c8 bc e3 fd c8 bc a8 0f 48 bd
       -0.035798974 -0.024438681 -0.024535125 -0.048843056
0002e0 bd ea 05 bd 0b 31 a0 3c 98 1a 58 3d f0 8d ff bc
       -0.032694567 0.019554636 0.052759737 -0.03119561
0002f0 40 96 08 bc 19 d7 cb 3c b2 02 3d 3d 55 ea 9b bd
       -0.008336604 0.02488284 0.04614515 -0.07613055
000300 69 3a 20 bc 98 c1 a2 bb af 6e 08 3d a9 92 0b bc
       -0.009779551 -0.004966926 0.03330868 -0.008518853
000310 9e 48 cd 3b 02 5d d1 3b b0 a3 06 ba b0 f4 8b bd
       0.00626476 0.006389261 -0.00051360857 -0.0683378
000320 7d 7d e6 bb cb 48 0e bd 77 d9 63 3d ad 8b 8a 3d
       -0.0070340023 -0.03473739 0.055627313 0.06764922
000330 45 9d f2 3c bf 76 1c bd 2b f0 23 bd b1 69 42 bd
       0.029616008 -0.038199183 -0.040023964 -0.047464076
000340 ae 22 29 3c 1a 80 68 3b 8c 55 eb 3c 8e 61 8c bd
       0.01032321 0.0035476745 0.028727315 -0.068545446
000350 d8 e8 6f bd c7 c3 2d 3d 8f bd 6b bd da 6c a2 bc
       -0.058571666 0.042423036 -0.057553824 -0.019827295
000360 37 2c a3 bc 94 01 c5 bc e2 b4 fa 3b 04 9b e7 bc
       -0.019918544 -0.024048604 0.0076509574 -0.02827216
000370 ad 7a 96 3c d2 68 cf 3c 3e e0 9d 3c 16 20 51 3d
       0.018369043 0.025318537 0.019271966 0.05105599
000380 76 d7 87 ba 08 f6 17 bb 54 1e d5 bc d5 b5 c3 3c
       -0.0010363895 -0.0023187418 -0.026015438 0.023890415
000390 1e ac 98 3b 81 03 a4 3a 18 b2 94 bc cc ec 33 bd
       0.00465919 0.0012513251 -0.018151328 -0.043927
0003a0 17 ee d9 bc 42 2e 53 bc 07 ab 20 3c e2 30 6e 3c
       -0.026602788 -0.012889447 0.009806401 0.014538022
0003b0 fa db 53 bc 3e cf 10 bb d8 72 71 bd 1d 6b 42 3d
       -0.0129308645 -0.0022096182 -0.058947414 0.047465432
0003c0 c4 e7 43 3d ca 95 cf 3c 3e ff 40 bd 7a 56 6e 3d
       0.04782845 0.02533998 -0.047118418 0.05818794
0003d0 a4 19 9c bb e3 e1 85 3d c6 1d 5e bd 51 4e c6 3c
       -0.004763799 0.06537225 -0.054227613 0.024207266
0003e0 fe 9c 24 bd 67 e8 87 bd 60 1f 0a bd c4 f1 ec ba
       -0.040188782 -0.06636124 -0.033721328 -0.0018077423
0003f0 d4 88 3f bd 60 3c b9 bc 33 19 ba 3c 33 e9 28 bd
       -0.04676135 -0.022611797 0.022717094 -0.04123802

bias f4 [32]
000000 63 22 84 bb c0 13 a9 3c 33 87 e5 bc 91 3c f9 bc
       -0.0040324195 0.0206393 -0.02801857 -0.030424388
000010 cf 27 66 bc 15 04 1f bc 8e a9 23 3c 65 66 e0 3b
       -0.014047577 -0.009705563 0.009989155 0.006848144
000020 e7 a2 3b 3d 4a da 8d bc d0 bf 03 3c e0 c5 75 bd
       0.045809653 -0.017316002 0.008041337 -0.06000316
000030 6a d2 36 bd 62 0b 2d 3d 60 8a d3 bb 85 53 6c 3d
       -0.04463426 0.042247184 -0.0064557046 0.057696838
000040 8a e4 10 3d e0 03 68 3c 65 b8 d9 3c c5 2d d2 bc
       0.0353742 0.01416108 0.026577184 -0.02565659
000050 59 93 45 3d e8 52 11 bc 25 e8 c5 bc b5 3e cd bb
       0.048236225 -0.008869864 -0.024158547 -0.006263579
000060 be 02 8b bc be 60 a1 3c d9 fd e5 bc 01 dd 23 bb
       -0.016969081 0.01969945 -0.028075146 -0.0025003555
000070 0f 8c 01 3d f7 4a 8b 3c e1 32 8c 3c 95 a8 2c 3d
       0.03162771 0.01700352 0.017114105 0.04215296

weight f4 [32]
000000 cf f2 68 3f b5 d9 91 3f 46 f7 7c 3f a7 e8 83 3f
       0.90995497 1.1394564 0.9881481 1.0305375
000010 7d 76 80 3f b2 cc 78 3f 11 59 90 3f 62 9d 6d 3f
       1.003616 0.9718734 1.1277181 0.9281827
000020 f8 d5 83 3f bf ea 68 3f db 8a 6c 3f 2c 57 70 3f
       1.0299673 0.90983194 0.92399377 0.93883014
000030 d8 3b 87 3f 1b 56 89 3f 59 95 69 3f e6 f4 89 3f
       1.0565138 1.0729402 0.9124351 1.0777862
000040 de b0 87 3f 57 fd 87 3f bb f3 95 3f f8 1b 66 3f
       1.060085 1.0624188 1.1715006 0.89886427
000050 f0 68 64 3f 02 2b 72 3f c9 03 9a 3f 59 ad 74 3f
       0.8922262 0.94596875 1.2032405 0.9557701
000060 6b 40 57 3f df ef 73 3f 73 41 85 3f a0 a8 83 3f
       0.8408267 0.9528789 1.0410599 1.0285835
000070 7d 30 76 3f 8f 34 6c 3f 55 3f 70 3f d3 19 60 3f
       0.9616774 0.922677 0.93846637 0.87539405

bias f4 [32]
000000 4c 87 ea bd 49 6b 09 be a8 a5 63 bc 03 71 39 bd
       -0.11451587 -0.13419832 -0.013894476 -0.045273792
000010 5f d9 0f be 26 89 8a be 3f 94 b3 be 4d 5b 41 3d
       -0.14047764 -0.2705776 -0.3507404 0.04720621
000020 e9 8a 00 be 75 f8 2e be 04 e5 64 bd d7 2c a6 bd
       -0.1255299 -0.17086966 -0.05588247 -0.08114021
000030 fc f7 1a 3c 7a dc a9 bd 78 33 50 bd 6b aa fc bd
       0.009458538 -0.08294006 -0.050830334 -0.12337192
000040 6f 6f 9d bd cf 24 18 be 90 ed 0c be dc e9 56 bd
       -0.0768727 -0.14857791 -0.13762498 -0.05246912
000050 f9 c8 60 bd 10 13 08 be 9d 36 db be c5 27 88 bd
       -0.054879162 -0.13288522 -0.42815104 -0.066482104
000060 eb 9e 2b be ae 30 cf bd dc 05 cc bd c2 e0 d9 bd
       -0.16759841 -0.10116707 -0.09962055 -0.10638572
000070 92 9d 2d bd 34 6b 16 be 2b cf 9c 3c f4 66 05 be
       -0.0423866 -0.14689332 0.019141754 -0.13027555

running_mean f4 [32]
000000 aa f8 12 bf 76 82 88 3f 28 2b 81 bf b1 0e 68 3f
       -0.5741068 1.0664814 -1.0091295 0.9064742
000010 6b 51 8b bf ab 18 d1 be 54 eb 16 3e 5e b1 b0 be
       -1.0884222 -0.40839133 0.14738208 -0.3451032
000020 f7 bd 0e 3f a5 aa d4 bd 6a fb 15 bf 85 f7 19 bf
       0.55758613 -0.1038411 -0.5858675 -0.6014331
000030 05 ee 2a bf d1 56 24 3f 5d 70 0e bf c9 73 04 3f
       -0.6676944 0.6419497 -0.556402 0.51739174
000040 d0 28 0e 3f 8b 83 5b be b7 0f 3d 3e 5a fb 5b bf
       0.55531025 -0.21436898 0.18463026 -0.8593041
000050 5f e4 7a 3f 86 c4 8d 3f 49 b0 15 bf e6 fe a6 3f
       0.98004717 1.1075599 -0.58472115 1.3046539
000060 73 8e 55 bf 4b 43 44 3f 1c 11 75 be 00 43 c6 be
       -0.83420485 0.7666518 -0.23932308 -0.38722992
000070 b0 20 69 bf 43 e6 f3 be 76 e2 25 3f b9 3a 0f bf
       -0.910655 -0.47636613 0.64798677 -0.5594898

running_var f4 [32]
000000 a8 bb 43 3e f0 60 f1 3e 37 87 78 3e 0e 72 f3 3e
       0.19114554 0.4714427 0.2427033 0.47547954
000010 eb 19 9a 3e f5 12 04 3f 23 e4 09 3f 5e 61 6c 3e
       0.300979 0.51591426 0.53863734 0.23084018
000020 1d b0 13 3f 16 bf f2 3e 11 01 a5 3e de a2 92 3e
       0.576906 0.47411412 0.32227376 0.28639883
000030 e7 50 b6 3e a3 61 42 3f 9a d7 81 3e 69 50 07 3f
       0.356086 0.7593023 0.25359803 0.5285707
000040 16 69 ca 3e 72 24 d2 3e 09 a7 c8 3e a7 97 66 3e
       0.395333 0.4104343 0.39189938 0.22518788
000050 4e 3c 73 3e b0 51 2f 3e 43 29 55 3f 64 2e 22 3e
       0.23753473 0.17121005 0.83266085 0.15838009
000060 11 ee 93 3e ac e4 93 3e 84 40 95 3e bb 08 5a 3e
       0.28892568 0.288854 0.29150784 0.21292393
000070 87 e2 0f 3e 9b 2c e9 3d 17 ce 8e 3e c6 87 2e 3e
       0.14051257 0.11385461 0.2789161 0.17043981

weight f4 [32]
000000 4a 38 80 3f 3d 01 7a 3f 9c 68 78 3f 26 15 7c 3f
       1.0017178 0.9765814 0.9703462 0.9846977
000010 a9 3f 60 3f 13 6f 7f 3f e4 83 77 3f f4 1f 74 3f
       0.8759714 0.9977886 0.96685624 0.95361257
000020 be ce 7d 3f 89 7e 77 3f 95 5a 6b 3f c4 91 6c 3f
       0.9914359 0.9667745 0.9193509 0.9240992
000030 1d 14 79 3f 78 bf 7c 3f 4b f5 6d 3f 65 67 6e 3f
       0.97296315 0.9872966 0.9295241 0.9312652
000040 48 07 6e 3f 11 dd 81 3f b7 29 79 3f 9c 7e 77 3f
       0.9297986 1.0145589 0.97329277 0.96677566
000050 6c 29 78 3f bd d8 7b 3f 17 8d 6b 3f 42 b8 70 3f
       0.96938205 0.9837759 0.9201216 0.94031155
000060 ca 3f 80 3f 46 c2 84 3f d5 68 62 3f 0b 35 80 3f
       1.0019467 1.0371788 0.8844121 1.0016187
000070 54 53 75 3f e3 95 79 3f bc 6c 6a 3f d9 d6 7e 3f
       0.95830274 0.97494334 0.91572165 0.9954658

bias f4 [32]
000000 2a b4 20 bd 95 25 94 bc b4 55 8e bd a7 28 1c bd
       -0.039234318 -0.018084327 -0.0694994 -0.038124707
000010 20 37 af bd 81 01 9f bd 1e c5 8c bd 02 ac b8 bd
       -0.08555436 -0.07763959 -0.068735346 -0.09017183
000020 d1 4b 8a 3a 2a 01 05 be 41 fa 95 bd 0f b9 96 bd
       0.001055116 -0.12988725 -0.07323123 -0.07359516
000030 d6 fa e5 bb 50 a9 df bc 9a 85 b3 bd 43 b6 91 bd
       -0.0070184274 -0.027302414 -0.08765717 -0.07114842
000040 56 e2 a4 bd 0b ad 08 bd 50 7a ab bd 00 58 b0 bd
       -0.08050983 -0.03336815 -0.08372939 -0.08610535
000050 eb 4b 8c bd 1f 9b 4d bd a2 fd b6 bd d9 18 da bc
       -0.06850418 -0.050196763 -0.08935095 -0.026623176
000060 8e 99 81 bd df 50 ad bd 83 56 b3 bd 38 e0 89 bd
       -0.06328116 -0.084626906 -0.08756735 -0.067322195
000070 40 55 08 bd ed ed 5a be df 44 52 bd c7 71 fb bd
       -0.033284426 -0.21379824 -0.05133521 -0.12277561

running_mean f4 [32]
000000 56 01 22 bf 04 a7 9b bf 6e e1 cf be 9f c2 84 bf
       -0.6328329 -1.2160344 -0.40601677 -1.0371894
000010 70 69 28 be 45 4a 15 bf 28 dc 1b 3e b5 a7 25 bf
       -0.16446471 -0.5831645 0.15220702 -0.64709026
000020 72 1f b9 bf 91 14 43 3d bc c8 00 c0 1a e4 47 bf
       -1.4462721 0.047627036 -2.0122519 -0.7808243
000030 82 7e 2d be 9c f5 50 bf 8b 18 80 bf 6d 52 83 bf
       -0.1694279 -0.8162477 -1.000749 -1.0259529
000040 00 34 7b bf 02 36 b1 be fc e8 ac bf fd 71 d0 be
       -0.9812622 -0.34611517 -1.3508601 -0.40711966
000050 cf f3 44 be 08 fb 8b bf ca d2 64 bf 6b ae 63 be
       -0.1923363 -1.0935984 -0.8938414 -0.22234504
000060 0c 63 75 bf d0 3c c3 bf f8 c8 02 3e ac 72 86 bf
       -0.9585426 -1.5252934 0.12771976 -1.0503745
000070 e4 3e d3 be 2d 0a 45 bf 4e dc 1b bf af 20 d7 bf
       -0.4125892 -0.7696865 -0.60883033 -1.6806849

running_var f4 [32]
000000 4b 36 d2 3f c2 e4 70 3f e3 8a 88 3f e3 94 85 3f
       1.6422819 0.94099057 1.0667385 1.0436062
000010 e2 e4 1f 3f 8c b7 74 3f ee 72 8c 3f 2c 51 a1 3f
       0.6245862 0.9559257 1.0972574 1.2602897
000020 6b e0 90 3f 85 d5 c0 3f 56 31 da 3f c6 32 6c 3f
       1.1318487 1.5065161 1.7046306 0.92264974
000030 54 d9 33 3f 43 f2 67 3f bc 39 62 3f cc 2e 58 3f
       0.7025349 0.9060404 0.88369346 0.84446406
000040 53 5b 5c 3f e3 41 9d 3f 1f e2 a6 3f 84 98 a7 3f
       0.8607685 1.2285732 1.3037757 1.3093419
000050 77 9d 34 3f 80 98 99 3f 47 ed 26 3f 9b 0d 6f 3f
       0.7055277 1.1999664 0.65205806 0.93380135
000060 fb 4c bd 3f 14 34 70 3f a1 66 92 3f 6a 06 98 3f
       1.4789118 0.93829465 1.143757 1.1876957
000070 63 16 72 3f ac 3c 6e 3f 37 d2 35 3f cc 0d bd 3f
       0.9456541 0.9306133 0.7102389 1.4769835

weight f4 [32, 32, 11]
000000 60 63 91 bd 30 ab 60 3c 80 a9 6a bd 4c 4b 75 bd
       -0.070990324 0.013712689 -0.057290554 -0.05988626
000010 d4 41 32 bd c9 92 52 3d dd 2e 47 3d 73 13 e0 3b
       -0.04351981 0.051409516 0.048628677 0.006838256
000020 6d eb 5d 3d 11 9b 79 3c ec 0c b6 3c 03 e4 06 3d
       0.054179598 0.015234725 0.022222959 0.032932293
000030 de ba 1c 3e e2 22 29 3c b4 2b 20 be 17 a4 10 be
       0.15305659 0.010323258 -0.15641671 -0.14125095
000040 f7 4b 91 3d 38 98 bd 3d 6b 5c ae bd 1d 43 77 bd
       0.07094567 0.09257549 -0.08513721 -0.06036674
000050 64 33 96 3c a1 2d d6 3d d3 be 75 bd b1 ad a0 3c
       0.018335052 0.10457922 -0.059996437 0.019614073
000060 13 b6 40 be 3c 90 8f 3d 82 d6 59 3e 2e bf 37 3d
       -0.18819456 0.070099324 0.21273234 0.044860058
000070 01 4e eb 3d ed 84 13 bd 9f 3c 0e 3d 04 2e 64 3b
       0.114894874 -0.03601544 0.03472578 0.0034817467
000080 5b bc 52 3d 51 17 9f bd c4 79 99 3c 02 e7 8a 3c
       0.05144916 -0.07768119 0.01873482 0.016955856
000090 5c 39 f9 3c 9b 73 ef bd 09 14 25 bd 3d 17 2d be
       0.030422859 -0.11691972 -0.04030231 -0.16903396
0000a0 43 b3 2a 3e ab 15 44 bc bd 6f 55 bd 46 22 27 bd
       0.16669945 -0.011968057 -0.052108515 -0.04080417
0000b0 8f 69 b3 bc 82 c2 25 bd 4b 21 aa 3b fd 09 e0 3d
       -0.02190092 -0.0404687 0.005191957 0.10939405
0000c0 d8 89 4c be 07 54 74 3e cd de 9c bd f8 b1 1d 3d
       -0.19974458 0.23860179 -0.076596834 0.038499802
0000d0 08 6d 1f 3b 6b f7 b3 3b 12 16 65 3d 60 6a 75 bd
       0.0024326462 0.005492141 0.05592925 -0.0599159
0000e0 d9 61 a1 bc 1f c7 24 3d 14 ec 98 3c 15 ec 8f bd
       -0.019699978 0.04022896 0.018667258 -0.07027451
0000f0 25 d8 c3 bc 94 83 aa 3c c0 54 c7 bd 84 06 bd bd
       -0.023906777 0.020814694 -0.09732962 -0.092297584
000100 9b 06 68 bc ee d0 16 bd 2d f4 7d bc a7 77 0d 3d
       -0.014161731 -0.036820345 -0.015500111 0.034537937
000110 34 37 6a 3c 0a e3 10 bc 08 e4 ef 3d 4d 81 99 bd
       0.014295388 -0.008843193 0.117134154 -0.07495365
000120 cc f8 40 bc 66 35 2a bd 12 62 a9 bb b9 dd 66 3c
       -0.011778068 -0.04155483 -0.0051691616 0.014090949
000130 47 d0 ec bb ca b3 49 3d c6 24 02 3d 9e c5 2c bb
       -0.007226977 0.049243726 0.03177335 -0.0026362906
000140 59 34 0f be 4b 0a 19 bd 63 21 1f be 50 65 0a 3e
       -0.13984813 -0.03736333 -0.1554008 0.1351521
000150 0d df 36 3d 1f 57 b9 3c ce d8 96 bc e3 c2 98 bb
       0.04464631 0.02262455 -0.018413927 -0.004661904
000160 b2 53 9b bd 02 68 bc bd b6 08 e9 3c d8 d9 ba 3d
       -0.07584323 -0.091995254 0.028446537 0.09123582
000170 af 1a c7 3d 39 09 ac bd 83 1a d0 ba a1 13 91 3d
       0.09721886 -0.084001966 -0.0015877042 0.07083822
000180 8e 13 73 3c 3e 9a be 3d c6 9d 13 bd 21 67 a3 bd
       0.014836205 0.09306763 -0.036039136 -0.07978655
000190 85 c7 5f bc b5 83 9a 3d a0 eb c3 bd 73 3a a3 3d
       -0.013658409 0.075446524 -0.09566426 0.07970133
0001a0 89 7f 37 bd 34 50 1c 3d ee 79 33 3d 7e 50 43 bd
       -0.04479936 0.038162425 0.043817453 -0.047684185
0001b0 55 9c fd 3c bd 74 08 3d dd e6 7c 3b 7e da 7f 3c
       0.030958334 0.033314455 0.0038589754 0.015616057
0001c0 ed ca 9a bd 33 53 88 3c ad 94 1b 3d be a8 40 be
       -0.07558236 0.016641235 0.037983585 -0.1881437
0001d0 db 31 9a bd e2 9c b4 bd 77 c2 07 3d 14 30 52 bd
       -0.075290404 -0.088189855 0.03314444 -0.051315382
0001e0 54 09 4f bd dd 12 ac bd 6e e2 fe bc 26 4a 3b bd
       -0.050546005 -0.084020354 -0.03111383 -0.04572501
0001f0 b6 51 0c 3d 53 4f 7d bb 10 f7 fc bd 98 a0 51 bd
       0.034257613 -0.0038652017 -0.12351811 -0.051178545
000200 69 ec 96 bb cf aa ff 3c e4 c0 b4 bd ac 30 de bd
       -0.004605819 0.031209378 -0.088258535 -0.10849127
000210 1f b8 91 3d 03 9a 97 bd 13 78 84 bd 1f 06 1d be
       0.071151964 -0.07402422 -0.06468215 -0.15334366
000220 04 a2 af bc f5 7a 14 bd d3 a4 4e 3e 68 85 00 bd
       -0.02143956 -0.036250073 0.20180063 -0.031377226
000230 c4 1d 0c ba c9 75 ab 3c dd 64 f1 bd a4 0f 38 3e
       -0.00053450116 0.020930188 -0.11786816 0.17974716
000240 46 4f 27 3e d3 f8 4b bd 56 29 14 3d 26 9e 53 be
       0.16338834 -0.049797844 0.036172234 -0.20665798
000250 56 ef 07 bd 6a b2 99 3b 38 e3 8c bc bc 7f 93 bc
       -0.033187233 0.004690458 -0.01719819 -0.018005244
000260 15 83 1b 3d 8b 9c a9 bb 9f 63 ad 3c ed 07 8e 3c
       0.037966806 -0.005176132 0.021165667 0.017337764
000270 d0 fa 6b bd 10 8e a3 3d 55 26 f8 bb 49 93 9d 3d
       -0.05761224 0.07986081 -0.007572929 0.07694108
000280 aa d1 b1 3c 23 7f ef 3d 2f 3c f3 3d 20 90 1f bc
       0.02170642 0.11694171 0.118767135 -0.009738952
000290 f2 41 da 3d 09 9f 78 3d ce c1 5b bd 20 6f a9 bd
       0.10657109 0.060698543 -0.053651623 -0.082731485
0002a0 65 02 0f be 76 25 96 3d d8 82 e5 3c 80 93 82 3d
       -0.13965757 0.07331364 0.028016493 0.0637579
0002b0 f7 d6 2f bd b1 a0 0c 3d 8a 15 8d 3b 56 51 61 3d
       -0.042929616 0.034332935 0.004305546 0.05500921
0002c0 84 c8 50 bd 30 57 8b bd 47 79 2d 3c 21 11 ed bd
       -0.050972477 -0.06803739 0.010587997 -0.11575533
0002d0 8f fe f4 3d 59 9a 4a 3d 7f 1d 30 bd 0f ba a2 3d
       0.11962616 0.049463604 -0.04299688 0.07945644
0002e0 bf c4 14 bd 8a b8 63 3d 60 bb da 3b 39 56 b3 3d
       -0.036320444 0.055595912 0.006675169 0.0875668
0002f0 4b 8f 73 3d e0 bd 24 bd 16 c1 4a 3d 60 22 df bc
       0.059462827 -0.04022014 0.049500547 -0.027238071
000300 82 a7 cb 3d 1a 30 4c be 57 35 39 3c f9 10 3c be
       0.09944059 -0.19940224 0.011304221 -0.1836585
000310 66 6b 51 bd 0c 00 44 bd 5c 3f 70 bd da 69 47 3e
       -0.051127814 -0.047851607 -0.058654174 0.19473973
000320 a9 80 5d be e6 ee 09 3d 88 e7 80 be c8 29 4a 3e
       -0.21631111 0.033675097 -0.25176644 0.19742501
000330 6a 36 96 3d 8e d3 68 3d da 5c fc bc 23 30 cd 3c
       0.073345974 0.05684238 -0.030805994 0.025047367
000340 cc 89 9e bc 7f 83 42 bd af 56 45 bd 8f 40 48 bd
       -0.019352816 -0.047488686 -0.04817837 -0.048889693
000350 8e e4 84 3d cd dd 90 bb ab 33 20 3d 97 56 4b bd
       0.06488906 -0.004420972 0.039111774 -0.049643125
000360 20 06 79 3d 39 43 b3 3b 6f 4f c3 3d a1 2c 9e bd
       0.060796857 0.00547066 0.09536635 -0.07723356
000370 6f a3 da 3d 8f 86 f9 3c e1 03 95 bc f8 d7 cd bc
       0.10675704 0.03045967 -0.018190326 -0.025127396
000380 40 54 b9 3d a7 be d9 bc f6 fb 27 bd 0f 2d 0a bc
       0.090492725 -0.026580168 -0.041011773 -0.008433594
000390 f3 21 a6 3d 62 8f c2 3d 74 21 c2 bb 59 fd e1 b8
       0.08111944 0.09500004 -0.005924398 -0.00010776026
0003a0 d7 9f 1e 3c 43 c7 66 be 00 6c 54 3c d8 0e 5e be
       0.0096816635 -0.2253695 0.012965202 -0.2168535
0003b0 90 90 8e bd 6f 1d f7 3c e8 77 82 3c 21 b6 c5 bd
       -0.06961167 0.030165402 0.015926316 -0.09653879
0003c0 b3 a8 b0 bd 6f 4c 9f bc 6d d1 87 ba 5e 4d 18 3e
       -0.08625927 -0.019445626 -0.0010362096 0.14873263
0003d0 52 85 0c be 4e 68 1c bd 6f 87 07 be 9d 8d 00 3d
       -0.13722733 -0.03818541 -0.13235258 0.031385053
0003e0 ad bd 81 3d 3c 4c ba bb 77 7e 19 3d c5 1b 48 bd
       0.06335006 -0.0056853574 0.037474122 -0.048854608
0003f0 10 19 2f 3e a6 57 66 bc 7f 97 f7 bd 0c b3 23 3e
       0.17099404 -0.014058983 -0.120894425 0.1598627

bias f4 [32]
000000 4d 5a a3 bc dc bd 11 b8 b2 0f 4d 3d 4b f8 32 bd
       -0.01994052 -3.4747514e-05 0.050063796 -0.043693822
000010 92 b9 f6 bc f6 7f b7 bc 89 58 c7 bc 91 b2 dd 3c
       -0.030117784 -0.022399884 -0.024334209 0.027062686
000020 82 c0 51 bd f1 7c 24 bd 0f 58 b2 3c 94 9e 02 bb
       -0.05120898 -0.040158216 0.021770505 -0.0019930946
000030 f5 64 30 3d f7 42 30 bd 0c df 3a bd 15 3a eb bc
       0.04306503 -0.043032613 -0.04562287 -0.02871422
000040 fe dc 47 3d a1 d3 88 3c 14 7f d0 3c b4 25 5a 3c
       0.04879474 0.016702475 0.02545122 0.013314653
000050 f8 90 8c 3c 68 33 e9 bc 4b c5 44 bd fc 10 93 3b
       0.01715897 -0.028466895 -0.048039716 0.0044881087
000060 90 fb 8f 3a a6 df d3 3b 3c c3 d0 3b ef 4a 77 bc
       0.0010985006 0.00646587 0.00637093 -0.015093549
000070 0e b6 e4 3c 93 2a 14 bd 56 c6 89 bc 41 4a 8f bc
       0.027918842 -0.036173414 -0.016818207 -0.017491462
