data/pretrained_models/spliceai-400-3.pt (torch, 796217 bytes, 106 tensors)

weight f4 [32, 4, 1]
00000000: d4c5 05bf 6331 b4be 1e9c 15be a2ee 05bf
00000010: 16a3 71bd cf3b e0be e6f7 8f3e 480d 763e
00000020: 226b c03d 184b c13e 2c85 07bd 3cd9 a63e
00000030: be0c c6be 6094 4bbd 6ead ffbe 8d8e c3bc
00000040: d819 b7be 0477 df3e 6d75 b13e 7a02 c03e
00000050: fd39 983d b4f1 92be 56c9 093f 476c fbbe
00000060: c6b6 a1be 6ffe 8bbe c45f 54be 1d96 f43d
00000070: 4ade c0be 287f d1be aa0a 64be 6cba 893e
00000080: 0d88 adbe c518 dcbe 2b0e e4be f86e 5cbe
00000090: 28e9 a2bd 6c19 1dbf c737 3cbe 97bf 9b3d
000000a0: 9b6a 9d3d a4f1 8ebd a0f3 f13c 091f c4be
000000b0: ec02 9d3e 1c2c 18be 011a a6be d7c5 09be
000000c0: 97c7 a1bd 45a3 e03e fe41 b03e 2a5e 7fbe
000000d0: e5f8 1ebe b333 db3e 94af b43e d4f6 cd3d
000000e0: 94a9 31be 337b dc3e 8d1b 6c3e c52b 75be
000000f0: f61a b03e e467 383d b7c4 f7be 9782 47be
00000100: d693 bebe 8376 edbe 1e6e b93d c63a d1be
00000110: f662 923e 3f03 743e c448 b73d 1b52 c73e
00000120: 3bb2 86be e243 abbc 17a5 c33e 63fc 2b3e
00000130: 1d75 dd3d 8464 c03e 826d 0bbc 9719 bf3e
00000140: 07aa e0be c195 d8be ade9 e9be 209f b33d
00000150: 5103 cc3e 0fdb f9be a6a1 883e 5dce e6be
00000160: 9527 aabe 50ec 07be 0d5d 86be 4ce5 343e
00000170: a4c7 efbe 26b8 0a3f 01e1 2a3d c3cd 7e3e
00000180: 14eb b7be aeb9 a53e 1983 c2bd 6265 95be
00000190: ebd3 eb3d 329c 543e b8c2 383d d92e 3bbe
000001a0: f474 c53d 9f31 34be 1d9b 59be cfa7 34be
000001b0: 339a 9f3e 5f15 bdbe 0629 843e 7c3b 893e
000001c0: 65ee 69be ca6d 00bf d9a2 3fbe 3f46 07bf
000001d0: af89 cc3e 211e e63e 2c58 e8bd 3654 153f
000001e0: c5cf 1f3e 9de1 07bf a3e8 dcbe 3e25 22be
000001f0: bf53 d7be e7f9 59be c72d 613e 0b97 8fbc
-0.52254987 -0.3519393 -0.14610335 -0.5231725 -0.05899342 -0.4379563 0.2811882 0.24028504
0.09395434 0.37752604 -0.033085987 0.32587612 -0.38681597 -0.04970205 -0.49937004 -0.023871684
-0.35761905 0.4364549 0.346599 0.3750189 0.074329354 -0.2870003 0.5382284 -0.49106047
-0.31584758 -0.27342555 -0.20739657 0.11942694 -0.37669593 -0.40917325 -0.22269693 0.2690004
-0.3389286 -0.42987648 -0.4454206 -0.21526706 -0.07954627 -0.61366916 -0.18380652 0.07604902
0.07686349 -0.06979683 0.029535115 -0.38304928 0.30666292 -0.14860576 -0.32441714 -0.13454376
-0.07899397 0.43874565 0.34425348 -0.24938264 -0.15524633 0.4281288 0.35290205 0.10056844
-0.17349845 0.43062744 0.23057385 -0.23942478 0.3439557 0.045020953 -0.4839227 -0.1948341
-0.37222165 -0.4637948 0.09054206 -0.40865153 0.28591126 0.23829363 0.08949426 0.3892983
-0.26307854 -0.020906392 0.3821189 0.16795497 0.10813353 0.37576687 -0.008509995 0.3732421
-0.4387972 -0.42301753 -0.45686093 0.08770585 0.3984628 -0.4879994 0.26685828 -0.45079318
-0.33233324 -0.1327374 -0.26242867 0.17665595 -0.46832 0.5418724 0.041718487 0.2488318
-0.35921538 0.32368225 -0.09497661 -0.2917891 0.115150295 0.20762709 0.045107573 -0.1827959
0.09641448 -0.17597054 -0.21250577 -0.17642139 0.31172332 -0.36930367 0.25812548 0.26803195
-0.22844847 -0.50167525 -0.18714465 -0.5284156 0.39948794 0.44944862 -0.113449425 0.5833162
0.15606602 -0.53078634 -0.43146238 -0.1583452 -0.4205608 -0.21286736 0.21990119 -0.017528078

bias f4 [32]
00000000: 047b d4bd 3430 c63c c4c9 ee3e dba7 4b3c
00000010: 5f2c 773e 3961 2abe 1542 bbbe a3fa c63d
00000020: 6a4d 763e d4c0 973e 20c3 f8be f75e 66bd
00000030: 9996 fabe 2072 62bc 766c ce3c 6f0b 2e3e
00000040: e47f 3dbe e4d7 a5bd 5028 093e 4024 f4be
00000050: 4567 833e 9e42 f83e 47d1 b3be a0cf 063f
00000060: de17 a73d ce8d 003f 6d76 e73e 58e0 d9be
00000070: 5487 af3e a052 d13c fa52 2a3e f6f4 3ebe
-0.10375026 0.024192907 0.4663831 0.012430157 0.2413802 -0.1663865 -0.36573854 0.09715774
0.24052969 0.29639304 -0.4858637 -0.05624291 -0.48943022 -0.013821155 0.025198203 0.16996549
-0.18505818 -0.080978185 0.13394284 -0.47683907 0.25664726 0.48488325 -0.35120603 0.5266056
0.08158849 0.50216377 0.4520754 -0.42553973 0.34282935 0.025552094 0.16633216 -0.18648133

weight f4 [32, 32, 1]
00000000: 5b7d 22be 2268 843d a6e5 843d 000f 873d
00000010: 8d34 06be 7e17 32be 33a7 8a3d 3ab3 23bd
00000020: f71d b3bc 181c 98bc 32a5 89bc 2866 0f3c
00000030: 9ec6 39be 4b02 a53d 3942 dd3c ef55 a43d
00000040: 8055 d8bd 005b 153e 6793 103e 8146 ddbd
00000050: 3e25 0f3e 9bff 323d 8503 0e3e 16fe 333e
00000060: 02c6 54bd 54c3 363d daec 923d 4146 d43d
00000070: 3092 12be b53a 713c b0cb 1f3e 72b0 0bbe
00000080: bc92 dfbd 77ad 8f3c 4fba 943d 3fa0 b93d
00000090: aebe 833c ac24 cf3c d536 b3bd 7b92 7f3e
000000a0: e2f7 f6bd 2dd2 fd3d 3f15 b43d 53ac 1d3e
000000b0: 4b8f 163e 0784 62bd 21b0 dd3d 282a ddbd
000000c0: bf5e e73d 3218 c6bd f345 f1bd 544a 00be
000000d0: d3e8 6d3e e58c 6d3d e07f 05be 2e85 00be
000000e0: 1fdd 11bc 79aa fbbc 2e36 5f3d d7eb d43d
000000f0: 4edb e6bd fcbf 17be df30 af3c d17c da3d
00000100: 7df6 fa3d 91ed 31bd d235 7abd 38fa 9c3d
00000110: 27c2 dc3d 1ede 17be 673c 0bbb 4b49 0e3e
00000120: cb3c 1d3e 7a84 103e 7990 aa3d b6fe 443e
00000130: 7a03 1fbe 25f9 a03c 6165 923c 81e6 f83d
00000140: 65d3 443d 233d c93d 448e 33be 1607 12bb
00000150: ed8b a53d c87c c23d 02c0 6a3d a958 ce3d
00000160: 5613 183c b0b7 f1bc 1700 1b3e e555 023e
00000170: 8b57 dd3d 6f66 29be 474a 173c 3752 12be
00000180: a2a5 1b3e 8138 403e 98fb d83d efea 10be
00000190: 7242 b4bd 7804 c3bd 9c13 563d 8361 013e
000001a0: e144 57bd 7f5b 18be 4611 48bd 53b0 a1bb
000001b0: f3f1 f93a fa26 e73d 8952 cf3d 725b a9bd
000001c0: 1304 03be 50a5 56ba 6866 66bd a996 24be
000001d0: 8c4b 09be 0cde 0abe 4486 8c3b 1de8 1cbd
000001e0: 0891 0dbe a55a 363d c50f 22bb 2c27 f6bd
000001f0: 28c5 d33d 3819 31be f3c2 17bd 1042 0c3e
00000200: 0ec1 083e 8377 063e f4ab bebc 542f c23c
00000210: 2df0 e3bd 3ee9 0abc dd8b 103e dd32 99bd
00000220: 9bbf 36be 384a 273e a5c2 753d 9c55 dc3d
00000230: cd45 8fbd 63d5 80bd 32f1 d0bc dac8 5abd
00000240: bb5b 5d3c 7792 e9bc ff5d 0abd 0ce0 0dbe
00000250: c02b 9dbd 9d26 dabd 20fa a539 088c ea3d
00000260: f392 e63c c7ee 313d ff15 f3bd a938 eabc
00000270: 8c29 a63a e250 0f3e 1209 a53c a04b ca3d
00000280: 0da3 283e 878c 4ebd 385b 1cbe 2116 fabd
00000290: 7207 043e a261 85bd 86f8 8e3c 3856 643d
000002a0: a834 b33b e3f2 38be dbf8 7bbc 6c78 423d
000002b0: 3b8e 86bd c062 6a3b 3f4d 033d 8396 843d
000002c0: 2fd2 87bd 2609 153e 4668 0e3e 585d fc3d
000002d0: 1814 04be ed3b efbd a45b ef3c 6128 d2bd
000002e0: 21e3 573d 6573 c7bd d1a0 afbd bf4a e33c
000002f0: 281c 1cbe de61 0c3d a6c5 d9bb 0cfe 84bd
00000300: fe5b 9cbd 684a 11be 3672 023e fc01 b43c
00000310: 5b3b 4fbd 59ff b3bc bb3f 07be 377c 25be
00000320: 5b8a fdbd 3847 7ebd bef2 91bd 2d88 a23d
00000330: f461 063e edc7 00be 464e e43d 71d3 4dbd
00000340: d654 4abd 2ad1 213e 1f77 03be 23ba 723d
00000350: 8ac1 6d3d bfb8 263d e58b a0bd 8f34 103e
00000360: 03be 7ebd 6b3c 94bd 23eb 283e 2a99 08bd
00000370: 1dd3 aebd 0f8d 2ebe 81c9 2abe dc04 0abe
00000380: d389 81bd 3bff adbd 8d20 ab3d f240 99bd
00000390: b27a afbd 0b59 f4bd fe85 183e 0412 383c
000003a0: faf4 c33c e1ec 5a3d 8913 143e db8b 0fbd
000003b0: 6a2e 79bd 67e8 5abd ab84 05be 0ec9 30bd
000003c0: 68cf d23b 26c3 693d 665e 353d 1fcd 4fbc
000003d0: 7a97 1a3e b18d 393d 85c8 88bd 0e25 bcbd
000003e0: 0a0e 5ebe fba4 cabd f42d ae3d cac4 273e
000003f0: aee0 45bc b07e 133e 85c4 8bbd 60b1 293d
-0.15868132 0.06465174 0.064891145 0.06594658 -0.13105984 -0.17391774 0.06770172 -0.039965846
-0.021864874 -0.018568084 -0.016802404 0.008752383 -0.18142173 0.08057078 0.027009116 0.08024203
-0.10563183 0.14585495 0.1411873 -0.10804463 0.1397905 0.043700796 0.1386853 0.17577395
-0.051946647 0.044619873 0.07174082 0.10364962 -0.14313579 0.0147234695 0.15605044 -0.13641527
-0.10916659 0.01753877 0.07262098 0.09063768 0.016082134 0.025286041 -0.08750693 0.24958222
-0.12058999 0.123936035 0.08793115 0.15397768 0.147031 -0.055301692 0.108246095 -0.10799056
0.11297368 -0.09672584 -0.1178092 -0.12528354 0.23233347 0.057995696 -0.13037062 -0.12550804
-0.008902817 -0.030720936 0.05449503 0.103965454 -0.11272298 -0.1481933 0.021385608 0.10668338
0.12254045 -0.04343945 -0.061086483 0.07664913 0.10779219 -0.14830825 -0.002124572 0.13895147
0.15355222 0.14113036 0.08328337 0.1923779 -0.1552867 0.019650051 0.017870607 0.1215334
0.048053164 0.09826114 -0.17534739 -0.0022282056 0.08083329 0.094964564 0.05731202 0.10075504
0.009281954 -0.029506534 0.15136753 0.12728079 0.10807713 -0.16542982 0.009234018 -0.14289175
0.15199903 0.18771555 0.10594863 -0.1415212 -0.08801736 -0.09522337 0.052264795 0.12634854
-0.052555922 -0.14878653 -0.0488446 -0.0049343496 0.0019069299 0.11286731 0.10123164 -0.08269395
-0.12794523 -0.00081880856 -0.056250006 -0.16073097 -0.13407725 -0.13561267 0.0042884666 -0.038307298
-0.13824856 0.04452004 -0.0024728638 -0.1201919 0.10340339 -0.17294776 -0.037051152 0.13697076
0.13354895 0.13131528 -0.023275353 0.023704208 -0.11129794 -0.008478461 0.14115854 -0.074804045
-0.17846529 0.16336906 0.06000008 0.10758516 -0.06995735 -0.062907 -0.025505636 -0.053414203
0.01351064 -0.028512223 -0.033781048 -0.13854998 -0.0767436 -0.10651896 0.0003165761 0.1145249
0.028146243 0.043440606 -0.1186943 -0.02859147 0.0012677177 0.13995698 0.020145927 0.098777056
0.16468449 -0.050426986 -0.15269172 -0.12211252 0.12893465 -0.065127626 0.01745249 0.055746287
0.0054689236 -0.18061404 -0.015379156 0.047478124 -0.06570097 0.0035764426 0.03205609 0.0647402
-0.06631886 0.14554271 0.13906965 0.123224914 -0.1289829 -0.11681352 0.029218502 -0.10261608
0.05270684 -0.09738807 -0.08575595 0.027745603 -0.15245116 0.03427302 -0.006645876 -0.06493768
-0.076347336 -0.1418854 0.1273888 0.021973602 -0.050593715 -0.021972345 -0.13207905 -0.16160665
-0.12379905 -0.06207964 -0.071263775 0.0793613 0.13123304 -0.12576266 0.11147742 -0.050250474
-0.049397312 0.15802446 -0.1283841 0.059259545 0.0580459 0.04070353 -0.07839183 0.1408255
-0.062192928 -0.07238086 0.16495948 -0.033349194 -0.085363604 -0.17045997 -0.1667843 -0.13478416
-0.06325116 -0.08495947 0.08355818 -0.074830905 -0.08568324 -0.11931046 0.14894864 0.011234764
0.023920525 0.05344856 0.14460577 -0.035045486 -0.06083528 -0.053444292 -0.1303889 -0.04316049
0.006433416 0.057070874 0.04427948 -0.012683182 0.15096846 0.045301143 -0.06678871 -0.09186755
-0.21685043 -0.09894749 0.085048586 0.16383663 -0.012077494 0.14403796 -0.068245925 0.041428924

bias f4 [32]
00000000: 47dc 303d 196f 113e 58e3 033e c008 023e
00000010: f8c1 b2bd cbcd abbd 2e4d b7bb 5349 9a3d
00000020: 0833 073e 012b d13d 75a7 8b3d cf2f 73bc
00000030: 9fa8 fcbd f420 073b 8919 15bd dc33 d43d
00000040: efed 67bd aba6 d3bd 4e85 193e 6410 60bd
00000050: 534d f23b 2df4 893c 614b 63bd 4f74 043e
00000060: 3b2e 20be aa04 0e3e 959f 22ba 24f7 fb3d
00000070: b42b 10be 9642 573d 402f 8d3d 6557 01bd
0.043178823 0.14202537 0.12879694 0.1269865 -0.08728403 -0.08388861 -0.0055939173 0.07533517
0.1320306 0.102132805 0.06819049 -0.014842941 -0.123368494 0.0020619007 -0.036401305 0.10361454
-0.056623396 -0.10334524 0.14992258 -0.05470313 0.0073944717 0.016840065 -0.05549181 0.12934993
-0.15642636 0.13868967 -0.0006203589 0.12302998 -0.14079171 0.052553736 0.06893778 -0.031577487

weight f4 [32]
00000000: eafc 693f 8bd9 653f 0bf7 7b3f f8c3 7e3f
00000010: 58b2 6b3f 3a56 913f 8adb 733f c49e 913f
00000020: 4d01 4e3f 4c6e 783f 1568 763f af0b 853f
00000030: cb55 613f c575 723f 1a0d 723f 7e33 873f
00000040: 833f 883f acdb 763f cf5a 853f f43a 7a3f
00000050: 32a1 763f 75b8 813f 7ae2 833f 243e 743f
00000060: 36fb 913f 49c6 4f3f 5809 753f 0ae5 7d3f
00000070: e445 6c3f eefb 783f 903f 7f3f 2924 ac3f
0.9140154 0.8978507 0.9842383 0.99517775 0.92069006 1.1354439 0.95256865 1.1376576
0.80470735 0.970433 0.96252567 1.039419 0.88021535 0.9471095 0.9455124 1.0562589
1.0644382 0.9642894 1.0418338 0.97746205 0.96339715 1.0134417 1.030349 0.9540732
1.1404788 0.81161934 0.9571738 0.9917761 0.92294145 0.97259414 0.99706364 1.3448535

bias f4 [32]
00000000: 489c 8c3d 120b f2bd aa22 c7bb 18f6 283d
00000010: 8a1d c9bd 9324 603d 4363 45bd 3bdb 963d
00000020: 108c f3bd a218 64bd 1e05 d03a 9332 403c
00000030: b96d 13be 317e b5bd 92c9 7abd 4f14 d43d
00000040: 2519 973c 725b afbc 644c e33c fb62 bdbb
00000050: 1126 c4bc 5f48 b03c 0bd3 be3c 16e3 88bc
00000060: 9f14 853d c9e2 27be 3451 35bd a34c 4abd
00000070: cf2c a3bd 4143 d6bc 0d29 04bd a7fe f33d
0.06865746 -0.11818518 -0.0060771303 0.04125032 -0.09820087 0.05472238 -0.048190366 0.07366034
-0.11891949 -0.055687554 0.0015870666 0.011730808 -0.14397325 -0.0886196 -0.06122739 0.10355436
0.018444607 -0.02140591 0.027746387 -0.0057796217 -0.023943933 0.021518884 0.023293993 -0.016709846
0.06498074 -0.16395105 -0.044266894 -0.049389493 -0.07967531 -0.026155116 -0.03226571 0.119138055

running_mean f4 [32]
00000000: 04bd f4be c2c2 453d 0b9d 253f 7843 4fbe
00000010: 8635 d23e d2b9 6bbe 28d7 01bf 38e4 42bd
00000020: 482f 9fbd 0fc2 103e 919f 14bf 20fd e3bd
00000030: 69e4 d8be 62c2 043e 0adf 3a3d 59c3 e63d
00000040: 3f34 edbe 73e0 263e d9d0 403e b5e9 8cbe
00000050: 2378 81bb 35d3 d63e 4efd edbe 8a78 173f
00000060: 155e 3cbd 68a4 073f 4a3c b33e 8092 95be
00000070: 2775 7d3b 2313 b43e 7a47 ecbc 942a 96be
-0.47800457 0.04828144 0.64692754 -0.20240581 0.4105646 -0.23020104 -0.5071893 -0.047580928
-0.0777269 0.14136527 -0.5805598 -0.11132264 -0.42361763 0.12964776 0.045622863 0.11267728
-0.46328923 0.16296558 0.18829669 -0.27522054 -0.003951089 0.41958013 -0.4648232 0.59168303
-0.04598816 0.5298524 0.35006934 -0.29213333 0.0038674565 0.3517085 -0.028842676 -0.2932936

running_var f4 [32]
00000000: b0db 053d 5754 8e3d cf86 dc3c 54b9 2e3d
00000010: 3001 d43d 732c 0e3e 82b0 033d a2f0 9d3d
00000020: bdc4 833c 8318 703d 6de7 0c3d d6a3 513d
00000030: f15f 9a3d c7f8 473d 6008 8e3d 9eb5 ad3d
00000040: b3cb 403d 678c 7e3c 3ccc 543d 47f8 e63c
00000050: 73fe 723d 2036 1c3e b94c 273d 4615 003e
00000060: fe5a 7c3d c86d a83c 0780 803c a7d3 873d
00000070: f066 003d 0bab 8e3d 121a 893d e84a 533d
0.032680213 0.0694968 0.02691975 0.04265721 0.10351789 0.13884144 0.032150753 0.07711913
0.016085023 0.058617126 0.034400392 0.051181637 0.075378306 0.048821237 0.06935191 0.08481906
0.047069263 0.015536404 0.051952586 0.02819456 0.059324693 0.15255022 0.040844653 0.12508115
0.061610214 0.02056016 0.015686048 0.06632166 0.03134817 0.069662176 0.06694426 0.051585108

weight f4 [32]
00000000: 014b 773f 4302 6d3f 4890 693f 04e7 583f
00000010: c4c0 303f 461a 513f dcbe 5b3f 6084 783f
00000020: f54f 593f ecce 653f dc58 7b3f 40a0 683f
00000030: cda3 743f dda1 6a3f 6a6d 733f 4b4a 803f
00000040: be93 813f 27b2 6d3f b6e0 733f a9b4 693f
00000050: 759f 653f b75b 633f 1cdf 703f 30d5 623f
00000060: 6e74 4f3f f074 743f ba3a 673f 3bbf 7c3f
00000070: d5a2 763f 843f 6e3f 5891 643f dd32 473f
0.9659882 0.92581576 0.9123578 0.847275 0.69044137 0.81680715 0.85838103 0.9707699
0.8488763 0.8976886 0.98182464 0.9086952 0.9556244 0.91653234 0.9508883 1.0022672
1.0123212 0.92849964 0.95264757 0.9129129 0.8969644 0.8881182 0.9409044 0.8860655
0.8103703 0.9549093 0.90323985 0.98729295 0.9634221 0.9306567 0.89284277 0.77811986

bias f4 [32]
00000000: cd72 eebc d02b 11bb 2d65 39bd 7923 bfbd
00000010: c1eb 65be 5855 12be 9e7e c4bd 286d c8bd
00000020: 6587 8cbd 9372 cabd 5d38 0cbe 478b 6abd
00000030: d26a dfb9 2665 0abd e318 06be 7733 97bd
00000040: 5a2f 38be 2639 72bd ff88 bfbd 2408 4dbe
00000050: 6be6 12be a5f7 2abd 97c2 98be 3f09 f2bd
00000060: 1b0b cabd 8d51 94bd b47d cdbd 9d14 05be
00000070: a2ca d6bd 2ef8 abbc 8865 82bd 978b e3bd
-0.029107476 -0.0022151358 -0.045262504 -0.09332938 -0.22453214 -0.14290369 -0.09594463 -0.09786445
-0.06861762 -0.098851345 -0.13693376 -0.05726173 -0.00042613462 -0.03378787 -0.13095431 -0.07382863
-0.17986813 -0.059136532 -0.09352302 -0.20022637 -0.1434571 -0.04174008 -0.2983596 -0.1181817
-0.098653995 -0.07242117 -0.100337416 -0.12996145 -0.10487868 -0.020992365 -0.06367022 -0.11110609

running_mean f4 [32]
00000000: 4676 a1bf 3aeb 02c0 a5b0 ef3e 6afc 6b3e
00000010: 71c2 c43e 7602 99bf c15d 7dbf 6589 b4bf
00000020: 6a13 e7bb 8407 2dc0 a441 bfbf c335 b1be
00000030: d327 0ec0 d216 473d 29da a2bf 1d96 e2bf
00000040: e41b fa3e d581 cabf 3c1b 1fbf 58c0 f93e
00000050: 81ca 443f 12e8 d9bf 15ae 1d3f 461e 43be
00000060: 74c5 5ebe 889a 503f 4cb0 51be 58b1 00c0
00000070: 596e 463e 1d87 ecbe 47e7 893d 5c76 d53e
-1.2614219 -2.045607 0.46814457 0.23045507 0.38429597 -1.1953876 -0.9897118 -1.410443
-0.007051875 -2.7035837 -1.4941907 -0.3461133 -2.2211807 0.048605748 -1.2722827 -1.7702061
0.48849404 -1.5820872 -0.6215093 0.4877956 0.76871496 -1.7023947 0.61593753 -0.19054517
-0.2175501 0.81485796 -0.20477408 -2.0108242 0.19378032 -0.46196833 0.06733566 0.41691864

running_var f4 [32]
00000000: 5037 8140 5c08 7540 91a9 a53f bda2 cc3f
00000010: d2cd f93f bd4e 3640 b65e a33f 75da 7840
00000020: 058b 0840 f331 9440 6222 6940 4e61 3040
00000030: dca7 8940 8e98 2b40 8d81 d23f 30de 4340
00000040: c684 5340 4bc7 1240 c112 5b40 e08f 8740
00000050: bda8 7540 fbc9 8940 ffdf 6040 b71f 4e40
00000060: fcf6 a73f 2e3d 8640 9172 2840 daa4 9940
00000070: 08db 5e40 96e7 1640 a1fb e53f 63f2 f33f
4.038002 3.8286352 1.2942373 1.5987164 1.9515936 2.8485558 1.2763278 3.8883336
2.133485 4.6310973 3.6427236 2.755939 4.3017406 2.6811862 1.6445786 3.0604362
3.3049788 2.2934139 3.4230196 4.236313 3.838424 4.305906 3.5136716 3.2206857
1.3122249 4.194968 2.6319926 4.8013735 3.4821186 2.357885 1.7967416 1.9058346

weight f4 [32, 32, 11]
00000000: 76c9 0b3d f4c6 2fbe 8cda a93d dbed 50bd
00000010: 793d bbbd 5238 d83c 3e73 27bd 3c38 6b3c
00000020: 80c9 8cbb bd0a 473c 3374 7eba 7fde c7bc
00000030: a0d8 69bd 0221 593c cec2 c6bd 252a 85bd
00000040: e102 73bb 4a75 743a 578a 31bd 7050 a73c
00000050: 3f3d a1bd 6855 90bb 6a93 fdbd b799 163e
00000060: db03 71bd 6b2d 083d 20eb 863d 353c 00bd
00000070: 9880 89bc c4b7 f9bc 529a 093d f4f9 563d
00000080: 19bf 353d 9267 9bbd db85 7e3e e89c e5bd
00000090: 222f 44bd 39f2 9d3d 6d3f 3fbd f633 d83b
000000a0: 7d12 a2bc ecc9 bb3c bd8e b83c 3de3 c4bb
000000b0: 9cfb dcbd b30a 143d 474f 993c 893c 82bd
000000c0: 8fbc 0f3b 2938 cdbc 579e db3b 51fe 04bd
000000d0: 48e7 31bc be93 103d 87df 62bc 4271 973d
000000e0: d622 e8be 4799 733e 9849 d3bd 8198 80bd
000000f0: 9e94 943d e627 01bd 95cf 22bd cc7a b3bc
00000100: 9a3d 2dbb ee37 6d3c a80f 4bbe 1ae7 923d
00000110: 7eff 36bd 72c6 92bd aea7 b4bc ba85 ecba
00000120: 42d4 a9bc 172c 853c d346 8b3c db4d 17bd
00000130: 6892 c73c b1c3 2cbe 9cfc c23d c7f9 87bd
00000140: 8f0d e2bd 2d11 96bc dccc 153d 1d12 0abc
00000150: 9394 3ebd f22d a33c a4ae d9bc 48c1 fabc
00000160: 3bdc a3bd 4ae6 9f3d 04c0 98bd b420 78bc
00000170: 8cc4 6b3c 6ec1 193c a7f4 b43c 7db4 ec3c
00000180: 5f7d 8f3c d6f2 563d d9e8 a6bb 75e6 16be
00000190: 4bcf 1b3d 7e99 0dbe 6565 a3bd a783 4f3d
000001a0: 9d5c 03bd 9996 8039 57c0 40bd 8451 16bd
000001b0: bf5e 46bc d0fc 4c3c 672e 163d 6ae7 b9bd
000001c0: f334 acbb 7973 0f3d e0ab c2bc 6b5e 1ebd
000001d0: 652b 9dbb d4c1 90bc 77fd 223c afdb 113d
000001e0: c8c8 dd3c 2984 2e3d eb30 a1bd 89b5 05be
000001f0: 7db7 143e 28b8 9f3d 490a 1ebd 86c6 6e3c
00000200: be5f 02bc de7a cd3c 92cb 58bc 8a99 773d
00000210: 42ca f33c e100 8c3d 7fd1 6e3d 1213 8abc
00000220: caff 55bd 461a 8f3c 7267 97bd a3c9 c83c
00000230: ed66 abbc 523e 823c 4cc2 b6bc de5f 193d
00000240: 9441 023d 25d5 db3d 6892 7abc a1fa ebbc
00000250: 2918 9a3c 9bb0 743a 2abb bc3c 003a 13bd
00000260: 3e3f 16bd ebd2 f2bc 145b b03b d86d b63d
00000270: 08cf 893d 4a2d 6cbd 8e40 b3bc b95d 3ebd
00000280: e2ec 3ebd 645a a2bc 63f8 1fbd 0ef7 97bd
00000290: 73eb 4dbd 8fd4 8f3d 612a 8dbc 7525 06bd
000002a0: d486 783e 60af f43d 0540 0abd 8a4f a23c
000002b0: d77c 0b3d eee6 373d c5f7 333d 2e62 f739
000002c0: e6c0 873d b0d8 acbe c3a8 5b3e 38d8 ccbd
000002d0: e8e4 eebd 4e16 9b3c e069 68bd 7282 873d
000002e0: c14e ebbc 7dc2 0abd 46d3 bf3c 4794 d2bd
000002f0: a4cc 483d f038 aabd c881 84bd a0bd 943c
00000300: a1ee 273b 8e14 3ebb dec5 8b3c f444 9cbb
00000310: 8730 c3bc 56e6 d3ba 8e26 393d 55ca a6bd
00000320: 0e5e ad3d 6de1 0ebe 7519 b3bd 0235 903d
00000330: bb93 36bc 514c a8bd 280e 41bc 75fd ebbc
00000340: 9048 003c ece0 d4bd e58d 083e 78d6 babd
00000350: 7c01 293d 9eb3 553c c571 56bd e75c ae3d
00000360: 20a6 503c de18 f93c 7644 653d f3eb 703c
00000370: fd16 08be 9f1a 863d 22f7 d4bc e963 90bd
00000380: df4c b03c 7aa6 fd3c a58f 18bb d063 fc3a
00000390: a711 9d3c 1e38 d83c 8724 8f3c f8ac 943d
000003a0: cd6d 4abe be6c 833d 5aae ce3c f59f 4cbd
000003b0: 5646 9fbc 82bc 2dbd 5c09 9cbd a235 0abd
000003c0: ada9 72bc 3a38 163d 62dd 14be 600d fb3c
000003d0: 13ed 19bd 20d6 0abd 2eff 3a3c a8af 503c
000003e0: f77a cd3c 5ea5 2bbd 8100 413d ead9 76bd
000003f0: ad37 b5bc e3e9 97bd d9db e23d 63ab edbc
0.034127675 -0.17165738 0.08293638 -0.051008087 -0.09142584 0.026394043 -0.040881388 0.014356669
-0.0042964816 0.012148556 -0.0009706646 -0.024398087 -0.057091355 0.013252499 -0.09705125 -0.06502179
-0.0037080573 0.0009325339 -0.04334482 0.020424098 -0.0787301 -0.0044047125 -0.123816326 0.14707075
-0.058841567 0.03324644 0.06587815 -0.031307418 -0.016784951 -0.030483134 0.033594437 0.052484468
0.044371698 -0.07588114 0.2485575 -0.11211568 -0.04789651 0.07712216 -0.046691347 0.006597991
-0.019784207 0.022923432 0.022529 -0.006008534 -0.10790178 0.036143016 0.01871456 -0.063592024
0.0021932458 -0.025051193 0.006702225 -0.032469098 -0.010858364 0.035297148 -0.013847238 0.07394649
-0.45339078 0.2378894 -0.10316771 -0.06279088 0.07254909 -0.03153219 -0.039748747 -0.02190914
-0.0026434422 0.014478667 -0.19830191 0.071729854 -0.04467725 -0.07166757 -0.022052612 -0.0018045225
-0.020731095 0.016256375 0.017001545 -0.036939483 0.024361804 -0.16871525 0.09520838 -0.06639438
-0.11037742 -0.018318737 0.036572322 -0.00842717 -0.04652841 0.01991937 -0.026572533 -0.030609742
-0.0800099 0.07807596 -0.07458499 -0.015144516 0.014390122 0.009384496 0.022089316 0.028894657
0.017515836 0.05247768 -0.0050936756 -0.1473635 0.038039487 -0.13828084 -0.07978324 0.050662663
-0.032070745 0.00024526266 -0.04705843 -0.036698833 -0.01210755 0.012511447 0.036665346 -0.09077342
-0.0052553355 0.035022233 -0.023763597 -0.038664263 -0.004796433 -0.01767055 0.009948126 0.035609897
0.027073279 0.042606506 -0.078706585 -0.13057531 0.1452312 0.07798797 -0.038584027 0.014573699
-0.007957397 0.025083002 -0.013232129 0.06044916 0.02975953 0.06836105 0.05830526 -0.016854797
-0.052245893 0.017468583 -0.073927775 0.02451021 -0.020923102 0.015898857 -0.022309445 0.03744494
0.03180082 0.107340135 -0.015293695 -0.028806033 0.018810349 0.00093341776 0.023038466 -0.035943985
-0.036681406 -0.02964159 0.005381951 0.0890767 0.06728941 -0.05766038 -0.021881368 -0.0464761
-0.046612628 -0.019818492 -0.03905524 -0.07420169 -0.05027337 0.07022964 -0.017232122 -0.032750566
0.24270183 0.119475126 -0.03375246 0.019813318 0.034054603 0.044897966 0.043937463 0.0004718466
0.06628589 -0.3375907 0.21451096 -0.10002178 -0.11664754 0.018931534 -0.056741595 0.06616677
-0.028724076 -0.033876885 0.023416173 -0.10282188 0.049023286 -0.08311641 -0.06470066 0.018156826
0.0025624412 -0.002900395 0.017062124 -0.004768962 -0.02382685 -0.0016166668 0.045202784 -0.081440605
0.08465205 -0.1395318 -0.0874509 0.070413604 -0.01114362 -0.08217681 -0.01178316 -0.028807381
0.0078298 -0.10394463 0.13335378 -0.09122938 0.04126118 0.013043312 -0.052354593 0.085138135
0.01273492 0.030407365 0.055973493 0.014704692 -0.1329002 0.06548046 -0.025996748 -0.07050306
0.02152103 0.030963171 -0.0023278978 0.0019255821 0.019173456 0.026393946 0.017473472 0.07259554
-0.19768448 0.06417225 0.025229622 -0.049957234 -0.019442718 -0.042416103 -0.07618973 -0.033742554
-0.014810962 0.036674716 -0.14537576 0.030646026 -0.037579607 -0.03389561 0.011413379 0.012737192
0.025083048 -0.041905753 0.04711962 -0.060266413 -0.022121275 -0.07417657 0.11077089 -0.029012388

bias f4 [32]
00000000: fdd9 37bc 30d5 a33c a925 683c f3e1 5ebc
00000010: cac6 e7bb cac2 46bd 0e26 53bb 6a3f 6cbc
00000020: ca56 523d 779e 29bd 6f20 aebc e764 3d3d
00000030: 0671 a8bc 1e2a 5e3c 5345 b0bc 02d4 76bc
00000040: caf1 fbbc 19d4 cdbc 5e77 dbbc 03c9 bd3c
00000050: fb43 123d b785 1cbb eecf ab3c 9690 1a3c
00000060: bc41 2bbd 7904 163d af51 02bd 4bd0 4f3d
00000070: 2db3 2dbb c81f 83bb 5f02 67bc 08cb babc
-0.011221406 0.019999117 0.014169135 -0.013603675 -0.007073258 -0.04852561 -0.0032218727 -0.014419416
0.0513523 -0.04141089 -0.0212557 0.046238806 -0.020561706 0.013559846 -0.021517431 -0.015065195
-0.030754942 -0.02512555 -0.026790317 0.023167139 0.035709362 -0.0023883411 0.020973172 0.009433886
-0.041810736 0.03662536 -0.03181618 0.050735753 -0.0026504502 -0.0040015914 -0.014099686 -0.022801891

weight f4 [32, 32, 11]
00000000: e9eb 893b e3c2 92bc 4f05 093c e5c3 80bc
00000010: d494 4b3d f937 a43c f302 74bc 0537 2c3d
00000020: 52fd a8bd 6849 d9bc 889e a63c 0cde d1bc
00000030: 427e 8dbd e8d0 6b3c 3f64 b33c d9e4 68bd
00000040: ab8b 1fbd 86cf 07bd a3da 4bbc f622 52bd
00000050: 27fe 88bc ef2e aabc 17ac 75bd 8995 11bd
00000060: 1d38 ae3d e6a9 e7bc e91e 9ebc ef15 cb3d
00000070: 8d63 0fbc cae9 8e3c b45f 0a3d f315 183d
00000080: 3f77 6a3c 00ca 1a3d 0bdf 69bc c909 3cbd
00000090: 52e5 0a3c 931c d3bc 0959 2b3c 5eef 1e3d
000000a0: e469 05bc 5321 4dbd 6b98 c73a 6463 aebc
000000b0: 347b 6cbc 6249 213d a580 523d 05c9 073d
000000c0: 5fe6 70bd adf7 e0bc e6b5 183d a444 a5bc
000000d0: 9e7f 7dbd 823c b03c 5de8 c83c cb0f 433c
000000e0: 253d e93c 88a2 e3bc 5548 2fbd 038a 17bd
000000f0: f93d c63c 2fd7 c73c 2cc9 e23c 7953 d23c
00000100: 32ec 5fbc 0307 1fbd 46fd 3c3c 946b 9cbc
00000110: a0b9 a7bc b747 4bbc 2b34 3c3d f6ae 88bb
00000120: e228 a4bc c8df 04bd 1016 60bd 83de eabc
00000130: 7cbb 0dbd 7e24 613c e986 bfbb c5fb fabc
00000140: c212 59bc b32a 78bd 1720 7dbd 88b8 073d
00000150: 16ba dc3c feae bc3b f1f3 9f3b 14e2 40bc
00000160: 34df 67bd 8870 cbbc 13c4 0d3d 45c6 093d
00000170: f400 983c 0553 05bd 3ad2 03bc 69df f1bc
00000180: d658 70bb 4279 cd3c d955 153c 640f aa3c
00000190: 61d8 9f3b ffc0 c13a 312c b53c 7e9d 84bd
000001a0: c1c7 a0bd 021b a9bc 2a91 ac3b 1d64 a8bd
000001b0: df23 09bb 850f 0bbd 78e4 063d 8939 e0bc
000001c0: 57ed c3bb 5d5b bdbb eed4 4dbd 2411 62bc
000001d0: f3df b1bd 58b9 03be 3681 48bd 3c8a 9dbc
000001e0: 0151 27ba 993c d7ba 7279 04bd 8430 b53c
000001f0: 74ec 6fbd ed1d e83c 6e0f 98bc 15ae 9cbc
00000200: ffaa 6aba a964 9e3c 4b33 29bc 83fd 4abd
00000210: db10 f0bc 5bd5 463c 7eab 8e3b ce90 0a3d
00000220: 2531 cc3b 179a 2dbd f96b c5bd dcd8 dcbc
00000230: 707f 603c c67f 89bc 30b9 d1bb 1976 4a3d
00000240: 0651 91bb b99d 043d 3112 943b 57a2 8ebd
00000250: e36c 1ebd 0387 10bd eb50 1dbd 7d51 cabc
00000260: 7182 383c 7789 9b3d ffeb c23c 9519 723d
00000270: 83aa 363c dd71 a2ba cdb1 2dbc 1bdd 09bd
00000280: 1ce1 973c 316e 20bd b80d 42bd 0021 523b
00000290: 1c0a 61bd 7b5e 8ab9 664e 253d f531 b9bc
000002a0: a0df 75bd ed92 bb3c 6a9e b33a 9f37 f63c
000002b0: 25a3 7bbc 625e d0bb c0b9 093d 7b5b cb3c
000002c0: 9379 cabc 654e 2b3d 3c48 25bd e6d6 aa3c
000002d0: a791 253d 9373 08bd 07e0 2f3c 2cc8 58bd
000002e0: fba2 a93c 0fab 233d 1c18 053d b87f 58b8
000002f0: 1279 4ebb dce8 163c 7d08 253b 8110 40bc
00000300: 492f 89bd fe0d 47bd 0541 2b3c 3f68 f73c
00000310: dd88 06bc 4264 8a3d c4f3 15bd 1ea2 c8bc
00000320: 2e4b 27bd fb8e afbc 1d7b 543c 3390 1dbd
00000330: 6856 aa3c 2d30 023c 6cc3 cb3c 0648 1d3b
00000340: f2cb 15bd 0c42 40bd e5bc a4bc 432d 08bc
00000350: 8e0e a63d 36aa e7ba c75d e4bc a883 d13b
00000360: 4be4 f83c 5abc 8f3c 9e35 8b3c 50a5 9bbc
00000370: 1a30 83bc 6a6e 473c ea35 94bc 7fe1 5ebc
00000380: 8821 bdbc 8950 5fbd e626 3f3d bdbe 513d
00000390: 4c63 cc3c c629 5b3b 46b1 193d fe73 093d
000003a0: 5c89 01bd d6fa 383d ec92 113d f700 1c3c
000003b0: 01c2 42bd 6e61 5dbd 34ef 76bd f970 d23b
000003c0: 3031 773c 0247 53bd d700 323d ce1b 9ebd
000003d0: 2625 b5bc 41db d1ba 8fec 9bbc b56a 963d
000003e0: 1a85 b83c b935 1abd 11c1 893b 12c2 653c
000003f0: 0213 433d 336e 4abc afe1 afbd 949c 8c3b
0.004209031 -0.017915195 0.008363082 -0.01571841 0.04970248 0.020046221 -0.014893281 0.04204466
-0.08251442 -0.02652426 0.020339265 -0.025618576 -0.069088474 0.014393069 0.021898387 -0.05685887
-0.038951557 -0.033156894 -0.012442264 -0.051302873 -0.016722752 -0.020774333 -0.05997857 -0.035543
0.085067965 -0.028279256 -0.019301848 0.09916293 -0.008751762 0.017445464 0.033782676 0.037130307
0.014310657 0.0377903 -0.014274369 -0.04590777 0.008477526 -0.025770461 0.010458239 0.038802497
-0.008142922 -0.05008061 0.0015227919 -0.021287628 -0.014433671 0.039376624 0.051392216 0.03315069
-0.05881345 -0.027461851 0.037282847 -0.020174332 -0.061889283 0.021513227 0.024524862 0.011905621
0.028471539 -0.027787462 -0.04279359 -0.036996853 0.024199473 0.0243946 0.027683817 0.025674568
-0.013667153 -0.038825046 0.0115349945 -0.019094266 -0.020474255 -0.012407235 0.04594819 -0.0041712476
-0.020039026 -0.032439977 -0.05470854 -0.028670555 -0.034602627 0.013741611 -0.00584494 -0.030637631
-0.013249101 -0.060587596 -0.06179818 0.033134967 0.026944201 0.0057581654 0.004881375 -0.011772651
-0.056609347 -0.024833933 0.03461082 0.03363635 0.018555142 -0.032549877 -0.008045727 -0.029525476
-0.0036674044 0.025082234 0.009114706 0.020759292 0.0048780893 0.0014782249 0.022115799 -0.06475352
-0.078506 -0.020642761 0.0052663283 -0.0822222 -0.0020925922 -0.033950347 0.03293273 -0.027371185
-0.005979221 -0.0057787136 -0.050251894 -0.013798032 -0.08685293 -0.12863672 -0.04895135 -0.019230954
-0.0006382615 -0.0016421258 -0.03234238 0.02211786 -0.05857511 0.028334582 -0.018562045 -0.019125978
-0.0008951872 0.019335108 -0.010327171 -0.049558174 -0.029304912 0.012135829 0.0043539396 0.033829503
0.0062314444 -0.04238328 -0.09639735 -0.026958875 0.0137022585 -0.01678456 -0.00640025 0.049429033
-0.0044347076 0.03237698 0.00451877 -0.069645576 -0.03867806 -0.035285007 -0.038407248 -0.02469706
0.011261568 0.07594579 0.023794172 0.05910643 0.011149052 -0.0012393553 -0.010601473 -0.03365813
0.018539958 -0.039167587 -0.047376364 0.0032063127 -0.05494128 -0.00026391805 0.04035797 -0.02260683
-0.06002772 0.022897208 0.0013703827 0.03005582 -0.015358721 -0.0063589076 0.03362441 0.024823895
-0.024716174 0.04182281 -0.04035209 0.020854425 0.040422108 -0.033313345 0.010734565 -0.052925274
0.020707598 0.039958056 0.032493696 -5.161736e-05 -0.003150527 0.009210791 0.0025182061 -0.011722685
-0.06698472 -0.04859733 0.010452514 0.030201076 -0.008211342 0.06757404 -0.036609426 -0.024491366
-0.04084318 -0.021430483 0.012968806 -0.038467597 0.020793155 0.007946056 0.024873458 0.0023999228
-0.03657145 -0.046937987 -0.020109603 -0.0083115725 0.08108245 -0.0017674628 -0.027876748 0.0063938685
0.030382296 0.017545868 0.01699334 -0.018999726 -0.016014148 0.012172321 -0.018092114 -0.013603567
-0.023087278 -0.054520164 0.046667956 0.051207293 0.024949692 0.0033441647 0.037522577 0.033557884
-0.031625137 0.04516109 0.035540506 0.009521714 -0.047548298 -0.054047994 -0.060286716 0.006422159
0.015087411 -0.05158139 0.043457832 -0.07720147 -0.02211244 -0.0016010777 -0.019033698 0.073445715
0.022524405 -0.03764889 0.0042039235 0.014023321 0.04762555 -0.012355375 -0.085879676 0.0042911265

bias f4 [32]
00000000: 2386 a3bc 6c1f 553c 65b2 bbbc 2090 f7bb
00000010: bcbb e4bc 1b2c da3c 4224 8d3c 81ff 153d
00000020: e2c0 21bd 2bff 153d e810 aa3c 385a 213d
00000030: 9193 0d3d 3105 b6bc 78d5 1e3d a854 06bd
00000040: a1e0 24bd bf63 173d f14d 003d 6e7e 063d
00000050: d1fb a4bb e505 fdbc 934a 413c 7492 b1bb
00000060: 385b adbb f3da f2bc 8b7f 92bb f7a9 0dbd
00000070: 5fee f73c 2c90 3e3d fefb 64ba f6e5 5dbd
-0.019961422 0.01300798 -0.022912214 -0.007555023 -0.02792155 0.02663236 0.017229203 0.03662062
-0.039490588 0.0366203 0.020760015 0.03939268 0.03456456 -0.022219272 0.0387778 -0.03279558
-0.040253285 0.03696036 0.03132433 0.032835416 -0.0050349017 -0.0308866 0.011797565 -0.00541907
-0.005290415 -0.029645419 -0.0044707707 -0.03458592 0.030265031 0.04652421 -0.00087350595 -0.054174386

weight f4 [32]
00000000: 5571 6e3f 60fe 7b3f 0852 663f 443b 853f
00000010: 7156 873f fcba 853f ea56 833f 48fd 753f
00000020: b5c9 6f3f 316f 7d3f 2a8e 7e3f 6af4 813f
00000030: 97d8 723f 391a 823f fa3c 6e3f 0d91 893f
00000040: 6d94 853f bb0e 6e3f 6f1a 7b3f 3ee3 883f
00000050: d51b 613f 6379 9b3f 145a 793f 6d05 863f
00000060: 69e2 783f e289 453f 4448 583f 4801 623f
00000070: 804a 843f 5af1 773f 0fe7 923f 37de 813f
0.9314168 0.9843502 0.8996892 1.0408711 1.0573255 1.0447688 1.0260899 0.960896
0.93667156 0.9899779 0.99435675 1.0152714 0.9486174 1.0164253 0.9306179 1.0747391
1.0435921 0.92991227 0.9808721 1.0694349 0.87933093 1.2146419 0.97403073 1.0470406
0.97220474 0.7716352 0.8448527 0.88283205 1.0335236 0.9685265 1.1476763 1.014594

bias f4 [32]
00000000: 350a 47be 6ca4 bcbd f799 b7bd e750 4abd
00000010: 1966 e13c d87d c7bd 29f4 9fbe 14e5 693c
00000020: a9d6 afbd 3b1b 96bd 9b50 5cbe 0a0b 2cbe
00000030: 2bf0 23bd 0909 f8bd 2d16 87bd 1300 9fbd
00000040: 3450 0dbd db25 8dbd 0663 62be 07ad 8ebe
00000050: cfaf 10be 877c 60be 60fd 35be cb9d 48bd
00000060: b388 8c3d 4b3e 223e 333c 76bd 2bf2 3ebe
00000070: 94ec 71be 5e5d 6e3d 761a 9cbe f789 a4be
-0.19437487 -0.092110485 -0.08964913 -0.04939356 0.027514504 -0.097408 -0.31240967 0.014275808
-0.08585865 -0.073294125 -0.21515124 -0.16801086 -0.040023964 -0.12111098 -0.065960266 -0.07763686
-0.034500316 -0.06891986 -0.22108087 -0.27866384 -0.14129566 -0.21922503 -0.17772436 -0.048978608
0.06862011 0.15844075 -0.060116004 -0.18647067 -0.23625404 0.05819451 -0.30488938 -0.3213651

running_mean f4 [32]
00000000: 3f6e a5bf 4741 cabe 9fa9 c53f 5151 103e
00000010: 26d4 e8be 6bb0 86be 5123 843e 73cf 11bf
00000020: 54cc 5d3f 641f 813f 8d55 b8bf 890c 453f
00000030: 5e1a d9bd d377 f13d c950 c03e ca78 9c3e
00000040: 691e e3bf ea7d c3be 45ea 513f f647 fc3e
00000050: 9c37 843e c735 1d3f c73b cd3c 6ef9 62be
00000060: 9038 823f 5fe0 633f a3aa cd3f e194 bc3d
00000070: 32d4 0b3f 325f c83e 5647 8d3e 92a2 aebf
-1.292427 -0.39502928 1.5442389 0.1409352 -0.45474356 -0.2630647 0.25808194 -0.5695717
0.86639905 1.0087705 -1.4401108 0.7697225 -0.10600732 0.11790433 0.37561634 0.30560905
-1.7743655 -0.38182002 0.8199809 0.49273652 0.25823677 0.6141018 0.025052918 -0.22165462
1.0173512 0.8901424 1.6067699 0.09208084 0.5462066 0.39135128 0.27593488 -1.3643363

running_var f4 [32]
00000000: 065a 0c3e ca80 853e 2b08 353e 7616 a83e
00000010: a529 753e 3b5d af3e 1e84 9e3e d924 783e
00000020: 2d5e 1a3e 4d93 553e c245 253e 0bf9 983e
00000030: c07a a53e f76b 8c3e 5f5e 813e efdc 803e
00000040: 3204 5f3e c744 193e ed52 343e 3b03 193f
00000050: b449 5e3e 8184 fa3e 6145 603e a514 a43e
00000060: 8290 753e 6915 0d3e 5922 783e b124 953e
00000070: be45 e23e aa7a ba3e 493d 023f b0c3 cc3e
0.13706216 0.2607482 0.17678897 0.32829636 0.23941667 0.34250817 0.30960172 0.24232806
0.15074988 0.20856972 0.16139892 0.29877505 0.32320213 0.2742612 0.25267312 0.2516856
0.21778944 0.14967643 0.17609759 0.59770554 0.21707803 0.48929217 0.21901466 0.32047
0.23980907 0.13777699 0.24231853 0.29129556 0.44193834 0.3642171 0.50874764 0.39993048

weight f4 [32]
00000000: 52e7 793f 2591 7d3f 7884 753f 407e 7a3f
00000010: f092 743f 8e3e 7b3f 1e25 763f c145 7b3f
00000020: 14ad 7b3f 445a 703f 793e 763f 16cb 7a3f
00000030: 3257 903f 6a93 7a3f 86b0 893f 1863 7a3f
00000040: 99a7 793f 88f0 6c3f ba43 7c3f 3d11 7e3f
00000050: 29c0 753f 8f84 7d3f 3097 773f 6f22 733f
00000060: 4151 743f 6c77 593f c3ad 703f 4b84 783f
00000070: 1bb1 793f e803 763f 0ec7 6b3f fdfd 743f
0.9761859 0.990496 0.95905256 0.9784889 0.9553671 0.98142326 0.96150386 0.9815331
0.9831097 0.93887734 0.96189076 0.97966135 1.127661 0.97881186 1.0756996 0.97807455
0.9752136 0.9255452 0.9854084 0.99245054 0.9599634 0.99030393 0.9671507 0.94974416
0.95436484 0.8494785 0.9401514 0.97076863 0.97535866 0.9609971 0.9210061 0.95700055

bias f4 [32]
00000000: 4836 febc a1d2 8dbc b0b5 ebbd b5fa 9bbd
00000010: ac43 00be ab57 01be d10b 90bd 1ed4 31bd
00000020: 2fe4 5d3d 6d0c 86bd 6cac 76bd 0748 0dbd
00000030: 4ef2 4bbe 4880 82bd 8a64 8ebd 5512 22be
00000040: 6980 483b 252e 51bd 7677 87bc 3116 9cbc
00000050: 3db0 62bd 9fb5 1abd 3811 dabd f6c5 2cbd
00000060: 697b 1bbd 170b a8bd a311 81bd f9d0 f3bd
00000070: 113a 3cbd dc93 5ebd 0195 85bd 74ed a0bd
-0.031031743 -0.01731235 -0.115092635 -0.07616178 -0.12525815 -0.12631099 -0.07033504 -0.04341518
0.05417269 -0.06545339 -0.060223028 -0.03449252 -0.1991665 -0.06372124 -0.0695277 -0.15827306
0.0030594117 -0.051069397 -0.016536456 -0.01905355 -0.055343855 -0.037770864 -0.106478155 -0.042180978
-0.03795949 -0.0820524 -0.06302192 -0.11905093 -0.045953814 -0.05434023 -0.06522561 -0.078577906

running_mean f4 [32]
00000000: 6dd2 a1be 954d d2bf f274 573e d7c2 fd3c
00000010: 5de9 3f3d ab1d cb3f 16d1 04bd 01c3 eabe
00000020: 6fa2 b2bf aaed 70bf fe07 4fbf 812d b13d
00000030: 2018 2bbf ae89 3abf f9ad a5bd 95d1 57bf
00000040: 4a3c dbbe d0b2 70be 744b a5bf 9455 83bf
00000050: 681a 4bbf f4ff 26bf 658f 21be 763e 69bf
00000060: 17cc cabe ca97 17bf e4d6 153d 418e 903f
00000070: a575 f83c 22eb c1be 7ee2 67be 95c6 00bf
-0.31605855 -1.6429926 0.21040705 0.030976696 0.046853412 1.5868429 -0.032425962 -0.458519
-1.3955821 -0.94112647 -0.8087157 0.08651257 -0.66833687 -0.7286633 -0.08089823 -0.8430417
-0.42819434 -0.23505712 -1.2913651 -1.0260491 -0.7933717 -0.65234303 -0.15777357 -0.9111093
-0.39608833 -0.59215987 0.03658189 1.1293412 0.030329535 -0.37874705 -0.22644994 -0.5030301

running_var f4 [32]
00000000: cb95 313f e91c 733f c521 6a3f 2814 b03f
00000010: 480d 433f 0f57 8a3f 1b6d 663f 0e76 923f
00000020: f010 8e3f 0f0c 233f a452 073f e763 643f
00000030: 3b85 993f 1b24 903f 0406 c43f 298b 423f
00000040: d61d 093f d227 453f 7b4f ac3f 1d46 803f
00000050: 988f 2d3f 0445 8c3f fbd1 b33f 8c7a 873f
00000060: 15b9 cb3e 05a2 b93e b5bd 773f 4580 783f
00000070: dabd 5a3f 3e56 1e3f 466d 0f3f 9c34 043f
0.6936919 0.9496599 0.9145778 1.3756151 0.7619214 1.0807818 0.9001023 1.1442277
1.1098919 0.63690275 0.52860475 0.8921494 1.1993784 1.1261019 1.5314336 0.7599359
0.5356115 0.77013886 1.3461756 1.0021397 0.6779723 1.0958562 1.4048456 1.0584273
0.39789644 0.36256424 0.96773845 0.97070724 0.8544594 0.61850345 0.56026113 0.51642776

weight f4 [32, 32, 11]
00000000: 24fc f0bd fed7 e93c 13bd 08bd 76ed d03b
00000010: 53fb 3d3c 076d 87bd 419e 28bd ed6c 9f3d
00000020: f60d 96bd 0a0c 193c 2d42 4c3c 6cf2 833d
00000030: 7fe0 f93b 0829 f7bb a4c4 afbb b313 873b
00000040: 7837 34bd 7f81 7bbd 563c 17bd 1340 f8bd
00000050: 5bfc 08bd cc75 b73c da44 71bd dbaf a43d
00000060: c74f ddbc 3c52 ae3c 1478 a0bd 1e26 c83c
00000070: 50c8 90bc d3ce 83bb 196d 8abc a253 bf3d
00000080: 6c95 41bc 2485 95bd 80f7 f1bd f52c 33bc
00000090: d89c 2c3b 433d 07bd 5c80 b03c bd67 90ba
000000a0: 36ba aebd 6633 a0bd 0dbf 6fbd da8b c3bd
000000b0: fc85 b43d d32f 993b fa10 8abd 59e5 b5bd
000000c0: 4bdf 62bd 929b 49be 9928 393d b3ee 69bd
000000d0: 2dec 813d 3deb 54bd 5c3f 4ebd 53ab c03d
000000e0: f27c ba3d 83f9 6e3a 28fa e33c 6310 ab3d
000000f0: 1ab0 1d3c ec8b 953d 1121 9a3c 688a 1b3e
00000100: 3783 f93c 7eee d23d d546 65bd 78a5 d639
00000110: 2473 173d 1a5f e03c 4fff 043d f9f5 003d
00000120: 47c1 0abd 9b42 7bbd c09c 3f3e 6cb7 80bd
00000130: 4d67 69bd 1abb 673d 135e 9d3c bf23 323d
00000140: d3c4 4e3d c1fc 1c3d bf39 f63c 2d3e 5e3d
00000150: 9d49 ae3b a066 5dbb 0341 953d 9040 62bd
00000160: 021c 853c 2c69 2abe 1187 85ba 33c9 b83d
00000170: 6515 0a3c ec37 fb3d 1149 e63d eb3a 6d3d
00000180: 0f1e a5bd 33fd dcbb 9276 8dbb 9eed 93bb
00000190: e6f2 0dbd a4c6 a1bc e29d 583a 4383 453d
000001a0: b41a a5bd 201d 833d a2f4 1fbe 43fb 663d
000001b0: 010e 373d 6ad5 4e3d 8b25 2cbd 2654 d4bd
000001c0: 2cc3 c4bc 19af bfbb bb8e bd3c 7e34 aabd
000001d0: a46b 883c 0892 473d 1355 8dbc fbdb 7b3d
000001e0: c499 df3d 1233 cf3c 2b5e 6bbd 678a 90bc
000001f0: a59c 60bb 9093 b73c 9e63 30b9 30cf d7bc
00000200: bcda 1bbb 6e77 92bd d19d 923d 6a2b a13d
00000210: 65bd ffbb 31f4 d33c d789 98bd 882b 8fbc
00000220: 16d0 1c3d f508 2bbd 3d5a 973c ffbc 103e
00000230: 980c c63d 1aec c33c 9474 5f3e a690 afbc
00000240: 6cd0 b9bc 0474 a4bc 5a07 ddbd d52e 9bbd
00000250: b44a 02bd d91a 83bd 1e29 3a3c 4f22 86bc
00000260: 3b5f 99bd 6336 803d 3150 b53b b5a2 f1bd
00000270: 2277 23bd 020a 3dbd bd2a acbc 4e4e feb9
00000280: 6e3f bfbb 4f7f 303c a543 dbbd 7425 f53c
00000290: aeef f3bc f09f a23d cf9f e8bb aaf9 24be
000002a0: a832 d13b 8c95 6f3c d202 1dba 97e6 233c
000002b0: cbe9 35bd b708 443c 112a 283d ca8b bcbd
000002c0: 131a 403d 1558 a0bd 089c a43b 7bff 343d
000002d0: 32eb 603d 82df 063d 52e8 0f3e 9090 c03b
000002e0: 6416 9c3b b17e 9a3a ead7 d0bd a15f 033d
000002f0: 3dcf 04be eccd 25bd 97c9 e13d dc8a 1bbd
00000300: e9e3 43bd 8355 bb3d f15a 42bc 4a99 123d
00000310: e23a 023e d47e 933d 929a a7bd 641a 34bd
00000320: 07e7 1fbd fab0 8f3d 27a6 4e3d 0a9d bdbc
00000330: 1507 16bd ecaa fbbc 74aa c63d 81ce c1bc
00000340: 3aac 973d e00a 5ebc 2135 d6bd ac37 38bd
00000350: e0e7 0e3d a64f 37bd 07db aaba 531c ff3a
00000360: 11da ccbc de0c 8bbd 76ec 3d3e af86 18bc
00000370: d5aa febd 6fba 6cbc 38d6 63bc 37f7 5ebd
00000380: 0838 fb3c d396 36bd f903 103c f977 313c
00000390: 18de aa3c ac4f c73a 31b3 eb3c 51cd 0fbd
000003a0: 7a51 43bd a231 d33d 2423 f7bd c06a 883d
000003b0: c93d 173e d5d9 e8bc 243f 89bc c169 d13d
000003c0: dc01 763d 96cc cebc 08ab 02bd d81a 733d
000003d0: 4a5a 6fbd 75eb db3a b2ad 44bd 1127 21bd
000003e0: 81db f8bc a153 b9bd 8b8d ddbb f2f1 483e
000003f0: f558 943d 35da 1b3c 558a 4fbd 1559 2bbd
-0.11766842 0.028545376 -0.03338344 0.006375964 0.011595565 -0.06612592 -0.041166548 0.07784448
-0.073268816 0.009341249 0.012466949 0.06442723 0.007625639 -0.007542733 -0.0053640176 0.0041222214
-0.04399821 -0.061402794 -0.036922775 -0.12121596 -0.03344379 0.022395037 -0.058903553 0.08041354
-0.02701558 0.021279447 -0.07835403 0.024432238 -0.017673641 -0.004022458 -0.016897725 0.093421236
-0.01181541 -0.07300785 -0.11814785 -0.010936012 0.0026338603 -0.033017408 0.021545582 -0.0011017245
-0.08531611 -0.078223035 -0.05853181 -0.09548159 0.08814618 0.0046748905 -0.06741519 -0.08881635
-0.05538873 -0.19688252 0.045204733 -0.057112407 0.06343875 -0.051982153 -0.050353393 0.094076775
0.09105863 0.00091161596 0.027829245 0.08352735 0.009624505 0.073020786 0.018814595 0.15189517
0.030458076 0.10299395 -0.055975754 0.00040940545 0.03697504 0.027389098 0.032470044 0.031484578
-0.03387573 -0.061342817 0.18712139 -0.06284985 -0.05698328 0.05657492 0.019209897 0.04349112
0.050480675 0.038326982 0.030056832 0.054258514 0.005318834 -0.0033783093 0.072877906 -0.055237353
0.016248707 -0.16641682 -0.0010187348 0.09022751 0.008427952 0.122665256 0.11244405 0.057917517
-0.08062374 -0.006744051 -0.004317113 -0.00451441 -0.034655474 -0.01974804 0.00082632725 0.048220884
-0.08061734 0.064020395 -0.15620664 0.056391966 0.04469109 0.050496496 -0.04202799 -0.103676125
-0.024018846 -0.0058497307 0.023139348 -0.08310793 0.01665289 0.04872325 -0.01725248 0.061489087
0.10918 0.025292907 -0.057462852 -0.01764412 -0.0034273055 0.02240923 -0.00016821778 -0.026343912
-0.00237815 -0.07151686 0.07159007 0.07869609 -0.00780456 0.025873275 -0.07448166 -0.017476812
0.038284384 -0.04175659 0.018475646 0.14134596 0.09670371 0.023916293 0.21821815 -0.021431278
-0.022682391 -0.020074852 -0.10792418 -0.07577292 -0.031809524 -0.06401605 0.011362342 -0.016373781
-0.07488867 0.062603734 0.005533241 -0.11798612 -0.039908536 -0.046152122 -0.021016473 -0.00048504997
-0.005836419 0.01077254 -0.107062615 0.029925086 -0.029777374 0.07940662 -0.007099129 -0.16110864
0.0063842125 0.014623057 -0.0005989495 0.010003707 -0.044412415 0.011964968 0.041055743 -0.0920635
0.046899866 -0.078293 0.005023483 0.044188958 0.0549118 0.032927997 0.14053467 0.005876608
0.0047634114 0.0011787025 -0.10197432 0.03207362 -0.1296968 -0.040479586 0.11024778 -0.037974223
-0.047824774 0.091471694 -0.011862502 0.03579072 0.12717775 0.07201925 -0.08183779 -0.04397048
-0.039038684 0.070161775 0.050451424 -0.023146171 -0.036627848 -0.03072115 0.0970048 -0.023658039
0.074058965 -0.0135523975 -0.10459352 -0.044974968 0.034889102 -0.044753693 -0.0013035246 0.0019463397
-0.025006326 -0.067895636 0.18547234 -0.009309455 -0.124349274 -0.014448746 -0.013906054 -0.05443498
0.030666366 -0.04457743 0.00879001 0.010831826 0.020857856 0.0015206239 0.028771969 -0.035107914
-0.047685124 0.10312201 -0.120672494 0.06660986 0.14769663 -0.028424183 -0.01675374 0.10225249
0.060060367 -0.025244039 -0.03190139 0.059351772 -0.058435716 0.0016778546 -0.04801721 -0.039343897
-0.030378105 -0.09049154 -0.006761258 0.19623545 0.0724353 0.009512474 -0.050669033 -0.041833002

bias f4 [32]
00000000: 050a d93c fe40 5ebc 18d7 553d be4f a03c
00000010: f19a 49bd dc91 5dbd bf54 c0bc 1c76 593c
00000020: f90d fbbc 8b15 883c 5759 76bc b085 ec3c
00000030: ddbc f93c 56d2 05bd 0d29 4ebd b617 1ebc
00000040: e03d 673d cb3a 5abd ea19 873c 6c47 4cbd
00000050: 84a6 d4bc 7f01 c03c 1434 03bd 8217 f13c
00000060: 2615 44bd 8481 48bd 40e8 1cbd 337c 433d
00000070: 3d19 db3c 8190 103d 2175 c43b f18a 263d
0.026494035 -0.0135653 0.052207083 0.019569274 -0.04922003 -0.05409418 -0.02347791 0.013272788
-0.030646311 0.016611835 -0.015035949 0.02887234 0.030485565 -0.032671295 -0.050332118 -0.009649208
0.056455493 -0.053278726 0.016491849 -0.0498728 -0.025958307 0.023438213 -0.032032087 0.029430155
-0.04787173 -0.04895164 -0.03830743 0.047725867 0.026745433 0.03529406 0.005995408 0.04065985
