data/pretrained_models/spliceai-400-1.pt (torch, 796217 bytes, 106 tensors)

weight f4 [32, 4, 1]
0.22828789 -0.22306056 -0.12193927 0.2967895 -0.47883803 0.323867 -0.1007621 0.22463019
0.115035705 -0.13441464 0.17226003 -0.08945686 0.19730537 -0.21818668 -0.053463258 -0.032867767
0.10015557 -0.009576756 0.4547734 0.13307784 -0.21465233 -0.30375063 -0.066271625 -0.23297587
-0.17704564 0.0062440056 0.2802831 0.28716448 -0.519943 0.32519844 0.10100799 0.5036419
0.32579538 -0.55796844 -0.5237459 -0.15222128 0.43919438 -0.10383821 0.30735165 -0.33839306
0.5110847 -0.21902294 0.39575487 0.015445876 -0.33740425 0.261334 -0.28034478 0.1354903
-0.1188848 0.011594136 -0.52608955 -0.29793963 0.3209824 -0.27108806 0.45490023 0.49655125
-0.021175355 -0.38748303 0.32794636 0.1558061 -0.3706036 0.37702385 0.28803843 0.4556621
-0.23489812 -0.18121463 -0.07474162 0.10975859 -0.41709813 -0.2811919 0.34646672 -0.21386613
0.2445978 -0.028752051 0.2033587 0.081782445 0.17784736 0.32699776 -0.6236806 0.32733464
-0.35607868 -0.38742974 0.022484431 -0.027753381 0.29335254 -0.36726466 -0.49521968 0.46903497
-0.20382139 0.36350363 0.12107459 -0.3533163 0.080150574 0.18065219 -0.29206252 -0.24129355
0.1489552 0.1273811 -0.21564564 -0.12161955 0.4757063 -0.12547153 0.31841144 0.23711158
-0.3353837 -0.47414818 0.5223463 -0.038892955 0.2838124 0.11786153 0.14129014 0.41554496
0.47026828 -0.33288804 0.033301875 0.42580944 0.3387922 0.33687538 -0.36699653 -0.3881746
-0.38045353 0.09617183 0.5036437 -0.341088 0.32689458 -0.41902384 -0.5043162 -0.07646507
00000000: 4dc4 693e fd69 64be 4cbb f9bd cbf4 973e
00000010: 422a f5be e5d1 a53e 5c5c cebd 7505 663e
00000020: d797 eb3d fea3 09be ef64 303e 2935 b7bd
00000030: 6b0a 4a3e 546c 5fbe 4afc 5abd 5aa0 06bd
00000040: 5d1e cd3d d3e7 1cbc 0fd8 e83e 8f45 083e
00000050: d2cd 5bbe 3485 9bbe 6bb9 87bd 3a91 6ebe
00000060: 744b 35be 849a cc3b 4481 8f3e 3907 933e
00000070: fc1a 05bf 6980 a63e 47dd ce3d adee 003f
00000080: a7ce a63e 05d7 0ebf 3614 06bf e5df 1bbe
00000090: 16de e03e 21a9 d4bd 325d 9d3e db41 adbe
000000a0: 72d6 023f 8d47 60be 62a0 ca3e b310 7d3c
000000b0: 40c0 acbe 92cd 853e 5a89 8fbe f8bd 0a3e
000000c0: e079 f3bd 55f5 3d3c cead 06bf 8b8b 98be
000000d0: ce57 a43e 0ecc 8abe afe8 e83e f73b fe3e
000000e0: f077 adbc 2d64 c6be 96e8 a73e a28b 1f3e
000000f0: c1bf bdbe 4509 c13e c679 933e 8b4c e93e
00000100: 2289 70be 5490 39be 2212 99bd 1dc9 e03d
00000110: e38d d5be 62f8 8fbe 1664 b13e b9ff 5abe
00000120: d877 7a3e 6c89 ebbc 433d 503e 8e7d a73d
00000130: 9e1d 363e 406c a73e 88a9 1fbf 6898 a73e
00000140: f24f b6be 315d c6be 4531 b83c 0f5b e3bc
00000150: 4e32 963e 1d0a bcbe 6f8d fdbe 5a25 f03e
00000160: 8eb6 50be 261d ba3e f4f5 f73d e0e5 b4be
00000170: fc25 a43d e3fc 383e 3889 95be a815 77be
00000180: b687 183e 3170 023e 36d2 5cbe ac13 f9bd
00000190: c78f f33e 9c7b 00be d306 a33e 61cd 723e
000001a0: 6ab7 abbe 8dc3 f2be 7db8 053f 384e 1fbd
000001b0: dc4f 913e 6361 f13d 5dae 103e 4fc2 d43e
000001c0: 01c7 f03e 4d70 aabe 8c67 083d b203 da3e
000001d0: 2c76 ad3e ee7a ac3e f8e6 bbbe d2be c6be
000001e0: ceca c2be bdf5 c43d cbee 003f 16a3 aebe
000001f0: ba5e a73e 4b8a d6be de1a 01bf b899 9cbd

bias f4 [32]
0.2989932 0.45257375 -0.3329507 0.11511691 0.440246 0.32965168 0.3001927 0.34786227
0.32209864 0.12044469 -0.3332239 -0.43983385 -0.21502957 -0.04454282 -0.31459045 0.1995073
0.13733925 -0.20867845 0.19266741 0.18306673 0.31607077 0.34680986 -0.17564873 0.5415771
-0.06369084 -0.007608734 -0.48968768 -0.31260526 -0.31660363 -0.22272696 0.3598661 -0.14968969
00000000: a315 993e bfb7 e73e 8478 aabe 6ac2 eb3d
00000010: ec67 e13e 1bc8 a83e dcb2 993e 011b b23e
00000020: 1dea a43e b5ab f63d 539c aabe e731 e1be
00000030: b630 5cbe 8872 36bd 0012 a1be a44b 4c3e
00000040: a9a2 0c3e ceaf 55be 9b4a 453e d875 3b3e
00000050: 07d4 a13e 1091 b13e 43dd 33be cca4 0a3f
00000060: 5870 82bd b052 f9bb 58b8 fabe cc0d a0be
00000070: df19 a2be 8912 64be 5f40 b83e 4148 19be

weight f4 [32, 32, 1]
-0.148384 0.05396102 0.07072464 0.09664691 -0.10667243 0.022829331 -0.08014581 -0.0547647
-0.15580922 -0.09465339 -0.043248486 0.090919055 0.047913823 0.022998828 0.18675366 0.15734379
0.10450589 0.01821109 -0.13732916 0.12716267 -0.06277021 -0.030769315 -0.13259932 -0.047588427
-0.09707217 0.14398466 -0.14075802 -0.12872557 0.0028328495 -0.076890096 0.04982408 -0.054155085
-0.08129437 0.014710217 0.12388346 -0.12757048 0.08147245 0.109377794 0.17292212 -0.12004869
0.047792915 -0.13936675 0.1371902 -0.06500016 0.108552545 -0.000715044 -0.021706533 -0.0035179362
0.034410603 0.07511551 0.027771298 0.070323825 -0.1663238 0.13461949 0.15226804 0.14940785
0.13811843 -0.13229804 -0.07199077 0.15927468 -0.138528 0.16550086 -0.14495283 -0.122831754
0.07833465 -0.13964364 -0.028950144 0.12521476 0.13158081 0.16059817 -0.04531968 -0.14953962
0.17126006 -0.04078272 -0.054661267 0.049692098 -0.11563048 0.111975245 0.12425117 -0.15223223
-0.15541552 -0.003866465 0.066249065 -0.020466944 -0.09599303 -0.0046177777 -0.15937507 -0.13587762
-0.111232296 0.14084543 0.16761522 -0.0505491 0.023939352 0.086081155 0.012963565 -0.07728479
0.11643658 0.1279754 -0.028627092 -0.014071636 0.17466278 0.16606289 -0.084549956 0.19184826
0.048960526 -0.111187495 0.07174542 -0.14364108 0.1497363 -0.102576695 0.030863358 0.07254275
0.05867276 0.12798648 -0.06007663 -0.05240855 -0.13999178 0.007933527 -0.097487204 0.023696832
-0.04854245 0.06894689 0.13512567 0.039699093 -0.07726905 -0.10110729 -0.14126466 0.13183703
-0.04660306 0.026572382 0.015592309 -0.13065985 0.08826955 0.086833775 -0.002844368 -0.11071404
-0.09323023 -0.009410761 -0.09529603 -0.08657014 -0.014385129 -0.06971367 0.04903246 -0.056427516
-0.03598734 -0.059127938 -0.17323267 0.14728291 0.019410757 0.14442162 -0.01053775 -0.052243724
-0.15320843 -0.083880424 0.123600125 -0.16864061 -0.058411412 0.12239446 0.09312826 0.073849685
-0.01980169 0.004126484 -0.05061029 -0.055143982 0.08760103 -0.048241425 -0.08391728 0.05780587
-0.11925818 -0.030601854 0.069559716 0.054000188 0.1368197 -0.106968805 -0.014844326 -0.035086334
-0.08204302 -0.11649395 0.058042105 0.037374437 -0.076182045 -0.108259834 -0.16258524 0.18842822
-0.04299462 -0.02870748 -0.08118777 -0.09816293 -0.17638947 -0.118986085 0.11977424 0.02380712
-0.07506576 -0.08324539 0.12858465 0.121107556 0.15905134 0.04272718 0.07239965 -0.030438295
-0.109703824 -0.17665759 0.12972961 -0.01667738 0.08353707 -0.00024732074 -0.14854258 -0.10219971
0.034839556 -0.019271838 -0.18170223 0.041375764 -0.003162874 -0.07101895 0.08411584 0.02342449
-0.056188997 0.15065153 0.104214914 0.030579193 -0.0187735 -0.13834791 0.12741676 -0.032622643
-0.1292986 0.09545337 0.08018875 0.034021452 -0.049108047 -0.067278445 0.01447117 0.11883412
0.01759693 -0.09101434 0.19721547 0.016044172 0.15356818 0.02993708 0.17559993 0.0844992
-0.10662928 0.14169437 -0.012496793 -0.16139904 -0.051120326 -0.17539817 -0.07619454 -0.14093152
0.13383831 -0.04911461 -0.0139006935 0.095524885 0.08812292 -0.10153625 0.052796904 0.09068734
00000000: faf1 17be 3b06 5d3d 14d8 903d d1ee c53d
00000010: 1377 dabd 9404 bb3c 7d23 a4bd f350 60bd
00000020: 748c 1fbe a3d9 c1bd 5325 31bd c533 ba3d
00000030: 4941 443d 0a68 bc3c 5a3c 3f3e bb1e 213e
00000040: 2f07 d63d 6c2f 953c 04a0 0cbe ee36 023e
00000050: ab8d 80bd ee0f fcbc 1ec8 07be 15ec 42bd
00000060: c6cd c6bd b770 133e df22 10be a3d0 03be
00000070: 54a7 393b 8e78 9dbd 5614 4c3d b9d1 5dbd
00000080: aa7d a6bd 1f03 713c 9db6 fd3d d6a1 02be
00000090: 07db a63d 7701 e03d 7f12 313e 16dc f5bd
000000a0: 81c2 433d 28b6 0ebe 967b 0c3e ce1e 85bd
000000b0: cc50 de3d ca71 3bba e6d1 b1bc 2d8d 66bb
000000c0: 22f2 0c3d 29d6 993d a280 e33c f005 903d
000000d0: c950 2abe b1d9 093e 27ec 1b3e 5ffe 183e
000000e0: eb6e 0d3e 2379 07be e66f 93bd e718 233e
000000f0: 49da 0dbe 0f79 293e 846e 14be 378f fbbd
00000100: eb6d a03d befe 0ebe da28 edbc 4c38 003e
00000110: 1fbd 063e d973 243e 21a1 39bd ea20 19be
00000120: cc5e 2f3e c80b 27bd 7ee4 5fbd f189 4b3d
00000130: accf ecbd 4753 e53d 6677 fe3d c4e2 1bbe
00000140: 3f25 1fbe 8564 7dbb 97ad 873d 4baa a7bc
00000150: fe97 c4bd ba50 97bb 3833 23be 8123 0bbe
00000160: c2cd e3bd c939 103e 53a3 2b3e 930c 4fbd
00000170: 761c c43c 514b b03d 2265 543c 7d47 9ebd
00000180: 4d76 ee3d fc0b 033e 5d83 eabc b88c 66bc
00000190: cdda 323e 640c 2a3e 8728 adbd df73 443e
000001a0: d58a 483d 45b6 e3bd 43ef 923d a616 13be
000001b0: 7954 193e bb13 d2bd 27d5 fc3c 4b91 943d
000001c0: d952 703d e30e 033e ea12 76bd 59aa 56bd
000001d0: 015a 0fbe a0fb 013c 5fa7 c7bd dc1f c23c
000001e0: 73d4 46bd 0734 8d3d 625e 0a3e 849b 223d
000001f0: 3c3f 9ebd 5711 cfbd afa7 10be 4900 073e
00000200: dae2 3ebd 53ae d93c e276 7f3c b2cb 05be
00000210: aac6 b43d e8d5 b13d 9468 3abb 0bbe e2bd
00000220: 7eef bebd 982f 1abc 912a c3bd b04b b1bd
00000230: 9baf 6bbc 0ac6 8ebd 43d6 483d 8a20 67bd
00000240: 7667 13bd 2330 72bd e863 31be 55d1 163e
00000250: 4f03 9f3c 43e3 133e 87a6 2cbc 84fd 55bd
00000260: ace2 1cbe 80c9 abbd 1022 fd3d 20b0 2cbe
00000270: ce40 6fbd f2a9 fa3d 07ba be3d 813e 973d
00000280: 2737 a2bc 7537 873b bc4c 4fbd a8de 61bd
00000290: 2b68 b33d cd98 45bd d3dc abbd d9c5 6c3d
000002a0: a23d f4bd bdb0 fabc 5375 8e3d 4d2f 5d3d
000002b0: 771a 0c3e 7612 dbbd 9e35 73bc b0b6 0fbd
000002c0: 2c06 a8bd 6194 eebd 8fbd 6d3d f015 193d
000002d0: 5505 9cbd 55b7 ddbd bf7c 26be 54f3 403e
000002e0: 201b 30bd f32b ebbc c645 a6bd a509 c9bd
000002f0: 719f 34be faae f3bd 324c f53d 2607 c33c
00000300: 14bc 99bd 8f7c aabd b2ab 033e 3d07 f83d
00000310: 5bde 223e b202 2f3d 4546 943d bb59 f9bc
00000320: 66ac e0bd bae5 34be d7d7 043e 009f 88bc
00000330: 7c15 ab3d d4aa 81b9 8c1b 18be 154e d1bd
00000340: ecb3 0e3d f9df 9dbc 2610 3abe a279 293d
00000350: 3848 4fbb 6272 91bd ed44 ac3d b7e4 bf3c
00000360: 6f26 66bd 6544 1a3e a16e d53d 3781 fa3c
00000370: e2ca 99bc 13ab 0dbe 8a79 023e 529f 05bd
00000380: da66 04be 0e7d c33d 003a a43d 145a 0b3d
00000390: 8525 49bd 48c9 89bd 7c18 6d3c 4e5f f33d
000003a0: 7027 903c ba65 babd daf2 493e 116f 833c
000003b0: fa40 1d3e 9b3e f53c 78d0 333e eb0d ad3d
000003c0: 7460 dabd 5418 113e 59bf 4cbc ca45 25be
000003d0: 8c63 51bd 949b 33be e20b 9cbd 5a50 10be
000003e0: e90c 093e 672c 49bd bcbf 63bc 8da2 c33d
000003f0: ca79 b43d 3df2 cfbd 9141 583d 49ba b93d

bias f4 [32]
0.015619919 0.08971134 0.05320908 0.101530395 0.10020531 0.03974924 0.13957736 0.094992645
0.010859074 -0.08975839 0.00577525 0.12639374 0.12314678 -0.06075259 -0.045474984 0.056392208
0.05508855 0.18199262 0.096686035 0.041209962 0.050653998 -0.1787278 -0.050136615 0.031189434
-0.11253071 -0.16132398 0.13466832 0.0737816 -0.12754829 0.023788128 0.088289216 0.11544815
00000000: b0ea 7f3c 94ba b73d c4f1 593d 2bef cf3d
00000010: 7138 cd3d 19d0 223d 5eed 0e3e 818b c23d
00000020: 42ea 313c 3fd3 b7bd 4f3e bd3b 5c6d 013e
00000030: 6134 fc3d b5d7 78bd fa43 3abd 84fb 663d
00000040: 88a4 613d 465c 3a3e 5403 c63d c7cb 283d
00000050: 917a 4f3d 6c04 37be 0d5c 4dbd fc80 ff3c
00000060: 8076 e6bd 1d32 25be 7ee6 093e cf1a 973d
00000070: 059c 02be 52df c23c fad0 b43d 1470 ec3d

weight f4 [32]
0.9919454 1.1554458 1.009093 0.86673546 0.9957706 0.93922037 1.029598 1.1477754
0.9923674 0.9668186 1.0662206 1.04057 0.942978 0.9476896 0.8900888 0.9296532
1.1850189 0.9376275 0.9265088 0.9740509 0.8204444 0.94332385 1.1842866 1.1049699
0.9038918 0.9845382 0.86496264 0.9987244 0.90588987 0.93957 1.2057989 1.0276643
00000000: 22f0 7d3f a6e5 933f f629 813f 60e2 5d3f
00000010: d2ea 7e3f bf70 703f dec9 833f 4eea 923f
00000020: ca0b 7e3f 6c81 773f eb79 883f 6631 853f
00000030: 0267 713f c99b 723f dcdc 633f c1fd 6d3f
00000040: b3ae 973f 5b08 703f ae2f 6d3f 665b 793f
00000050: a508 523f ac7d 713f b496 973f a76f 8d3f
00000060: 7465 673f b20a 7c3f 316e 5d3f 67ac 7f3f
00000070: 66e8 673f a987 703f 9e57 9a3f 818a 833f

bias f4 [32]
-0.047462784 0.11291323 0.037248556 -0.019831888 -0.08377874 -0.14402883 0.019807791 -0.01404977
0.01349099 0.009379532 0.076064736 0.03012205 -0.01607734 -0.096862525 -0.088112324 -0.082141854
0.19194077 -0.07807921 -0.0069519803 -0.04687192 -0.12592615 -0.12956096 0.018221939 0.06299636
-0.037523802 0.05737959 -0.15357041 -0.030725732 -0.13991803 -0.015534727 0.06140183 -0.056451414
00000000: 5668 42bd 0d3f e73d f191 183d 7c76 a2bc
00000010: 3094 abbd 4b7c 13be f343 a23c 0231 66bc
00000020: 5009 5d3c 9cac 193c d4c7 9b3d 84c2 f63c
00000030: a0b4 83bc dc5f c6bd 3c74 b4bd fd39 a8bd
00000040: 1f8c 443e fee7 9fbd 70cd e3bb c5fc 3fbd
00000050: c9f2 00be a1ab 04be 2d46 953c 3c04 813d
00000060: 8fb2 19bd dc06 6b3d 9041 1dbe 88b4 fbbc
00000070: ac46 0fbe 5e85 7ebc 7c80 7b3d 9939 67bd

running_mean f4 [32]
0.3813546 0.43178132 -0.31915757 0.10568532 0.5979844 0.12966265 0.3964394 0.44051653
0.15039493 0.18123089 -0.15151714 -0.49763694 -0.44121256 0.23110712 -0.28155744 0.36644223
0.056272164 -0.36896425 0.31952822 0.26453725 0.14100522 0.39409462 -0.24133548 0.46642256
-0.07897316 0.23283926 -0.5769856 -0.060068984 -0.11941823 -0.25646847 0.27624735 -0.26775703
00000000: e940 c33e 7112 dd3e 9f68 a3be 8c71 d83d
00000010: 8115 193f 49c6 043e 1bfa ca3e 628b e13e
00000020: 2101 1a3e 9794 393e 4f27 1bbe 45ca febe
00000030: 9de6 e1be 58a7 6c3e 4c28 90be 519e bb3e
00000040: a47d 663d e2e8 bcbe 3499 a33e 6d71 873e
00000050: ac63 103e c5c6 c93e a620 77be f0ce ee3e
00000060: aebc a1bd 6a6d 6e3e 54b5 13bf e50a 76bd
00000070: 8c91 f4bd d64f 83be 4b70 8d3e 7317 89be

running_var f4 [32]
0.046134178 0.0990298 0.015352419 0.020562865 0.025344653 0.00741537 0.039924096 0.1628669
0.12231407 0.104095764 0.07905976 0.062217977 0.035543222 0.08178936 0.057180416 0.11561945
0.019444192 0.074784234 0.0107519915 0.13394709 0.0330049 0.16268192 0.07256967 0.03718215
0.022860538 0.04393775 0.12243113 0.016263947 0.09666761 0.124424264 0.12048057 0.10265027
00000000: 31f7 3c3d 23d0 ca3d b688 7b3c 7473 a83c
00000010: 979f cf3c a2fc f23b 7387 233d 95c6 263e
00000020: cd7f fa3d 2930 d53d 15ea a13d 47d8 7e3d
00000030: c595 113d 2e81 a73d 0336 6a3d e4c9 ec3d
00000040: 6d49 9f3c 7a28 993d 1f29 303c 6d29 093e
00000050: 2530 073d 1796 263e 689f 943d 4f4c 183d
00000060: 0646 bb3c 12f8 333d 2cbd fa3d f83b 853c
00000070: abf9 c53d 26d2 fe3d 84be f63d 4e3a d23d

weight f4 [32]
0.84765154 0.92376775 0.98463494 0.8924383 0.9609236 0.91674167 0.8687324 0.9119853
0.8347661 0.91775024 0.88625365 0.96105427 0.9394702 0.8517198 0.8739646 0.8483814
0.871534 0.9726787 0.8043708 1.0407836 0.90808713 0.9632854 0.97459334 0.9160999
0.88511896 0.9353248 0.83603644 0.97185534 0.9247839 0.8494692 0.8847213 0.8817876
00000000: b1ff 583f 0b7c 6c3f 0911 7c3f d676 643f
00000010: 17ff 753f 95af 6a3f 3f65 5e3f de77 693f
00000020: 3bb3 553f aef1 6a3f 85e1 623f a707 763f
00000030: 1e81 703f 4f0a 5a3f 25bc 5f3f 862f 593f
00000040: da1c 5f3f 7901 793f 3feb 4d3f 6638 853f
00000050: 6678 683f df99 763f f37e 793f 8685 6a3f
00000060: 2897 623f 7271 6f3f 7c06 563f 83cb 783f
00000070: a3be 6c3f d076 593f 187d 623f d5bc 613f

bias f4 [32]
-0.07681345 -0.05513123 -0.12865503 -0.06319787 -0.10392612 -0.08342357 -0.116637796 -0.11066748
-0.07888421 -0.10078705 -0.12156653 -0.12970218 -0.08146204 -0.15420865 -0.080678396 -0.10719895
-0.13783604 -0.030064574 -0.19163683 -0.2175359 -0.21196309 -0.12579472 -0.15162806 -0.035595883
-0.1854755 -0.12714587 -0.12988383 -0.06426379 -0.062695086 -0.18867087 -0.06665299 -0.074006155
00000000: 5f50 9dbd 49d1 61bd 25be 03be e36d 81bd
00000010: 38d7 d4bd fad9 aabd ccdf eebd a2a5 e2bd
00000020: 0b8e a1bd 7169 cebd dff7 f8bd a6d0 04be
00000030: 92d5 a6bd dfe8 1dbe b73a a5bd 208b dbbd
00000040: e424 0dbe fb49 f6bc 723c 44be bbc1 5ebe
00000050: da0c 59be 55d0 00be 6344 1bbe fdcc 11bd
00000060: 4aed 3dbe 8732 02be 4400 05be bc9c 83bd
00000070: 4866 80bd f032 41be 5d81 88bd 8a90 97bd

running_mean f4 [32]
-2.5952487 -0.97311103 -0.09749666 -1.6978759 0.6508988 -0.9333955 -2.9523363 -0.8510339
-1.5646393 0.76666856 0.01640816 -0.3298127 0.5103025 -0.8168827 1.9424411 -1.2525969
-1.3403631 -2.0273654 -0.72175914 -2.0999608 -2.078689 -1.6684128 -0.5143869 -0.25894365
0.19388454 -0.61426824 -0.4169669 -1.5244981 -0.5926901 -1.0404373 -2.3651829 -1.1425997
00000000: 8e18 26c0 ce1d 79bf 54ac c7bd ff53 d9bf
00000010: 4ea1 263f 02f3 6ebf 14f3 3cc0 5cdd 59bf
00000020: 1a46 c8bf 6444 443f 686a 863c 36dd a8be
00000030: 2fa3 023f 3a1f 51bf e9a1 f83f 1855 a0bf
00000040: 0591 abbf 5bc0 01c0 35c5 38bf c265 06c0
00000050: 3e09 05c0 8d8e d5bf dcae 03bf 4394 84be
00000060: ab89 463e af40 1dbf af7c d5be c122 c3bf
00000070: 8aba 17bf 0d2d 85bf 285f 17c0 b540 92bf

running_var f4 [32]
3.738623 3.5516956 4.445158 3.4737005 3.382463 3.306411 2.893152 5.430585
3.9705858 4.3825216 4.604193 4.0223517 4.067836 4.076728 2.2598178 4.1170073
2.362034 3.9153059 3.6955779 4.061832 4.531597 5.427697 5.0154285 3.883318
3.2058067 3.9541032 3.4052997 4.0833173 2.300011 5.0047784 4.5957685 3.142042
00000000: 9945 6f40 fb4e 6340 bc3e 8e40 1c51 5e40
00000010: 467a 5840 3d9c 5340 6729 3940 5ac7 ad40
00000020: 141e 7e40 9e3d 8c40 8d55 9340 1bb7 8040
00000030: b62b 8240 8e74 8240 dba0 1040 86be 8340
00000040: 912b 1740 5f94 7a40 5984 6c40 87fa 8140
00000050: d802 9140 b2af ad40 647e a040 4888 7840
00000060: f02b 4d40 0710 7d40 6ef0 5940 89aa 8240
00000070: 6133 1340 2527 a040 8910 9340 3717 4940

weight f4 [32, 32, 11]
0.07000426 0.0038323842 0.052574404 -0.059660487 -0.0089187985 -0.15922622 -0.19631009 0.18534674
-0.08322586 -0.07968207 -0.059853677 0.017307112 -0.008046572 -0.08645582 0.05334264 0.025410848
0.100905895 -0.12783806 0.009812866 -0.095322505 -0.050930694 -0.084047906 -0.020377519 -0.02235684
0.037668336 -0.046084844 0.015482889 -0.0972498 0.076814525 -0.10777824 0.039297372 0.019643059
-0.065105125 -0.023619477 0.029955607 0.04751063 0.09230588 -0.04029628 -0.039788563 -0.034564957
-0.042122338 0.00080185157 0.045493674 0.007875699 -0.0032510879 -0.0089942245 -0.014320377 -0.05147921
0.04341291 -0.012037582 0.14859545 -0.026766557 -0.03630057 -0.012914289 -0.045854848 -0.08897529
-0.026566667 -0.019306125 -0.011200526 -0.026212817 -0.021851372 0.07480448 0.008023453 0.023391884
0.099941194 0.021675397 0.11559377 0.088937454 0.09378844 -0.07406017 0.07818322 0.016170565
0.03582115 0.16452375 -0.017598074 -0.003389368 0.022882367 0.048793133 0.043403257 0.050299414
-0.094003126 0.025366172 0.07830014 -0.1718191 0.09957179 -0.14451091 -0.020203236 -0.030667746
0.008379833 -0.016262654 0.00843122 0.07394249 -0.015244663 -0.02793732 -0.076177225 -0.05034073
0.018676888 0.04399166 0.003109128 -0.0103191575 -0.009938218 0.06880394 0.022939734 -0.056043405
-0.114283204 0.022423226 -0.110317305 0.04948757 -0.024497684 0.009229796 -0.056384373 -0.05493581
0.0468976 -0.022162873 -0.026338916 -0.070776165 -0.0038335726 -0.058378223 -0.017376017 0.024916967
-0.0061459327 0.009055087 -0.044914145 -0.052161556 0.01503402 0.028101085 0.022533791 -0.08231659
-0.096717924 -0.08276373 -0.056530416 -0.06638404 -0.10054933 -0.100805186 -0.029589405 0.038267232
-0.097843446 0.065519236 0.08245471 -0.18729945 0.029384496 0.052868582 -0.00077438855 0.11372668
0.033417534 0.078401536 -0.08789936 0.047940664 0.04596947 0.01635257 0.13380401 -0.037911806
0.033799972 -0.040746007 0.032491665 0.001638559 0.00026600264 -0.047015212 0.07059804 0.04898716
0.11686466 0.057096284 -0.021907944 0.01579332 0.0061456296 0.054169886 0.0455282 0.036966152
-0.050362013 -0.015148797 0.019987203 -0.017134225 0.15388858 -0.11664009 -0.04411844 -0.088072576
0.058376975 0.11367683 0.010302117 -0.06346077 0.009509689 -0.01817424 -0.13172644 0.24402735
-0.0991049 -0.0032962456 0.02281546 -0.07742976 -0.06643522 -0.045481198 0.028678335 -0.04167308
-0.055006836 0.1363216 -0.044074528 0.034953024 -0.054689143 -0.077621356 -0.04768203 -0.042381372
0.038951002 0.033621933 0.02051452 -0.13141571 0.026105475 -0.12031649 0.008385921 0.00068304216
-0.013082261 0.0653439 0.013077005 -0.0014960506 0.054826748 0.03005326 0.03495551 -0.23028855
-0.0015746298 -0.1352489 -0.018313538 -0.108415514 0.12454963 -0.024641614 0.026741097 -0.085012175
0.07078634 0.010409876 0.108689256 0.056789313 -0.031519577 0.094719306 0.02931933 0.06401584
-0.008164254 0.008956025 -0.0368812 0.032543417 -0.07505059 -0.20392229 0.15971677 -0.11681215
-0.028006306 -0.09087876 -0.0829492 -0.15821943 -0.07939141 0.081259936 -0.06452245 0.12448388
0.041039832 -0.39153203 -0.035530895 -0.06414486 -0.14342578 -0.12804788 -0.13585731 -0.057607703
00000000: 655e 8f3d bd28 7b3b 4258 573d 8e5e 74bd
00000010: 2720 12bc 330c 23be 8305 49be 89cb 3d3e
00000020: 5272 aabd 5a30 a3bd 2129 75bd a5c7 8d3c
00000030: c5d5 03bc c00f b1bd d07d 5a3d 692a d03c
00000040: c0a7 ce3d fbe7 02be 25c6 203c 7238 c3bd
00000050: b49c 50bd 4f21 acbd c1ee a6bc b125 b7bc
00000060: 1d4a 1a3d 76c3 3cbd f1ab 7d3c e72a c7bd
00000070: ef50 9d3d d7ba dcbd 48f6 203d 7bea a03c
00000080: d655 85bd a27d c1bc 7665 f53c 829a 423d
00000090: dd0a bd3d b60d 25bd 55f9 22bd fc93 0dbd
000000a0: 7988 2cbd 5933 523a 9357 3a3d 1309 013c
000000b0: 3410 55bb 835c 13bc 04a0 6abc dddb 52bd
000000c0: bcd1 313d 4739 45bc 6829 183e 8a45 dbbc
000000d0: e8af 14bd 7496 53bc 4bd2 3bbd ad38 b6bd
000000e0: 57a2 d9bc e127 9ebc 6982 37bc 43bc d6bc
000000f0: a601 b3bc 1733 993d cd74 033c 56a0 bf3c
00000100: f8ad cc3d 9a90 b13c 6dbc ec3d d724 b63d
00000110: 2714 c03d dcac 97bd 861e a03d 2278 843c
00000120: 33b9 123d ea78 283e d629 90bc 2920 5ebb
00000130: cd73 bb3c 4fdb 473d 9dc7 313d c206 4e3d
00000140: b684 c0bd b8cc cf3c d35b a03d 59f1 2fbe
00000150: 4bec cb3d abfa 13be 4281 a5bc ed3a fbbc
00000160: 914b 093c 4239 85bc 1a23 0a3c 296f 973d
00000170: c0c4 79bc cedc e4bc ce02 9cbd 1532 4ebd
00000180: 4600 993c 9930 343d 83c2 4b3b af11 29bc
00000190: e8d3 22bc 15e9 8c3d 1cec bb3c c58d 65bd
000001a0: 500d eabd eab0 b73c 0aee e1bd 7ab3 4a3d
000001b0: 5eaf c8bc 9238 173c 4df3 66bd 5f04 61bd
000001c0: b317 403d ea8e b5bc b6c4 d7bc 18f3 90bd
000001d0: ad3c 7bbb 011e 6fbd 2658 8ebc ab1e cc3c
000001e0: d263 c9bb ca5b 143c e5f7 37bd 5ba7 55bd
000001f0: 4051 763c 3f34 e63c c998 b83c 9a95 a8bd
00000200: 0c14 c6bd 0880 a9bd 708c 67bd 5bf4 87bd
00000210: cfec cdbd f372 cebd 7b65 f2bc 1abe 1c3d
00000220: 2562 c8bd f32e 863d 04de a83d 6dcb 3fbe
00000230: c1b7 f03c ba8c 583d 5600 4bba 89e9 e83d
00000240: d3e0 083d fc90 a03d 9404 b4bd 6e5d 443d
00000250: 7c4a 3c3d d3f5 853c eb03 093e 6949 1bbd
00000260: d771 0a3d 49e5 26bd fb15 053d ebc4 d63a
00000270: 4576 8b39 0693 40bd b595 903d c3a6 483d
00000280: bd56 ef3d cbdd 693d 4a78 b3bc fe60 813c
00000290: 4761 c93b 3ee1 5d3d c77b 3a3d d269 173d
000002a0: 6648 4ebd a932 78bc 34bc a33c 135d 8cbc
000002b0: f894 1d3e 00e1 eebd 8ab5 34bd 655f b4bd
000002c0: b21c 6f3d 66cf e83d 36ca 283c b8f7 81bd
000002d0: 87ce 1b3c 25e2 94bc 4ce3 06be 4ee2 793e
000002e0: 83f7 cabd d305 58bb 7de7 ba3c 7e93 9ebd
000002f0: 300f 88bd 7e4a 3abd d4ee ea3c 64b1 2abd
00000300: d94e 61bd e497 0b3e 7e87 34bd e72a 0f3d
00000310: b901 60bd f2f7 9ebd 3b4e 43bd 1798 2dbd
00000320: 168b 1f3d 27b7 093d 110e a83c d791 06be
00000330: 26db d53c 7e68 f6bd 1a65 093c 2f0e 333a
00000340: fb56 56bc 06d3 853d ef40 563c 2117 c4ba
00000350: 0392 603d 4132 f63c 822d 0f3d c3d0 6bbe
00000360: cf63 ceba b07e 0abe 4606 96bc f408 debd
00000370: e013 ff3d 36dd c9bc 2510 db3c dd1a aebd
00000380: 6ef8 903d 2f8e 2a3c 7998 de3d e99b 683d
00000390: ac1a 01bd 32fc c13d 172f f03c bd1a 833d
000003a0: 5dc3 05bc 4bbc 123c be10 17bd 3f4c 053d
000003b0: 20b4 99bd 01d1 50be cb8c 233e 353b efbd
000003c0: 7b6d e5bc a51e babd 45e1 a9bd 4604 22be
000003d0: f797 a2bd 9c6b a63d 5924 84bd 68f1 fe3d
000003e0: 6219 283d e376 c8be d888 11bd 615e 83bd
000003f0: 35de 12be fc1e 03be 2e1e 0bbe 0ef6 6bbd

bias f4 [32]
-0.016650515 -0.003940542 -0.018403133 -0.0027592992 0.028156413 -0.033849 -0.023632733 0.0030629633
-0.037977718 0.044490796 -0.022530332 0.05175008 -0.0034227849 0.054043535 -0.013398663 -0.028740967
0.028294023 0.038788717 -0.04500288 -0.008027995 0.008992261 -0.033908684 0.0518247 0.019957121
-0.016896848 -0.009833827 0.0083103785 -0.048532005 0.012082174 0.041563544 0.03452237 0.04042189
00000000: a966 88bc aa1f 81bb 2bc2 96bc 5cd5 34bb
00000010: 47a8 e63c 40a5 0abd 6f99 c1bc ffbb 483b
00000020: 868e 1bbd fb3b 363d 8891 b8bc e4f7 533d
00000030: cd50 60bb c15c 5d3d 1186 5bbc 2d72 ebbc
00000040: dec8 e73c ebe0 1e3d f154 38bd da87 03bc
00000050: 4754 133c d5e3 0abd 2346 543d 1e7d a33c
00000060: 426b 8abc 0f1e 21bc 4128 083c 7fc9 46bd
00000070: 50f4 453c 893e 2a3d 5467 0d3d 6c91 253d

weight f4 [32, 32, 11]
-0.025531951 0.030379899 0.03264995 -0.022995684 0.033346966 -0.021286769 -0.012685358 0.05388734
0.059455015 0.027418705 0.025524676 0.01827643 0.0037502074 0.018786825 0.021913072 -0.0072833393
0.049518656 -0.0038478822 0.006424542 0.02407751 0.08773819 0.008591607 0.043983206 -0.006088125
0.070323095 0.011990996 0.08460084 -0.011698667 -0.019839888 0.10565284 -0.008839319 -0.025907962
-0.008823541 0.00920706 0.030125964 0.041175764 0.014214896 0.04539941 0.025326176 -0.020091854
-0.0074950512 -0.06363743 0.07209739 -0.011002912 0.00045579497 0.05146319 -0.020141978 0.0010667347
-0.02807282 0.01506632 0.061943214 0.013821987 -0.027931891 0.0014393614 -0.006327833 -0.012711097
-0.053224795 0.004409474 0.006911902 0.017998941 -0.0006684853 -0.0023592594 0.09672574 0.0039977003
-0.0007377631 -0.008357148 0.012429819 0.03121139 0.020720795 -0.012448714 -0.035041105 -0.023070391
0.046026956 0.0364808 0.02007585 0.053375255 0.071212076 0.018805696 0.02254635 0.027294582
-0.046441115 -0.021160062 0.014601299 0.047232114 -0.0024953901 0.014132103 0.008208334 -0.002995885
0.095940426 0.023786353 -0.016446242 0.014232009 0.035305854 0.037680753 0.061927766 0.02376368
0.007159773 0.036265563 -0.023571094 0.035580315 0.01669274 -0.008637093 -0.046402786 -0.027633162
0.027465446 0.007773261 0.021659316 0.031812575 0.032577246 -0.052502804 -0.018956084 0.0132155465
-0.014119114 0.065781794 0.06470294 -0.008528098 -0.03950068 -0.03343708 0.044597957 -0.026471118
0.046126794 0.062077 -0.05885783 0.0012469508 0.0026557003 0.032820888 -0.022874715 0.06659702
-0.01956569 -0.0044606277 0.012435295 0.007630886 0.025641782 0.060062263 0.033970006 0.041243467
0.076259844 0.010849555 0.032725934 0.04529271 -0.0015906735 0.060045812 -0.023092665 -0.018518653
0.05327676 0.05216516 -0.012052045 0.010376878 -0.031531982 -0.004659313 0.006758767 -0.051590495
0.0256849 0.050151862 -0.03210369 -0.0049824514 0.0374692 -0.0032366933 -0.020838693 0.023532994
0.03689285 0.046309605 -3.425094e-06 0.01670362 0.0011284291 -0.017560862 0.022871632 -0.018718502
-0.025175905 0.055023495 0.090407096 0.0025157223 0.026513603 0.0931741 0.047219176 0.014146864
0.02619989 -0.03158854 0.05821152 0.026662959 -0.016582921 0.023679053 -0.05560498 -0.043809127
-0.01288626 0.02701469 -0.052833684 -0.0020444917 0.035827015 0.047069125 0.0014739583 0.0061394908
-0.025893077 0.06558705 0.059970375 -0.006754297 0.030581014 0.013227708 0.052168127 -0.03896727
-0.04447145 0.033023205 -0.03506182 0.000120577126 0.048196703 -0.009705561 0.039414376 -0.005880978
-0.022549327 -0.0324568 0.040475145 0.0514597 -0.021444505 -0.014762347 -0.00038214095 0.013365282
-0.026220951 0.063245185 0.07575771 -0.0025118405 0.04913764 0.045503616 -0.019662395 0.018493012
0.027786938 0.047338564 0.0370405 -0.04852454 0.026574839 0.0025366107 0.006015604 -0.051999193
0.05407449 0.028093632 -0.048504286 -0.07804107 -0.029440396 -0.032748256 0.030766943 0.026030207
0.002077309 0.009925339 0.044710256 0.023819905 0.0073487232 0.01121461 -0.030826317 -0.027740791
0.017438805 0.0005780874 0.084546916 0.0130812805 0.03260435 -0.011472266 0.010014285 0.02267879
00000000: 6228 d1bc 44df f83c f4bb 053d 7261 bcbc
00000010: d496 083d 9761 aebc 3fd6 4fbc f9b8 5c3d
00000020: 1a87 733d 319d e03c 2019 d13c 74b8 953c
00000030: 0ac6 753b d4e6 993c 0b83 b33c 14a9 eebb
00000040: 13d4 4a3d c02c 7cbb f784 d23b 333e c53c
00000050: 15b0 b33d d0c3 0c3c bc27 343d e57e c7bb
00000060: 8e05 903d e275 443c 3543 ad3d c4ab 3fbc
00000070: 4387 a2bc 8460 d83d cbd2 10bc ef3c d4bc
00000080: 9d90 10bc 35d9 163c baca f63c eba7 283d
00000090: 98e5 683c bbf4 393d d778 cf3c ac97 a4bc
000000a0: 0c99 f5bb 5754 82bd cca7 933d 8f45 34bc
000000b0: c4f7 ee39 11cb 523d ca00 a5bc add1 8b3a
000000c0: f8f8 e5bc bad8 763c 2bb8 7d3d 9e75 623c
000000d0: 6cd1 e4bc f4a8 bc3a b659 cfbb 3442 50bc
000000e0: 3e02 5abd 597d 903b 3d7d e23b 8472 933c
000000f0: 4a3d 2fba ce9d 1abb 2518 c63d 24ff 823b
00000100: 7266 41ba 6bec 08bc 71a6 4b3c 07af ff3c
00000110: a8be a93c b1f5 4bbc 4387 0fbd 1efe bcbc
00000120: c386 3c3d e46c 153d 1c76 a43c 03a0 5a3d
00000130: a3d7 913d 670e 9a3c 1fb3 b83c e398 df3c
00000140: 0a39 3ebd de57 adbc 493a 6f3c 7676 413d
00000150: b389 23bb 568a 673c 407c 063c 9c56 44bb
00000160: 6a7c c43d 99db c23c 45ba 86bc 5f2d 693c
00000170: df9c 103d 2257 1a3d f8a7 7d3d 0dac c23c
00000180: 879c ea3b 338b 143d 2b18 c1bc aabc 113d
00000190: 37bf 883c 9882 0dbc d910 3ebd f15e e2bc
000001a0: 37ff e03c d7b6 fe3b e16e b13c e74d 023d
000001b0: b86f 053d 2e0d 57bd ca49 9bbc 0586 583c
000001c0: db53 67bc 9bb8 863d fa82 843d 70b9 0bbc
000001d0: 77cb 21bd 52f5 08bd 59ac 363d f5d9 d8bc
000001e0: 73ef 3c3d 7444 7e3d e814 71bd ba70 a33a
000001f0: 420b 2e3b 326f 063d c163 bbbc 0564 883d
00000200: 3a48 a0bc 752a 92bb 68bd 4b3c 830c fa3b
00000210: b70e d23c d903 763d 2224 0b3d e9ee 283d
00000220: 1f2e 9c3d 55c2 313c a10b 063d d984 393d
00000230: 257e d0ba 99f2 753d d42c bdbc 6eb4 97bc
00000240: bb38 5a3d 23ab 553d f175 45bc c803 2a3c
00000250: ae27 01bd 26ad 98bb a678 dd3b 8e50 53bd
00000260: 2469 d23c 0a6c 4d3d 297f 03bd d543 a3bb
00000270: 4e79 193d b41e 54bb e8b5 aabc 44c8 c03c
00000280: f51c 173d 24af 3d3d abda 65b6 08d6 883c
00000290: cce7 933a ccdb 8fbc 4a5d bb3c 8b57 99bc
000002a0: b33d cebc 5160 613d 5b27 b93d d1de 243b
000002b0: 0e33 d93c 10d2 be3d e568 413d 40c8 673c
000002c0: 27a1 d63c fc62 01bd 346f 6e3d 476c da3c
000002d0: e8d8 87bc 93fa c13c 0cc2 63bd 3371 33bd
000002e0: e420 53bc e94d dd3c 2268 58bd e1fc 05bb
000002f0: 59bf 123d 8ecb 403d d531 c13a c82d c93b
00000300: b81d d4bc 8152 863d 7fa3 753d 2653 ddbb
00000310: 0985 fa3c 07b9 583c 3fae 553d 259c 1fbd
00000320: b227 36bd 5743 073d fc9c 0fbd 5ade fc38
00000330: e869 453d 1304 1fbc f870 213d 38b5 c0bb
00000340: 5eb9 b8bc 6cf1 04bd 44c9 253d 68c7 523d
00000350: 63ac afbc c5dd 71bc 175a c8b9 0efa 5a3c
00000360: 52cd d6bc b186 813d dc26 9b3d b19d 24bb
00000370: 8d44 493d 0062 3a3d 0813 a1bc a87e 973c
00000380: 6fa1 e33c 15e6 413d c8b7 173d abc1 46bd
00000390: 7ab3 d93c 443d 263b 8b1e c53b 1bfd 54bd
000003a0: 367d 5d3d 9e24 e63c 6eac 46bd ffd3 9fbd
000003b0: fc2c f1bc 0923 06bd f50a fc3c 4d3d d53c
000003c0: 7623 083b e49d 223c 1a22 373d f621 c33c
000003d0: 8fcd f03b 7cbd 373c 7987 fcbc a840 e3bc
000003e0: d3db 8e3c ca8a 173a ef26 ad3d de52 563c
000003f0: 248c 053d 2cf6 3bbc f512 243c dfc8 b93c

bias f4 [32]
0.038639348 0.010553905 0.059132047 -0.0014121453 0.015046744 -0.03378111 -0.032204766 0.018441884
0.0021532432 -0.038127977 0.060372733 0.041672673 0.047230843 -0.031055273 0.030069735 0.040077828
-0.1992127 -0.018813066 0.022833692 0.0195584 -0.002033113 0.050351255 0.010454627 -0.057535157
-0.054814316 -0.038829036 -0.04277364 -0.037203614 0.036193874 -0.022392241 0.0056507345 0.0051930286
00000000: 4b44 1e3d 49ea 2c3c 7234 723d bc17 b9ba
00000010: 9e86 763c 105e 0abd 25e9 03bd 6f13 973c
00000020: 6d1d 0d3b 152c 1cbd 6649 773d f7b0 2a3d
00000030: 2175 413d a167 febc ce54 f63c a628 243d
00000040: 6afe 4bbe dc1d 9abc b90d bb3c f038 a03c
00000050: fa3d 05bb 1e3d 4e3d e249 2b3c fca9 6bbd
00000060: fa84 60bd 320b 1fbd 6a33 2fbd d162 18bd
00000070: 0740 143d ef6f b7bc cc29 b93b 482a aa3b

weight f4 [32]
0.92576224 0.9313172 0.9003869 1.0232933 0.91126287 0.8416433 0.9296357 1.1038288
1.0954161 0.91504973 1.0466269 1.0125936 0.97118044 1.0818036 1.0007896 1.011935
1.153244 0.88321084 0.8935726 1.3857232 0.91838783 1.1702361 0.98979884 0.8764386
1.0456417 0.87623674 0.9170827 0.9270777 0.96832067 0.98438513 0.9828044 1.1092898
00000000: c1fe 6c3f ce6a 6e3f c27f 663f 46fb 823f
00000010: 8648 693f ef75 573f 9bfc 6d3f 434a 8d3f
00000020: 9836 8c3f b340 6a3f dff7 853f ab9c 813f
00000030: 489f 783f 8a78 8a3f e019 803f 1687 813f
00000040: 809d 933f 1b1a 623f 2dc1 643f 615f b13f
00000050: 771b 6b3f 4cca 953f 7563 7d3f 485e 603f
00000060: 96d7 853f 0d51 603f efc5 6a3f f754 6d3f
00000070: dde3 773f aa00 7c3f 1299 7b3f 35fd 8d3f

bias f4 [32]
-0.25899166 -0.05409215 -0.18614635 -0.25752684 -0.06346378 -0.37836418 -0.1590364 -0.099731006
-0.2707278 -0.017895022 -0.268696 -0.279009 -0.17217271 -0.13707942 -0.17327882 -0.0057374807
-0.22424968 -0.036000658 -0.15704148 -0.13521619 -0.03666881 -0.23712347 -0.13626225 -0.10899703
-0.17015295 -0.1731365 -0.09181861 -0.14097433 -0.1795775 -0.07710767 -0.106826216 -0.0627016
00000000: 8e9a 84be bb8f 5dbd 269d 3ebe 8fda 83be
00000010: 4cf9 81bd f3b8 c1be 70da 22be c53f ccbd
00000020: d69c 8abe 9598 92bc 8692 89be 45da 8ebe
00000030: 0b4e 30be 8c5e 0cbe 0170 31be 7a01 bcbb
00000040: b5a1 65be 6d75 13bd 7bcf 20be 1d76 0abe
00000050: 0932 16bd 7fd0 72be 5588 0bbe d639 dfbd
00000060: 933c 2ebe b24a 31be 650b bcbd 935b 10be
00000070: 2ae3 37be a0ea 9dbd b4c7 dabd b269 80bd

running_mean f4 [32]
1.7104962 -0.43009987 0.53406507 0.7343602 1.3642107 -0.13477041 -0.17621197 0.35105956
-0.24165958 1.2739158 0.8059565 0.1631293 0.72130007 -0.16267668 -0.6387489 1.7306004
-0.72299975 -0.15661241 -0.9576162 0.9151598 0.3022208 0.3010631 -0.5759416 -0.21166736
-0.2605611 0.440749 -1.8330488 -0.054566022 0.7344173 -1.1815809 0.93080896 -0.050600167
00000000: 8af1 da3f 0d36 dcbe 7db8 083f 08ff 3b3f
00000010: 759e ae3f 4101 0abe e970 34be 14be b33e
00000020: 9c75 77be ac0f a33f 2a53 4e3f 5e0b 273e
00000030: 1fa7 383f b794 26be 0c85 23bf 5084 dd3f
00000040: 8316 39bf 015f 20be 5626 75bf ea47 6a3f
00000050: afbc 9a3e f124 9a3e e970 13bf 54bf 58be
00000060: 4468 85be daa9 e13e 58a1 eabf 9f80 5fbd
00000070: c602 3c3f 0b3e 97bf 7f49 6e3f 1f42 4fbd

running_var f4 [32]
0.2812701 0.27617308 0.14007206 0.20362878 0.17749673 0.26382867 0.22066651 0.73266524
0.35576367 0.30419922 0.23825392 0.44081992 0.45139945 0.9118588 0.31490523 0.62231416
0.7284567 0.25318173 0.2568094 0.71264154 0.2844795 0.65401083 0.4632554 0.2174897
0.4950094 0.27919102 0.39352435 0.33745724 0.36760834 0.24765344 0.32696807 0.8098533
00000000: a202 903e 8f66 8d3e 0d6f 0f3e 1084 503e
00000010: b4c1 353e 8d14 873e 67f6 613e f38f 3b3f
00000020: a826 b63e 00c0 9b3e d6f8 733e 26b3 e13e
00000030: d41d e73e 946f 693f 423b a13e fb4f 1f3f
00000040: 237c 3a3f 09a1 813e 867c 833e ad6f 363f
00000050: 4ca7 913e 416d 273f d02f ed3e 9fb5 5e3e
00000060: df71 fd3e 20f2 8e3e 067c c93e 32c7 ac3e
00000070: 2937 bc3e dd98 7d3e 5c68 a73e 8c52 4f3f

weight f4 [32]
0.9729134 1.0053525 0.9757119 0.9569685 0.95998234 0.97471094 0.9435015 0.94680685
0.98015445 0.967223 0.9534737 0.9510138 0.95917434 0.9341333 0.94870615 0.9963018
0.9200852 0.9576389 0.9004522 0.89276016 0.95569277 1.0480746 0.97044986 0.9377012
0.96068424 0.8804701 0.9487546 0.9519311 0.97804385 0.7887788 0.977578 0.9740832
00000000: da10 793f 64af 803f 41c8 793f e3fb 743f
00000010: 67c1 753f a886 793f 5089 713f ef61 723f
00000020: 67eb 7a3f ed9b 773f da16 743f a475 733f
00000030: 738c 753f 5c23 6f3f 68de 723f a20d 7f3f
00000040: b48a 6b3f d327 753f 0984 663f ee8b 643f
00000050: 48a8 743f 4f27 863f 676f 783f 300d 703f
00000060: 67ef 753f 7d66 613f 95e1 723f c2b1 733f
00000070: 1561 7a3f 68ed 493f 8d42 7a3f 845d 793f

bias f4 [32]
-0.047490288 -0.029767234 -0.103173696 -0.019057643 -0.036817823 -0.033887424 -0.055330005 -0.018476851
-0.03085544 -0.0606475 -0.03140397 -0.121378146 -0.03415095 -0.13532352 -0.07571385 -0.008008111
-0.08980709 -0.047597226 -0.1258791 -0.07524229 -0.11242802 -0.1545723 -0.090276405 -0.07351757
-0.14696106 -0.11096988 -0.09041663 -0.08470811 -0.05250781 -0.07701548 -0.020505862 -0.091446206
00000000: 2d85 42bd 6ada f3bc bb4c d3bd c61e 9cbc
00000010: 49ce 16bd 8acd 0abd b7a1 62bd c45c 97bc
00000020: 8cc4 fcbc 8369 78bd 73a1 00bd 1b95 f8bd
00000030: dee1 0bbd 4092 0abe dd0f 9bbd 7434 03bc
00000040: c8ec b7bd 4ff5 42bd 73e6 00be a118 9abd
00000050: a940 e6bd 3348 1ebe d6e2 b8bd 6190 96bd
00000060: f67c 16be 2d44 e3bd 5b2c b9bd 727b adbd
00000070: 6e12 57bd 4bba 9dbd e9fb a7bc 2648 bbbd

running_mean f4 [32]
-1.135692 -0.7557528 0.3428746 -1.8439201 -1.043332 -1.69134 0.2008108 -0.2738971
-1.8295311 -0.5605093 -1.0917331 -0.33705834 -2.0671628 -0.7236208 0.16355005 -0.49058485
-0.46254218 -0.85796213 -0.3001995 0.1891087 -0.9193574 -1.0646623 -0.7669502 0.042432804
-0.96373504 -0.24398804 0.6608713 -1.6003945 -0.28799528 0.25531724 -0.7401128 -0.42171928
00000000: 5b5e 91bf 0479 41bf 428d af3e 9305 ecbf
00000010: e78b 85bf d47d d8bf 59a1 4d3e 3e3c 8cbe
00000020: 132e eabf 8a7d 0fbf e9bd 8bbf e992 acbe
00000030: 654c 04c0 363f 39bf aa79 273e f02d fbbe
00000040: 54d2 ecbe 68a3 5bbf c0b3 99be b6a5 413e
00000050: 025b 6bbf db46 88bf d956 44bf 05ce 2d3d
00000060: 57b7 76bf 00d8 79be dd2e 293f bad9 ccbf
00000070: 1e74 93be f1b8 823e 0878 3dbf 97eb d7be

running_var f4 [32]
0.9546726 1.7761312 1.4189662 1.1489751 1.1026171 1.2584735 1.5047418 1.4196439
1.559315 0.90307516 1.1504825 2.0460844 1.3014613 1.063763 1.0725156 1.6816118
1.5353605 0.9118641 1.1247493 0.7150745 1.4431691 1.1959604 1.5593617 1.2338657
1.0938832 1.6889052 1.5664732 1.1338674 1.047107 0.5597544 1.0639714 1.3921834
00000000: 6c65 743f 4458 e33f afa0 b53f 9e11 933f
00000010: 8f22 8d3f a915 a13f 619b c03f e4b6 b53f
00000020: a297 c73f ef2f 673f 0343 933f 0cf3 0240
00000030: 4996 a63f 6329 883f 3148 893f 0e3f d73f
00000040: b186 c43f ed6f 693f c9f7 8f3f 1f0f 373f
00000050: c4b9 b83f 3b15 993f 2a99 c73f 50ef 9d3f
00000060: 5d04 8c3f 0c2e d83f 3282 c83f 9122 913f
00000070: 9a07 863f 104c 0f3f 3730 883f 1133 b23f

weight f4 [32, 32, 11]
0.045560483 0.0070915874 -0.08089347 -0.08296085 0.02593805 -0.10947106 -0.024287837 -0.14219676
0.001627612 -0.05385213 -0.17671022 -0.048204105 0.124806255 -0.057522874 0.007893413 0.014533614
-0.036318127 -0.01909645 0.040005114 0.013995956 0.007708074 -0.019195445 0.117171444 -0.014992667
-0.0075581595 0.0050712735 -0.060735308 0.05644366 -0.008980036 -0.03987414 0.07743824 -0.066284046
0.008772686 0.0823317 0.0096525345 0.05122132 0.017118676 -0.011922964 -0.031305507 -0.104645304
-0.09533422 -0.0392591 0.01372998 -0.09569959 0.033150725 0.07481572 -0.053802308 -0.17228441
0.08038986 0.025312161 -0.016250582 0.051393554 -0.07928515 0.051516905 -0.036856275 0.03274222
0.022543812 0.026928931 -0.021491854 -0.054560088 -0.03237045 -0.047347922 -0.016924236 0.004866571
-0.036313463 0.022140196 -0.012689226 -0.06969626 0.028092971 -0.1362508 -0.014844097 -0.16060102
-0.0319341 0.0457245 -0.04821405 0.0115982145 0.088568605 -0.07318256 -0.18837677 0.05508357
-0.028214386 -0.104146734 0.06062728 0.0791195 -0.03361341 0.022568556 0.0026249501 0.04262491
0.15008855 -0.015485272 -0.06457928 0.053865887 0.050412886 -0.036590192 0.002547337 -0.029782692
0.05823374 -0.087941535 -0.0064756554 0.111170284 0.03415911 0.013274261 0.023293678 -0.012211685
0.00015867913 0.013243019 0.030489055 -0.022441827 -0.048108853 0.0442526 0.0011199209 0.078891344
0.109411806 0.106593624 -0.03588365 -0.09112979 -0.06651872 -0.07809431 -0.008502666 -0.09862435
0.0053083817 -0.043184664 -0.09917926 0.06233364 -0.13035232 -0.09942515 0.008676181 -0.03212721
-0.007962503 0.06650369 0.0135181965 -0.01142364 0.042476967 -0.07517604 0.013535222 0.07808013
0.06348059 0.012100325 -0.01761827 0.01187844 -0.016100712 -0.0779932 0.04659293 0.11964893
0.120776266 0.07787355 -0.14706026 0.0022600952 -0.0021389946 0.043904778 0.03230497 -0.19763145
0.06730603 -0.09445499 -0.020237941 0.06828799 0.100681745 -0.07155891 -0.016022503 -0.026298543
0.055024207 0.09350562 0.07504541 0.011949363 0.02228548 -0.10343824 -0.0547679 0.08355685
-0.05110259 0.052430738 0.0017010925 0.08222796 0.08826335 -0.08585036 0.022699716 -0.105434276
0.0024058882 -0.025100552 0.12715757 0.07442188 -0.017664747 0.0741104 0.047537807 -0.04228277
-0.043212507 0.012459685 0.06815437 -0.02822656 0.13354333 0.02674777 -0.067950696 0.029834524
0.0053431 0.0035483602 0.020027263 0.030364856 0.03404186 -0.034759805 -0.055400636 0.051247157
-0.03302376 -0.052205134 0.018077146 -0.0024605866 -0.034073118 0.041333787 0.008067797 0.0128663285
0.015578953 0.04790033 -0.058324873 -0.13327049 0.06866145 0.045975104 -0.07753309 -0.09826382
0.06129293 -0.027660139 -0.07497246 -0.013896931 -0.11039305 0.06028729 0.036506724 -0.055708908
0.005663573 -0.07625572 -0.05361065 -0.15428904 0.032125674 -0.07101839 -0.036559213 -0.14761998
0.28881657 -0.022781758 -0.11918886 0.13945723 -0.0004790734 -0.06566947 -0.08485359 -0.0800073
-0.05301358 -0.14863153 -0.13935418 -0.14863284 0.0321941 -0.040514007 -0.06522911 -0.02787905
0.008507595 0.033304475 -0.054620024 0.10364907 0.037136097 -0.06613587 0.071165785 0.047359142
00000000: a19d 3a3d 8c60 e83b 7aab a5bd 61e7 a9bd
00000010: 097c d43c 5d32 e0bd 49f7 c6bc 079c 11be
00000020: 9955 d53a 0d94 5cbd 86f3 34be ab71 45bd
00000030: 6c9a ff3d 1b9d 6bbd 6053 013c 651e 6e3c
00000040: 51c2 14bd 2970 9cbc 67dc 233d 4b4f 653c
00000050: 0394 fc3b c43f 9dbc 95f7 ef3d cea3 75bc
00000060: 70aa f7bb ed2c a63b 96c5 78bd 7831 673d
00000070: 0021 13bc 1153 23bd f197 9e3d eebf 87bd
00000080: 50bb 0f3c 869d a83d aa25 1e3c 72cd 513d
00000090: 773c 8c3c 8958 43bc 343a 00bd 4750 d6bd
000000a0: 963e c3bd 26ce 20bd b6f3 603c 26fe c3bd
000000b0: 0ec9 073d fc38 993d cf5f 5cbd 536b 30be
000000c0: 70a3 a43d 735b cf3c f11f 85bc 0c82 523d
000000d0: 4160 a2bd 6403 533d 9bf6 16bd b51c 063d
000000e0: cdad b83c 109a dc3c af0f b0bc 667a 5fbd
000000f0: e196 04bd e5ef 41bd b2a4 8abc c277 9f3b
00000100: 6dbd 14bd 5b5f b53c 79e6 4fbc eabc 8ebd
00000110: 3b23 e63c 5485 0bbe a834 73bc 9874 24be
00000120: 55cd 02bd 9d49 3b3d 187c 45bd 7006 3e3c
00000130: 7563 b53d bde0 95bd d7e5 40be 4f9f 613d
00000140: db21 e7bc e24a d5bd 5054 783d 6809 a23d
00000150: 37ae 09bd b1e1 b83c 5b07 2c3b 7597 2e3d
00000160: d0b0 193e f0b5 7dbc 2442 84bd 7aa2 5c3d
00000170: be7d 4e3d 99df 15bd 39f1 263b d5fa f3bc
00000180: 8186 6e3d b11a b4bd bc31 d4bb 3fad e33d
00000190: 6cea 0b3d 497c 593c 62d2 be3c 8513 48bc
000001a0: 1b63 2639 3ff9 583c 2fc4 f93c ecd7 b7bc
000001b0: ca0d 45bd 3742 353d 4fca 923a c991 a13d
000001c0: 4c13 e03d c24d da3d bcfa 12bd 41a2 babd
000001d0: f73a 88bd e9ef 9fbd c44e 0bbc 90fb c9bd
000001e0: eff1 ad3b 67e2 30bd 7f1e cbbd 8f51 7f3d
000001f0: 147b 05be 6a9f cbbd 8a26 0e3c d297 03bd
00000200: 2875 02bc 1633 883d 6d7b 5d3c 382a 3bbc
00000210: 54fc 2d3d e5f5 99bd d6c2 5d3c 7ae8 9f3d
00000220: 1d02 823d 7140 463c 3154 90bc ca9d 423c
00000230: a4e5 83bc e6ba 9fbd 3ad8 3e3d 800a f53d
00000240: 8c59 f73d 2b7c 9f3d f796 16be 1b1e 143b
00000250: 602e 0cbb 7fd5 333d 3752 043d e65f 4abe
00000260: bed7 893d 9e71 c1bd 0aca a5bc 93da 8b3d
00000270: 3b32 ce3d 7a8d 92bd a041 83bc 0b70 d7bc
00000280: 1061 613d e07f bf3d 68b1 993d 43c7 433c
00000290: 0a90 b63c 6ed7 d3bd 4e54 60bd db1f ab3d
000002a0: f350 51bd 9dc1 563d 31f7 de3a 2267 a83d
000002b0: 6ac3 b43d 50d2 afbd c1f4 b93c eded d7bd
000002c0: 1bac 1d3b ac9f cdbc 9835 023e 806a 983d
000002d0: a9b5 90bc 32c7 973d 01b7 423d b330 2dbd
000002e0: 99ff 30bd b523 4c3c 8594 8b3d 633b e7bc
000002f0: 95bf 083e 241e db3c bc29 8bbd 8867 f43c
00000300: 2c15 af3b 9b8b 683b 3710 a43c b8bf f83c
00000310: 7a6f 0b3d 4c60 0ebd c7eb 62bd 8ae8 513d
00000320: ec43 07bd 0dd5 55bd 8616 943c cb41 21bb
00000330: 4190 0bbd 9e4d 293d cb2e 043c 4bcd 523c
00000340: dd3e 7f3c 2333 443d 10e6 6ebd 0f78 08be
00000350: 609e 8c3d 6450 3c3d abc9 9ebd 8b3e c9bd
00000360: 4c0e 7b3d 8497 e2bc 298b 99bd f4af 63bc
00000370: c015 e2bd ceef 763d 1388 153d 062f 64bd
00000380: 7e95 b93b f52b 9cbd d796 5bbd f2fd 1dbe
00000390: 3696 033d 1772 91bd 1dbf 15bd b129 17be
000003a0: c4df 933e cfa0 babc 4a19 f4bd e0cd 0e3e
000003b0: 252c fbb9 b77d 86bd b8c7 adbd deda a3bd
000003c0: c524 59bd dd32 18be ddb2 0ebe 3533 18be
000003d0: f6dd 033d 04f2 25bd d796 85bd 9b62 e4bc
000003e0: 7163 0b3c 466a 083d 3fb9 5fbd f745 d43d
000003f0: 051c 183d 3e72 87bd 5ebf 913d a9fb 413d

bias f4 [32]
-0.013613662 0.018885748 0.009145045 -0.015327357 -0.044576414 -0.02006193 -0.025360812 -0.006588395
-0.04664193 -0.020484716 0.044769876 -0.030515123 -0.040105116 0.0041206754 -0.034969375 0.0107304035
0.048742574 -0.03988949 -0.032974973 0.028265126 -0.025551874 0.04360242 -0.04310933 0.00010072289
0.04900236 0.025375186 -0.023410344 0.02985543 -0.0457623 0.05005411 0.011556135 0.042650152
00000000: d60b 5fbc 49b6 9a3c 19d5 153c 981f 7bbc
00000010: c295 36bd eb58 a4bc 7ac1 cfbc 77e3 d7bb
00000020: 9c0b 3fbd 90cf a7bc 9e60 373d dafa f9bc
00000030: 4345 24bd bb06 873b 0c3c 0fbd 93ce 2f3c
00000040: 4ba6 473d 2963 23bd c410 07bd 448c e73c
00000050: 2a52 d1bc 7398 323d 6993 30bd 313b d338
00000060: b3b6 483d 9fdf cf3c 0dc7 bfbc 6093 f43c
00000070: 4071 3bbd 8a05 4d3d f155 3d3c edb1 2e3d
