data/pretrained_models/spliceai-400-0.pt (torch, 796217 bytes, 106 tensors)

weight f4 [32, 4, 1]
00000000: c59f 85ba de39 923e df56 d3be 1e18 cbbe
00000010: e135 59be 8d32 423e 9bac 15bd 84db cf3e
00000020: c027 13be 4bb4 153e 98b0 dcbd 6be4 ccbd
00000030: 7e89 f6be 78fe e8be d29a 7cbe 984f 263e
00000040: fd4f 2d3e 2837 843e e65d ccbe b073 5bbe
00000050: b4c3 063e f640 c03e e802 fdbd e76b e33e
00000060: 7b5a 58be 2edf 793c 3ade 0e3f 8e5a f2be
00000070: 16d4 c9be 87d1 20be 5b19 37be e95f db3e
00000080: a2a6 8abe 7334 3bbe 8ab9 6cbe a707 23bf
00000090: 801f aabe 3408 eb3e 7019 4b3e 063c 973e
000000a0: 30bc bd3b 5b01 b1be e7be 493e c330 febe
000000b0: b2d1 05bf 174e 78be 9d5f c93e a0a6 433e
000000c0: ea13 80be 3bdd 81bd aa2d b53e 77ef 0b3f
000000d0: db92 473e 6a4b 613d 07ff ce3e 154f 95be
000000e0: b2f3 013e 1da6 c4be 8601 c7be 105b 81be
000000f0: c85f 7a3e 395f 573e 8e86 9fbe d260 4d3e
00000100: 6e6d a03e b888 7fbd a09a 7bbd 225b cf3d
00000110: f8a2 903e cfdb e53e b49a f5be 880b aabd
00000120: 72a9 053e 0f6a e63e bc73 d33e 9f5c ec3e
00000130: 19a3 c83d 9492 f7be 3802 9f3d 5d04 d4be
00000140: 44d1 04bf 7636 e73e 8d2f d03e e60d 06bf
00000150: 3d6a c93d d260 2fbe 67a9 0fbe 818b 6ebe
00000160: a901 6c3e 16c1 b5be 3c70 443e ad74 8c3e
00000170: 7760 943e 8898 fc3d 1cf8 0ebf 5544 b5be
00000180: 9a6f 8a3e 9eba cd3d 99a1 efbe 7af5 a3be
00000190: 55c4 083f be9b cd3e 7cb1 89be 2ae0 33be
000001a0: 98b2 00bf c3bc ce3d afc0 debe c7b0 b5be
000001b0: 8e8a d1bc 2de6 083e 094f 74be 83c5 a13e
000001c0: 5108 b8be 46cc c73e 3169 d13e e35c f5be
000001d0: 5794 6dbe 5e49 363c 268f 763d 1e7f 213e
000001e0: 1bb3 5e3e 8ad9 723d e7f6 9fbe bc70 9f3e
000001f0: a7a8 1ebf 5d0a 30be 9490 97bd 1358 4fbe
-0.001019471 0.28559774 -0.41277215 -0.39666837 -0.2121196 0.18964596 -0.036541563 0.40597165
-0.14370632 0.14619558 -0.1077587 -0.10004505 -0.48151773 -0.45506644 -0.24668434 0.162413
0.16925044 0.2582333 -0.3991539 -0.2143085 0.13160592 0.3754956 -0.1235407 0.4441826
-0.21128266 0.015250964 0.5580784 -0.47334713 -0.3941962 -0.15704928 -0.17880766 0.4284661
-0.27080256 -0.18281727 -0.23117653 -0.6368355 -0.33227158 0.45904696 0.19833922 0.29537982
0.005790256 -0.34571347 0.1970173 -0.49646577 -0.52273095 -0.24248539 0.3933076 0.19106531
-0.25015193 -0.063410245 0.353864 0.5466227 0.19489615 0.05500356 0.40428945 -0.29161897
0.12690619 -0.38407984 -0.3886835 -0.25264788 0.244506 0.21032418 -0.31157345 0.20056465
0.31333488 -0.062386245 -0.06142676 0.10124804 0.28249335 0.44894263 -0.47969592 -0.08302981
0.1305292 0.4500279 0.41299236 0.46164414 0.097967334 -0.48354018 0.07764095 -0.4140958
-0.51881814 0.45158738 0.40661278 -0.5236496 0.098347165 -0.17126778 -0.14029466 -0.23295404
0.23047508 -0.35498875 0.19183439 0.27432767 0.28979847 0.123337805 -0.55847335 -0.35403696
0.2703827 0.1004536 -0.46802977 -0.3202322 0.5342458 0.40157884 -0.26893222 -0.1756598
-0.5027251 0.10094597 -0.4350638 -0.35486433 -0.025578763 0.13369055 -0.23858275 0.31596002
-0.35943845 0.39023036 0.40900567 -0.4792243 -0.23201118 0.011125891 0.06019511 0.15771148
0.21748011 0.059289493 -0.3124306 0.31140697 -0.61976093 -0.17191453 -0.07400623 -0.20248441

bias f4 [32]
00000000: 7ea7 24be 4aa6 c7be 4949 09be 5807 ce3d
00000010: a2fb 98be 00f0 c8bc a6b9 993e 6432 3ebd
00000020: 7ba9 0f3d 51e7 cabc 7b58 613d 40a1 9b3e
00000030: c1f8 fe3e 0179 ad3e 7362 023f 8ad8 a63c
00000040: ac8d f0be b100 7ebe db5e b83e 6b4e 1bbd
00000050: 4977 77be 5f92 cebe 80b2 eabe 9f7f e3be
00000060: 135d a7bd 46dc 963e 0821 873e 5795 ecbe
00000070: 7199 a73e d279 cbbe 08cf 86bd f440 4bbe
-0.16079518 -0.38994056 -0.13406862 0.100599945 -0.2987948 -0.024528503 0.3002445 -0.046434775
0.03507374 -0.024768503 0.055016022 0.3039646 0.4979916 0.3388138 0.5093147 0.020366926
-0.46983087 -0.24804951 0.3600987 -0.037916582 -0.24166597 -0.40346047 -0.4583931 -0.44433305
-0.081720494 0.2946493 0.26392388 -0.46207687 0.32734254 -0.3974138 -0.06582457 -0.19848996

weight f4 [32, 32, 1]
00000000: daf7 c0bc be69 adbc 5bb1 16be 97f2 0bbe
00000010: 45c8 87bc ac1d c4bc 8b97 b2bd a552 983d
00000020: 5dac 11be 3cca d3bc b7c0 603e a34c a0bd
00000030: f1fc 143e f916 593d 9555 35be 8710 433d
00000040: c64a cabb af93 9fbd c178 003e 068c e9bd
00000050: 2ab3 2b3d de56 a9bc c607 143e c13d 783d
00000060: f203 ba3d a4e9 253d e79b 28bd 05b8 c9bc
00000070: 9ebb 1cbe fa8f e53d 946b e83d a94c 0e3e
00000080: ce59 dabd 9888 c73c 2c63 dabd 475d a8bd
00000090: ed76 adbd 7aef 1e3d e373 f4bd ba8b 053c
000000a0: 3fe6 dc3c 4b0c c63d 1ea7 cfbd d6f9 0bbe
000000b0: 1d09 f8bd c29d dc3d a787 a8bd ad53 ed3d
000000c0: 779d a63d 215b 1c3d 7eca a0bc aad9 44bc
000000d0: 92ee 353d 2caf b0bc dd05 863c 75c0 263d
000000e0: 22be f6bd 7405 e5bd 54a4 213e 20f5 01be
000000f0: 5e4b d0bc d869 453e b142 823d 3402 c13c
00000100: a66c 3ebe 4108 5f3d 2ee8 24be fecf 9ebd
00000110: a295 b8bd 8fcf 8c3c f8af ac3c bfc9 fd3d
00000120: 11dd 88bc 14a8 1f3e 5403 993d 6bd0 b9bd
00000130: 1fa3 e33d 76fb c6bd 6268 03bd 55ce e83d
00000140: 0f36 fd3c 4d9c df3d ecba cdbc a19c 0cbd
00000150: 251d 013d 555a 50be 2d67 cb3d bf4b 33be
00000160: 9d72 b4bc edb1 293c 42b3 0ebe 4e2b d0bb
00000170: 7994 223e cc1b b3bd 500a bdbd 39a9 d5bd
00000180: 400b 57be ceec 363d cb25 f8bd 01f7 17be
00000190: 36c2 0abe 33bc 1a3e 4089 ed3d 98c7 e63d
000001a0: 3e26 b63c 6538 49bd 7125 c2bd a1d2 9b3d
000001b0: bf06 393e 7d87 a03d 3faa 23bd fc14 53bc
000001c0: c3a8 4bbe f2db 5e3c 1fec 81bd 59e7 4ebe
000001d0: faf0 c33d ad0c 1bbe 8c46 5ebd 360c 973c
000001e0: ac71 b5bc 5740 99bd 1e9b 3abe b3c1 dd3d
000001f0: 460e 3d3d c78e dd3d a33d 40bd faf9 283c
00000200: cbc3 81bd 3ab8 0dbd 9efe 07be eb74 ff3c
00000210: e840 033d 85e3 4d3d 81ce d1bc e5b7 fdbd
00000220: bb0c b33d 1192 dbbd 0535 afbc f20e 39bd
00000230: 2823 65bd 4349 5e3d 00d1 67bd 1727 123e
00000240: fcd2 ca3b ba7e 0ebe e53b 7b3d c131 8e3c
00000250: 1b52 bd3c 5510 62bd 36ef 38be d72a 53bd
00000260: 3db8 3b3d 4ff4 b4bc fc6f 773d a788 bd3d
00000270: fb14 9fbd 3a51 fcbc ff34 e13d c54c b5bc
00000280: 1bf9 adbb e76a 213a 61ff 24be df15 f0bb
00000290: 7b30 d23d e3f5 3f3e af8c f03d c84f e43b
000002a0: 44f9 703d c259 a2bd 7159 40be 0e9b 0dbe
000002b0: 5b0d 4a3e b868 063e 69e6 c3bd 485c 083e
000002c0: a439 e93d 30c9 263e cc55 343e a9b4 e13d
000002d0: a59e 95bd 295d acbd d043 fe3d 3f39 a33d
000002e0: 6643 f9bd a943 3e3e 2e6e 803d e6f7 9c3d
000002f0: 03ed cbbd 97a8 df3c a428 41bd 7e82 e83d
00000300: 0901 8bbd a62b 023d 02c4 01bc 8ec9 393d
00000310: f240 bfbd 4136 0a3e 0241 d4bd 7340 823c
00000320: 1524 27be e8c2 3bbe 291a 2fbe 13a6 253e
00000330: a072 053e 03d0 483e 34ea 433e 005e c6bd
00000340: d768 19be 5a8c 5cbd 2a5c a4bd e76d b13d
00000350: 2d6f 52be 3ed5 f8bd 8cd9 4dbe 6a6f 06be
00000360: c17f f53d 9031 433e b344 913d fd14 d53d
00000370: 5116 2d3e 5bc6 aebd 5fd6 ba3d f416 e83d
00000380: 7e67 013d a0be 1a3e 6fbd 813d ecf8 b23d
00000390: 5ad4 b4bd 8b5c dc3d 7e98 273d f9ba 84bd
000003a0: 6198 00be 7e21 bdbd f7b9 1abe e22d 0f3e
000003b0: 556d 1a3e bd80 933b 9ff6 96bd fb69 2e3e
000003c0: 4c09 b83d 476d 4dbc 0465 72bd 2769 113e
000003d0: 1621 243d 0f0c 23be dfa3 173e e577 de3d
000003e0: 51b6 b6bd 72e1 ff3d 9627 0dbe 988b 55bd
000003f0: dcc1 2a3e b8a6 99bc 6033 04be b485 aebd
-0.023555685 -0.021168586 -0.14716093 -0.1366676 -0.016574988 -0.02393993 -0.08720311 0.07437638
-0.14225908 -0.025853269 0.21948515 -0.07827117 0.14549614 0.053000424 -0.17708428 0.047623184
-0.0061734645 -0.0779184 0.12546064 -0.114036605 0.04191891 -0.020671304 0.1445609 0.060605768
0.09082784 0.04050602 -0.041164305 -0.02462388 -0.15305945 0.11209102 0.11348644 0.13896431
-0.1066166 0.024357125 -0.10663447 -0.08220916 -0.08469949 0.0388026 -0.11936166 0.008150989
0.026965259 0.096703134 -0.10139297 -0.13669524 -0.12111113 0.107722774 -0.08228999 0.115882255
0.08135503 0.038172845 -0.019627806 -0.012014786 0.04441697 -0.021567903 0.016360218 0.040710885
-0.12047984 -0.11182681 0.15785342 -0.12691164 -0.025426563 0.19278657 0.063603766 0.02356062
-0.18596134 0.05445123 -0.16104195 -0.07754515 -0.09012915 0.017188815 0.021080002 0.12391996
-0.016706975 0.1559146 0.07471338 -0.09072956 0.11115097 -0.09715931 -0.03208197 0.1136748
0.030909566 0.10918484 -0.025113545 -0.03432906 0.031521935 -0.20346959 0.099317886 -0.17509364
-0.022027308 0.010357362 -0.13935569 -0.0063528186 0.1587695 -0.08745536 -0.092304826 -0.10432667
-0.21000385 0.04465943 -0.121165834 -0.14840318 -0.13550648 0.15110855 0.11598444 0.11268538
0.022235032 -0.049126048 -0.09479798 0.07608534 0.1806898 0.07838342 -0.03995728 -0.012883421
-0.19888596 0.013602244 -0.06343865 -0.2020544 0.09567447 -0.15141554 -0.054266497 0.01843844
-0.02214893 -0.07482975 -0.18223235 0.10827961 0.04615619 0.10818248 -0.04693378 0.010313505
-0.06336173 -0.03459952 -0.13280722 0.03118368 0.03204432 0.050265808 -0.025611164 -0.12388591
0.087426625 -0.10721219 -0.021387586 -0.04518027 -0.05594173 0.054269087 -0.056595802 0.14272724
0.006189702 -0.1391553 0.061336417 0.017357709 0.02311044 -0.055191357 -0.18060002 -0.051554527
0.04583 -0.022089152 0.06040953 0.0925458 -0.077676736 -0.03080045 0.10996436 -0.022131333
-0.0053092367 0.0006157592 -0.16113044 -0.007326826 0.10263153 0.18746142 0.11745583 0.0069675185
0.05883147 -0.07927276 -0.18784119 -0.1382868 0.19731657 0.13125885 -0.095654316 0.13316453
0.11387947 0.16287684 0.17610854 0.11020786 -0.0730565 -0.084162064 0.12415278 0.07969903
-0.12171058 0.18580498 0.06271015 0.076644704 -0.09957316 0.02730207 -0.0471579 0.113530144
-0.06787307 0.031779908 -0.007920267 0.045358233 -0.09338559 0.13497259 -0.10363962 0.015899872
-0.16322358 -0.1833607 -0.17099823 0.16176634 0.13032007 0.196106 0.1913231 -0.09685898
-0.149814 -0.053844787 -0.080253914 0.0866354 -0.20550223 -0.12150048 -0.20102519 -0.13128439
0.11987258 0.19061875 0.070931815 0.10404394 0.16903044 -0.08533927 0.09122919 0.11332503
0.03159284 0.1511178 0.0633496 0.08738884 -0.08829565 0.10759839 0.040916912 -0.06480975
-0.12558128 -0.09234904 -0.15110002 0.13982347 0.1508077 0.004501431 -0.07371258 0.17032616
0.08986148 -0.012538261 -0.059178367 0.14200269 0.040070616 -0.15922569 0.14808606 0.10862712
-0.08921493 0.12494172 -0.13784632 -0.05213508 0.16675514 -0.018756256 -0.12910223 -0.085215956

bias f4 [32]
00000000: 9824 04be 2112 26be 34dd f13a 05a5 333e
00000010: 3d21 403e b98d 06be b8a7 f53c 4809 043e
00000020: c039 2e3d 18f3 e73d 87ef 2abd 9856 d6bd
00000030: 14d8 0f3e ea3a 51bd 3bdf 743d 0c61 3abd
00000040: f1db 5d3d 515b ff3d 6a47 113e 9c8a fdbd
00000050: b449 f0bd 00da 20bd d580 03be 07c9 513e
00000060: 2725 43bd 0aa6 13be 438c e6bd fcc0 0bbe
00000070: 29ed 273d 399d 3fbe d3b0 48be 6918 5bbe
-0.12904584 -0.16217853 0.0018452764 0.17543419 0.1876268 -0.1314 0.029987201 0.12894166
0.042535543 0.11325663 -0.041732337 -0.10465735 0.14047271 -0.051081575 0.0597832 -0.045502707
0.05416483 0.12468589 0.14187399 -0.12379953 -0.11732808 -0.0392704 -0.12842114 0.20486842
-0.047642853 -0.14418808 -0.112572215 -0.13647836 0.040997658 -0.1871232 -0.19598703 -0.2139603

weight f4 [32]
00000000: 816b 803f 93fb 7a3f 4c75 863f 0fc0 653f
00000010: 04f7 603f f32c 7b3f 2660 ab3f d6ab 813f
00000020: a10d 523f 605b 7b3f 0d7a a43f f9d3 723f
00000030: 2743 523f 9d23 883f 4043 853f d8dc 683f
00000040: 89a5 8a3f e5be 593f 070d 5a3f 14a7 933f
00000050: 8cf4 933f 1355 863f 3ef7 503f 2206 783f
00000060: 75e4 6a3f 1432 5b3f ea6f 643f 8910 793f
00000070: 63c5 7f3f 0d19 523f c6e9 763f 3ec3 633f
1.0032808 0.9804012 1.0504546 0.89746183 0.87876916 0.9811546 1.3388717 1.0130565
0.82052046 0.981863 1.2849747 0.94854695 0.82133716 1.0635868 1.0411148 0.9096198
1.0831767 0.85056907 0.8517613 1.1535363 1.1559005 1.0494713 0.8162726 0.9688436
0.9175485 0.8562329 0.8923327 0.97290856 0.99910563 0.82069474 0.9645046 0.8896979

bias f4 [32]
00000000: c378 363d a73f e63c 54ce 7e3d 8e7b 02be
00000010: 5b1b 3c3c 6889 2d3d 2dca 743d 2187 9c3d
00000020: 27ab 17be 7fec debc de60 3b3e 1613 093c
00000030: e6cd 3abe 238f 5a3d 0079 d1bb e01b bebd
00000040: c67a 2ebb d729 3cbe 9f6a e1bd abba 823e
00000050: b8e1 393d ff50 833d 5f77 6abe 1f5d e73d
00000060: 2b8a 0b3d 5993 01be 3684 a8bd 22bb 0d3d
00000070: 85c6 563d b5aa 3fbe 97cd 84bd e267 aabd
0.04454876 0.028106524 0.06220849 -0.12742445 0.011481131 0.04236737 0.059763122 0.07642961
-0.14811383 -0.02721238 0.1829867 0.008366367 -0.18242607 0.053359162 -0.006392598 -0.092826605
-0.0026623472 -0.18375336 -0.110066645 0.2553304 0.045381278 0.06411933 -0.22897099 0.11297058
0.034067314 -0.12653865 -0.08228342 0.034602292 0.052435417 -0.18717463 -0.06484526 -0.08320595

running_mean f4 [32]
00000000: 89d4 9ebe ce94 97be 3120 4cbe 6a1e fcbd
00000010: bcf4 b0be 4edc 4a3e 9518 533e 5a17 bdbd
00000020: 98c4 a3be d2f8 c83d 7b38 febd 8312 7a3e
00000030: 6b1b 273f e710 ca3e e093 a23e 4599 063e
00000040: d1de bebe ff09 4ebe e425 353f 9532 5cbe
00000050: 6e84 c5be d3fa 01bf aae4 acbe 6f97 0ebf
00000060: 4a43 34be f2c4 d53e d252 66bd b836 c9be
00000070: eb0c 6d3e 5765 cdbe 2bc0 2e3d 5ffe f8be
-0.31021526 -0.29605716 -0.19934155 -0.123104885 -0.34561718 0.19810602 0.20614846 -0.092329696
-0.31985927 0.09813084 -0.124131165 0.24421124 0.6527621 0.3946602 0.31753445 0.13144405
-0.3727937 -0.20121 0.7076094 -0.2150367 -0.38577598 -0.5077335 -0.33768207 -0.5569982
-0.17603794 0.4175182 -0.056231327 -0.3929956 0.23149459 -0.4011638 0.042663734 -0.4863157

running_var f4 [32]
00000000: 4479 9a3d d282 7e3d 82e9 353c 015b 9c3d
00000010: 24c8 833d a0f6 3d3d 99a1 093e 7ebe e13d
00000020: b531 183d 3faf bb3d 10bf 983d d0c9 023e
00000030: 9ec1 e43d ded7 883d 9292 3a3d f178 373d
00000040: 1973 bf3c 0281 da3d 87cc b63c 05e7 8f3d
00000050: 9e9d 593e 62d8 943c 6e3d 623d f183 ea3d
00000060: cada b53d 49a3 f83d d3af 443d b182 273d
00000070: ad7d 243e 6215 c33c ea63 533d 630b 3f3d
0.07542661 0.06213648 0.011103036 0.07634545 0.06434658 0.046377778 0.13440551 0.110226616
0.03715678 0.09164285 0.07458317 0.12772298 0.11169742 0.066817984 0.045549937 0.044793073
0.023370313 0.106691375 0.022314323 0.07026485 0.21251532 0.018169586 0.055234365 0.11450947
0.08879621 0.12140519 0.04801924 0.04089612 0.16063567 0.023813907 0.051608957 0.04664172

weight f4 [32]
00000000: 2c3d 753f 51e3 503f cc3e 533f f143 6a3f
00000010: b4f3 673f fa5b 823f 0997 4d3f bb92 4f3f
00000020: 0a5d 563f c8a2 5c3f b7d6 853f a637 653f
00000030: c0b5 713f 275c 513f 28e3 803f 552c 623f
00000040: d156 943f ef1a 7e3f 0e6e 593f 5902 6c3f
00000050: 698a 583f 581b 583f 137d 453f 144d 683f
00000060: ef12 673f dc1d 593f 5315 703f 8547 7c3f
00000070: 8ba7 7b3f dadc 413f 6e3b 753f 2c1c 873f
0.95796466 0.8159686 0.82517695 0.9150992 0.90606236 1.0184319 0.80308586 0.8108327
0.83735716 0.86185884 1.0456151 0.8953804 0.94417953 0.8178124 1.0069323 0.88348895
1.1588994 0.9925985 0.84933555 0.9219108 0.845862 0.84416723 0.77143973 0.9074261
0.90263265 0.84811187 0.9378254 0.9854663 0.98302525 0.7572762 0.9579381 1.0555472

bias f4 [32]
00000000: bcbd 9ebd a550 65be e62e a8bd 83ad 81be
00000010: 9bab 80be 3df0 8fbd 3439 b9bd 7eb1 1bbe
00000020: a13c 25be d4c3 c5bd a3a0 3fbe 60f1 b7bd
00000030: 92cd a4bd d795 8cbe c3ab 8abe 9200 8ebe
00000040: 75d4 23be a7a4 05be 36f4 ffbd a21d 03be
00000050: 315e 27be 1a0f 92bd 37bf 40be 33fd bbbd
00000060: a14a cfbd fe3f 51bd 9282 a6bd d5a6 dabd
00000070: 1e99 2fbe c3ba 29be a1b6 45be 47c1 49be
-0.07751033 -0.22394045 -0.0821207 -0.2532769 -0.25130925 -0.07028244 -0.09044114 -0.15204427
-0.1613641 -0.09656492 -0.18713622 -0.089815855 -0.08047022 -0.2745807 -0.2708417 -0.2773481
-0.15999015 -0.13051091 -0.124977514 -0.12804273 -0.16344525 -0.07131787 -0.18822943 -0.09179153
-0.10121656 -0.05108642 -0.08130373 -0.10676352 -0.17148253 -0.1657515 -0.19307949 -0.19702636

running_mean f4 [32]
00000000: 835a f33f 5061 b2bf 12cf e23d a4ba 43bf
00000010: 9318 1ebf 8d44 dd3e 88cd 4fbe 4bf6 96bf
00000020: e661 2dbd ec27 24bf b054 e8bf 6b2c 16c0
00000030: 1fdf e8bf 71b1 19c0 4d50 c53e fb8e edbf
00000040: c776 38c0 7723 47bf 14ed d2bf b9ba c9bf
00000050: 45d6 cbbd 1752 81c0 f916 0bc0 a125 9ebf
00000060: eacd 85c0 fed1 a3bf ac54 43c0 15ea a6bf
00000070: 9e30 363e 4eef 13c0 5cab cabf 8faf 00bf
1.9011997 -1.3935947 0.11074652 -0.76456666 -0.6175625 0.43216363 -0.20293248 -1.1793913
-0.04232969 -0.64123416 -1.8150845 -2.346461 -1.8193091 -2.4014552 0.38537827 -1.8559259
-2.8822496 -0.7778849 -1.64786 -1.5760108 -0.09952978 -4.0412707 -2.1732771 -1.2355233
-4.181386 -1.279846 -3.052043 -1.3040186 0.17791983 -2.311481 -1.5833545 -0.5026788

running_var f4 [32]
00000000: 08b0 7840 e0d8 4c40 9a3c 2240 b70b 9940
00000010: 9087 b340 6708 9040 16b7 9e40 a088 6d40
00000020: ad36 4940 4bb9 7a40 7695 aa40 66e4 ca40
00000030: b8aa 6440 4eb1 af40 ac5f b340 c160 8940
00000040: c3de ae40 d6a0 b440 1cd7 1a40 eea7 7140
00000050: 789e 6e40 2bfe 8440 995a f63f f832 3940
00000060: 03df 9c40 5959 2b40 b235 b240 bd8d 5940
00000070: bc39 8540 a497 2740 945e 5340 7cc2 c440
3.885744 3.200737 2.5349488 4.78268 5.610298 4.5010257 4.9598494 3.711464
3.1439621 3.9175594 5.3307447 6.3403807 3.5729198 5.4903936 5.6054287 4.293061
5.4646926 5.6446333 2.4193792 3.7758746 3.7284222 4.1560264 1.9246398 2.893736
4.902223 2.6773283 5.5690546 3.399276 4.1632977 2.6186304 3.3026476 6.148741

weight f4 [32, 32, 11]
00000000: 61f7 bd3c add4 833d 10d6 82bd 538b d83d
00000010: cd22 573d 35e3 ddbc 946a e0bb 73c0 9d3c
00000020: 463b 163c 2ebb f73c 4156 18bc 0de8 463d
00000030: 16b5 833d 0941 1bbe ae1a 123e ba37 05bd
00000040: 45b9 9cbd 7349 593c 7556 643d 954f 40bc
00000050: b7e6 493d 2eae e63c 8f2c 2b3d 966e 5fbd
00000060: 0515 e4bc f4c2 193e 665d 69bd b2d4 93bd
00000070: 0744 7ebc 8bc5 a1bc 3763 9bbc b562 cfbb
00000080: 11fd 943d 4f86 7e3c 44e3 433d 21e3 19bd
00000090: 5a8c ab3d 451c b1bd cc58 78bc defd 173d
000000a0: d1c2 a33d 7ff6 11bd 8832 903d 26aa 6a3d
000000b0: a719 3cbd 18e5 b33c 3389 d83a fe77 7c3c
000000c0: 86b9 8f3d 7d60 f53a 7e39 443c fc0c 863d
000000d0: f9e7 3e3d a698 463d 6c32 cc3b a6fd 603d
000000e0: 641b f1bc 308b 09be 0f58 c43d dfeb c8bd
000000f0: e5c0 4d3c 0388 3b3d 9139 5f3d d836 533d
00000100: 0371 bdbc a2cb 883c c368 5f3d 8e24 d2bc
00000110: 3aae 833e a00d f2bd fac0 13be fb2f 133e
00000120: 2147 d93c 9cd1 d4bc f4fc 083d 1a88 9d3d
00000130: 9d35 073c 8bc4 033d efeb 873c 6469 2abe
00000140: abc6 e73d e7fd 74bd e942 97bc db9e 8aba
00000150: 07c7 043d e4a3 3f3d 75c0 8f3d 1998 7f3d
00000160: 12f7 a5bb dc82 1f3d 2997 ce3c f123 0e3b
00000170: 9f55 96bd 6a31 953c 14c2 833d bc08 85bc
00000180: 82cd 6e3c fb3a 0abd 98d8 183d 9d0f 7f3d
00000190: 318e 65bd 4d86 4abd 0980 0c3e 5ec9 9ebd
000001a0: 0f51 c2bb 1ae2 d73c 9f57 223c 5919 32bd
000001b0: 1506 15bd 538d 823d 4ed9 123c 1bf6 5cbd
000001c0: baf4 2e3e 3652 3dbe a7d3 5a3d 21e0 443d
000001d0: 7e4b 723d 012d 453b f5fc ffbc 5082 33bc
000001e0: bb1f 8d3c e270 bb3b 7ae4 bbbc de05 173e
000001f0: 292d dfbd 02ae ddbd a993 543d 13d8 813d
00000200: 94b8 cbbc 9abd 9abc af4c 4b3d e0e3 17bd
00000210: e83f 8e3c fe1e 803d 75d0 42bd f092 603d
00000220: 824e 09bc 938c 3e3d ef6e 003d f161 923d
00000230: 1856 3dbb f7b5 3abc 2dd1 fe3c 4ba2 233d
00000240: 03c6 9d3c 3aa3 5a3e f5e3 2bbe 2934 663d
00000250: 3a25 bc3d 32f8 523d dc11 c63c ebdd 84bc
00000260: 807c debc c8e5 593d ba36 1cbd 64cc db3d
00000270: 9565 e8bd 9257 4fbd 2009 7b3e fa30 313c
00000280: dcf5 30bc 7e84 e03c 91fa 543d 8123 0b3d
00000290: a2c8 313d 4e57 1bbd bfd0 6b3c 951e ebbd
000002a0: 53f3 003e 64bb a33d bd29 adbc 96d5 a6bb
000002b0: c138 0bbb a10d 383d 6947 913c 51a1 773d
000002c0: 3a32 4a3c 3e96 b03d f765 43bc c2cb 2bbd
000002d0: d129 273e 3f43 25bd fafa da3c 061c c63c
000002e0: a26c e63c 864b f73b 3e2d abbd 9914 dd3c
000002f0: 370a 8f3c 002a f7bc fae7 bb3d c890 4cbb
00000300: e477 81bb a460 01bd 1374 c03c e7bd 68bc
00000310: 057c 1b3d f0ba 6e3d a3aa b33d 8e72 9b3a
00000320: ade4 483d 8b3a e2bb fb2c edbd 800a 983c
00000330: b84b 183d dac4 b8bc cd21 50bd aa9e 3cbc
00000340: 0304 80bc afcc 4d3b a3a0 793d 66f0 0e3e
00000350: 90dd 46be b4df 143e 3cda 2d3d 459d 2f3c
00000360: d977 f93c 3111 2dbc 6048 83bc 1f9f c8bc
00000370: 792d eb3c 51be c0bd 1252 013e 4095 a63d
00000380: b56d 20be d395 a63d 104a 523d 46da d2bc
00000390: cd6d 86bc 965e 593d ae88 953c 7ee1 02bd
000003a0: 4dfb c03d ad93 16be 5f90 07bd 2fa8 a13e
000003b0: d3ff ff3c 16c4 11bd 628b 2a3d 5610 e5bb
000003c0: 26f0 3a3c 0e46 b6bc 7fdd 43bc 89f8 973c
000003d0: f8e7 82bd fd2c bfbc 640d 863c 8d5a 5bbd
000003e0: a787 9d3b 7f0b 28bd 798e 603d 7d36 4a3d
000003f0: 42d8 1b3d 93ec edbc b30a 173d 564c 9bbd
0.023189249 0.06437049 -0.063884854 0.10573449 0.052523423 -0.02708588 -0.0068486426 0.019256806
0.009169405 0.030240621 -0.009297908 0.048561145 0.06431024 -0.15161528 0.1426799 -0.032523848
-0.07652525 0.013262141 0.055746514 -0.011737724 0.049292292 0.028159227 0.04179054 -0.054548822
-0.027842054 0.15015775 -0.056973837 -0.07218303 -0.015519149 -0.019747516 -0.018968208 -0.0063289055
0.07274831 0.015534951 0.04782416 -0.037570123 0.08376379 -0.0864797 -0.01515789 0.03710734
0.07996143 -0.035635468 0.07040888 0.057291172 -0.0459229 0.021959826 0.0016520381 0.015409468
0.07017808 0.0018720772 0.011976598 0.06545445 0.046607945 0.04848542 0.0062315967 0.054929398
-0.029432006 -0.13432002 0.09587108 -0.09810614 0.012558197 0.045784008 0.05449826 0.051565975
-0.023125177 0.016698662 0.054543268 -0.025652196 0.25718862 -0.11819005 -0.14429083 0.14373772
0.026523175 -0.025978856 0.03344436 0.07691975 0.0082525285 0.03216986 0.016591994 -0.16641766
0.1131719 -0.059812453 -0.018464522 -0.0010575907 0.03241637 0.046787158 0.0701913 0.06240091
-0.0050648535 0.038943157 0.025218563 0.0021688903 -0.0734055 0.018212039 0.06433502 -0.016239516
0.014575364 -0.033747654 0.037315935 0.06227075 -0.056043807 -0.049444485 0.13720717 -0.077532515
-0.005930073 0.02635293 0.009908586 -0.043481205 -0.036382753 0.06374612 0.008962942 -0.053945642
0.17085543 -0.18488392 0.053424504 0.04806531 0.059154026 0.003008664 -0.031248549 -0.010956362
0.017227044 0.005720244 -0.022936095 0.14748332 -0.108972855 -0.10824205 0.051898632 0.06340041
-0.024868287 -0.018889237 0.049633678 -0.037082553 0.017364457 0.06255911 -0.04756208 0.05482763
-0.008380534 0.04652078 0.031355795 0.07147587 -0.0028890427 -0.011395923 0.031105602 0.039949697
0.019259458 0.21351328 -0.16786177 0.056202088 0.09186788 0.05150623 0.024178438 -0.0162191
-0.027158976 0.053197652 -0.03813813 0.10732344 -0.113475 -0.050620623 0.245152 0.0108149
-0.010800805 0.027406927 0.05199677 0.033969406 0.04340423 -0.037925057 0.014393031 -0.114804424
0.12592821 0.07994726 -0.021138066 -0.0050913794 -0.0021243545 0.044934873 0.017734246 0.060456578
0.0123410765 0.086224064 -0.011926166 -0.041942365 0.16324545 -0.040347334 0.026731003 0.024183284
0.028127972 0.007546845 -0.08358239 0.02698736 0.017460926 -0.030171394 0.091751054 -0.0031214226
-0.0039510597 -0.031586304 0.023492849 -0.0142054325 0.03796007 0.058283746 0.08772781 0.0011859701
0.049046207 -0.0069039515 -0.11580845 0.018559694 0.037181586 -0.022554804 -0.050813485 -0.011512438
-0.015626913 0.0031402519 0.06094421 0.13958892 -0.19420457 0.14538461 0.042444453 0.010718648
0.030452656 -0.010563181 -0.016025722 -0.024489937 0.028708206 -0.094113 0.12628964 0.08133936
-0.1566685 0.081340455 0.051340163 -0.025738847 -0.016409779 0.05306872 0.01825365 -0.031953327
0.09422932 -0.14704771 -0.033096667 0.31573626 0.031249916 -0.035587393 0.041636832 -0.006990473
0.011409795 -0.022250202 -0.011954664 0.018551128 -0.06391901 -0.023336882 0.016363807 -0.053553153
0.004807431 -0.04102659 0.054823373 0.04936837 0.038048036 -0.029043471 0.036875438 -0.07582919

bias f4 [32]
00000000: 2dbe 743c 70e8 243d 90e5 85bc 2783 303c
00000010: 6946 08bd 9748 37bd cb27 41bc a3a3 2cbd
00000020: b452 943c 8c7d 0e3d 2570 3a3c 7670 4ebd
00000030: df9f b63c df1d 413d ff08 053c cfe1 44bd
00000040: ba79 31bc b057 4e3d 0896 fabc 85c8 30bd
00000050: e123 1f3d c7b8 223d c121 4e3a 2748 473d
00000060: 800c 33bd c5da 0a3d e490 4fbd 9b5b 98bc
00000070: b627 283d eb29 e0bc eee4 23bd 1b94 053c
0.01493792 0.040260732 -0.016344815 0.010773457 -0.033270273 -0.04474696 -0.011789273 -0.042148244
0.018105842 0.0347877 0.011379276 -0.05040022 0.02229303 0.047147628 0.008119821 -0.04806691
-0.0108322445 0.050376594 -0.030589119 -0.04315998 0.038852576 0.039727 0.0007863306 0.048652794
-0.043713093 0.03390004 -0.050675288 -0.018598368 0.041053496 -0.027363738 -0.040013246 0.008152987

weight f4 [32, 32, 11]
00000000: 2120 ba3d 1120 20bd f738 00bd 7785 663d
00000010: 180c 1a3d 4d68 7dbc a99b 4ebc 9574 b93c
00000020: 0734 213d bf88 3ebd c48e b43c 0892 ce3c
00000030: 4126 2a3c 2b50 9b3d 3175 743d f816 813b
00000040: 5ea3 ea3c 848c 52bd 4cf8 a33c 1709 543c
00000050: d4ff ccbc 407d bebc 84f0 04bd 2d4b 4cbd
00000060: cbaa 75bc cb02 7d3d 2a47 cfbc 5228 25bc
00000070: 46f1 0cbb e660 c9bc ce24 563c 0b10 50bd
00000080: b33a 1a3d eb18 08bd 1b02 d2bc ff73 64bc
00000090: 7ced 15bd b3d8 223c c01a 20ba 27d6 943d
000000a0: e469 643d 5577 a73c bc69 8abc d80b 763c
000000b0: 6675 13bd 410c d63c f9d0 973d 5cee 47bd
000000c0: c0c1 d23b d21d 84bc 4101 9d3d d7f6 483d
000000d0: 77ec 5abc 4140 41bd edb6 4a3c 6902 8d3d
000000e0: c337 3dbd c998 0dbd 7299 32bd 3729 83bd
000000f0: f661 54bc 4660 233d f7f6 c4bc 82e0 d93c
00000100: 124e 293d fa62 013d 48cd 2d3d 5855 9f3a
00000110: f814 17bc 73d0 e1bb 64ec d3bc 7434 2d3d
00000120: 70a3 df3c 13f1 fc3c 7883 b23d 98d6 973d
00000130: de64 233c 05ca ecbc e762 bd3c 940f 8b3d
00000140: b7e9 313c 2668 abbd 4c0d 6abd 63c7 4d3d
00000150: 1a84 9abd 7e34 7f3d ab06 e3bc f115 cabc
00000160: 9719 5abd d534 6d3d 0007 583d eba5 20bd
00000170: c03b b83c e9ac 313d 402a bcbc bd54 c63c
00000180: e7b9 443d f738 183b a76b e03b 81fa fe3c
00000190: bdaa 923c 8abf cd3c 0187 2c3d 317b 783d
000001a0: 9c69 a03c 8634 f43c 858f c4bc 395b d9bc
000001b0: f7c6 263d 987d 7abc a3b2 953c 90eb 1bbb
000001c0: bc92 f0bc 14d6 24bc 5e99 a43c bb31 23bd
000001d0: 4248 74bd 0f48 74bd 6e01 8339 7668 a53d
000001e0: 4f10 4d3d 8d53 813d 01c1 633d 7bb2 4e3d
000001f0: 2940 603c 75b9 28bd 65e1 c0bc ef4d 90bd
00000200: cf8e 2a3d 8cd6 b9bb 3365 613d 4a91 ed3c
00000210: 0b3f c13b 9332 463d c3a0 77bc 43eb d23b
00000220: 9897 2c39 3917 59bd a98d 34bd 3f0e c63d
00000230: 59ed d13c db9e 70bb 4f56 0a3d 5d2c 57bb
00000240: 06b1 103d ba7c 70bd f6b5 1cbc e051 83bb
00000250: 326c 003d 1be0 733c 62cd 42bb c7e0 363c
00000260: 84a2 a63c 56ca c93c c328 03bc daae f23b
00000270: 7589 a5bb 9b3a c4bb ef1c cd3c 73f0 713a
00000280: 7750 2f3d 0ca0 df3c 0df8 143d 1ee5 c53c
00000290: 397d 9e3d 97be 373d c8a3 403d 4621 1bbd
000002a0: 87d0 023d 6db1 3dbd c97d c93b 5801 733d
000002b0: 8347 d53c b439 af3c a8cb 6fbd e8c6 9bbd
000002c0: 55ca 103d f352 4b3d d0a3 29bc 276f fd3c
000002d0: 4eed ff3c 5e7a 7cbd b389 963c 1412 71bd
000002e0: 8dc7 7a3d b2f4 5dbd 7a64 4c3d 5e21 1a3d
000002f0: 8bc7 2d3d 45a3 d9bb 7d6f b73a 94d0 b3bc
00000300: d871 5a39 01ca e33d f9e6 4c3d 138d 6a3d
00000310: d986 4dbd 299f 403d ba45 71bd affb 683d
00000320: ac68 71bd 2c04 8ebd 6ee7 2b3d 7991 5f3d
00000330: 97bc f73b 450f 9cbd 28b4 e1bb adff cd3c
00000340: 5bdb 2e3d ca2e b93c 8e5c 80bd cc83 8f3c
00000350: 2a7b 873d 8785 08bd 13ae 563d 41b7 b13d
00000360: 4ad3 253d 55cb 72bd d091 813c 7481 07bd
00000370: 5081 6f3c 2b8f 8f3c 9879 07bc eace 373d
00000380: 2d06 08bd 3b31 133d 333e 45bd 674e dfbc
00000390: 085a 533d 3cf1 bbbb 7444 2fbb e682 453c
000003a0: 89ca c7bb 8808 ae3a 1c01 ac3c 67bf 573d
000003b0: 2c81 a6bc b28b 1fbc a12c 8d3c 31e8 533d
000003c0: cf8f b23d 6a94 a53d 9488 bcbc 32b7 39bd
000003d0: 4b4f 0b3d ce4a f63a 34ae 57bd 812f 86bc
000003e0: 1e44 88bd cceb fabc 35a8 d13c 9556 6d3d
000003f0: 30af 583d 9512 c13b d391 3a3c e7a2 cb3c
0.09088159 -0.03909308 -0.031304326 0.056279626 0.03760919 -0.015466762 -0.012610354 0.022638598
0.039356258 -0.04651713 0.022040732 0.025216118 0.010385097 0.0758365 0.059682075 0.0039395057
0.028642353 -0.051403537 0.020015858 0.01294162 -0.025024332 -0.023253083 -0.032455936 -0.04987638
-0.0149943335 0.06177024 -0.025302488 -0.010080414 -0.0021506115 -0.024582338 0.013070298 -0.05079655
0.037653636 -0.03322689 -0.02563577 -0.013943671 -0.036603436 0.00993936 -0.00061075017 0.07267409
0.055765048 0.020442644 -0.016896121 0.015017472 -0.03600063 0.02612889 0.07412905 -0.0488113
0.006431788 -0.0161275 0.07666255 0.04906353 -0.013362042 -0.047180418 0.0123727145 0.06885225
-0.046195757 -0.034569535 -0.043603368 -0.064043455 -0.012962809 0.039886735 -0.024043543 0.026596311
0.04133422 0.031588532 0.0424321 0.0012156172 -0.009221308 -0.006891304 -0.025869556 0.04228635
0.027299613 0.030876672 0.08716482 0.074139774 0.009972779 -0.028904924 0.02311845 0.06790081
0.010858945 -0.08369474 -0.057141587 0.050238978 -0.075447276 0.06230592 -0.02771314 -0.024668666
-0.05324706 0.057911713 0.05274105 -0.03922073 0.022489429 0.04337779 -0.022969365 0.024210328
0.048028853 0.0023227313 0.0068487707 0.031125309 0.01790368 0.025115747 0.042120937 0.06066436
0.019581608 0.029810201 -0.023994217 -0.026532756 0.04071709 -0.015288733 0.018273657 -0.002379153
-0.029366843 -0.010060806 0.020092662 -0.03984235 -0.059639223 -0.059639033 0.00024987332 0.08076565
0.05006438 0.06314764 0.055603985 0.05046318 0.013687172 -0.04119249 -0.023544976 -0.07046115
0.0416401 -0.005671328 0.05502815 0.028999943 0.005897408 0.048388075 -0.015114012 0.006436737
0.00016459671 -0.053000662 -0.04408041 0.09670686 0.025625871 -0.003671578 0.033773717 -0.003283284
0.035325073 -0.0587127 -0.009564867 -0.004007563 0.031353183 0.014884974 -0.0029724468 0.0111619895
0.020341165 0.024632614 -0.008005324 0.007406098 -0.0050517865 -0.0059884316 0.02503821 0.000922925
0.042801347 0.027297996 0.036369372 0.024157103 0.07738728 0.044859495 0.047031194 -0.03787353
0.03193715 -0.046311785 0.006149028 0.059327453 0.026035076 0.02138982 -0.05854383 -0.07606298
0.03534921 0.049639653 -0.010353997 0.03093679 0.031241085 -0.061640136 0.018376207 -0.05885513
0.061225463 -0.054188438 0.04990051 0.037629478 0.042426627 -0.0066417777 0.0013995018 -0.021950044
0.0002083251 0.111225136 0.05002496 0.057263445 -0.05017743 0.047026787 -0.058904387 0.05688065
-0.058937714 -0.069343895 0.041968755 0.054582093 0.0075603235 -0.076201 -0.0068879314 0.02514633
0.042689662 0.022605319 -0.062676534 0.0175189 0.066152886 -0.033330467 0.052412104 0.08677531
0.040484704 -0.059275944 0.0158166 -0.03308244 0.014618233 0.017524322 -0.008268736 0.044875063
-0.033209015 0.03593562 -0.04815502 -0.027259065 0.051599532 -0.0057355445 -0.0026743682 0.012055134
-0.006097142 0.0013277689 0.020996623 0.05267277 -0.020325266 -0.009737896 0.017233195 0.051735107
0.087188356 0.08084948 -0.023014344 -0.045340724 0.034011167 0.0018790604 -0.052656367 -0.016380074
-0.06653617 -0.030630015 0.025592903 0.0579439 0.052901447 0.0058921077 0.011387306 0.024857951

bias f4 [32]
00000000: 10f6 e8bb 5611 a2bd fe18 cbbc 8147 403d
00000010: 835d 393d 6671 8dbd 68c6 68bd d643 7c3c
00000020: 40da 793b cb20 bb3c 049f 6ebc 4d06 f43b
00000030: 304d 173d 148e 843d e510 683d fcdc afbd
00000040: 64d5 e8bc 5eda 21bd 040e 303c ac27 ee3b
00000050: c232 cb3c a4a8 41ba 8e75 fd3c 6819 86bb
00000060: aca9 f8bc c446 17bc 2c84 a33c d24e f3bc
00000070: becf afbd c796 fa3c c7be a1bc a484 843d
-0.007109411 -0.07913463 -0.02479219 0.04694319 0.045255195 -0.06906395 -0.05682984 0.015397033
0.0038124472 0.022842785 -0.0145642795 0.00744704 0.036938846 0.06472412 0.056656737 -0.08587071
-0.028422065 -0.03951489 0.010745529 0.007267913 0.024804477 -0.0007387495 0.030939844 -0.004092384
-0.030354343 -0.00923318 0.019960485 -0.02970067 -0.085845456 0.030589474 -0.01974429 0.06470612

weight f4 [32]
00000000: 071c 663f 542c 863f be0d 7c3f f613 823f
00000010: e82b 703f 9b79 8e3f b100 993f abc7 8b3f
00000020: cf20 6a3f 34fd 8e3f a73c 863f 956f 853f
00000030: 7556 583f b6c6 843f 6a11 263f ea46 823f
00000040: 1353 803f bb2a 863f c9bb 613f 2d6a 8f3f
00000050: a983 883f 6fa6 6e3f af67 5c3f 9fd9 803f
00000060: ecd4 813f dd33 883f 2144 653f 7b79 743f
00000070: 4204 893f 6bce 573f d57d 863f 96b7 3b3f
0.89886516 1.0482278 0.9845847 1.0162342 0.93816996 1.1130861 1.1953336 1.0920309
0.9145631 1.1171021 1.048726 1.0424677 0.8450692 1.0373142 0.6487032 1.0177891
1.0025352 1.048179 0.8817716 1.1204277 1.066518 0.9322271 0.8609571 1.0066413
1.0143104 1.0640827 0.8955708 0.95497864 1.0704424 0.84299344 1.0507151 0.73327005

bias f4 [32]
00000000: 378c 7dbd 8f44 d3bd 281b 52bd 370c 55bd
00000010: 4bc5 4dbd 2bc3 42be 8973 24be 9a6a 58be
00000020: 338e 2bbe 19f5 3bbe 89af 15be 0b3e b6bb
00000030: 6f38 4cbe dd01 b8bd 9bf9 37be 6f64 57be
00000040: 2023 5bbd d8c3 553d aa91 57be 8e19 47bd
00000050: fd94 e1bd 26d7 85bd f7a2 22be 4f7a dfbd
00000060: 6e4d 43be 8daa 49bd 9658 8dbe f1b0 0ebe
00000070: 93f2 b2be 1571 f9bc 3156 963d e9e2 5abe
-0.061901297 -0.10315811 -0.05129543 -0.052013602 -0.05023698 -0.19019763 -0.16059698 -0.21134415
-0.16753463 -0.18355216 -0.14617743 -0.0055615953 -0.19943403 -0.089847304 -0.1796631 -0.21034406
-0.053500295 0.052188724 -0.2105166 -0.048608355 -0.110147454 -0.06535177 -0.15882479 -0.109120004
-0.19072506 -0.049234916 -0.27606648 -0.13934685 -0.34950694 -0.03044943 0.073406585 -0.21375622

running_mean f4 [32]
00000000: 2789 fe3e 1f20 91bf 8a5b a9bf 992f 113d
00000010: 1517 343e ee43 76bf 4708 d3bf 5275 5f3e
00000020: a608 033f af66 303f ef68 fdbe c0f5 803f
00000030: 79a1 0240 47e7 7b3f 4426 d63f bea7 b3bb
00000040: 7bdd cdbf cdf0 adbf 0690 0440 b2fa 47bf
00000050: fd22 14bf 82cc 97bf 956f 723f d1f1 c1bf
00000060: f04b 963f 4260 7a3e 07cb 153f 0f03 b33f
00000070: cbcf 8cbe 1b1a cf3d 24f4 bc3f fdfa 8b3f
0.49714014 -1.1337928 -1.323106 0.035445783 0.1758693 -0.961974 -1.6486901 0.21822098
0.5118507 0.6890668 -0.4949412 1.0074997 2.0411055 0.98399776 1.6730428 -0.005482643
-1.6083215 -1.3589112 2.0712905 -0.78116906 -0.5786589 -1.1859286 0.9470151 -1.5151922
1.1741924 0.24450782 0.5851292 1.3985308 -0.27502283 0.10112401 1.4762006 1.093597

running_var f4 [32]
00000000: 4e08 993e 0a0c 9b3e e857 343f b678 083f
00000010: b8f9 c03e 552d 1b3f 7ced 853f 2e65 1b3f
00000020: 4294 ab3e 16e1 843f d3d1 3d3f 54c0 003f
00000030: 4c10 063f dfa8 5a3f bed0 2f3f bb5d 193f
00000040: 12cb ba3e 8297 ae3e 6e6d 293f fa83 0c3f
00000050: 3632 023f aa3b 813e 2c27 a53e a793 a13e
00000060: 4219 f03e b1e1 553f a8a7 d73e 2677 db3e
00000070: 096c 3a3f ec30 553f d4e6 303f 164f 1f3f
0.29889148 0.30282623 0.70446634 0.5330919 0.3769052 0.60616046 1.04631 0.6070126
0.3351155 1.0381191 0.7414829 0.5029347 0.5236862 0.85413927 0.6867789 0.59908646
0.36483055 0.34099966 0.661826 0.5488888 0.50857866 0.25240833 0.32256448 0.31557962
0.4689427 0.835475 0.421201 0.4286434 0.728211 0.83277774 0.69102216 0.6223005

weight f4 [32]
00000000: b6a1 733f d3d9 673f 3921 743f 1429 713f
00000010: 4305 5f3f 5a6e 7c3f 1d43 7f3f ca43 6f3f
00000020: 9302 7d3f fa5f 793f 6d14 693f a9da 6f3f
00000030: 754b 773f 9fca 503f bd1c 6f3f bbdd 603f
00000040: 3e8c 6f3f 6a4d 723f 7329 833f dd3d 703f
00000050: 48a9 673f a1eb 633f d51d 683f cbfc 823f
00000060: d388 693f 9be8 763f cfe8 703f 168c 7d3f
00000070: fe9d 733f 9068 7d3f f091 793f 904a 743f
0.95168626 0.9056675 0.95363194 0.94203305 0.87117404 0.98605883 0.9971178 0.9346281
0.9883205 0.97412074 0.9104679 0.93693024 0.96599513 0.81559175 0.93403226 0.87838334
0.9357337 0.94649374 1.0247024 0.93844396 0.9049268 0.89031416 0.9067052 1.0233396
0.912244 0.9644868 0.9410524 0.9904188 0.9516295 0.98987675 0.9748831 0.95426273

bias f4 [32]
00000000: 18d9 49bc bc96 bcbd 29db a8bd 53d0 45be
00000010: 764f 11be 63ea 12be ea32 d8bd dc21 54be
00000020: 3c01 e33c 74f2 b4bd 6076 58be 3efc 81bd
00000030: df95 aebe 2035 b3bd abe4 cfbd 0be0 3abe
00000040: cc1e 1dbe 6fe1 7fbc 9b45 69be b793 06be
00000050: 916b 67bd c06e f4bd 46cf febd 478b 2abe
00000060: 9ef9 04be ed0f 77be a78d 50bd b7e8 94be
00000070: eb37 95bd 92ae acbd f821 17be 4362 dfbc
-0.012319826 -0.09208438 -0.082449265 -0.1931775 -0.14190468 -0.14347224 -0.10556586 -0.20716041
0.02771055 -0.08835307 -0.21138906 -0.063469395 -0.34098718 -0.08750367 -0.10151037 -0.18249528
-0.1534378 -0.015617712 -0.22780459 -0.13142286 -0.056499068 -0.119351864 -0.12441878 -0.16654693
-0.12985846 -0.24127169 -0.05091634 -0.29083797 -0.07286056 -0.08431734 -0.14759052 -0.027268535

running_mean f4 [32]
00000000: 3d87 c0bf b059 183f 0a0d 35bf a779 42bf
00000010: 9b30 56bf fb3c 8dbf 2d3c 09bf 5eb8 a7bf
00000020: 10d8 d1bf 6a57 f9bf cb0e 42bf a95b 2fbf
00000030: 03c7 e6be e858 02c0 8fcb 26bf f865 2fbf
00000040: 5798 bfbf fa87 a8bf 0e93 acbf 90d8 fdbd
00000050: b240 a1bf b619 afbf 6f51 b8be 1489 0d3e
00000060: 5d1d a5bf 36c1 5a3f 29a1 debf 3c10 b0be
00000070: ee49 88bf d829 19bf 39b1 a0bf 495d 1cc0
-1.5041271 0.5951185 -0.7072302 -0.75966877 -0.83667916 -1.1034235 -0.53607446 -1.3103139
-1.6394062 -1.9479802 -0.7580382 -0.6849924 -0.4507371 -2.0366764 -0.65154356 -0.68514967
-1.4968365 -1.3166497 -1.3482378 -0.12394822 -1.2597868 -1.3679721 -0.3599963 0.13821822
-1.2899586 0.85451066 -1.7392932 -0.34387386 -1.0647562 -0.59829473 -1.2554084 -2.4431937

running_var f4 [32]
00000000: 090a 8b3f c9e0 b33f daf5 a73f 74b0 873f
00000010: 361b 623f da05 e13f ae96 db3f f11c 983f
00000020: ffcc b83f 2cf2 a93f d379 bb3f f79c 9c3f
00000030: 55b6 b73f c70f 123f 2f09 873f 0d68 2c3f
00000040: bfed be3f 03d3 9c3f 23ae b43f f746 ea3f
00000050: b346 c83f 6e28 903f 322e 553f 5deb d83f
00000060: 9352 253f 91b2 f93f 883c b13f 142b 7c3f
00000070: 1296 693f af77 993f 7752 933f b4b2 b03f
1.0862437 1.4052974 1.3121903 1.0600724 0.8832277 1.7579911 1.7155359 1.1883832
1.443756 1.327703 1.4646553 1.2235402 1.4352518 0.57055324 1.0549678 0.6734627
1.4916304 1.2251896 1.4115642 1.8302907 1.5646576 1.1262338 0.83273613 1.6946827
0.64579123 1.9507619 1.3846598 0.9850323 0.91244614 1.198965 1.1509541 1.3804536

weight f4 [32, 32, 11]
00000000: 7d80 cc3c 642b 66bd d210 153d 3500 3dbd
00000010: e71c 453d e879 463d 7139 0b3d ae45 8f3b
00000020: 66d4 c33d 5da9 383d efba 87bd 596a 56bc
00000030: 2914 2b3d 90b7 71bc 6258 993d 0178 733d
00000040: a3b3 dabb d202 dc3c 16d1 0dbd a93b f23a
00000050: 96e9 eb3c f295 1d3d 5aa5 29be c571 b7bd
00000060: 81bd 18bd 9667 54bb 1644 83bd 5a70 903d
00000070: 3ab8 2c3d f4ea 323c f77e 63bd e8e8 babc
00000080: 3067 abbd a716 363b fca2 d83d 98f3 06be
00000090: a88b 28bd 5be6 b53d aa0b 163d 2a41 673d
000000a0: 0711 58bc c4e7 d0bd 0ca3 19bc ab2b 40bd
000000b0: aa67 e33c e41a c7bc 2eeb e13b ba47 37bd
000000c0: e5f3 5a3b 7c33 77bc 1214 adbc bf56 103c
000000d0: dfba af3b 5afd 80bc 4c86 80bc 29cb bb3d
000000e0: 927b 093d 7eb3 9c3d 1112 083e 0914 f6bd
000000f0: 63bf 3d3d 9071 fa3b bd84 df3d c3e4 f93d
00000100: 1481 873d 25af 57bd a815 a2bd f8b9 63be
00000110: f14c dbbb 972e 8b3c c98d 28bd 325e aebd
00000120: 91fe 113d fdf8 903d 8f49 e8bc c8bc 813c
00000130: 8c92 05bd c3ab 98bd 2edf 3b3c 14dd 4bbb
00000140: 9b5d e2bb 157f ecbc 3283 61bc ad64 063e
00000150: 4e69 1fbd 0d40 51bd 11e4 903d db8a d63d
00000160: f749 eebc 7da8 88bd 6f9f a83d 50e7 683c
00000170: 84eb c6bd 1da2 ad3c 28d8 76bd 3bf1 b4bd
00000180: 5a61 c2bc b493 10bd ec34 56bd be69 bcbd
00000190: aa89 a639 3830 33bd d565 27bc 155c 2fbb
000001a0: d6a0 26bc d44f 993c fa7d cebd cf43 9abd
000001b0: 3722 953b 62e4 60bd ef24 05bd 2d31 27be
000001c0: 3745 273e 4492 0f3d f552 01be b98c b13d
000001d0: 9d4a 57bb 6a8c 00be ad91 bfbc 7a8d a33d
000001e0: d674 ee3b 6a75 01be c42d 473c 87a1 833d
000001f0: 9445 2cbe 5484 9e3d a604 9c3d 98b4 133d
00000200: 208c 923d a067 efbb 3011 4bbd 850b 203d
00000210: 9242 1cbd 2b15 3abb 06ee ab3d 31e8 eb3b
00000220: 5583 89bd 5a8a c2bc 6f6f 523c 8ec4 88bd
00000230: dca4 4ebd eb1e 6ebc 2344 0ebd 3468 6c3d
00000240: efd4 113e f350 55bd 8ad0 b4bc 495d babd
00000250: 190f c3bd 6da2 9d3c ba3b e5bd b742 50bd
00000260: 0ea0 43bd 2f7c 30bd ec03 913d 9994 863d
00000270: b839 86bd fdc3 c0bc c959 aa3d 1250 cb3c
00000280: df03 fabc 20d0 babd 2206 8bbd 7fa6 82bd
00000290: c4d5 32bd 2bba d4bc a7e4 38bc 9600 6c3c
000002a0: 9920 49be 3b9f edbc a130 8e3d 2c98 ae3c
000002b0: 04d6 bfbc bbd8 b7bd 9a38 003d fca2 59bd
000002c0: 034e 2b3d 60af 5e3a d4b2 18bc 5be7 fe3a
000002d0: 7577 c83c 7fa0 ebbc 6051 57bd 83c0 c63c
000002e0: b73f babd 303e c6bd 8e16 463d 28b9 88be
000002f0: 64f0 a13d fc7e 68bc d50a 1bbc 0cb5 acbd
00000300: ea7d 213d 3934 9abd e9f3 8e3c 4176 13be
00000310: 82bf 2cbd 9379 a7bd e623 d13d 500f 8dbd
00000320: 7033 383d 24cb 0bbd ca1b bc3d 6d80 03bd
00000330: f917 4f3d 2f97 f2bc 29d6 a3bc ee3e a33d
00000340: f408 60bd 56aa 833e 2f1c 503e 16c2 1dbd
00000350: 86f6 9abc fa1e 87bd 8d1e a0bd beb7 f7bd
00000360: c1d7 a6bd 78be ecbb e8ad 203e 9d57 ff3b
00000370: 8f7c 84bd 1455 dfbd ef67 eb3d 500a d8bd
00000380: da5f 86bc a8fc a23d bdef 4dbd 7c1b 823d
00000390: a6d4 c33d b782 1bbb dcec 893d db6d b7bb
000003a0: 7421 34bc 0721 893a 6303 bfbd 79d0 86bd
000003b0: 0790 1cbd e7fc 7abd 1559 c4bd 53ea 87bd
000003c0: 4509 a53c 1281 6b3b 9946 ddbd 7726 e0bb
000003d0: 8d80 03bd 5012 1d3d 2faf 10bb da03 bfbc
000003e0: 136d 00bd 36a2 083d fba2 283e c818 fa3b
000003f0: 7578 eabd 0f0b 4fbd 6e21 243d 91b8 8cbd
0.024963612 -0.056193724 0.036392994 -0.046142776 0.048123267 0.048456103 0.033990327 0.00437232
0.09561996 0.045083392 -0.06627452 -0.013086879 0.041767273 -0.014753237 0.07487561 0.059440617
-0.0066742464 0.026856814 -0.034623228 0.0018480915 0.028797906 0.038473077 -0.16566983 -0.08957247
-0.0372901 -0.0032410375 -0.06409471 0.07052679 0.04216788 0.010920275 -0.055541005 -0.022816136
-0.08369291 0.0027784498 0.10577962 -0.13178861 -0.04114881 0.088818274 0.036632217 0.05645863
-0.013187653 -0.10200456 -0.009377252 -0.046916645 0.027759392 -0.024304815 0.0068944907 -0.04474614
0.0033409533 -0.015087958 -0.021127734 0.008809744 0.005362853 -0.015745807 -0.015689038 0.09169609
0.03356511 0.07651423 0.13288142 -0.1201554 0.0463251 0.0076429322 0.1091399 0.12201836
0.066164166 -0.052657265 -0.07914287 -0.2223891 -0.0066925217 0.01698999 -0.04115084 -0.0851406
0.035643164 0.07078741 -0.028355388 0.015837088 -0.03261046 -0.07454636 0.011466784 -0.0031107115
-0.0069081313 -0.028869191 -0.01376419 0.13124342 -0.038918786 -0.051086474 0.0707475 0.10475703
-0.029088004 -0.066727616 0.082335345 0.014215305 -0.0971289 0.021195466 -0.060264736 -0.088350736
-0.023728061 -0.03529711 -0.052296564 -0.09199856 0.00031764555 -0.043747157 -0.01021715 -0.0026757766
-0.010170182 0.018714823 -0.10082622 -0.07532465 0.004551198 -0.054905303 -0.032505926 -0.16327353
0.16334997 0.0350516 -0.12629302 0.08669419 -0.003285087 -0.12553564 -0.023384893 0.07985969
0.0072771115 -0.12642446 0.0121569075 0.06427293 -0.16823417 0.07740083 0.07618074 0.0360609
0.07155633 -0.0073060542 -0.04957694 0.039073486 -0.038149424 -0.0028393965 0.08395009 0.00719931
-0.06714503 -0.023747612 0.012843951 -0.06678115 -0.05045019 -0.014533739 -0.03473295 0.057716563
0.14241384 -0.052079152 -0.022072095 -0.09099824 -0.09524364 0.01924249 -0.111930326 -0.050844874
-0.047760062 -0.04308718 0.07080826 0.065713115 -0.06553978 -0.023530954 0.083179064 0.024818454
-0.030519424 -0.09121728 -0.06788279 -0.06379413 -0.043660894 -0.025967678 -0.011284984 0.014404437
-0.19641341 -0.029006591 0.06942869 0.021312796 -0.02341748 -0.08976885 0.03130398 -0.05313395
0.041822445 0.0008494761 -0.00931998 0.0019447611 0.024471024 -0.028763054 -0.05256784 0.024261719
-0.09094184 -0.0967983 0.048361354 -0.26703763 0.07907179 -0.014190432 -0.009463032 -0.084329695
0.03942672 -0.07529492 0.01745029 -0.14400579 -0.042174824 -0.08177485 0.10211925 -0.06887686
0.04497093 -0.034129277 0.09184988 -0.0321049 0.05055997 -0.029613106 -0.01999958 0.07970987
-0.05469604 0.25715894 0.20323251 -0.038515173 -0.01891638 -0.06597705 -0.07818327 -0.12095593
-0.081466205 -0.007224854 0.1569134 0.0077924267 -0.0646907 -0.10904899 0.11494433 -0.10548842
-0.016403127 0.079583466 -0.05027746 0.063528985 0.09562044 -0.0023729035 0.067346305 -0.0055978126
-0.010994304 0.0010462113 -0.09326818 -0.06582732 -0.038223293 -0.061276343 -0.095873035 -0.06636491
0.020146022 0.0035935086 -0.10804481 -0.006840523 -0.032105017 0.038347542 -0.0022077074 -0.023317266
-0.03135402 0.03335782 0.16468422 0.0076323487 -0.114487566 -0.050547656 0.040070944 -0.06871141

bias f4 [32]
00000000: d66d b63c fb2b 2a3c 7d05 35bd 2eb6 0c3c
00000010: a5e4 67bc c1e4 3b3d c574 44bd eef5 aa3a
00000020: fafd b7bc 95ca 45bd f0b8 18bd 366d 3fbd
00000030: 5537 debb c8fe 4f3d aac3 953c 58b1 cebb
00000040: 20b2 12bd aa6b 07bd 110c 8abc 2986 8abc
00000050: db98 51bc 0fea 293b 0956 ee39 4e62 4bbb
00000060: 7984 1abd b62a 36bd eef4 05bd aa53 bfbc
00000070: b0d9 483d 7e85 dcbc 20b4 193d 6622 593d
0.02226917 0.010386462 -0.044194687 0.008588357 -0.014153634 0.045872454 -0.047962923 0.0013043263
-0.022459973 -0.0482889 -0.037285745 -0.04673501 -0.0067814984 0.050780088 0.018281776 -0.006307762
-0.035814404 -0.03306166 -0.016851457 -0.016909676 -0.012792791 0.0025926863 0.00045459 -0.0031033936
-0.037723992 -0.044474326 -0.032704286 -0.023355324 0.049035728 -0.026919123 0.037525296 0.05301132
