data/pretrained_models/spliceai-400-2.pt (torch, 796217 bytes, 106 tensors)

weight f4 [32, 4, 1]
00000000: a73b e73d 8658 2dbe 81ef 463e 0942 9ebd
00000010: 4af3 883e f640 423e 0d07 aebd bf41 17bf
00000020: 912e c73d 3697 22bf 52a0 7d3d 1ec3 81bb
00000030: ebe0 60be 19c1 e83e 1c51 59bd 3c79 693e
00000040: bbe7 5d3e ef4b bfbe b489 4cbe 078f 043f
00000050: 8843 16bf 8a95 90bd 6070 59bb 9c5c b03e
00000060: 3647 24be 15f1 5a3e 2e40 3dbd c740 83be
00000070: 37bd 4bbe 1700 2bbe caed 1cbf 7ff1 9ebe
00000080: 224a 093e 8cb9 9e3e e21a e03c eea3 80be
00000090: d516 7a3e 4f4f 91be 5f98 19be e5ed a4be
000000a0: 1835 94be e7ba 1abf 63ea c23e 3eb4 403e
000000b0: 98f7 81bc 3284 643e a89a b03e 39c4 4abc
000000c0: 63fc 313c 3c2d e1bd 1e63 923e 93f1 9d3e
000000d0: a213 ca3e 524c d33e 649c 80be 5b5b 48be
000000e0: 6726 34be d96c bc3e 6ca8 0e3d e378 ed3e
000000f0: 7f80 883e 8bd1 0ebf 3f2a 4f3e 2184 0a3f
00000100: f16a f33e 35c7 d2bc ae32 2e3e c6eb 35bf
00000110: 4e9a 23be 29f8 8f3e b4cd debe 180d f43e
00000120: be12 f2be 9d24 553e 168d 46bd f1b1 d53d
00000130: 33e5 f43d 1320 06bf fd10 d4bd e199 5abe
00000140: 19ec 0e3f deff 2bbe 3a9e 2fbf 9ecf ec3d
00000150: 41a1 7a3e 7c4e fcbe 29db 7fbd b990 853e
00000160: 656b a6be e39b abbe c637 903d 3744 a6be
00000170: e1d4 a53e bf3d 84bc 2be5 b23e 29f9 813e
00000180: b798 14bf 8152 9ebe 677c adbe 4030 ccbd
00000190: 282e 41be 9362 a2bd ac85 1fbf 4d83 8d3e
000001a0: e010 a03e 5db7 563e 9f8f aa3e 1c80 ca3e
000001b0: 652b 02bf 756f 4b3d f89b 133f c726 d8be
000001c0: b60a 7fbe d385 893c d5ec afbe d667 c0bb
000001d0: 17ce b1bd ed9c df3e 9d8d 6bbd 3e5f 973e
000001e0: 5683 d33e 03ee a53e 9f1f 0fbf bc4a c63e
000001f0: 4c59 cb3e e693 08bf f99f 8bbe d96e b43e
0.11290675 -0.169283 0.19427301 -0.07727439 0.26748115 0.18970093 -0.084974386 -0.59084696
0.09725679 -0.6351198 0.06192047 -0.0039600274 -0.219608 0.45459822 -0.053055868 0.22800153
0.2167043 -0.3736262 -0.19974405 0.5178074 -0.58696795 -0.07059772 -0.0033178553 0.34445655
-0.1604279 0.21381028 -0.046203785 -0.2563536 -0.19896398 -0.16699253 -0.6130034 -0.31043622
0.13407186 0.31000936 0.027356569 -0.25125068 0.24422772 -0.2838082 -0.14999531 -0.3221275
-0.28946757 -0.6044144 0.38069448 0.18818757 -0.015865132 0.22316054 0.34492993 -0.012375885
0.010863396 -0.10994956 0.28591245 0.3084837 0.39468104 0.41269165 -0.25119317 -0.195661
-0.17592774 0.36801794 0.03482859 0.46381292 0.26660535 -0.5578849 0.2023096 0.5410786
0.47542527 -0.025729755 0.1701152 -0.71062887 -0.15976831 0.2811902 -0.43516314 0.4766624
-0.47279924 0.20814748 -0.048474394 0.1043433 0.11957779 -0.5239269 -0.10354803 -0.21347763
0.55829006 -0.16796824 -0.6860081 0.11563037 0.24475576 -0.4927863 -0.062464867 0.26086977
-0.3250381 -0.3351737 0.07041888 -0.3247392 0.32388976 -0.016142724 0.34940466 0.25385407
-0.58045524 -0.3092232 -0.33883974 -0.099701405 -0.18865263 -0.07928958 -0.6231334 0.27639237
0.31262875 0.20968385 0.333127 0.39550865 -0.50847465 0.04966684 0.57659864 -0.42217085
-0.2490643 0.016787445 -0.34360376 -0.005871753 -0.08681887 0.43674412 -0.0575081 0.29564852
0.4131114 0.3240815 -0.55907625 0.38728893 0.39716566 -0.53350675 -0.27270487 0.3524082

bias f4 [32]
00000000: 6e10 08bf c5c0 dfbe eeef c3be 03af 0e3e
00000010: 8c7a 56be d51a f6be c1f7 503e 075a a83e
00000020: 82fe 053e 0c6e edbe 346e 0d3f c1ef 5bbd
00000030: ca55 04bf 629b c1bc 0b4a b43e a619 883e
00000040: 495f 83bd ef06 cd3e 8f18 e7be f89a c63e
00000050: 0bdc 123f 2707 8ebe 94bf 4c3d 6c91 a0bc
00000060: e67d f0be ec35 50bd fb7a 13be 17cd e8be
00000070: 3843 acbe 4f60 df3c 2a85 043f f1cb 1f3e
-0.5315007 -0.4370176 -0.3826899 0.13933949 -0.20945185 -0.48067346 0.2040701 0.32881185
0.13085368 -0.46373022 0.5524628 -0.053695444 -0.51693404 -0.023633663 0.3521274 0.26582068
-0.064146586 0.40044352 -0.45135924 0.38790107 0.5736701 -0.27739832 0.04998739 -0.019600593
-0.46971053 -0.050832674 -0.14402382 -0.4546897 -0.33645034 0.027267603 0.5176569 0.15605141

weight f4 [32, 32, 1]
00000000: c539 4ebe 6930 e33c c14e 8fbd beba c1bd
00000010: e354 74bd 7807 3b3d cd5d 1bbd 78a9 bebd
00000020: 05b7 f4bc 2552 69be b36a 7dbc e96d b13d
00000030: 62a6 343d 5c4e ebbd c9db 8ebd 3ab1 a03d
00000040: c803 21be c207 e83d acfd 733d 8b98 0b3e
00000050: d9b9 3cbd 701c f1bd c490 353d a446 f73d
00000060: 90e4 78be 2dc9 2bbe 9e63 3d3c 1aeb 23bb
00000070: 17c4 a83d 1971 2d3e b474 123e d758 cbbd
00000080: 6303 6a3d b298 adbb b5bf e2bd 8193 1dbd
00000090: 3f82 643c b520 0ebe 6036 de3d 96f2 983d
000000a0: 859e afbd be10 2fbe e9dd 5ebc c83e dabd
000000b0: e95b 80bd 830e 683d 32c1 023e 6658 273b
000000c0: 2fac f5bc d702 133c 9de7 43be 4eb8 d3bb
000000d0: 82e2 393d 46b3 0dbe 4859 c3bd c3cc d13d
000000e0: 933b d2bc d945 c6bd 8f65 cb3d d47d f53d
000000f0: e6e3 2abd e392 98bd 035b 593e c89d 323e
00000100: 00a4 073d 6c39 b9bc 9889 c1bc 82df da3d
00000110: 31e6 073e 25e9 53bd f25f 07bd 229c bb3d
00000120: 7b26 443c 3771 313d 6df6 12be 665c 43bd
00000130: d275 08bc 3136 32bc c2e7 10be 7b70 08be
00000140: e4a0 b0bd 0cc5 2f3b f4fc dcbd 4bdb 4ebe
00000150: ee1e f73d 1987 e43d ed1d b13d e44a 0b3d
00000160: fcce b2bc 00dc 94bd c0e2 27be 910e be3c
00000170: 01fa b53d e5ee 68be c62d 36be 5dfc 923d
00000180: 08e3 86bd bf15 a93c 1596 913d 5941 3c3e
00000190: 2e1a c7bd 86d7 1abe 8550 ea3d 0eb7 853d
000001a0: 15ec e0bd 4a11 29bd 1fcb 54bd 2f7d 99bd
000001b0: dbc2 2cbc 491d db3c 3945 1b3e 8562 0c3e
000001c0: 5962 4ebd 7d20 0c3e 11cf 6ebe ff96 42bd
000001d0: e942 a83d 65d8 eebd 6675 29bd 18a9 343e
000001e0: 236d 60bc a201 d0bd ab59 993c 77fb 5ebe
000001f0: 0647 613c 3671 d0bc c7f2 163e bb75 3f3d
00000200: 755b af3d 5ffe 36be f185 23be d745 5f3d
00000210: 6c1a e7bc e784 f2bd ed58 573e 60f9 5abe
00000220: 8438 fd3d 1df6 f13c d035 9e3c beae e03d
00000230: e733 89bd f753 3abe ff22 303e 1496 823c
00000240: ad7e 45bc 711b 473e 213c f93d 0e77 acbd
00000250: f729 dfbc b2e8 663d 1d42 1a3e dc73 99bd
00000260: 7a2b 37be 5a2f e33c 2c9a 8bbd 209c d93d
00000270: 5d7c 3fbe cc0a 08be fdc0 c13d 8acd 163e
00000280: fd0f b6bb c1b2 2fbd 1e47 053e 2c77 a2bb
00000290: 5f7b ca3d 9852 f6bd 938a d2bd 2886 a2bc
000002a0: 0d9f 26bd e7a2 5f3e 6584 36be 7b4e 34bd
000002b0: 71b5 ed3d e020 a33d 91bf 72be 0adc 0abd
000002c0: 4d16 163e 98e7 3fbe 78b1 1b3e 98f0 54bd
000002d0: 52df ec3d b50e bfbd 1d52 8a3d df91 b83d
000002e0: 9b73 353e 50ce 63bd e9b8 3ebe a327 4a3d
000002f0: f122 21bd 6741 083d 1e51 15be 9c74 8fbb
00000300: a489 53be e6fe 6cbd 8e34 c83d 682e 1a3e
00000310: d0cf c43c afee 10be 95da 473e 23c3 0dbe
00000320: 03ae 4b3e faee 4fbe 240e 1dbd f9e3 5dbc
00000330: 9b8a 51bc 4369 f83d f4e2 c43d 085f e1bc
00000340: 6a34 1dbe 1937 4a3c 37dd f8bd aa48 acbd
00000350: 3d1a 153e af8f f2bc d99c fabd 64c7 f43d
00000360: 886e 28be ef48 09be 8375 b23c 4390 9f3d
00000370: 881f 413d c80e 4ebd e60f 9fbd 6446 9b3d
00000380: 14f9 eb3c dc8f 873d b990 4a3d 8930 2dbe
00000390: 2918 b73b 7ace dabc 892e 81bd 77a9 1f3e
000003a0: c865 45be 3fa8 7c3d 5c39 073e 683a 43be
000003b0: 0c0d c43d a416 5e3e 7ebc 563d db45 743d
000003c0: a0e0 66bd 3796 8b3c f6fd 533d 2ce4 193e
000003d0: a708 49be f881 073e 8ed5 ccbd 53c5 42be
000003e0: 080d 4e3e 1f26 7f3d 58f6 04be 5063 0cbe
000003f0: 2946 82b8 9aa7 c3bd 1ea5 4cbd 3a5f 88bd
-0.20139225 0.027733045 -0.06997443 -0.09459446 -0.059651267 0.04566142 -0.037931252 -0.09309667
-0.029872427 -0.22785242 -0.015467334 0.08663542 0.044103988 -0.11489555 -0.069755144 0.07846303
-0.15724099 0.11329605 0.059568092 0.1363241 -0.046075676 -0.11773002 0.044327512 0.120740205
-0.2430594 -0.16775961 0.011559395 -0.0025011958 0.08240526 0.16937675 0.14302331 -0.09929054
0.057132136 -0.0052977437 -0.110717215 -0.03847075 0.013947069 -0.13879664 0.10850215 0.074681446
-0.08575157 -0.1709623 -0.013602712 -0.10656506 -0.062675305 0.056654464 0.1276901 0.0025534867
-0.02998933 0.008972845 -0.19131322 -0.00646118 0.04538203 -0.13837919 -0.095385134 0.10244133
-0.025663173 -0.09681291 0.0993148 0.119868904 -0.041721247 -0.074498914 0.21226124 0.17443001
0.033115387 -0.022610389 -0.02362518 0.10687162 0.13271405 -0.051736016 -0.033050485 0.09160639
0.011972065 0.04332086 -0.14351816 -0.04769554 -0.008328872 -0.010877178 -0.14150909 -0.13324158
-0.086244375 0.002682033 -0.107904345 -0.20200841 0.12066446 0.1115858 0.08648286 0.03400697
-0.021827213 -0.07268524 -0.16395092 0.023200305 0.08885575 -0.22747381 -0.17790899 0.07177041
-0.065862715 0.020640252 0.07108704 0.18384303 -0.0972179 -0.15121278 0.11441139 0.065290555
-0.10982529 -0.041276254 -0.051951524 -0.0749458 -0.010544504 0.026747363 0.15163125 0.13709457
-0.05038676 0.13684268 -0.23321177 -0.047507282 0.08215887 -0.11662368 -0.041371725 0.17642629
-0.013697895 -0.101565614 0.018719515 -0.21775614 0.013749843 -0.025444608 0.1474105 0.046743136
0.08562366 -0.17870472 -0.15969063 0.054509964 -0.028210841 -0.11841755 0.21030016 -0.21384192
0.12364295 0.029536301 0.01931277 0.109708294 -0.06699353 -0.18196093 0.1720085 0.015940703
-0.012054128 0.19444062 0.12169672 -0.084211454 -0.02724169 0.05637426 0.15064283 -0.074928015
-0.17887679 0.02773254 -0.06816515 0.106254816 -0.18699785 -0.13285369 0.09460638 0.14726844
-0.005556105 -0.042895082 0.1301541 -0.004958054 0.098868124 -0.12027472 -0.10280337 -0.019839361
-0.040679026 0.21839486 -0.17823942 -0.044020157 0.11606873 0.07965255 -0.2370589 -0.03390125
0.14656945 -0.1874069 0.15204418 -0.05198726 0.115660325 -0.09328977 0.06753943 0.09012198
0.17719881 -0.055616677 -0.18625225 0.049354207 -0.039339963 0.033265498 -0.14581725 -0.0043779146
-0.20657974 -0.057860278 0.09775649 0.15056765 0.024024874 -0.1415355 0.19516976 -0.1384397
0.19890599 -0.20306006 -0.038343564 -0.013543122 -0.012789394 0.12129452 0.096136004 -0.027511135
-0.15352026 0.012342238 -0.121515684 -0.08412297 0.1456079 -0.02960953 -0.122369476 0.11952093
-0.16448414 -0.13406728 0.02178455 0.077911876 0.04714921 -0.050307065 -0.07766704 0.07581785
0.028805293 0.06619236 0.049454425 -0.16913046 0.005587597 -0.026709784 -0.06307704 0.1559199
-0.19277108 0.06168389 0.13205475 -0.19065249 0.09572801 0.21688324 0.052425854 0.059636932
-0.056366563 0.017039401 0.051755868 0.15028447 -0.19632207 0.13233173 -0.1000167 -0.19020586
0.20122159 0.062292214 -0.12984598 -0.1370976 -6.2119514e-05 -0.09553452 -0.049962156 -0.06658788

bias f4 [32]
00000000: 7603 653e a07a ba3d ef70 d03d 8d4e 8bbd
00000010: 2036 e4bd 609b 16bd 6e94 043d 9613 313d
00000020: 97af ad3d 74fd 9d3d 67e6 38be f39d 4f3d
00000030: f23f e8bb 85d0 983d dd59 463c 4870 fa3c
00000040: b753 00be e91e 883e 03d4 c13c 786c 6d3e
00000050: 787b cf3d b136 46be 2567 bd3c 0432 973c
00000060: 21ea 7a3d f1eb 0f3d 1b9f c83c ceca 9f3c
00000070: 0549 a5bd fcb7 fbbb 2347 45bd 1145 823e
0.22364601 0.0910542 0.101777904 -0.06802092 -0.11143136 -0.03676927 0.032368116 0.04323157
0.08480757 0.07714358 -0.18056642 0.05068774 -0.007087701 0.07461647 0.012106386 0.030571118
-0.12531935 0.26586083 0.023660665 0.23185909 0.10130972 -0.193568 0.023120472 0.018456466
0.06125844 0.03513712 0.02448993 0.019505884 -0.08070568 -0.0076818448 -0.048163544 0.25443318

weight f4 [32]
00000000: e8f5 843f cef7 8b3f d9ab 813f 75be 773f
00000010: ee7e 663f d673 713f 289d 8b3f 2f35 3d3f
00000020: 6afd 763f 1736 913f 6a2e 853f 86bc 893f
00000030: fb2a 5d3f 4f2b 783f 6b91 793f af8c 793f
00000040: db57 773f 7ff7 723f 07fb 833f 35df 793f
00000050: 5957 893f 0492 653f 49e3 7d3f d150 753f
00000060: 82c4 4a3f 56f2 863f 037c 603f f92f ad3f
00000070: 7c50 5e3f 3218 763f 8c3a 603f 3a1c 7a3f
1.0387545 1.0934999 1.0130569 0.9677499 0.9003743 0.94317377 1.0907335 0.73909277
0.9648043 1.1344632 1.040479 1.0760658 0.8639371 0.96941084 0.97487515 0.9748029
0.9661843 0.949089 1.0310982 0.9760621 1.0729781 0.8967593 0.99174935 0.9582644
0.792061 1.0542705 0.87689227 1.3530265 0.8684156 0.9613067 0.87589335 0.9769932

bias f4 [32]
00000000: 39f9 2f3d 5b59 cf3d 747b c73c 796f aabb
00000010: b826 15be a788 ebbc f550 c6bc fcac 2bbe
00000020: 386a 7cbc 979a 9a3d 3959 9a3d 4d06 163d
00000030: 094c c6bd 4853 a1bc a1da 223d 6688 0cbd
00000040: f577 223d c38f d0bc c4f4 063d 7113 52bc
00000050: 3a63 3a3d c37a 0ebe 0eb9 2abd 7a74 84bd
00000060: a04d 42be 817c f93d 8271 01bd 0b00 803d
00000070: 1d0e 86bd bd93 9fbc 6721 d4bd 2efc e2bd
0.042962287 0.10124465 0.02435086 -0.005201277 -0.14565551 -0.028751684 -0.024208525 -0.16765207
-0.015406184 0.07549017 0.07536549 0.036627103 -0.09682471 -0.019693032 0.039759282 -0.034309767
0.03966518 -0.025459176 0.03294827 -0.012822018 0.045504786 -0.13914017 -0.04168039 -0.06467529
-0.18974924 0.1218195 -0.03160239 0.06250008 -0.06545661 -0.019479627 -0.103579335 -0.11083256

running_mean f4 [32]
00000000: 8ac0 04bf 3479 01bf df75 f4be 729f 693e
00000010: 66d5 14be 7337 0bbf b86c 0a3e f62d 213d
00000020: 9ab5 2a3e db3a 14bf fd92 fb3e b707 6e3d
00000030: d887 cbbe ead9 453d 5833 033f ce92 ca3e
00000040: 5e5a d7bd 28bd e63e 529e 00bf dc64 6e3e
00000050: e9a9 0d3f f2fe 88be 81a7 25be 5de4 433e
00000060: e6bd 43bf dc3d 30be 3870 123e 4767 0cbf
00000070: 7e3b eebe de69 233e dbfe 283f 4a31 303e
-0.5185629 -0.50575566 -0.47746179 0.2281473 -0.1453453 -0.54381484 0.13518035 0.039350472
0.16670838 -0.57902306 0.4913558 0.058112826 -0.39752078 0.048303522 0.5125022 0.39565128
-0.10515283 0.4506619 -0.5024158 0.23280662 0.5533739 -0.26757008 -0.16177179 0.19130082
-0.7646164 -0.17211097 0.1430062 -0.5484509 -0.46529764 0.15958354 0.6601388 0.17206302

running_var f4 [32]
00000000: 856e 943c ca34 e13d dfee 9b3d ebc5 723d
00000010: 486c e53d 1495 db3d a731 e33c 8981 103d
00000020: 6ccc 1e3d 1d26 453d 0cf0 043e beb9 bb3c
00000030: 1b16 f43c e5b8 b53d 2bb1 833d 5dd6 153e
00000040: 4ba4 3e3e 15f2 f03d 9353 7b3d 8f29 483d
00000050: 8bcf 383e be69 a63d 5cbc f93c 2bb6 b53c
00000060: 883f 193d bdc6 c53d 21b7 4f3c a86e 2b3e
00000070: 31ba bb3c b7ce 3c3d 8f95 143e f4de 103e
0.018119106 0.10996397 0.076139204 0.05927078 0.11202294 0.10721794 0.027733637 0.035279784
0.03876917 0.04813205 0.12982196 0.022915717 0.029795697 0.088731565 0.064302765 0.14632554
0.1861736 0.117649235 0.061359 0.04886776 0.18047921 0.081256375 0.030485325 0.022181591
0.037414104 0.09657047 0.012677939 0.16741431 0.022915931 0.046095576 0.14510177 0.1414755

weight f4 [32]
00000000: c3d1 683f 1da1 443f 53ca 553f 866a 703f
00000010: 8b58 743f 5901 573f 52a9 653f 8788 513f
00000020: 65e5 5c3f 0d7c 2a3f d0e1 553f e5d7 3d3f
00000030: 5393 3e3f a5f1 813f f57d 873f b4bf 7b3f
00000040: d453 733f aaa0 593f 2e56 373f de77 313f
00000050: f46e 653f e40b 7b3f ff0c 4d3f 9a67 543f
00000060: fc72 4d3f 9c9f 6b3f 914b 3a3f 01d6 593f
00000070: 9ba8 483f 7df8 393f 2408 493f f3e9 423f
0.9094507 0.7680834 0.8351185 0.9391254 0.95447606 0.8398643 0.8971149 0.8184895
0.8628753 0.66595536 0.8354769 0.74157554 0.7444355 1.0151869 1.0585314 0.9833939
0.95049787 0.8501078 0.71615875 0.6932353 0.89622426 0.9806502 0.80097955 0.82970583
0.8025358 0.9204042 0.72771555 0.8509217 0.7838227 0.7264479 0.78528047 0.7613823

bias f4 [32]
00000000: 8e55 e7bd 0a30 23be 2a73 61be 1895 1cbd
00000010: 0340 05be 3263 1fbe e6e9 36be 407e 48be
00000020: 33f2 07be b30d 61be 47a0 4abe 6c22 87be
00000030: e0e5 24be bd9f b9bd 7275 06be 481e 2bbe
00000040: e90e 0dbe ea63 46be 2496 e1bd 71ac 2fbe
00000050: aae6 16be ad3b b2bd 0f0f fabd 6e6a fdbd
00000060: 0437 8ebd 309a 6fbd 8a73 12be 7b92 86be
00000070: 5a69 07be e66c 94be 18a6 6dbe 2d35 0dbe
-0.11295615 -0.15936294 -0.22016588 -0.038228124 -0.130127 -0.15565184 -0.17862663 -0.1957941
-0.13275985 -0.21977882 -0.19787703 -0.2639345 -0.16103315 -0.09063671 -0.1313074 -0.1671077
-0.13775219 -0.19374052 -0.11014965 -0.17155625 -0.14736429 -0.087027885 -0.122099034 -0.123738155
-0.06944087 -0.058496654 -0.14301887 -0.2628363 -0.13223782 -0.28989333 -0.23207891 -0.13789816

running_mean f4 [32]
00000000: 0112 b1bf 9319 f6bf 63c2 9dbf ed31 e0bf
00000010: 9b3e 5abf 7f97 4d3f 7a38 18c0 38ab 9a3e
00000020: b8f2 33c0 f915 c3bf 8c78 b5bf 5745 713f
00000030: 85b0 933d da0e 00c0 7768 16bf 358f 8fbf
00000040: 8087 b4bf c512 50bf 71b0 41c0 4e10 29bf
00000050: c58e d6bf 03e7 23be 2ed7 d5bf 9521 69c0
00000060: 47d4 283f c6d2 a83e acd6 903f a7de 97bf
00000070: 36ca 26bf 28e0 7fbf 2c4c 3fbf 197d fdbf
-1.3833619 -1.9226555 -1.2324947 -1.7515236 -0.8525178 0.8030929 -2.378447 0.30208755
-2.8116894 -1.524108 -1.4177413 0.9424643 0.07211403 -2.0009065 -0.5875315 -1.1215578
-1.4103851 -0.8127864 -3.0263941 -0.66040504 -1.676232 -0.16006093 -1.6706293 -3.6426747
0.6594891 0.32973307 1.1315513 -1.1864823 -0.651523 -0.9995141 -0.74725604 -1.9803802

running_var f4 [32]
00000000: 97e5 aa40 83b2 6240 6917 8b40 bc36 a640
00000010: f44e 9e40 ec80 9340 f3df 9340 3ed1 8240
00000020: 6a4b ab40 ba0a 8e40 f8f0 7040 8c8c 7140
00000030: 4769 5a40 8afd a040 0485 9d40 04e7 8140
00000040: d3bf 9c40 d47d 8e40 22d8 5240 c13e 7040
00000050: 3bcd ac40 7d4e 8940 89a2 7f40 2dc5 9740
00000060: 1952 6f40 fba5 8240 7875 6940 ff05 8540
00000070: c6b3 bd40 dfd7 4b40 1999 7d40 e5d4 9440
5.340526 3.5421455 4.3466077 5.1941814 4.947138 4.6094875 4.6210876 4.0880423
5.352956 4.4388094 3.7647076 3.7742033 3.4126756 5.0309496 4.9224873 4.05945
4.898416 4.45286 3.2944417 3.7538302 5.4000525 4.290831 3.9942954 4.7428193
3.7393858 4.0827613 3.6477947 4.156982 5.928195 3.1850507 3.9624693 4.650988

weight f4 [32, 32, 11]
00000000: 15d9 bc3d de44 213d 6701 993d f6bd d83d
00000010: e48c 203d 8ce2 1fbd bed6 223d b59d 36bd
00000020: d0c4 163c 9707 143b fd28 d73c ca93 90bc
00000030: 7ddc bfbe a724 8f3d e817 cdbd 310f bebd
00000040: ecb6 81bd 5413 833b 72af 40bd 22b5 b83a
00000050: 9f64 fdbc 4ceb f73c 486e 54bc 5dd0 803d
00000060: 5010 8d3e 496a cd3d 25c3 a33d e7f2 093d
00000070: fed3 78bc 22dd 9cbd 3d00 033d b455 c8bc
00000080: 139e 14bc 7631 033d 509f 8ebd 3865 93be
00000090: 1879 6cbe 8598 b63c ff22 4b3d 24b9 05bc
000000a0: 14bc 753d 4430 7d3d 541c ea3b 8c6a 94bc
000000b0: 8db9 b5bd b9cf c83d 48f8 cf3c e1d4 27be
000000c0: cb04 73bd b82c e23c dbe2 cdbc 9ed8 323d
000000d0: 1a36 2fbd 94fb e3bd 2ca4 54bd d4e2 17bd
000000e0: 63c9 593e bed0 223b 403a 99bd 96c2 55bd
000000f0: 6a9d 89bc 5dcf 1abc 6989 4b3b 9de9 69bc
00000100: c40f 5bbc 91a5 993c e83e f0bc d43f 5cbe
00000110: e94e 90be 4a48 77be 9712 56bd 0cf2 ecbc
00000120: e90c a63b b93d a63d edb0 85bc 9726 1dbd
00000130: dded 093d faa8 10bd af2d 4abe 1dce a5bd
00000140: 01c5 94bd c1b9 9bbd f514 bcbd e8a5 d63c
00000150: 4e44 57bc bbea 9b3b 1573 fbbb 7dbe 45bd
00000160: 8e37 a43a 213b 45be bba0 89ba c076 73be
00000170: 6c55 53bc e3b3 ba3b 8878 333c 4377 9b3b
00000180: 017d e7bc a2f3 82bc 4c45 67bb cbc5 0dbd
00000190: 9975 ffbd 878f 7c3e 978f 183d e38f 91bd
000001a0: 5250 7abd 6086 f9ba 0a9c afbc 5c71 0d3d
000001b0: 9bab b3bd 5867 2abd bd5a 4e3d a0e8 9f3e
000001c0: 1050 02be ffb5 113e 2134 153e c081 233d
000001d0: c076 4a3d e7c8 3bbb 6667 e43c f8a0 0dbd
000001e0: a194 653d a812 1fbd f861 c43c d624 c0bd
000001f0: 72ce ca3d 0485 9f3d ba95 ce3c 45a9 98bd
00000200: 64a1 1f3d 986b 63bd 0c57 40bc d767 84bd
00000210: e7fa a0bc f3be 863e f023 75bd 5693 683d
00000220: 826a db3d 0eda 9e3b cc14 493d 5e9b 323d
00000230: 3537 513d 2967 3abd 1a23 8bbc 13a5 09bd
00000240: e689 abbe e063 d33d 65cc 8fbd c0eb 33bd
00000250: 2e11 283d dba3 ffbc 083d bdba 5b26 07bd
00000260: c56a 23bc 3d61 a33c 9e0b 74bd ed79 e13d
00000270: c2c5 efbd a860 35be 94e8 81bd acc3 82bc
00000280: 6498 493d d6e7 3cbd ccc4 b8bc 0cf8 82bd
00000290: 6682 643c 52d0 223d f7bf 6e3e 79aa 803d
000002a0: 545d 9dbd 9079 da3c a8ac 233d 3d2b 873c
000002b0: 3f99 0ebc 0a11 a9bb 1ae7 cdba f028 c63c
000002c0: 9cd0 3f3d b450 68bd 0c94 7e3e 2a21 e13d
000002d0: 0ae2 c63c e501 b9bc 2f6e 56bc 9d68 90bd
000002e0: 6d9f 46bd 1a1c 3d3d d3fb 9cbc 2513 6bbc
000002f0: 0d90 a23d 40e8 80bd ea72 0fbe 7c95 62bd
00000300: 9f24 813c 78e0 293c 968c 2dbd 27d6 91bb
00000310: fb64 5dbd ed95 d6bc cdd5 3fbd 4c18 b93b
00000320: 6bba 92be 2cac 25be 34a0 56bb efce 22bc
00000330: 6f4d 2ebc 7e32 8e3d 7dd0 7e3c 500e 36bc
00000340: 3eed 413c 5a8a 0d3d 63d7 7dbd 80dc a83e
00000350: 542d 923c b82d a8bd 47b5 1c3c 6c9d 81bd
00000360: 205f 9fbd 6db4 52bd a876 1dbd d7bb d0bc
00000370: c75a 88bd f041 aebd f329 8f3e 2fc4 c9bc
00000380: 9c01 debd 82e5 503d 6a25 87bd b446 23bc
00000390: d7f4 d3bc 8b0d 3fbd e0f9 5d3d 0fcf 43bd
000003a0: b912 073d 7f0e 3b3e cf4e 46bd a079 81bc
000003b0: 347d 593d c68e 35bd 9379 113d 5f90 23bd
000003c0: a9ac 16bd 5fe5 04bd f1b3 adbb 619c ef3d
000003d0: 7014 a6bd 2783 043d d3d6 65bc b81d 1fbc
000003e0: 8f9e ecbd 83c4 343b ef3f 4fbd 80b5 21bd
000003f0: b2d8 cfbc 565b ec3c b2a0 783c 1523 843d
0.092210926 0.039372317 0.074709706 0.10583107 0.039196864 -0.03903441 0.039755575 -0.044583995
0.009202197 0.0022587532 0.026264662 -0.017648596 -0.37472907 0.06989413 -0.100143254 -0.09280241
-0.06333718 0.004000107 -0.047042318 0.0014092068 -0.030931769 0.030263565 -0.012965746 0.06289742
0.27551508 0.10030038 0.07996205 0.033678915 -0.015187262 -0.07659365 0.03198265 -0.024454929
-0.009070891 0.03202959 -0.0696398 -0.2878816 -0.23093069 0.022289524 0.04959392 -0.008161817
0.05999382 0.061813608 0.0071444903 -0.018117212 -0.08873282 0.09805245 0.025386944 -0.163898
-0.059330743 0.027609214 -0.025132587 0.043663613 -0.042776205 -0.11131969 -0.05191438 -0.037081555
0.21268229 0.0024843658 -0.074818134 -0.052187525 -0.016798694 -0.009448853 0.0031057245 -0.014276889
-0.013370458 0.018755706 -0.029326871 -0.21508723 -0.28185204 -0.2414867 -0.052263822 -0.02892401
0.005067457 0.081172414 -0.016319716 -0.03836688 0.03367411 -0.0353174 -0.1974399 -0.080959536
-0.07264138 -0.07603789 -0.09183685 0.026202157 -0.013138844 0.0047582067 -0.007673631 -0.048277367
0.0012528764 -0.19260837 -0.0010500172 -0.23775768 -0.012898784 0.0056977137 0.01095403 0.0047444417
-0.028257849 -0.015985314 -0.0035289107 -0.03461246 -0.12473602 0.24664126 0.037246313 -0.07107522
-0.061111756 -0.0019037239 -0.02143671 0.034531936 -0.087729655 -0.041602463 0.050379504 0.31232166
-0.12725854 0.14229582 0.14570667 0.03991866 0.049429655 -0.0028653683 0.027881335 -0.03457734
0.056049947 -0.03883615 0.023972496 -0.09382026 0.099026576 0.077890426 0.02521788 -0.074541606
0.038972273 -0.05552253 -0.011739504 -0.064651184 -0.01965089 0.26317558 -0.059848726 0.056781135
0.10713674 0.0048477715 0.0490921 0.0436052 0.05107804 -0.045508537 -0.016984511 -0.033604693
-0.33503646 0.10321784 -0.07021407 -0.043926 0.04103201 -0.031206062 -0.0014437744 -0.032995563
-0.009974186 0.019943828 -0.05958139 0.110095836 -0.11707641 -0.17712653 -0.06343189 -0.015962444
0.049217597 -0.046119533 -0.022554778 -0.063949674 0.013947105 0.03974945 0.23315416 0.06282515
-0.076838166 0.026669294 0.03995958 0.01650011 -0.008703529 -0.005159502 -0.0015709132 0.024189442
0.046829805 -0.05671759 0.24861163 0.10992654 0.024277706 -0.022583911 -0.013087793 -0.070512034
-0.048491884 0.046169378 -0.019163048 -0.014347826 0.07937632 -0.06294298 -0.1400868 -0.05531834
0.015764533 0.010368459 -0.0423704 -0.004450578 -0.05405138 -0.026194537 -0.046834756 0.0056486484
-0.2865785 -0.1617896 -0.0032749297 -0.009937032 -0.010638579 0.06943224 0.015552637 -0.011111811
0.011836348 0.03455577 -0.061972987 0.32980728 0.01784388 -0.08211845 0.009564704 -0.06328854
-0.077818155 -0.0514416 -0.038443238 -0.025480194 -0.066579394 -0.0850867 0.27961692 -0.02462968
-0.10840151 0.051000126 -0.06598933 -0.009965587 -0.025873585 -0.046643775 0.054193377 -0.04780489
0.03297684 0.18267249 -0.048415 -0.015805066 0.05309792 -0.044325612 0.035516333 -0.039932605
-0.036785755 -0.032445308 -0.0053009917 0.11699749 -0.08109367 0.03235164 -0.014028269 -0.009711675
-0.1155368 0.002758295 -0.05059808 -0.039479733 -0.025371883 0.028852146 0.0151750315 0.06452004

bias f4 [32]
00000000: 7c0f ad3c f5f2 183d c4b6 153d 982a 903c
00000010: f146 443c a5f5 02bc 0ffc a6bc 9520 4d3d
00000020: 007a 1dbd 896b 623a 69f6 4ebd dac8 13bd
00000030: 5968 96bc f94b 0a3d 78ec f93c a57d e3bc
00000040: ba70 4e3c 9a0e 9b3b 40cb 9d3c 415b 313d
00000050: d83e 553d b7b7 943b 78a9 153c 784f afbb
00000060: 8003 5abd c157 583b 55af 5ebc 6554 b33b
00000070: 7c18 3f3d df66 a3bc 1d60 0b3d fbc3 26bd
0.021125548 0.037341077 0.036551252 0.017598435 0.011979804 -0.0079931365 -0.020383863 0.0500799
-0.038446426 0.000863724 -0.050527964 -0.03608022 -0.018360304 0.03376386 0.030508265 -0.027769873
0.012600118 0.0047319653 0.019261956 0.043299917 0.052061886 0.004538502 0.009134643 -0.0053500496
-0.053225994 0.003301129 -0.013591607 0.005472707 0.04665421 -0.019946514 0.034027208 -0.040714245

weight f4 [32, 32, 11]
00000000: 025c 9fbd 2a13 943c c63b 443c c1e0 acbd
00000010: 3743 72bb d66c 873b f7c8 55bc 54ba af3d
00000020: 739e 92bc 7bda c13d 17cc 993d 245e 8f3b
00000030: 715f d03c 2201 e13c 5e77 513d 35c5 ecbd
00000040: 445b 21bc a40a a9bd eaf5 f93d 1032 4a3c
00000050: f80c 9d3d c329 ec3d 5ac6 183e bee0 15be
00000060: 2cd4 ddbc 8dd6 e3bd 4e39 013d 8846 26bd
00000070: 7fc6 c73c bddd b5bb cd3e e1bd 75b1 c53b
00000080: 04b3 603d e552 b93c 4cec d33c a54c b43c
00000090: 9ef4 0d3d 4ddc 3d3e 5da2 8b3d 48c3 a53c
000000a0: fb9a 0ebd c0a0 2fbd 01de 9a3b 97f3 01be
000000b0: d92e b23d 995a c93d 92bd f5ba 77ae 30bc
000000c0: 0e73 eabd c6b1 9dbc 2a38 b03c e482 01bd
000000d0: 49aa 44bd 8f80 4a3d 721f 4b3d 840b 2abe
000000e0: 3eae ff3d 9e5d 4dbe 44b9 c73d bbb2 f53d
000000f0: a9ee f53d 04c8 e13a 10b0 2a3d f6c7 d0bd
00000100: 4301 2abd 7f0b a43c a1f8 e03c 4ec1 28bd
00000110: 8ea5 e93b 88f2 f13d 16a4 a8bd a88c 263d
00000120: c09e 3f3e 2981 b83d 8e10 d7bc 4797 023d
00000130: de67 213c 464e 40bc a838 dcbb e06a d93d
00000140: ed54 833d 9ef3 953d 9140 60bd f6d3 f73c
00000150: 2f92 823c 007e 493d b273 18bd 4e5a 2d3d
00000160: 141a bbbc a517 8ebd 9a4e 9cbd 4e5a 04bd
00000170: cfc3 8cbd 5d8d 6dbd 5a0a 213b 82fc c5bc
00000180: 6ec3 353d 4c49 e93d cd3e 8c3d 700d 003e
00000190: f433 a8bc 57df 9abd 82af 6b3d fafd 923d
000001a0: fd02 aa3c 95f8 1a3d 8feb de3d dad3 753c
000001b0: d5f6 f33c 36ba 9d3c 0293 bdbd 36fe ffbb
000001c0: bbae c53d 7e2d 0c3c f93a 903d ffb1 9bbc
000001d0: 1858 9eba f334 1bbd 50a1 c63c a18a 86bd
000001e0: 24ac f5bc 1436 36bd 6055 4fbd 054a 9fbc
000001f0: 1612 ce3d 4f9b 12bd a867 833c 2fda ce3d
00000200: a9c5 683d ea42 8a3c 0a4a b9bc 76dd cdbd
00000210: 504d 10be 4e09 d33c 710b 813c ed8e 6bbd
00000220: 8a33 98bc 1d2d 08be a126 03bd b67d babd
00000230: a068 ae3d 47c0 753d 11bc 473e 7364 8b3d
00000240: 6f7a b43b 222c 343d 6dfa 34bd b6fc 473d
00000250: b057 9b3d a47b aebd 0aae 8fbc 0c0a 4a3c
00000260: c767 9bbc 5066 e23d a33b 8ebc 8089 8bbd
00000270: a941 8e3d d856 733d 95f4 1dbe efc3 663e
00000280: 3b2b 093e 1cdb 663d c7bf c4bd c42f 423c
00000290: 67a3 b73d 5342 06bd bb41 43bd 4748 823c
000002a0: ff1d 31be 6f24 343e 7189 5d3d babb 21bd
000002b0: 2896 2f3c 99fd c4bc 9523 8a3c 7073 523d
000002c0: 9009 d9bb d001 b23c 7ddc 78bd 2ba5 f53d
000002d0: 197d d13d bc83 1abc ca66 44be 582b 89bd
000002e0: c6ee bf3c 251f c6bc 4c2c ecbd 8a4e 04bd
000002f0: c1b7 5d3d 6aff fa3c 9d84 7fbd 912c 8d3d
00000300: b270 553d e000 4c3d 7e37 0bbd 417f 94ba
00000310: e16e 733d b005 fabd e2df bd3d a35d c03d
00000320: 2254 153e 265a 07bc dbe6 80bd f115 82bc
00000330: a6e0 ad3b 8b67 83bd 365d a73d cd56 01bd
00000340: a1eb bcbc 1cdb 3fbd e7cd cbbd ab79 a03d
00000350: ed45 49bd 5589 e2bd abd7 54bd 85d0 fd3c
00000360: 86fc b9bc d619 9abc 59b1 70bc 81fc a83d
00000370: 7bd3 343d c6c5 493d 1705 20bb 0207 0b3d
00000380: 1869 87bd c5d2 72bd 4e58 a73d 6f94 babc
00000390: dd00 793c 5ffe 9ebd 74a0 38bd 336c 83bc
000003a0: 53ec c73c 0dec f7bb e94a a6bd b427 db3d
000003b0: 7870 2c3e 89ef ccbd 0707 b73d 8cad 7fbd
000003c0: f1e6 a73d f063 2e3d 9530 02be 5171 82bd
000003d0: 727b 8b3d 4028 8bbc 7016 57bc 8fdf e23c
000003e0: 5f36 843c 8b7d 013d 2d1b 0ebc 4dbf 213d
000003f0: f5f5 813d 1f4b 3fbe d61f adbd e8a2 72bd
-0.07781221 0.018075544 0.011977142 -0.08441306 -0.0036966333 0.0041328473 -0.013048402 0.08580461
-0.01789782 0.094655 0.0750963 0.004375236 0.025436135 0.02746636 0.051139228 -0.11561052
-0.00984842 -0.08253983 0.122051075 0.012341037 0.07668489 0.11531403 0.14919415 -0.14636514
-0.02707871 -0.11124907 0.03154879 -0.040594608 0.024386643 -0.005550115 -0.109983064 0.0060331174
0.054858223 0.022622535 0.025869511 0.022009203 0.034657113 0.1854107 0.06818078 0.020234719
-0.03481577 -0.042877913 0.004726172 -0.12690578 0.08700342 0.09831733 -0.0018748513 -0.010783783
-0.11447726 -0.019249808 0.021511156 -0.031618968 -0.04801396 0.04943901 0.049590535 -0.16605955
0.12484406 -0.20055243 0.097521335 0.11996981 0.120084114 0.0017225747 0.041671813 -0.101943895
-0.04150511 0.020025013 0.027462306 -0.041199975 0.0071303314 0.11813837 -0.08234422 0.040661484
0.18712902 0.0900901 -0.026253011 0.03188255 0.009851424 -0.011737412 -0.006720621 0.10616088
0.06412683 0.07321857 -0.054749075 0.030252438 0.015938846 0.04919243 -0.03721971 0.04232245
-0.022839583 -0.069381036 -0.076321796 -0.032312684 -0.06873285 -0.057996143 0.002457282 -0.024168257
0.04437583 0.113909334 0.06847916 0.12505126 -0.020532586 -0.0756213 0.057540424 0.071773484
0.020753378 0.037834723 0.10884773 0.015004123 0.029780785 0.019253831 -0.09256555 -0.0078122867
0.09652468 0.008555768 0.07042498 -0.019005774 -0.0012080697 -0.037892293 0.024246842 -0.0656941
-0.02998931 -0.044485167 -0.05061853 -0.019444475 0.10062043 -0.035792645 0.016040638 0.10100209
0.05682913 0.01687761 -0.022618312 -0.10052006 -0.14091992 0.025761273 0.015752526 -0.05750935
-0.018579263 -0.1329846 -0.03201926 -0.09106009 0.085160494 0.059997823 0.19505335 0.068062685
0.0055077593 0.0439874 -0.044184137 0.04882499 0.075850844 -0.08519676 -0.017539043 0.012331497
-0.018970383 0.11054671 -0.017362421 -0.068133354 0.069461174 0.059408993 -0.15425332 0.2253568
0.13395397 0.056361303 -0.09606891 0.0118522085 0.089667134 -0.032778095 -0.047670107 0.015903605
-0.17296599 0.17592023 0.054086152 -0.03948567 0.010716952 -0.024046706 0.01686267 0.05137962
-0.0066234544 0.02172938 -0.06075715 0.11994394 0.102289386 -0.009430822 -0.19179836 -0.0669772
0.023429286 -0.024184773 -0.115318865 -0.032301463 0.05413032 0.030639369 -0.06238233 0.06893266
0.052109428 0.049805522 -0.03398847 -0.0011329429 0.059431914 -0.12208116 0.09271218 0.0939286
0.14582875 -0.008261239 -0.06294032 -0.015879603 0.005306321 -0.06416234 0.081720755 -0.03157692
-0.023061575 -0.04683982 -0.09951382 0.07835706 -0.049138952 -0.1106135 -0.05196349 0.030983219
-0.02270342 -0.018811148 -0.0146907205 0.08251286 0.044146996 0.049260877 -0.0024417096 0.03394223
-0.06611842 -0.059283037 0.0817114 -0.022775857 0.01519796 -0.07763361 -0.045074895 -0.016042804
0.02440468 -0.0075659812 -0.08119757 0.10700932 0.16839778 -0.10006625 0.08936887 -0.062421367
0.081983455 0.042575777 -0.12713845 -0.0636927 0.06810655 -0.016986966 -0.013127908 0.027694492
0.016139207 0.031613868 -0.008673471 0.03948908 0.06345741 -0.18681 -0.08453338 -0.05923739

bias f4 [32]
00000000: 3f79 443d 2a41 14bc 308e 1cbd 202e a03c
00000010: a614 06bd 0c9a 55bd 6610 0e3d 61f4 7abb
00000020: 7744 a2bd 3358 0cbd bba5 8c3d e6fe 4ebd
00000030: b8ce 77bb f008 db3c dce5 1dbd 2b56 8a3d
00000040: c9c9 cf3c 196d 3d3d 50ce 3e3b feae 1dbc
00000050: 7ce6 6bbd c1e8 7d3b 9679 173d 976a 60bb
00000060: d194 dabc b8a7 cabb b999 50bd 84e9 2d3c
00000070: 31bb 10bd a204 70bc 22ca 3cbd 6199 e23c
0.04796719 -0.009048739 -0.038221538 0.019553244 -0.032734536 -0.052148864 0.034683608 -0.0038292634
-0.07923215 -0.0342638 0.06867548 -0.05053606 -0.0037812423 0.02673766 -0.03854929 0.067547165
0.025364773 0.04624662 0.002911467 -0.009624241 -0.057592854 0.0038743468 0.036981188 -0.003424322
-0.02668229 -0.0061845444 -0.05092785 0.0106147565 -0.03533477 -0.014649542 -0.046091206 0.027661027

weight f4 [32]
00000000: f81e 7d3f 0f8c 853f 9666 713f c894 743f
00000010: 6bcb 713f 6535 7c3f 44f8 843f 1016 783f
00000020: 8afd 973f f732 833f cef2 823f e760 703f
00000030: bef1 7c3f 2b1f 803f a8ad 6d3f 96d2 683f
00000040: 01d0 853f 2009 863f 775d 833f 5446 7a3f
00000050: d4b7 963f b8e3 793f b5f6 5f3f f772 693f
00000060: f5fd 813f 73e1 843f 75e2 643f 431c 933f
00000070: 2737 5a3f 8d0a 6b3f da18 843f a54b 793f
0.9887538 1.0433367 0.9429716 0.9553952 0.94451016 0.98518974 1.0388265 0.96908665
1.1874249 1.0249928 1.0230348 0.9389786 0.9880637 1.0009512 0.92843103 0.9094633
1.0454103 1.0471535 1.0262898 0.9776356 1.177485 0.97613096 0.8748582 0.9119105
1.0155627 1.0381302 0.89408046 1.1493 0.85240406 0.91812974 1.0320084 0.9738105

bias f4 [32]
00000000: 8648 f8bd fe36 e2bd afe4 15be e11f 0bbe
00000010: 10fa 19be 1239 ddbd de9b 32be 1bd0 c3bd
00000020: bfa4 97be ef93 62be 7144 7cbd 3040 97bd
00000030: 955a 01be aeeb 9ebd 9fab f7bd ef7b 31be
00000040: 65af 79be 9909 14be bfc1 3bbe 8443 74be
00000050: 5cc8 a4be 0821 42be 5985 28be 4007 f1bd
00000060: 278d 96be 3ff3 95be f4e3 4ebe a58a 7bbe
00000070: 04df 9ebe 6825 74be 6ece 2a3d 41ea 1cbe
-0.12123208 -0.11045645 -0.14638017 -0.1358638 -0.15036798 -0.10801901 -0.17442271 -0.09561177
-0.2961788 -0.22126745 -0.06158871 -0.0738529 -0.1263221 -0.07759796 -0.12093281 -0.17332433
-0.24383314 -0.14456786 -0.18335627 -0.2385388 -0.32184112 -0.18957913 -0.16457118 -0.11768961
-0.29404566 -0.29287145 -0.20204145 -0.24564607 -0.31029522 -0.23842394 0.041700773 -0.15323736

running_mean f4 [32]
00000000: a93a f73d 0172 6e3e c07b b1bf 8c71 363f
00000010: e966 833e 338b 14c0 60a8 80bf 76a0 2b3f
00000020: aaaf 9abf b889 a5bf 6046 2a3f e845 d33e
00000030: 73ac 09c0 4ed3 a83e 0a8e 983f 8d47 2640
00000040: a79b 93bf ad14 f63f 16b1 36bd d323 e13e
00000050: 54b5 c03e 7745 fb3c 39b7 8c3e a1e8 bebe
00000060: 61e4 21c0 6360 033e 45a1 053e 47a1 2fbf
00000070: 253c 6cbf d41a 2e3f c320 0bbf 1d45 babd
0.120717354 0.23285677 -1.386589 0.7126701 0.25664452 -2.320996 -1.0051384 0.6704172
-1.2084858 -1.2932653 0.66513634 0.41264272 -2.1511505 0.32973713 1.1918347 2.598117
-1.1531876 1.922506 -0.044602476 0.43972644 0.37638342 0.030672772 0.27483538 -0.37286857
-2.5295641 0.12829737 0.130498 -0.68605465 -0.92279273 0.68009686 -0.54346865 -0.090952136

running_var f4 [32]
00000000: 2426 263f f34e a53f 3cc4 763f 9e05 533f
00000010: 65d9 8d3f 46eb 193f cfdb 543f 9337 2d3f
00000020: 4e5e 823f a08c 1a3f 11d1 883f e433 353f
00000030: 644d 153f 1c37 893f 0db0 843f 682b 893f
00000040: fc86 603f 0948 513f 339f a93f fa9d 683f
00000050: dd67 9f3f 6f29 713f b2de 343f 75b2 003f
00000060: 85d1 1b3f 1483 603f 2a11 ea3e 48c4 9b3f
00000070: 6235 2f3f e4a5 233f 7861 143f 737d 793f
0.6490195 1.2914718 0.9639318 0.82430446 1.1081969 0.60124624 0.831479 0.67662925
1.018503 0.60370827 1.0688802 0.70782304 0.58321214 1.0719943 1.0366226 1.0716372
0.8770597 0.8175054 1.3251709 0.90866053 1.2453572 0.9420385 0.70652306 0.50272304
0.60866576 0.8770001 0.4571622 1.2169275 0.6844083 0.63925004 0.57961226 0.97457045

weight f4 [32]
00000000: aac9 683f 45f9 5c3f 5518 693f 2953 633f
00000010: 5e2e 5e3f 5a9f 653f 2465 713f 83c9 683f
00000020: faf7 473f 24cc 733f d453 803f 6783 693f
00000030: 62ad 6e3f a669 713f b59d 813f 2953 6b3f
00000040: 6459 673f 32bf 6f3f e057 5c3f 3393 803f
00000050: 4ebf 683f 25b3 5a3f 0f6d 783f 5fdb 723f
00000060: 78e4 603f a1b7 693f cddc 5f3f 8c76 603f
00000070: 77df 533f 0d3d 663f 034b 643f 39f3 723f
0.90932715 0.86317855 0.9105275 0.8879877 0.867895 0.89696276 0.94294953 0.9093248
0.7811276 0.9523337 1.0025582 0.9121613 0.9323331 0.9430183 1.0126253 0.9192377
0.90370774 0.93651116 0.86071587 1.0044922 0.9091691 0.854296 0.9704141 0.94865984
0.87848616 0.9129582 0.8744629 0.8768089 0.82762855 0.89936906 0.8917696 0.9490238

bias f4 [32]
00000000: 4b93 7bbe 17fe 64be 77ff f9bd 1ff6 8bbe
00000010: e30f 4dbe 59f7 85be 707e b8be 9add 9fbd
00000020: 8233 11be 762c 85be 88db e2be 2153 52be
00000030: eeb0 69be 430f 59be f532 25be c05c edbd
00000040: dc29 5ebe 3435 50be 5b2c 37be d010 6fbe
00000050: 6de1 11be fddf 1dbe d4a6 6abe 8933 8cbe
00000060: aefa 3cbe 6c15 93be e2eb 29be c881 4bbe
00000070: 115a 07be 8721 1dbe e2da 66be b89e 9bbe
-0.24567907 -0.22362553 -0.12206929 -0.27336213 -0.20025592 -0.26165274 -0.36033964 -0.07805939
-0.14179805 -0.26010484 -0.44308114 -0.20539524 -0.228214 -0.21197228 -0.1613272 -0.11589956
-0.21695656 -0.20332795 -0.17888014 -0.23346257 -0.1424615 -0.15417476 -0.22915202 -0.27383068
-0.18455002 -0.2872728 -0.16593888 -0.19873726 -0.13217951 -0.15344821 -0.22544435 -0.3039453

running_mean f4 [32]
00000000: 43d2 86be 8c4c 30bf 8553 b9bf 4e22 41bf
00000010: d948 f8be 7b46 8a3f 4fa0 21bf 329d 113f
00000020: aba7 1abf c128 b4bf 5747 a63e 1c11 80bf
00000030: 8b36 21bd 97f2 81bf 1936 08bf 3461 fcbf
00000040: 3d03 e4bf 81f3 c4be ec04 e6bf bded bbbe
00000050: d9ae d7bf ca32 fcbf d216 8ebf 659a 8dbf
00000060: 2fb4 b3bf 99b9 203f 1ca3 4cbf c5ce a4bf
00000070: 9845 89bf 26c6 703f f079 363f 5885 09bf
-0.26332292 -0.688668 -1.4478613 -0.7544297 -0.48493078 1.0802759 -0.63135237 0.56880486
-0.6041209 -1.4074937 0.32476303 -1.0005221 -0.039358657 -1.0152158 -0.53207546 -1.9717164
-1.7813488 -0.3846703 -1.7970252 -0.36704817 -1.6850234 -1.9703 -1.1100714 -1.1062742
-1.4039363 0.627832 -0.79936385 -1.2875601 -1.0724363 0.9405235 0.7127981 -0.5371909

running_var f4 [32]
00000000: bb75 ff3f 7048 8a3f 975a b83f c683 ae3f
00000010: 524a ab3f 1b78 813f 5c7a 803f 2337 b03f
00000020: e858 b73f 5c9d b93f dac8 a43f e70f bd3f
00000030: 9d83 ae3f a35c b43f 546f d03f 3581 b93f
00000040: e0e3 f63f 2472 af3f 509f cd3f 09f9 be3f
00000050: 867e de3f 0f59 ef3f 1aaf d23f c31d be3f
00000060: 6823 a73f 2ffb a53f 66e0 d93f 9541 c63f
00000070: 0f08 d53f c820 da3f af84 9d3f 7167 aa3f
1.9957803 1.0803356 1.4402646 1.3633964 1.3382056 1.0114778 1.0037341 1.3766826
1.4324007 1.4501147 1.2873795 1.4770478 1.3633915 1.409077 1.6283975 1.4492556
1.9288292 1.3706708 1.6064243 1.491975 1.7382362 1.8699054 1.6459687 1.4852833
1.305768 1.296728 1.7021606 1.5488764 1.6643084 1.7041254 1.2306117 1.3312818

weight f4 [32, 32, 11]
00000000: f8e0 223c b86f ccbc 447c 2ebb b873 43bb
00000010: 644a 3c3d 64b3 2c3d d8c6 f43a a470 b6bd
00000020: 2a3d 253d 0e46 5b3d 3339 19bc 6c7c eb3c
00000030: b43a 4f3d 56b2 b3bd 34e1 773a 93f3 9f3d
00000040: 4456 cc3d 4e73 8cbd 209e 9e3d 06f9 883d
00000050: 588c 5b3d 956b aabd 4b2c 9d3c 9590 573a
00000060: 5726 92bd 87fa db3c afb7 a1bd ee44 edbc
00000070: 5c6e 77bd 0631 c13d 50a1 7b3d 7b02 11bd
00000080: 1d1b 66bd 6abc a43c 0010 533d 7118 91bb
00000090: 8fad f63c e361 023d 5aee 683d 6ca7 b13d
000000a0: bbc7 17be 8a8b 93bd 0cab c7bd 7a00 e1bd
000000b0: bd2c 293c f2ac 603c b2bf 09bd 36aa b9bd
000000c0: 96bf 15bd 713f 453c 953b a33d 87f7 37bc
000000d0: f3f7 90bb 5aca cf3c d6f7 2a3d a5ef 9fbd
000000e0: 123f 103d 9135 bcbd d41e 023d f800 d53d
000000f0: 911d 313d 45e7 ffbc 5d2b 7abe a4a5 32ba
00000100: 1a72 b83d 4566 523d 8bb4 a1bd 4a9d 163d
00000110: 23a0 7ebd 41d9 6dbd 0eff 463d 704a a4bc
00000120: e7e8 3f3e 4b96 353d f117 c0bd 31c0 3dbd
00000130: d52c 213e c840 953d 158e b7bd cfad 1bbd
00000140: 73f0 4abd 0838 d4bc c542 2f3d 8cfc 673c
00000150: 6205 77bb 7b39 fcbd 76e2 a13c 2f55 003e
00000160: 6a49 29bc a883 4c3d 6de3 a3bd 219d f1bc
00000170: 5fa5 02be 058c cd3d 027f 193e 98ab f4bc
00000180: f73d 49bd b189 263d 22d3 43be fca8 9ebd
00000190: 23a0 6d3c b3db 243c 05d8 3e3d 5b8f 4bbd
000001a0: 3eab 3e3b e433 91bc 1a9d c9bd ce75 3d3c
000001b0: 61c3 a13d cde5 b63d 297e 53bd 90bc f0bb
000001c0: da84 4d3d 67d9 7b3b c2d8 163d 75ee 8e3d
000001d0: 2acc 40bd fbf3 f1bd 531f 85bd e98b 9cbd
000001e0: 99c3 833d 4c31 40bd 08fc 21bc 53b6 77bd
000001f0: c9ea 19be 0b78 8ebb 8148 8abd 15fa 02bc
00000200: 7c19 9abd e71a 97bd e0e8 56bc 2727 853d
00000210: 53dd 5f3d b011 c83b 65b2 8e3c 5989 7b3d
00000220: 6ac5 f33d 98fb ef3d dacf 5abd 5e01 f6bd
00000230: a655 b5bd 5625 cf3d 566b 453e a857 efbb
00000240: d87e 61bb 5c18 a7bc 0d19 c1bc c51d 8d3b
00000250: a9c3 46be f13a cb3d 205e eebc 11a7 de3d
00000260: f666 48be 68fe f4bd c61d 8c3d fce1 023e
00000270: feb8 db3d 6c2a 79bd fec1 87bd 5110 d1bd
00000280: 7346 503e e97c b03d 27d2 4c3d c6b3 89bd
00000290: 4930 553d 511c 883c e0e8 e73d 5cbd 1c3d
000002a0: 0f83 863d e281 1f3e e9dd 75bd 0532 9c3c
000002b0: 5481 90bd 5489 163e 6823 3f3e fdf4 b63d
000002c0: b1da 42bc 1b31 673b 7c11 5d3e b350 a43c
000002d0: 9668 d8bc aa0d 7a3c 150d 3e3d 1f1f 0f3e
000002e0: 257c 373e b130 c03c 72f6 c73c d178 07be
000002f0: 955c a33d 5a09 2e3e 9eac 2fbc 5b10 f93b
00000300: 9a94 e8bc c616 6b3d 94c7 ee3c 7c9e d6bd
00000310: 7e97 843d c2b3 05bc a9ec 8c3c 55de 443d
00000320: f037 ccbd 4dc2 bfbd 4cb4 c43d 8d28 57be
00000330: bcf7 f83d d1ca 47be af27 96be c777 05be
00000340: 713e 27bc 3508 493d 2b8f aa3c f557 9e3c
00000350: fdfd cfbc 3305 64bd 44d2 5ebc 2bfe 9bbd
00000360: 56d7 f83d 1428 9a3d a879 dcbc 7be2 2a3e
00000370: 8f94 32bb 46cc a8bd 54f0 87bd 8e70 4ebd
00000380: fe92 e2bd 3313 803d b861 a5bc 7d54 6d3e
00000390: 3c7f cc3d e695 de3c 73bf c4bd 6725 be3c
000003a0: 96fb a0bb 8fe9 df3d f83e 8f3d de59 973d
000003b0: fb9e 85bd 2f05 c53a cdfa 933c 7a63 073e
000003c0: 16f0 67bb 5aec 683d 3c39 f8bb af7b 833d
000003d0: 7f1b 8cbd a126 063c ef34 e33b 15e4 9a3c
000003e0: b978 503d b638 b2bd 843e 9ab9 346f 30bc
000003f0: 98c9 163e 8e5c 4cbb bfb5 07bc fc92 bdbd
0.009941332 -0.024955615 -0.002662436 -0.0029823612 0.045969382 0.042163268 0.0018674983 -0.08908203
0.040341534 0.053533606 -0.009352016 0.028745852 0.050593093 -0.08774249 0.000945586 0.0781013
0.09977391 -0.0685793 0.07745004 0.066881225 0.05360064 -0.08321301 0.01918616 0.00082231435
-0.07136219 0.02685286 -0.07896363 -0.028963532 -0.06040798 0.094331786 0.061433136 -0.035402756
-0.0561782 0.020109374 0.05152893 -0.0044279625 0.030112056 0.031831633 0.056867935 0.08674511
-0.14822285 -0.07204349 -0.097494215 -0.10986419 0.010325608 0.013713108 -0.03363008 -0.09065668
-0.036559664 0.012039051 0.07970349 -0.011228449 -0.004424089 0.025365043 0.04174026 -0.078093804
0.0352164 -0.091899045 0.03176768 0.104005754 0.043241087 -0.031238208 -0.24430604 -0.00068148435
0.09006138 0.051367063 -0.07895764 0.036771096 -0.062164437 -0.058068518 0.048583083 -0.020055026
0.18741189 0.044332784 -0.093795665 -0.046325866 0.15739758 0.07287747 -0.08962647 -0.038007554
-0.049545716 -0.025905624 0.042788286 0.014159333 -0.0037692417 -0.12315651 0.019761305 0.12532495
-0.010332445 0.049930245 -0.080023624 -0.02949387 -0.12758397 0.10036472 0.14989856 -0.029866979
-0.04913136 0.040658657 -0.1912351 -0.07747075 0.014503512 0.010062146 0.04659273 -0.04969726
0.0029093768 -0.017724939 -0.09844418 0.011563731 0.07898594 0.0893055 -0.051633988 -0.007346697
0.050175525 0.0038429142 0.03682781 0.06979076 -0.047069706 -0.11814114 -0.06500115 -0.07643873
0.06433792 -0.046922013 -0.009886749 -0.060476612 -0.1503097 -0.0043478063 -0.0675211 -0.0079941945
-0.07524392 -0.07378178 -0.013117045 0.06501608 0.05465443 0.006105624 0.01741905 0.06141028
0.11902888 0.117179096 -0.05342088 -0.120119795 -0.08854227 0.10114543 0.19279227 -0.0073041506
-0.003440788 -0.020397358 -0.023571515 0.0043065273 -0.19410576 0.099233516 -0.029097617 0.10871709
-0.19570526 -0.11962587 0.06841616 0.12781519 0.10728644 -0.060831472 -0.06628798 -0.1020819
0.20339374 0.08617575 0.050005104 -0.06723742 0.052048 0.016615065 0.11323714 0.038266525
0.06567966 0.1557689 -0.060026083 0.01906682 -0.070559174 0.14700824 0.1866585 0.089334466
-0.01189296 0.0035277072 0.21588701 0.020058012 -0.026417058 0.015262047 0.046399195 0.13976716
0.17918451 0.023460718 0.024409506 -0.13229682 0.07976643 0.16995755 -0.0107223075 0.0076008267
-0.028391171 0.057394765 0.0291479 -0.10479447 0.06474207 -0.008160533 0.017202692 0.048063595
-0.09971607 -0.09363232 0.096047014 -0.21011563 0.121566266 -0.19510962 -0.2932715 -0.13033973
-0.010207758 0.049080092 0.020820221 0.01932905 -0.025389666 -0.05566902 -0.013599936 -0.07616838
0.12150447 0.075271755 -0.026913479 0.16687958 -0.0027249192 -0.08242087 -0.06637636 -0.05040031
-0.11063193 0.06253662 -0.020188197 0.23176761 0.099852055 0.027171087 -0.096068285 0.023211194
-0.004912804 0.1093322 0.06994432 0.07390188 -0.06524464 0.0015031452 0.018063927 0.13221541
-0.0035390905 0.056866027 -0.0075751822 0.06420075 -0.06841182 0.008187921 0.0069338004 0.018907586
0.05089638 -0.08702223 -0.00029419747 -0.0107687 0.1472534 -0.0031183097 -0.008283078 -0.09256551

bias f4 [32]
00000000: f2b6 55bd 74ff 3ebc 0a74 10bd b3b2 183b
00000010: efc3 02bd b6bd 273d 8e16 b0bb b9d0 493d
00000020: a4f2 243d a116 123b 0c36 503d 4b6c a7bc
00000030: 4e6c 323d bc22 efbc 3a2a d9bc 84db 96bc
00000040: 4daa 30bd caaf a23c f7da 11bc 4505 c9bc
00000050: 0120 193d 0ae8 acbc af98 bbbc cf9c c2bb
00000060: ec15 fbbc ca2d 1abd 9e0d 493c 3d2b 85bb
00000070: 85e6 c3bb c4cf 19bd 2bcc 5e3d 99fe 2e3d
-0.052176423 -0.011657584 -0.035266913 0.0023299872 -0.031925138 0.040952407 -0.0053737825 0.04927132
0.040270463 0.002229132 0.050832793 -0.02043738 0.04356032 -0.029191367 -0.026509393 -0.01841522
-0.04313116 0.019859213 -0.008902303 -0.024538646 0.037384037 -0.021106739 -0.022899954 -0.005939103
-0.030650102 -0.037641324 0.012271313 -0.0040639923 -0.005978408 -0.037551656 0.05439393 0.042723272
